results/MLHades_main_10_grid48x48cellsize0_75x0_75/MLHades.onnx (onnx, 256426 bytes, 22 tensors)

discrete_action_output_shape f4 [1, 4]
000000 00 00 40 40 00 00 40 40 00 00 40 40 00 00 00 40
       3.0 3.0 3.0 2.0

network_body.observation_encoder.processors.1.conv_layers.0.weight f4 [16, 7, 8, 8]
000000 7b fd 20 3e 88 47 b8 3d 8a fb c4 3d 62 ec de 3c
       0.15721695 0.089980185 0.0961829 0.027212325
000010 be 3b 03 3d 5f c5 4f 3d 4b ce 2f bd 8f 47 8a bd
       0.032039396 0.050725337 -0.042921346 -0.0675193
000020 73 d5 de 3d 68 37 53 3c 12 32 23 3d 7a 35 14 bd
       0.10880556 0.012891628 0.039842673 -0.03618381
000030 83 af c9 bc f0 c3 fb b9 4e aa e5 bc 02 0b 1a bd
       -0.024619823 -0.00048020435 -0.02803531 -0.037608154
000040 4c 85 db 3c 79 dc 7f 3d cf 55 82 3d f9 e6 6e 3c
       0.02679696 0.06246612 0.06364023 0.014581435
000050 f2 7a e9 3d 9c a9 0f 3d f1 64 73 3d fd 8b 5c bd
       0.11400403 0.03507386 0.059422437 -0.05384444
000060 63 51 dc 3d 50 96 91 3d 18 c4 6e 3d d4 8b be 3c
       0.10757711 0.07108748 0.05829248 0.023260035
000070 8b d5 8b 3c 52 30 8c 3b 86 3e b2 3c b6 39 d1 bc
       0.017069599 0.004278221 0.02175833 -0.025540214
000080 8c 9e 2d 3e 93 25 7c 3d 5a 29 ac 3d 52 5b ab 3a
       0.16955012 0.06155927 0.08406325 0.001307348
000090 66 51 99 3d 3e f3 ae 3d 5f 96 42 3d 7a 9a f5 bc
       0.07486229 0.085424885 0.047506686 -0.029980887
0000a0 57 01 b0 3d 18 df 6f 3d 1b 9f bd 3d 8f 3f 70 3c
       0.085940056 0.05856237 0.092588626 0.014663591
0000b0 a2 fd 96 3d 0c cb f1 bb 50 a5 a0 bc f0 1d 5e 3c
       0.07372595 -0.0073789414 -0.019610077 0.013556942
0000c0 9d f5 44 3d e4 6f e5 bc bc 87 34 3d 2e 8d 4d bd
       0.048085798 -0.028007455 0.04407476 -0.050183468
0000d0 6a db 82 b7 40 37 05 bd 6d 75 dd 3a 1d da 8c bd
       -1.559938e-05 -0.032523394 0.0016895958 -0.06877539
0000e0 a0 d5 27 3b 41 53 ab 3c f4 8b bf 3d 9f 4c 90 3d
       0.0025609508 0.020913722 0.09352866 0.07045864
0000f0 fa 7b d5 3d 49 59 bd 3d cb 64 88 3d b6 b7 17 3d
       0.10424037 0.092455454 0.0665985 0.037040435
000100 3e 7b c2 3d ac a2 bd 3b a0 de eb 3d d1 28 5a 3d
       0.09496163 0.0057872143 0.11517072 0.05326158
000110 69 d8 20 3e 87 e2 13 3e 22 7e e3 3c f0 9f f4 3d
       0.15707554 0.14441882 0.027770106 0.11944568
000120 ef 01 83 3d 93 0c 30 3e 2c f0 94 3d 91 36 cb 3d
       0.06396853 0.17192297 0.07272372 0.09922517
000130 90 ac 22 3c 59 de 4d bd b4 43 5f 3d 9e bd 02 3e
       0.009928837 -0.050260875 0.054507926 0.12767646
000140 78 d5 e2 3d 3c 03 1c 3e e0 ee 18 3d 12 2c bb 3b
       0.11075872 0.15235609 0.037337184 0.0057120407
000150 88 e2 a8 bd 7f c7 9f bd 52 9e 18 3e c3 14 c5 3d
       -0.082463324 -0.07801723 0.14904144 0.096231006
000160 e0 d9 c5 bc 00 a4 75 bd e4 40 06 bd 7e 8a 20 be
       -0.024151742 -0.059970856 -0.03277673 -0.1567783
000170 10 98 b0 3c 43 09 29 bd 35 6f c3 3d bc 2a 56 3b
       0.021556884 -0.0412686 0.095426954 0.003267928
000180 96 2f ae bd 41 ae e8 bd 15 c7 2c be d0 f6 80 bd
       -0.0850517 -0.11361361 -0.16872819 -0.06297076
000190 21 e8 90 3d 65 81 f0 3d f8 85 2c bd a4 66 8c 3d
       0.07075525 0.1174343 -0.04211995 0.06855515
0001a0 c2 8c d0 bd 53 ff 98 3c e5 44 e3 bc a7 81 ca bc
       -0.101830974 0.018676436 -0.027742812 -0.024720026
0001b0 71 1a 58 3d a7 12 02 3d f1 cc bf 3b 83 81 b4 bc
       0.05275959 0.03175607 0.0058532883 -0.022034412
0001c0 b8 8b 73 bd 2f 73 c5 bd 0a 62 84 bc 17 f3 86 3d
       -0.059459418 -0.0964111 -0.01616003 0.065893345
0001d0 6e c6 a5 3c 49 5e 76 bc f0 30 85 3d ef 2c d3 3d
       0.02023622 -0.015037128 0.06503475 0.10311305
0001e0 55 42 29 bd ea 07 54 bc f2 b9 b4 bd 23 e9 6c bd
       -0.041323025 -0.01294134 -0.08824529 -0.057839524
0001f0 04 5f cd 3d 20 55 b2 3b 14 6c d7 3c 30 4f ed 3d
       0.100278884 0.0054422766 0.026296653 0.115873694
000200 d1 77 81 bc f5 ca 49 bc ea d2 7c 3d f9 dc de 3d
       -0.015804203 -0.012316455 0.06172458 0.10881991
000210 10 13 da 3d 00 5d c0 bc c6 d2 6d bd d0 2c 54 3d
       0.10648167 -0.023481846 -0.058062337 0.05180055
000220 50 d0 9c 3d 54 96 43 3d 90 c8 df 3d 80 32 42 3e
       0.0765692 0.047750786 0.10926926 0.18964577
000230 b4 b3 2a 3e fd 2b c0 3d eb 96 a8 bc d3 60 b1 3d
       0.16670114 0.0938339 -0.020579776 0.08661046
000240 f7 5e a1 3d c5 34 86 3d fa c5 4b 3d 51 69 a9 3d
       0.07879441 0.06553034 0.049749352 0.08272041
000250 a3 91 20 3e f7 1a 0d 3e cd 7f 40 3e 2f 67 07 3e
       0.15680556 0.13779818 0.18798752 0.13222955
000260 0f 3e 3f bd 02 ca de 3c 5c 30 d4 bd cd b1 79 3c
       -0.046690043 0.027195934 -0.10360786 0.015240145
000270 60 d6 4b 3c 9d 81 18 bd 52 6a 8e 3d fa 47 83 bb
       0.012441248 -0.037232984 0.06953873 -0.004006383
000280 db 70 67 bd 9c c4 91 bc 6a 1b 12 3d 71 db 38 bd
       -0.05650411 -0.017793946 0.035670675 -0.04513115
000290 fa 15 8b 3d 22 cd ec bc ca df f4 3c a2 e2 9e 3d
       0.06791301 -0.028906409 0.029891867 0.077580705
0002a0 24 a5 07 bd 80 f0 f6 bc 8d 75 c2 bd 6f 8f 86 bd
       -0.033116475 -0.030143976 -0.09495077 -0.065703265
0002b0 d6 3e 91 3d f4 34 7a 3c 31 73 7f 3d e9 e6 9f 3d
       0.07092063 0.015271414 0.062365714 0.078077145
0002c0 77 7b f8 3c 4d 38 f8 3b cb 6c 81 bd 8e 44 05 3d
       0.03033231 0.007575071 -0.06319579 0.032536082
0002d0 4f 80 67 3d 5b 08 96 3d 86 86 8c 3d 37 a3 c1 3d
       0.05651885 0.073258124 0.06861596 0.09454959
0002e0 c4 6d a4 bd f1 95 7b bd f2 b2 80 bd ac d6 d6 bd
       -0.08028749 -0.061422292 -0.06284131 -0.10490164
0002f0 19 2e d1 bc 24 88 0e bd 14 23 8c bc 51 d8 6e 3d
       -0.025534676 -0.034797803 -0.01710657 0.058311764
000300 71 9c 91 bd d1 24 a1 bd b3 33 0e be c6 95 55 bd
       -0.07109917 -0.0786835 -0.13886909 -0.05214479
000310 93 a2 9d 3d 74 8f c3 bc 9e 0f db bc c6 00 70 bc
       0.07697024 -0.023872115 -0.026740845 -0.014648622
000320 8b 32 30 3d 5c 48 bb bd d6 ed 4d be 00 e2 12 be
       0.04301695 -0.09144661 -0.20110258 -0.14344025
000330 86 17 06 be a1 4f d7 bd 06 5d 23 be ad 23 00 be
       -0.13094911 -0.10513235 -0.15953454 -0.12513609
000340 11 23 1f 3d 78 46 84 3b de b6 9e bc d8 0b db 3b
       0.0388518 0.004036721 -0.019374307 0.0066847615
000350 bd 1f 20 3c 26 94 ca bb 19 17 16 be 72 fa 06 be
       0.009773192 -0.0061822115 -0.14657249 -0.13181475
000360 9a 1a c1 3d 58 2a 3e 3d 6a 15 8e 3d 6c c8 c9 3d
       0.09428902 0.0464271 0.06937678 0.098526806
000370 ce 17 01 3d b6 cd b4 3d 12 2f c3 3c 29 55 81 3d
       0.031516843 0.08828299 0.023826156 0.06315071
000380 83 4c eb 3d 47 8b 9e 3d 11 f9 85 3c c3 a4 a3 3d
       0.11489203 0.07741409 0.016354116 0.0799041
000390 53 28 ab 3d dd 40 de 3d 5e e2 82 3c 26 8d b8 3d
       0.083573006 0.108522154 0.01597708 0.09011297
0003a0 a6 16 bf 3d ec c8 aa 3c 65 52 15 bd c3 9e b8 3d
       0.09330492 0.02084776 -0.03645553 0.090146564
0003b0 9f eb c1 3d e8 25 aa 3d fd 30 9a 3d 9a 4b dc 3d
       0.09468769 0.08308011 0.07528875 0.10756607
0003c0 1b 36 23 3d 02 e0 d2 3d 92 20 d1 bc 0f 0c 27 3c
       0.03984652 0.10296632 -0.025528226 0.010195746
0003d0 c9 ba 0c 3d da 0c c3 3d 7b a6 52 bd 09 98 82 3d
       0.03435782 0.095239356 -0.0514283 0.06376655
0003e0 30 21 ce bd c5 4e 0b be dd 76 05 be 87 ca 1b 3b
       -0.10064924 -0.13604267 -0.13033624 0.0023771839
0003f0 e8 71 68 3c c7 d2 84 bd ab af c6 bc c9 5b 4e 39
       0.014187314 -0.06485515 -0.024253687 0.00019679884

network_body.observation_encoder.processors.1.conv_layers.0.bias f4 [16]
000000 9c 3e 08 3c cd 49 34 bc f4 ca 1e 3c bd b4 33 bc
       0.0083157085 -0.011003924 0.0096919425 -0.010968384
000010 79 e8 ae 3b 10 81 a0 b9 da 30 a2 bd 77 67 9e bb
       0.0053377715 -0.00030613737 -0.07919474 -0.0048341113
000020 a1 d0 51 3c e2 c5 d7 bb dd e6 19 3b cf 98 26 bc
       0.012806089 -0.0065848688 0.0023483553 -0.010168268
000030 6c 4e 5a bc 80 e5 16 3d 88 90 1b 3c f3 b8 1d 3d
       -0.013324361 0.036839962 0.009494908 0.03850646

network_body.observation_encoder.processors.1.conv_layers.2.weight f4 [32, 16, 4, 4]
000000 ab f2 ac 3d c4 fc 72 bd 88 77 ac bd 7d 1e f4 3d
       0.08444723 -0.059323087 -0.08421236 0.11919878
000010 98 cf 6f 3b af b3 8e bd b1 df 83 3d 6d 13 3f bc
       0.0036592241 -0.06967866 0.0643915 -0.011662346
000020 df 60 12 bd 87 4d 08 bd 9e 63 43 bd 01 ee e0 bc
       -0.035736915 -0.03327706 -0.047702424 -0.02745724
000030 13 77 2a bd c8 38 34 bd ad 1f d6 bd a4 c7 9e bd
       -0.041617464 -0.043999463 -0.104552604 -0.07752922
000040 c1 42 8f bc 2a e0 dc bc b8 ce 58 bd 12 62 bf bc
       -0.017487885 -0.026962359 -0.052931517 -0.023362193
000050 e9 9d 95 3c 8a 51 65 bd c5 72 d4 bc e1 94 53 3c
       0.018263774 -0.055985965 -0.025933633 0.0129139135
000060 e3 43 9e 3d 28 2a 00 be 9c 6a e3 3d ac 25 97 3c
       0.07727792 -0.12516081 0.111043185 0.01845058
000070 5d 24 33 bd 4b f7 8e 3c 31 1d bf 3d a1 27 ff 3d
       -0.04373585 0.017451903 0.0933174 0.124587305
000080 ec c7 0a 3e 26 7b 00 3e 3f b4 ef 3d ac 45 c3 3d
       0.13552827 0.12546977 0.11704301 0.09534773
000090 32 01 a4 bd 16 4b aa 3d 10 75 c5 3d f4 36 45 3d
       -0.080080405 0.08315103 0.096414685 0.04814811
0000a0 52 74 04 3c 85 4a 10 3d 35 bb a3 3d 46 fa 27 3e
       0.008084374 0.035227317 0.07994691 0.16404065
0000b0 a0 5a df 3d bf 33 6f 3e 79 03 a1 3d 6d 8e ca 3d
       0.10905957 0.23359583 0.078619905 0.09890447
0000c0 ba 2a 92 bc 4a 16 b7 3b d7 2c 59 3d fc 72 0c 3e
       -0.01784264 0.005587374 0.05302128 0.13715738
0000d0 de e7 55 bc ed 78 81 bd 3d e1 6b 3d 68 bb 51 3e
       -0.01305577 -0.06321893 0.05758785 0.20481646
0000e0 3e 98 8a 3d 5f a2 07 bc c9 62 df 3c e7 45 e8 3d
       0.06767319 -0.008278458 0.027268784 0.11341458
0000f0 ad 9b 42 3e 39 94 00 3e af 12 7c 3e 66 8f 2f 3e
       0.19004698 0.12556542 0.24616502 0.17144546
000100 d0 38 23 3d 28 f4 0f 3c d1 bf 13 bd 4d dc d5 b9
       0.039849102 0.008786239 -0.036071602 -0.00040790663
000110 3e 6e 88 3d 13 27 29 bd 7e 96 3a 3c 71 1f 37 3d
       0.06661652 -0.04129703 0.011388419 0.04470772
000120 7a 8c 22 3d 93 c7 0d be 37 06 91 bd d6 47 c7 bc
       0.03968475 -0.13845663 -0.070812635 -0.024326246
000130 24 b4 d8 bc f7 e9 ab bc 77 61 2a 3e 55 d3 2a 3e
       -0.026453085 -0.020985587 0.16638742 0.1668218
000140 d9 54 10 3e d0 61 20 3c ae c9 3d 3d f1 8b c5 3d
       0.14094867 0.009788945 0.046334915 0.09645832
000150 b1 05 1d 3c d2 c8 8d bd 7f 39 67 3d e9 51 e1 3d
       0.0095838765 -0.06923069 0.056451317 0.11001951
000160 81 2e 92 3d 37 e3 d0 bc 68 4f d3 3d c9 a2 09 3e
       0.07137776 -0.02549897 0.1031788 0.13441004
000170 e9 9c 3d 3c 45 64 1b 3e 86 76 4c 3e 10 aa 9e 3d
       0.011573055 0.15174969 0.19967088 0.077472806
000180 d6 13 43 bd d2 96 16 be 61 f3 9f bd 73 b7 09 be
       -0.04762634 -0.14705971 -0.07810093 -0.13448887
000190 5f a0 8d bd 75 28 06 3a a4 38 28 bd 0c cf f6 bd
       -0.06915354 0.0005117723 -0.04106964 -0.1205121
0001a0 2a 2a 82 ba e5 fc 45 3d 1a d8 13 bc 9b a5 9b bd
       -0.0009930779 0.048336882 -0.009023691 -0.07599946
0001b0 11 12 d0 bc 2e 9a be bd 7f 90 ef bd e5 f1 9b bd
       -0.02539924 -0.09306751 -0.11697482 -0.07614497
0001c0 94 02 cb 3d 55 0d 6c 39 24 e2 c1 bd b9 f8 fb 3d
       0.09912601 0.0002251168 -0.09466961 0.123032995
0001d0 1e c4 01 3e e9 99 f4 3d 82 20 29 3c 8e 5a ee bd
       0.12672469 0.119434185 0.010322692 -0.11638366
0001e0 ae f6 28 3d e2 82 43 3d f5 4e 4e 3d 33 d5 c5 3d
       0.041250877 0.04773224 0.050368268 0.09659805
0001f0 31 f1 2e 3e da 63 42 bd 17 64 ab bc b9 8a 98 bd
       0.17084195 -0.047458507 -0.02092175 -0.07448334
000200 49 8b d3 bd e6 75 8c 3c b7 e2 07 3d 31 5b ef bd
       -0.10329301 0.017146062 0.033175196 -0.11687315
000210 6a 21 bc 3d 4b f9 db 3c d8 15 c4 3d 97 af b3 3c
       0.09186061 0.02685227 0.09574479 0.021934314
000220 32 93 4c bd 4d eb 4b be 29 4d a2 bd c3 93 08 bd
       -0.049945064 -0.19913979 -0.079248734 -0.03334404
000230 9e c2 e0 bc a5 4b 1e 3d 18 c2 94 bc 23 f6 44 3d
       -0.02743655 0.03864636 -0.018158957 0.048086297
000240 6c 6f 9e 3d 6a 2b e5 bc 33 cc b5 bd a7 d8 d0 3c
       0.07736096 -0.027974803 -0.088768385 0.025493933
000250 ff 0d ad 3c 7a 2c 0a bb e3 1f 80 bd c6 2a e0 3d
       0.021124838 -0.002108364 -0.06256082 0.109456584
000260 e8 5e b7 3c 6b 1c 5c 3d f7 43 29 bd cf 29 13 3d
       0.022384122 0.05373804 -0.041324582 0.035928544
000270 a9 e5 d3 3d 78 6b 8a 3d d8 2d ac 3c 7e 1f c2 3c
       0.103465386 0.06758779 0.021017954 0.023696657
000280 f6 be 45 3c ec ee 8f 3d 65 ac 64 3d 4c 73 42 3e
       0.012069454 0.070279926 0.05582847 0.18989295
000290 47 fd 19 bd 59 42 41 3c 0a 48 4d 3d 6c 72 03 3d
       -0.03759506 0.011795604 0.05011753 0.032091543
0002a0 2e 25 1f 3e 0b 5d 63 3c ea 6a bd 3d a0 fa 06 3e
       0.15541527 0.013877164 0.09248908 0.13181543
0002b0 9c e1 4b 3e 77 96 10 3e da 0e 2e 3e d6 32 08 3c
       0.19910282 0.14119898 0.16997853 0.0083129015
0002c0 1e 63 41 3e 7a 96 dc 3d 0d 7f 2f bd 44 e1 25 3e
       0.18885466 0.107708886 -0.042845774 0.16199213
0002d0 b3 42 91 3d d2 d0 72 3d 3c fb fd 3d 51 7f 35 3e
       0.070928 0.059281178 0.12401435 0.17724349
0002e0 44 84 11 3d 18 84 90 bd e6 f1 11 3c a5 16 26 3d
       0.03552653 -0.07056445 0.008907771 0.04054894
0002f0 2c 3f 48 3c 58 a3 26 3d f8 da 96 3d 12 43 07 bd
       0.012222093 0.04068312 0.07365984 -0.033022948
000300 07 bf 98 bd 21 eb 89 bd d2 dd f8 3c 1a 01 9d 3c
       -0.074583106 -0.067343004 0.03037921 0.019165564
000310 78 a6 0d 3d 2e ad 13 bc f5 eb f1 3c 52 b8 5a bb
       0.034582585 -0.009013457 0.029531458 -0.0033374024
000320 4c b3 15 bb 55 b6 a4 3c b5 bf 70 bb cc 6f 03 3d
       -0.0022842465 0.020106474 -0.003673536 0.03208904
000330 2e b6 cc 3d 71 55 bf bd 67 05 86 bd 9d 62 2c 3d
       0.099956855 -0.093424685 -0.06543999 0.042086232
000340 c4 42 56 3c 20 11 0b bd f1 d5 5c bd 1f ce bd bd
       0.013077442 -0.03395188 -0.053914968 -0.0926783
000350 f8 2f 09 3d fc fe 85 bd 76 1b fd bc 13 93 f6 bb
       0.033493012 -0.06542775 -0.030896883 -0.007524857
000360 18 ce de 3d e9 f0 04 be fe 63 95 bd 0e 5c 98 bd
       0.10879153 -0.12982525 -0.072944626 -0.07439433
000370 4a 42 a8 3d b7 f6 dd 3b 62 ba e5 3d 94 e9 b8 bd
       0.08215769 0.0067737955 0.1121719 -0.090289265
000380 90 1a 67 3d 19 89 48 3e bf 96 c6 3d 8e 27 94 3c
       0.056421816 0.19583549 0.09696721 0.018085267
000390 28 bd c7 bc 4e c7 1d bd 76 f2 e8 bc f1 4a c1 3c
       -0.024382189 -0.03852015 -0.028435927 0.023595305
0003a0 9b 80 a3 3c 1e 9f ad bc f2 25 3b bb 8b 0f f0 3b
       0.019958785 -0.021194037 -0.0028556553 0.0073260716
0003b0 c1 4e f1 3d 5d fe cf 3c a8 9d eb 3d bf 0d 38 3d
       0.11782599 0.025389845 0.1150468 0.044934984
0003c0 6a f8 88 bd 56 20 8a 3d 8c fd dd 3c a1 b2 db bc
       -0.06688006 0.06744449 0.02709844 -0.026818575
0003d0 3f c5 a6 3d 6c f6 2f 3d 03 37 6b bd 81 32 5a 3d
       0.081430905 0.042959616 -0.05742551 0.05327082
0003e0 84 04 ea bc 93 9f 1a 3d 16 1c d6 bd 71 d7 35 bd
       -0.028566606 0.037749838 -0.10454576 -0.044394914
0003f0 b3 7d 89 bd 3b 66 87 be 1f 29 87 bd 4f d3 33 bd
       -0.06713428 -0.26445183 -0.0659964 -0.04390269

network_body.observation_encoder.processors.1.conv_layers.2.bias f4 [32]
000000 8b 1a 80 bd 06 f3 35 3c 14 18 13 3d 20 bb df bc
       -0.06255063 0.011105305 0.035911635 -0.027310908
000010 3d ca 40 3c ca e6 90 bc ed d9 66 bd 75 6c 4f bd
       0.011766967 -0.017688174 -0.056360174 -0.050640542
000020 92 44 92 bd 65 aa cb 3c ba 74 1e 3d 7e 24 cc 3c
       -0.07141985 0.024861524 0.038685538 0.024919745
000030 31 e9 17 3c 05 af 68 bd f8 3c 23 3d e6 dc 1a bd
       0.009271906 -0.056807537 0.039853066 -0.03780832
000040 96 be 5f bd e1 b0 6b bc 62 3c 04 3d 94 9c 1e bc
       -0.054625116 -0.014385433 0.032284148 -0.009680886
000050 71 9e dd 3c e5 c3 28 bd b2 9b ed bd 3a cd fd bc
       0.02705309 -0.041202445 -0.11601962 -0.030981649
000060 16 33 b4 3d 9e 29 ab bd 16 ea f1 ba a3 f1 69 bd
       0.08798806 -0.08357547 -0.0018456604 -0.05711521
000070 3e 52 a9 bd f0 f1 84 bd 82 30 61 bd eb 8a ee bc
       -0.082676396 -0.064914584 -0.0549779 -0.029118976

network_body.observation_encoder.processors.1.dense.0.weight f4 [64, 512]
000000 63 fb 12 bd ad 18 8e 3c 26 34 e4 3d 94 f3 55 3c
       -0.035884272 0.01734575 0.11142759 0.013058562
000010 0f 67 96 3d fa 37 8a 3b 2a ed b9 bd 6a 81 c6 bb
       0.073438756 0.0042180987 -0.090784386 -0.006057908
000020 a6 68 39 3d a8 e5 5d bc 7f b9 1d 3d 59 bc 8d be
       0.045265816 -0.013543524 0.03850698 -0.2768276
000030 19 89 ad bd 27 f2 a7 bb 18 bb 23 bd bf fd 73 bd
       -0.08473415 -0.0051253024 -0.03997335 -0.059568163
000040 fd 8f af bd 11 a5 0c be 17 a1 44 3d 3d 52 71 bd
       -0.085723855 -0.13734843 0.04800519 -0.05891632
000050 98 89 72 3d 56 67 05 bd 02 53 56 3b 7d 0b 88 bd
       0.05921325 -0.032569252 0.0032703285 -0.06642816
000060 cd 93 8b 3d 13 fd 18 be 91 98 2a 3d 6c 1f 98 bd
       0.068153 -0.1494029 0.041649405 -0.07427868
000070 39 79 57 bc d4 c8 28 3e 24 6d 45 bc 79 e5 0f bd
       -0.01315146 0.1648286 -0.012049947 -0.03513095
000080 00 db ae 3a 66 6f fa 3d a4 82 65 3d 2f e8 35 3d
       0.0013340414 0.12228279 0.05603279 0.04441088
000090 ee d5 67 3b 80 6d d6 3d 78 7c bd 3d 3b b2 10 3e
       0.0035375315 0.10470104 0.09252256 0.1413049
0000a0 8b 30 42 3d 46 9d 7b 3d 74 5c 27 3c 27 a8 bf 3d
       0.047409575 0.061429285 0.010214914 0.093582444
0000b0 5c dd 0a 3e a6 8d c5 bb bc d8 a9 3d 9d 41 c6 ba
       0.13561004 -0.0060288487 0.08293292 -0.0015125755
0000c0 52 99 83 3d b5 dd 6a 3d 76 06 a3 3d 2d 90 ce 3c
       0.06425728 0.057340343 0.07960217 0.025215233
0000d0 89 31 2d be be 45 81 bc e8 45 8c 3d 41 20 2e bd
       -0.16913427 -0.015780326 0.06849271 -0.04251123
0000e0 c9 8e 0d bc 9c d3 49 3d 83 55 54 bd 17 32 8f bd
       -0.00864 0.049274072 -0.051839363 -0.06991976
0000f0 52 3a 25 bc a9 cb 9b b9 7d f5 a8 3c 45 4c 99 3d
       -0.010084705 -0.00029715642 0.02062487 0.074852504
000100 5e d7 0c be b1 c6 1a bd 00 40 3c bd 70 9e 12 bc
       -0.13754031 -0.037787143 -0.045959473 -0.008948907
000110 79 0e 90 3b 8b 4e 20 3a bd 84 2f bd 91 95 af 3d
       0.0043962565 0.00061152194 -0.0428512 0.085734494
000120 78 47 17 3d 5b 96 83 bd fe 96 d9 bc cc b8 08 3d
       0.036933392 -0.064251624 -0.026561256 0.03337936
000130 85 1d 88 3d b3 50 17 bd 0b 2d 19 3c c4 d5 37 be
       0.066462554 -0.036942195 0.009349118 -0.17952639
000140 a5 19 fd 3c 2b a7 3f 3d 2c ce fc 3c 82 41 b6 3d
       0.030896017 0.046790283 0.03086003 0.088992134
000150 f6 ad d9 bc 25 7f f1 bd 35 1c cd 3c e4 ab da bc
       -0.026572209 -0.11791829 0.025037864 -0.026693292
000160 f1 0d 1f 3d 55 1a a6 bd c9 28 2d bd c4 c4 9d bd
       0.038831655 -0.08110491 -0.042275224 -0.07703546
000170 f3 7b 7b 3d d1 db 39 3d 6b 33 5c bd 8f 36 12 be
       0.061397504 0.04537565 -0.053759973 -0.14278625
000180 76 a7 93 bc 93 ce 69 3d 8c d5 d3 3d f4 c9 01 be
       -0.018024188 0.05708177 0.10343465 -0.12674695
000190 48 b9 d3 bb 6a 25 8d bc 51 b8 3a 3c 06 1c bb 3d
       -0.006461296 -0.017229754 0.0113964835 0.091362044
0001a0 e7 c5 3c bc 2e b2 38 3d 55 fa 47 bd 07 ad 16 3d
       -0.011521793 0.0450918 -0.04882272 0.036786105
0001b0 0a 43 87 3d ba 89 0a 3e 0a b8 6d bd 59 c0 ed bc
       0.066045836 0.13529101 -0.05803684 -0.029022383
0001c0 96 b2 07 3d c1 19 86 3d 92 2a d8 3d 12 0a f1 bb
       0.033129297 0.06547881 0.10554995 -0.007355937
0001d0 6c fb 24 be f2 e6 73 bd 46 15 86 bc df 1d 33 3d
       -0.16111535 -0.05954642 -0.016367566 0.04372966
0001e0 16 a6 25 3e 6f 75 14 bd 14 1a ff 3c 20 e5 93 bd
       0.16176638 -0.036244806 0.031140365 -0.072214365
0001f0 5d 70 9c 3d 51 81 1e 3d ee 12 85 bd 78 d8 9d 3c
       0.07638619 0.038697544 -0.06497751 0.01926826
000200 c1 d4 6c 3d 9c 40 0e 3c 01 ba 8c 3e f9 34 c2 3d
       0.057820085 0.008682396 0.2748566 0.0948276
000210 99 49 48 3d 1e 59 84 3d 4d 5b 10 bd 99 57 15 3d
       0.048898313 0.0646231 -0.03524332 0.036460493
000220 2c 9a 3a 3d 8f f3 19 bd fa 8a 11 bd 27 bb 77 bd
       0.045557186 -0.03758579 -0.03553293 -0.060481217
000230 06 8f 91 3d 70 7d 3c bd fc 3a 42 bd 0b 5a 04 be
       0.07107358 -0.046018064 -0.047419533 -0.12924974
000240 8e 4f ff 3d 2e 58 00 3e 2f 1f 60 3d 1d c7 a2 3d
       0.12466346 0.12533638 0.05471724 0.07948134
000250 46 8d 1d 3c 81 92 8c 3c 1f 8e 12 bd d8 93 6a 3d
       0.009616202 0.017159702 -0.03578007 0.0572699
000260 f0 98 a5 3b b7 d2 16 bd 40 a6 15 bd 80 7b ca 3b
       0.005053632 -0.036822047 -0.0365355 0.006179273
000270 a0 ef a3 b9 35 c6 b4 3d 1f 5c c0 bb b4 72 e7 b8
       -0.00031268317 0.088268675 -0.0058703567 -0.000110363035
000280 a1 20 3a 3d b1 dc 04 3c 28 27 58 3c 41 5b 8b bd
       0.045441274 0.008109258 0.013192929 -0.06804515
000290 00 d3 61 3d 4c 39 6b 3d b1 c1 27 bd 5e 49 90 bd
       0.055132866 0.05742769 -0.040956203 -0.07045244
0002a0 b8 08 d7 bd dd 5e 9e 3d bb 53 b2 bb 01 07 29 bb
       -0.1049971 0.077329375 -0.0054421104 -0.0025791528
0002b0 6a 58 d5 3d 70 b3 6d bd 1d c8 98 bd 3e c2 52 bc
       0.10417254 -0.058032453 -0.074600436 -0.012863694
0002c0 72 a7 97 bc a0 a9 0e 3e 59 50 28 3e 3f 14 29 3c
       -0.018512461 0.13931894 0.164369 0.010319768
0002d0 27 17 59 bc 0b 10 5f bd ec b8 c8 bd 0c c9 35 bd
       -0.013250149 -0.05445866 -0.09800896 -0.044381186
0002e0 b0 30 d1 bc 09 b4 a3 3c a7 83 7f 3d b4 f8 ea 3d
       -0.025535911 0.019983308 0.062381413 0.114732176
0002f0 f2 1f 86 3d 4e 44 11 3e 06 97 c4 3d 5f 46 dc bb
       0.06549062 0.14186212 0.09599118 -0.006722256
000300 24 f6 77 3d 32 ee 31 3d 19 72 08 3e 3a 95 45 3d
       0.060537472 0.04344005 0.13324775 0.048238017
000310 81 77 ed bb 4f 1f eb bd 84 0c 3c bd dd b9 94 bd
       -0.007246912 -0.11480581 -0.045910373 -0.07262013
000320 5b c8 6e 3c 09 92 ad bd dd dc 5e bd 18 d3 0d bd
       0.014574136 -0.084751196 -0.05440985 -0.034625143
000330 0f ea 15 bd 5a 2d 90 bd be 3a 57 be da 69 b8 3b
       -0.03660017 -0.070399 -0.21018502 0.005627853
000340 4c 2a 2e 3d f8 11 a7 3c 60 bd 75 bc e3 92 a5 3c
       0.042520806 0.02039431 -0.014998764 0.020211643
000350 d3 9d 09 3e 49 19 a7 bd ca 87 75 bd 36 51 8f bd
       0.13439111 -0.0815912 -0.05994395 -0.06997912
000360 11 ca 0b 3e 6c fb 5a bc 2a 79 fa 3c c0 f6 da bc
       0.13651301 -0.013365608 0.030575354 -0.026728988
000370 e8 42 98 bd 87 0d bd 3d bd b1 b5 bd d4 c2 d3 bc
       -0.07434636 0.09231096 -0.088717915 -0.025849737
000380 85 fb 3f 3c 40 98 64 bd 70 71 a6 bd 22 e4 c7 3c
       0.011717682 -0.05580926 -0.08127105 0.024400774
000390 01 08 8e 3d 43 a2 3c bd 65 83 09 3e 2b db 0e 3e
       0.069351204 -0.046053182 0.1342903 0.13950793
0003a0 58 1c 84 3e 90 19 af bd 3e 4d 78 3b f8 6a c0 3d
       0.25802875 -0.085497975 0.0037887837 0.09395403
0003b0 4e 42 04 3e 8e 4d 95 3d de a4 18 3e 63 63 8c 3e
       0.12915918 0.07290183 0.14906642 0.27419576
0003c0 48 f6 02 bd 23 8e 64 be 16 e8 8c 38 eb b3 ee bc
       -0.031973153 -0.22319846 6.7189496e-05 -0.029138526
0003d0 d4 72 f9 3d 67 5a 65 3a 37 0a 06 bd ac b0 7a bd
       0.12180105 0.0008749128 -0.032724585 -0.061203644
0003e0 e2 c4 19 bd 27 0b ae 3d f6 a3 f3 bd 99 9c 3b 3e
       -0.037541278 0.08498221 -0.118965074 0.18321456
0003f0 23 c6 8d bd 3a fa b5 3d 66 a4 f4 bd 31 e7 19 3e
       -0.06922557 0.088856176 -0.11945419 0.15029599

network_body.observation_encoder.processors.1.dense.0.bias f4 [64]
000000 c4 3f de 3d f0 3a 44 3d 53 91 31 3d 66 43 58 3d
       0.10852006 0.04790777 0.043351483 0.05279865
000010 1c 40 e2 3b bf 88 98 bc dc ba 60 3c b2 3f 50 3d
       0.006904615 -0.018619893 0.013716426 0.050841995
000020 24 36 81 3c 76 93 f5 3c d3 b5 e6 3b 30 dc c8 3b
       0.015772887 0.029977541 0.007040718 0.006129764
000030 89 9d 51 3b ef ca 59 3d b8 13 92 3d 8a e5 d7 3c
       0.0031984767 0.05317205 0.07132667 0.02635457
000040 07 ee 87 3d b0 49 d1 3c b2 53 4a 3d dd 0d 8b 3d
       0.06637197 0.025547832 0.049396224 0.067897536
000050 f2 4d 61 3c a5 e0 e1 3c 0e 35 0a bd 8f 0a 7a 3b
       0.013751494 0.02757294 -0.033742003 0.0038153266
000060 ef 46 2e 3d 6b 75 1c 3d 4a 86 a8 3c e8 6c 6a 3d
       0.042548116 0.038197916 0.020571847 0.057232767
000070 b8 8a 87 3d 2e 74 91 3c 9f fe 1c 3d 48 c5 9a 3c
       0.066182554 0.017755594 0.038328763 0.0188929
000080 66 c1 07 3d 4e af b4 bc 7c 85 49 3d b8 68 85 3d
       0.033143423 -0.022056248 0.049199566 0.06514114
000090 a7 e8 27 3d ce e6 83 3b 9d e1 a2 3d 86 67 91 3d
       0.04099336 0.004025317 0.079531886 0.07099824
0000a0 08 5f b6 3c ad 78 d4 3c 91 41 a6 3c 4a 2a a9 bc
       0.022262111 0.025936449 0.020294936 -0.020650048
0000b0 32 7f ee 3c fd 9d 88 3d 8f 1d 0c 3d c8 d5 96 3c
       0.029113386 0.06670759 0.034207877 0.018412486
0000c0 31 04 5d ba 01 91 f9 3c 24 a2 0d 3d 4c e8 77 3d
       -0.00084311055 0.030464651 0.034578457 0.06052427
0000d0 f4 59 a1 bc d1 31 60 3a 55 1f 49 3d 32 6e ca bc
       -0.019696213 0.0008552345 0.049102146 -0.024710748
0000e0 34 f1 82 3c 7a 64 ab 3c f3 5c 02 3d a6 e0 fb 3c
       0.015984155 0.020921934 0.031826925 0.03074677
0000f0 ab 14 f9 3c e7 48 47 3d 78 0d 8f 3c b9 30 57 3c
       0.030405363 0.04865351 0.017462477 0.013134175

network_body._body_endoder.seq_layers.0.weight f4 [64, 142]
000000 5c c4 41 be 36 63 85 be 86 53 86 3d b9 66 90 bd
       -0.18922561 -0.26052254 0.065588996 -0.07050843
000010 08 2f ab 3d 1d 63 f4 3d ad 3a 0a 3e 30 b5 31 bd
       0.0835858 0.11932967 0.13498946 -0.043385684
000020 c6 13 13 3e 62 a9 95 3d 44 3b 62 bc df 20 f5 bc
       0.14363012 0.07307698 -0.013808075 -0.0299229
000030 74 01 41 3a dd 51 c7 bd a3 2a 30 3d e1 7f b5 3b
       0.0007362582 -0.09732411 0.04300941 0.005538926
000040 a7 43 af bd e5 03 58 bd 8a fd 3c 3e 26 8a b7 bd
       -0.085578255 -0.05273809 0.18456092 -0.089618966
000050 c4 02 99 bc 8d c1 fb bb 83 04 9b bc 42 ab 0c 3d
       -0.018678077 -0.007682985 -0.01892305 0.03434301
000060 3d 73 0e ba 73 10 ef ba ca ad 6e 3c a6 2f db 3d
       -0.0005434042 -0.0018239155 0.014567802 0.107024476
000070 c5 65 21 bd db 0e f2 3c bb 0c 3a 3d 43 ad 03 3e
       -0.039403696 0.0295481 0.045422297 0.12859063
000080 f9 9d c5 bb dc 0b b6 bd f6 09 bc 3d dd b4 8f bd
       -0.0060307947 -0.08888981 0.091815874 -0.07016919
000090 ad 92 0a 3d f9 ca 23 3d 0e 59 e8 3c c8 39 9d bd
       0.033831287 0.03998849 0.028362777 -0.076770365
0000a0 b9 17 8e bd f4 95 2f bd 16 d5 cf 3d 67 1a dd 3d
       -0.069381185 -0.042867616 0.10148065 0.107960515
0000b0 58 56 eb 3d c0 7b 81 bd 06 60 9f 3d cc f2 51 bd
       0.11491078 -0.063224316 0.07781987 -0.05125694
0000c0 1f 29 be 3d 5f 38 0f 3e f6 e2 69 3d 81 08 29 3e
       0.09285187 0.13986348 0.057101212 0.1650715
0000d0 b8 06 2f bd cf fa 7c bd 21 9e 32 bc 26 0e f8 bc
       -0.042731017 -0.061762627 -0.010901959 -0.030280184
0000e0 de 1e 2a 3e f6 9e a5 3d 04 99 a4 3c fa 7a a4 bc
       0.16613337 0.0808696 0.020092495 -0.020078171
0000f0 2a 60 d9 3c 9e ef e3 bc 57 e2 af bc 46 79 c6 3d
       0.026535112 -0.02782422 -0.021470232 0.096911
000100 dd b2 29 be 3c a0 de 3d fa 16 84 bd 1b cc 16 bd
       -0.16572137 0.10870406 -0.06449695 -0.036815744
000110 ef b3 99 3d b1 a4 08 bd 43 b2 3a be 45 76 4c be
       0.07505023 -0.033360187 -0.18232064 -0.19966991
000120 04 92 09 3e 5a af fa bc c8 7f 39 ba 1a 23 70 3d
       0.13434607 -0.030601192 -0.0007076231 0.058627225
000130 b0 80 a5 bd 22 40 88 3d c7 87 3a 3b 45 46 17 be
       -0.08081186 0.06652857 0.0028462277 -0.147729
000140 c2 6b 43 3e 18 71 66 bd 15 57 bb bd 3f 76 60 be
       0.19084075 -0.0562602 -0.09147469 -0.21920107
000150 af f6 91 bd a2 dd c3 bd 68 6c bb bc 4a 3b 3c 3d
       -0.07127129 -0.095637575 -0.02287884 0.04595498
000160 08 37 5b 3e 69 da 60 bb 1e db bc 3d ca ed 04 3e
       0.21407712 -0.003430987 0.09221481 0.12981334
000170 9e a1 30 3d 91 ba 9a 3c 2b ca 57 ba 41 d9 50 3d
       0.04312288 0.01888779 -0.00082317245 0.05098844
000180 8d f0 f0 bd 25 b7 01 be 12 f3 4e 3d 9b c2 b0 bd
       -0.117646314 -0.1266752 0.05052478 -0.08630868
000190 e9 3b 11 3d 72 8f 03 3d a1 c6 31 be 82 ed 08 3d
       0.035457525 0.032119222 -0.17360927 0.03342963
0001a0 88 5e 55 be 45 f5 d0 bc fa dd 89 be d8 bd 05 bd
       -0.20836842 -0.025507579 -0.26927167 -0.032651752
0001b0 30 a8 a6 3d d4 e5 3f be b5 18 0d 3e 94 09 11 3e
       0.08137548 -0.18740016 0.13778956 0.1416381
0001c0 b9 49 c5 3d a8 9d 0b bc 1a bc 51 3b 0b 6b f4 3d
       0.09633202 -0.008521475 0.0032002986 0.11934479
0001d0 1e ae 1b bc 53 2a 9d 3d a6 89 2f be 84 6b 4a 3c
       -0.009501962 0.07674088 -0.17142352 0.012354735
0001e0 e6 c1 a9 3d ab 51 01 3d 66 b7 82 3d 45 9c 69 bd
       0.08288936 0.031572025 0.06382637 -0.057033796
0001f0 33 79 34 3d 91 c3 ac bd ea 94 51 bd 79 cc f4 bc
       0.044060897 -0.08435739 -0.051167406 -0.029882656
000200 a4 a7 3b 3d 08 0b 6c bd 76 21 e3 bc a9 93 72 bd
       0.04581417 -0.057627708 -0.027725916 -0.05922285
000210 35 84 b5 bd fd 38 07 be 54 a5 2e be 97 55 8c 3d
       -0.08863107 -0.13205333 -0.17055255 0.068522625
000220 dd 41 b8 3c d6 1e 7b bc b7 08 8a bb c7 3c 4a 3e
       0.022492344 -0.015327176 -0.0042124647 0.19749747
000230 4a 7f b6 3d 7e 36 85 be 14 b6 d5 bc 5d 02 44 bd
       0.08910997 -0.26018137 -0.026087798 -0.047853816
000240 18 5f a3 3d aa 20 f8 3d d9 60 5e be d6 b6 46 3e
       0.07977122 0.12115605 -0.21716632 0.19405684
000250 c1 37 4b 3d ab 1f a4 bb b8 c2 a8 bd ec 81 42 3d
       0.049613718 -0.005008658 -0.08240265 0.047487184
000260 b3 95 b7 bd e6 90 97 3d c0 94 99 3d 8b ac 82 3d
       -0.089641 0.07400684 0.07499075 0.06380566
000270 7a a6 f3 bc d3 e1 c5 bd dc 41 24 3d 47 e6 1b 3d
       -0.029742468 -0.09662213 0.04010187 0.038061406
000280 d9 ce 92 bd 4a cc 75 bb 85 a6 06 3e fd b2 72 3d
       -0.07168359 -0.00375058 0.1314946 0.059252728
000290 88 84 0d 3e 77 09 63 bd 20 25 0c 3e dc 89 7e 3b
       0.13820088 -0.05542895 0.13686037 0.0038839495
0002a0 a8 d8 20 bc 8f 7a f1 3d 55 19 01 bd 81 af 59 3d
       -0.00981728 0.11790954 -0.0315183 0.05314589
0002b0 b8 29 8f 3d 6e ab 5a 3e c0 0a f9 3c 4d e6 f6 bc
       0.06990379 0.21354458 0.030400634 -0.030139113
0002c0 1e 22 eb bc 82 06 e1 bd 06 68 b9 bd 71 05 46 3d
       -0.028702792 -0.109875694 -0.09053044 0.048345033
0002d0 cf ee e2 bc cb 55 cf 3b 1d e9 08 3d f4 90 ea 3d
       -0.027701763 0.006327366 0.03342544 0.11453429
0002e0 83 e7 52 3d 70 54 8e bd 60 8b 59 bd 5e f4 69 3d
       0.051490318 -0.06949699 -0.053111434 0.057117812
0002f0 f2 1f 5f 3d cf a0 cf 3d 6c 76 91 be cf b6 6b bc
       0.054473825 0.10138094 -0.2841066 -0.014386847
000300 f5 90 0d 3e 4d df 01 3e 4f 99 86 3d ec 2e 1a 3d
       0.13824828 0.12682839 0.0657221 0.037642404
000310 96 54 e7 3c f4 e4 02 3d 15 9d 48 bd c2 4d da ba
       0.028238576 0.031956628 -0.04897793 -0.0016655254
000320 08 ac 35 3d b5 f9 b5 3d 35 7b b6 bd d0 44 c2 3d
       0.044353515 0.088855185 -0.089102186 0.09485781
000330 0a 1f 50 3d 1d 41 ed 3d 27 e3 bf 3d 97 83 9b 3d
       0.05081085 0.11584685 0.09369498 0.07593458
000340 61 b7 b9 bd d8 87 28 bd 44 c2 6a 3d 30 3e 5e 3e
       -0.0906818 -0.041145176 0.057314172 0.2170341
000350 4c 94 ce ba c1 9e 65 3d fb fc 67 3e f2 af 02 be
       -0.0015760749 0.056059603 0.22655098 -0.1276243
000360 82 16 0b bc 35 09 e7 bb db dc 14 bc 9b 9f 04 3e
       -0.008489253 -0.007050658 -0.009085859 0.1295151
000370 5b 9c 4a 3e 33 a3 22 3e c9 b0 83 3d 5a 0b c3 39
       0.19786207 0.15882568 0.064302035 0.00037201756
000380 26 0f 3f bd c5 b3 6e bd ba 86 b4 3c a9 bf 97 3e
       -0.046645306 -0.05827691 0.022036899 0.29638413
000390 fc 1b 7c 3b 45 7f d3 bc e2 77 3b 3d 18 65 18 bd
       0.0038468828 -0.025817523 0.045768626 -0.037205786
0003a0 65 dd 14 be 86 f6 1d be 25 e9 3a 3c d7 cf 00 be
       -0.1453758 -0.15426072 0.011408125 -0.12579285
0003b0 44 83 16 3e 11 f9 bd bd 14 0a ca bd 14 86 71 bd
       0.14698511 -0.09276021 -0.098652035 -0.058965757
0003c0 01 dd 25 3c b0 cd 1b be cc da 85 be aa 7e 0c 3d
       0.010123492 -0.15215182 -0.2614349 0.034300484
0003d0 a3 11 92 3d a9 6b c1 bd 86 9e 31 3e 4f ba 8e b9
       0.0713227 -0.09444363 0.17345628 -0.0002722316
0003e0 72 04 ed 3c 1a 46 91 bd f0 1c 13 be 50 38 0b 3e
       0.028932784 -0.07093449 -0.14366508 0.135957
0003f0 ef f7 39 3d 71 a3 2f be a6 e6 36 be cc 61 3a bd
       0.045402464 -0.17152192 -0.17861423 -0.045503423

network_body._body_endoder.seq_layers.0.bias f4 [64]
000000 30 c0 d6 3c 55 cb 9b 3c 86 5f bd 3c b8 21 f8 3c
       0.026214689 0.019017855 0.023116838 0.030289516
000010 ea f0 8b 3d ae 34 62 bc 3b 50 7e 3d 73 ec 92 3d
       0.0683306 -0.013806505 0.062088232 0.07174005
000020 17 96 a3 3c 1c 42 6d 3c b9 8f 75 bc b2 2a 24 3d
       0.01996903 0.014481094 -0.014987879 0.04007978
000030 d4 e5 36 bc 1c a2 07 3d b0 e8 f0 3b d4 6e c9 3c
       -0.011163194 0.033113584 0.0073519573 0.02458898
000040 dd 5f bc 3c 3a 5e bc 3c 4d 7b aa 3c 81 5b 4b 3d
       0.02299493 0.02299415 0.020810748 0.04964781
000050 fa 05 f4 3c 03 a0 94 3b 1c 8e 99 3c 20 ae 04 3d
       0.029788006 0.0045356764 0.01874452 0.03239262
000060 aa d1 41 3c 3f 63 69 3d 40 7a a1 bc 34 ac f7 3c
       0.011829773 0.056979414 -0.019711614 0.03023348
000070 f4 fa a3 bc 22 24 32 3d 1b a8 07 bc b2 20 93 3c
       -0.020017125 0.04349149 -0.008279826 0.017959926
000080 a4 83 f3 3c 01 51 63 3d 13 69 5b bc f4 85 4c 3b
       0.029725857 0.055497173 -0.013391751 0.0031207772
000090 74 62 36 3c 79 fe 06 3d 2c fc bd 3c 2a a9 96 ba
       0.0111318715 0.032957528 0.023191534 -0.0011494507
0000a0 67 1f 2e 3d 33 be a5 3d b9 ab d8 3c 57 7e ef 3c
       0.042510416 0.08092918 0.026449071 0.029235048
0000b0 ac 98 72 3d 0f 18 41 3b 7c 77 51 3d 50 da c4 3b
       0.05922763 0.0029463803 0.05113934 0.00600747
0000c0 39 f7 e3 3b cc 61 33 bc ed d2 bb 3d d3 b8 8b bc
       0.0069569615 -0.01094861 0.0917109 -0.017055904
0000d0 d5 41 81 3a 25 2f e1 3c 36 9d 80 3c d1 59 c6 3c
       0.0009861538 0.0274883 0.015699964 0.02421275
0000e0 e7 4f 3b 3c ad 63 91 bd f5 6d 04 3d 47 71 82 3d
       0.011432624 -0.0709909 0.032331426 0.06369262
0000f0 11 b0 f8 3c 53 78 fe 3c 30 ed 5f 3d 36 38 2d 3d
       0.030357393 0.031063234 0.05466956 0.042289935

network_body._body_endoder.seq_layers.2.weight f4 [64, 64]
000000 a4 83 0a 3e f7 f5 5c bd d1 2a a8 bd 26 3d 5c be
       0.1352678 -0.053945508 -0.082112916 -0.21507701
000010 87 1a d0 bd 07 7b 01 be 3f 64 8d 3e ec 22 00 be
       -0.1016131 -0.12644587 0.27615544 -0.12513322
000020 97 e5 02 be 76 86 96 bd d6 14 32 be 75 98 33 3e
       -0.12782894 -0.07349865 -0.17390761 0.17538626
000030 93 d4 48 be 8b 08 45 3d ba cb e7 bd 8c 71 92 3d
       -0.1961234 0.04810385 -0.11318155 0.071505636
000040 39 fd 08 3e f5 17 43 be 27 e3 e0 bd 7d f3 82 be
       0.13377847 -0.19052108 -0.10980826 -0.25576392
000050 e4 69 3c 3e c6 35 d7 3d ff e9 b5 be de 3a 75 3d
       0.18399769 0.10508303 -0.35530087 0.059870593
000060 d7 c4 90 3a 82 10 f1 bc a3 82 55 3d 7c 48 93 3d
       0.0011044991 -0.029426817 0.052126538 0.0719156
000070 ed 26 c8 3d 79 e3 d0 bb 6c 0a 8f 3e 38 91 81 3e
       0.097730495 -0.006374773 0.2793764 0.25306106
000080 83 7a 71 3d f1 42 e5 3d e7 b1 f6 3d 5f ec 7a be
       0.058954727 0.11194409 0.12045651 -0.24504231
000090 38 cd d4 3d 90 b2 eb 3d 46 f0 cf 3d 97 90 16 be
       0.10390705 0.115086675 0.101532504 -0.14703594
0000a0 64 c5 75 3d 57 25 c7 3d 6d 90 ea bd bc 02 f7 3d
       0.0600027 0.09723919 -0.11453328 0.120610684
0000b0 33 0b be bc 4d 2e 57 bc 8b 7b 66 3e 6e 9c 51 be
       -0.0231987 -0.013133598 0.22508065 -0.2046983
0000c0 f0 40 b3 be 1a 21 6a bd fe 2b 0d 3e 4a 23 89 bd
       -0.3501048 -0.057160474 0.13786313 -0.06696184
0000d0 65 7b c5 3d a8 51 6d 3d 00 d3 bd bd 3f 1e 84 be
       0.09642676 0.0579392 -0.09268761 -0.25804326
0000e0 ad 31 aa 3d 9f 36 4f be 83 42 d6 bd 1d 78 5c bc
       0.08310256 -0.2023568 -0.10461905 -0.013456372
0000f0 37 af 70 3e 41 9d 0e be be 64 3c 3e 35 b2 ee bb
       0.23504339 -0.13927175 0.18397805 -0.0072844275
000100 80 55 31 be 55 ee c1 3d 28 e1 10 be 24 47 b9 bc
       -0.17317772 0.09469286 -0.1414839 -0.02261693
000110 67 fc 1c 3e 9e 82 ae 3e 25 47 e5 3d 5b 53 95 3c
       0.15330659 0.34084028 0.1119521 0.018228224
000120 30 1c aa 3e c6 d1 50 be 8e 70 98 bd 85 a1 3e 3d
       0.3322463 -0.20392522 -0.07443343 0.046540756
000130 82 31 1d bb 39 36 0d 3c ed 5e 94 bd 93 57 09 be
       -0.0023985808 0.008618885 -0.07244668 -0.13412313
000140 02 7e 2e 3d f9 d2 5b be 30 b1 ac 3d 37 83 3f 3d
       0.04260064 -0.21467198 0.08432233 0.046755996
000150 de 87 bc 3d 41 76 9a be 46 d2 af 3e f9 fe a2 bd
       0.09205602 -0.30168346 0.34340113 -0.079587884
000160 d0 0d d9 bc e2 20 3f 3c 39 6a f3 3d df a1 95 3d
       -0.026495844 0.011665555 0.11885495 0.07306265
000170 7d b2 63 bd db 8b e8 3d a1 75 9a be d2 18 74 be
       -0.05559014 0.113548 -0.3016787 -0.23837593
000180 6a 4f cb 3d 8c 27 f6 3b 55 e3 2b 3e 4a af 2a 3d
       0.099272564 0.0075120386 0.16785939 0.041671075
000190 81 7c 34 3e 8a 84 98 3d c3 45 1e be c8 79 a7 be
       0.1762562 0.07447155 -0.154563 -0.327101
0001a0 c9 08 89 be 00 8c 3d bc ac e1 c4 3d c8 59 77 be
       -0.26764515 -0.011569023 0.09613356 -0.24155343
0001b0 0a e3 99 be 52 04 d5 bc 00 9a a6 3d 05 a8 d5 bc
       -0.3005603 -0.026003037 0.08134842 -0.026081095
0001c0 f6 4c 81 bd 0b 9c 56 be f8 6a 9e 3c 93 a6 e2 bd
       -0.06313507 -0.20957963 0.019338116 -0.11066928
0001d0 e7 54 06 be 5c c1 87 3e e5 d1 2b be 04 0c 7b bc
       -0.13118325 0.2651471 -0.16779287 -0.015322689
0001e0 2a cf 8b be bd 89 62 3d 62 1c 3f be 6e 60 81 3e
       -0.2730649 0.05530714 -0.18663171 0.25268883
0001f0 fb 50 8d 3e 02 70 ff 3d 2f 59 e3 bd 09 78 37 3e
       0.27600846 0.12472536 -0.11100995 0.17916884
000200 c3 1c 13 be 73 ee 4c bd 1d 2e 3f 3d 74 97 2a be
       -0.1436644 -0.05003209 0.046674836 -0.16659337
000210 4a ec 70 bd bf ef 28 be 10 56 01 3e 27 ef 9a 3d
       -0.058819093 -0.16497706 0.12630486 0.07565146
000220 11 36 f7 bd 66 be ad 3d 0c a6 f5 bd 44 e0 00 3e
       -0.12070859 0.08483581 -0.119945616 0.1258555
000230 28 17 40 be 7d 90 88 be 47 e9 16 be b6 d3 76 3e
       -0.18758833 -0.26672736 -0.14737426 0.24104199
000240 49 e0 d3 3c ea 72 4c be 5d 62 a6 bd 83 6d a6 be
       0.025863783 -0.19965711 -0.0812423 -0.32505426
000250 08 2f 4c bd 43 d6 5a bd 3b f4 63 3d dc 34 0a 3e
       -0.04984954 -0.053426992 0.05565284 0.13496727
000260 38 c5 d3 3d b0 07 a2 be 35 90 6d 3c 16 c8 df bd
       0.10340351 -0.3164649 0.014499714 -0.10926835
000270 c5 f5 0b 3e fb f6 c8 3d b2 98 d1 3d 2f aa 3b bd
       0.13667972 0.09812733 0.102342024 -0.045816597
000280 c9 66 35 3e d7 23 a6 3d 7c 5c 37 3e 2b b0 9d 3d
       0.1771499 0.08112305 0.17906374 0.07699617
000290 06 d3 49 be c3 c5 e3 3d 7e 27 06 3d 70 e6 d7 3d
       -0.19709405 0.111217044 0.032752506 0.10541999
0002a0 41 1a a3 3e 2c 48 16 be b0 da 34 be 71 4a 3b bd
       0.31855968 -0.14675969 -0.17661548 -0.04572529
0002b0 79 8b bd 3d ac 0b 2a 3e f0 a4 59 3b d0 50 6a 3d
       0.09255118 0.16606015 0.0033209883 0.057205975
0002c0 4e d0 52 bd 76 1e b3 3e b9 9b 10 be 0c a9 88 3e
       -0.051468186 0.34984177 -0.14121903 0.26691473
0002d0 8b ef 04 3e cc 37 a7 3d 46 b4 b0 3c 45 df 34 3e
       0.12982003 0.08164939 0.021570336 0.17663296
0002e0 b7 51 3c 3d f9 25 a1 3e be 51 75 be 55 c5 c2 bc
       0.045976367 0.31474283 -0.23956963 -0.023775736
0002f0 bb 40 ba 3e 23 b5 0f be 00 5b de bd 82 23 d8 3d
       0.3637751 -0.14033942 -0.108572006 0.105536476
000300 19 e2 58 3e 80 ac dc bc 38 60 d3 3d a7 d4 c6 be
       0.2118 -0.026937723 0.10321087 -0.38834116
000310 7f eb da 3d 7b 84 ab bd cb ed 4d bd 4f 11 6d 3d
       0.106894486 -0.08374878 -0.050275605 0.057877835
000320 17 33 63 3d a5 45 7d bd d1 0f af bd 4e 16 80 3d
       0.055468645 -0.061833996 -0.085479386 0.06254254
000330 e8 3f b9 bd 1e a6 c0 bd 3e b2 18 bd 3c 77 40 be
       -0.09045392 -0.09406684 -0.03727936 -0.18795484
000340 c0 5e c7 bd e9 fa 5f bd 6d 50 48 3e 38 0e 9d bd
       -0.09734869 -0.054682646 0.1956193 -0.07668728
000350 22 de 18 3c 3b e9 48 bd 0c 53 26 3d 49 49 ad bc
       0.009330304 -0.04905055 0.040606543 -0.02115311
000360 4e 3e ee 3d 85 40 6b 3d 28 2e 69 3b 5a 92 1b 3d
       0.116329774 0.057434577 0.003558049 0.03798137
000370 5b 24 6b 3d 09 d5 7d bc 75 33 35 bd 5d 61 df 3d
       0.05740772 -0.015492686 -0.044238526 0.109072424
000380 0e 4f a6 3b de bf 4e 3d 9c 8a 38 3e 63 ae 2e 3c
       0.005075342 0.050475948 0.18021625 0.010661694
000390 18 18 46 3d 28 c3 36 be 65 58 82 be 35 0b 55 be
       0.04836282 -0.17847884 -0.25458065 -0.20805056
0003a0 96 52 10 3e 4f d9 19 3d 2a a0 99 bb 60 82 5c 3e
       0.14094004 0.037560757 -0.0046882825 0.21534109
0003b0 3f e3 4b be be 1f 06 3e 24 55 81 be 32 3d a0 bd
       -0.19910906 0.13098046 -0.2526027 -0.07824172
0003c0 67 f5 8f be 1d 98 be bd 3e a8 da bd 02 96 1f 3e
       -0.28116915 -0.09306357 -0.10676621 0.15584567
0003d0 eb 70 2f bc de 34 cb bc 22 27 f1 3b 29 25 01 bd
       -0.010708074 -0.024805482 0.0073594013 -0.03152958
0003e0 a7 a6 ec bd 1a fe c1 bd da 66 01 3d f5 c9 0b be
       -0.11555224 -0.09472294 0.031592228 -0.13651259
0003f0 18 0b 24 bc 7f 0e 10 be e8 17 0f be 27 03 78 3e
       -0.010012411 -0.1406803 -0.13973963 0.24219953

network_body._body_endoder.seq_layers.2.bias f4 [64]
000000 6e 56 a3 3d 5a 9e 21 3d f5 5f 2a 3d eb b4 ce bb
       0.079754695 0.039457656 0.041595418 -0.006308188
000010 13 6c b4 3c 7e 86 90 3d cc ae 00 3d f7 3a 8c 3c
       0.02202419 0.07056902 0.0314167 0.01711796
000020 46 80 74 bd 7d 81 96 3d 95 cc 0e 3d 95 4a 39 bd
       -0.059692644 0.07348917 0.034863073 -0.045237143
000030 cb d1 82 3d 59 c6 55 3c 4e d7 20 3c cd 1c 5d 3c
       0.06387671 0.013047778 0.009816958 0.013495636
000040 d3 c1 53 3d ad 9b 2c 3c b4 01 11 3d cf 59 c6 3c
       0.051698517 0.010535163 0.035402015 0.024212746
000050 9d 1a a1 3d e9 b8 39 3c 60 5e 17 3d fe cf 9a 3c
       0.07866404 0.01133559 0.036955237 0.018898007
000060 95 91 d0 bc 43 66 e2 3d 0a 0f f0 3c ca 48 68 3d
       -0.025460044 0.11054661 0.029304046 0.056710042
000070 94 e7 8a 3d 72 31 7b 3d a0 7b 96 3d 7b e1 f8 bb
       0.06782451 0.06132645 0.07347798 -0.0075952387
000080 a0 98 e5 bc 95 4e 9d 3d af 2e cf 3c 60 9a cd 3b
       -0.028026879 0.07681004 0.025290815 0.0062745064
000090 11 1d 91 3d 09 d9 f9 3c 4d db 81 bb 40 7f db 3b
       0.07085622 0.030498998 -0.0039629103 0.006698519
0000a0 96 22 f6 3c a4 a2 02 3d 76 f9 fc bb 39 54 53 3d
       0.030045789 0.031893387 -0.0077201677 0.051593993
0000b0 9d 4a 9c 3d 16 61 81 3d 78 92 8a 3d cd 01 91 3c
       0.07631419 0.06317346 0.06766218 0.017701054
0000c0 ec 76 df bd 10 d3 ed 3c cb 58 e7 3c 3d 69 fd 3c
       -0.109113544 0.029031307 0.028240582 0.03093397
0000d0 9c 83 f1 3d c7 e7 89 3d 45 0b c4 3c ce b7 45 3d
       0.117926806 0.06733661 0.023931155 0.048270993
0000e0 89 13 44 3d 3d 24 b5 3c 11 b6 e6 bc 8f 48 bc 3c
       0.047870193 0.022112006 -0.028162988 0.022983817
0000f0 f5 2d 8c 3d 4d f8 08 3d d3 fc 5a 3c f5 94 4b 3b
       0.06844703 0.033439923 0.013365942 0.0031064127

action_model._continuous_distribution.log_sigma f4 [1, 2]
000000 ee 3b 2e 3e 1e f0 90 3b
       0.17015049 0.0044231554

action_model._continuous_distribution.mu.weight f4 [2, 64]
000000 e4 b2 21 be 98 27 97 3d c6 bc 06 bd 4a b5 96 3d
       -0.15790898 0.07380599 -0.032894872 0.07358797
000010 b7 96 8b 3d b7 52 ea bd d3 99 f4 bc d1 34 56 bd
       0.06815856 -0.11441558 -0.029858505 -0.052296463
000020 41 6e f8 3c 37 5d b5 3d 94 30 9c bd e0 5a 4b 3c
       0.03032601 0.0885567 -0.07626453 0.012411803
000030 ba c9 d9 bb b5 8b 18 3d 1c b2 86 3d 9e 90 21 3d
       -0.006646362 0.03724261 0.065769404 0.03944456
000040 e4 35 fa 3d a6 cd 83 ba e4 a5 dc bc 4f 7f f9 bc
       0.1221731 -0.0010055795 -0.026934572 -0.030456213
000050 1b c4 07 3d 2a 91 59 3d 1f bd 30 bd 40 70 e3 bc
       0.033146005 0.053116955 -0.04314911 -0.027763486
000060 aa c8 27 3d 1c e3 e0 bd 1c f6 cf 3d 54 2e cc bd
       0.040962853 -0.10980818 0.101543635 -0.09969774
000070 b1 cd 01 3d ac 32 15 3b 89 7d d1 bd c3 ad 9d 3c
       0.031690303 0.0022765798 -0.10229022 0.019247895
000080 45 1d b9 bc e9 ca 21 bc c8 30 28 3d e3 5b 6c 3d
       -0.022596965 -0.009875038 0.041062146 0.057704818
000090 43 9e b3 3d c0 0c 58 bc 7d f1 a7 3b 47 c5 d3 3d
       0.087704204 -0.013186634 0.005125223 0.10340362
0000a0 4c d9 53 3d 97 c3 04 3d 20 ab 7b 3d ad 3b db bd
       0.051720902 0.03241309 0.061442494 -0.107047416
0000b0 c7 c1 b6 3c 8f 37 cf bd 58 f7 cb bb d0 39 a9 bd
       0.022309197 -0.10118019 -0.006224554 -0.0826298
0000c0 b1 b7 f0 3c 64 86 0b 3d 8a ab 11 bd e0 5a ee 3c
       0.029384466 0.03406371 -0.035563983 0.029096067
0000d0 eb 06 43 bd 3f 61 d3 3d c3 a1 1c 3d 09 ed b0 3d
       -0.04761402 0.103212826 0.038240205 0.08638961
0000e0 92 b9 d0 bd 0a 02 d9 3a ee 1f 9c ba c9 e4 a4 bc
       -0.10191645 0.0016556394 -0.0011911371 -0.020128625
0000f0 57 8d 9a 3d cc ca 86 bc 02 40 b5 3d ca 42 bf 3c
       0.0754649 -0.016454123 0.08850099 0.023347277
000100 b3 24 1b bd 97 c6 25 3d db 9f 5c bd d2 ae a4 3b
       -0.037876796 0.040472593 -0.053863388 0.005025723
000110 66 38 25 be a5 8e 0a 3d 40 41 b9 3d 9c 7f 04 be
       -0.16134796 0.033827443 0.090456486 -0.12939304
000120 a6 e7 50 bd ce d0 a2 3d 3c 8c b3 3c 36 df ae bd
       -0.051002167 0.079499826 0.021917455 -0.08538668
000130 0c 7b d6 3d e9 52 9d 3d 2b 3b 79 3c 7d 34 13 3d
       0.10472688 0.076818295 0.015211861 0.03593873
000140 a0 06 e5 bd 92 cc e4 bc c1 3c 83 3c c2 82 49 3d
       -0.11182904 -0.027929578 0.01602018 0.049196966
000150 1e fa 69 3d c6 3e a1 bd 9e b6 ca bd d6 51 cf bd
       0.057123296 -0.07873301 -0.09898113 -0.10123031
000160 9d f0 e4 b9 48 3c d7 3d 53 2b 2a bb 02 5d ea bc
       -0.0004366682 0.105095446 -0.0025965765 -0.028608803
000170 60 a9 e7 3d 29 34 6e 3d e6 f9 c2 3d 0a 97 1d 3c
       0.113116026 0.058155213 0.095203206 0.00961853
000180 17 28 7e bc 12 e8 5d 3d 91 8c cc 3c 5d 1d b1 bc
       -0.015512488 0.054176398 0.024969371 -0.021620447
000190 51 61 2b be 9e 33 d6 3d eb 72 60 3d 9d 25 f2 3c
       -0.16736342 0.10459064 0.054797094 0.029558951
0001a0 e6 16 0f 3c ce a6 c1 3d 33 68 1d bb a9 5a 37 3d
       0.008733487 0.094556436 -0.0024018406 0.044764195
0001b0 3f df 6b 3d e5 b0 92 3d 9c 28 78 3d 63 3a 9e bc
       0.05758595 0.07162646 0.060585603 -0.01931495
0001c0 0f de bb bc cf 84 b2 3d ba ec 58 3d a4 24 47 3b
       -0.022933034 0.087167375 0.052960135 0.003038683
0001d0 bb 82 fb 3d e9 61 46 bc 8d 29 4a 3d 5d fb fa bd
       0.12280794 -0.012108305 0.049356032 -0.12254975
0001e0 53 0e ac bd e4 75 1a 3d e3 f2 59 3d 8b 61 db bc
       -0.0840117 0.037710086 0.05321015 -0.02677991
0001f0 a5 35 30 3d a8 bc b4 3d fe 46 f4 bd a0 5d cc bd
       0.04301991 0.08825046 -0.11927603 -0.09978795

action_model._continuous_distribution.mu.bias f4 [2]
000000 25 97 e7 bc 31 cd 43 3b
       -0.028270314 0.0029876942
