results/MLHades_main_11_grid32x32cellsize1x1/MLHades/MLHades-1999979.onnx (onnx, 158122 bytes, 22 tensors)

discrete_action_output_shape f4 [1, 4]
3.0 3.0 3.0 2.0
00000000: 0000 4040 0000 4040 0000 4040 0000 0040

network_body.observation_encoder.processors.1.conv_layers.0.weight f4 [16, 7, 8, 8]
0.014817519 -0.0077262586 0.0036848898 -1.757863e-05 -0.018055663 0.03860346 0.023114359 -0.08290059
-0.011128764 0.016925793 0.012856206 0.08055831 0.0894641 0.02445286 -0.015466652 -0.095606215
-0.04447757 0.06324348 0.048943684 0.022764653 0.061548006 0.015392658 -0.0010929847 -0.057856586
0.048941236 0.04473218 -0.018812682 -0.032229938 0.04149868 -0.0057038283 0.040322676 0.014608911
-0.011772791 0.050930724 -0.05699221 0.0052614245 0.03419193 -0.0038866878 0.004757467 0.079696395
-0.019863266 0.053885464 -0.081661485 -0.003813858 0.01312976 -0.0505088 0.0046765944 -0.007838938
0.01498763 0.032711525 -0.08029636 -0.09850591 0.006243888 -0.02507188 0.008572516 0.039655767
-0.011164789 -0.097792186 -0.05541344 -0.07516509 0.0008244127 -0.03279993 0.020663807 0.06643242
0.10019298 0.26696083 0.25748453 0.03162099 0.22548021 0.2545906 0.102815524 0.21901329
0.06296041 0.14845996 0.27672175 0.0829466 0.10035653 0.18812534 0.0047276192 0.17874634
-0.09040237 0.022509992 0.08695418 0.114727855 0.078229785 0.17580397 0.060068343 0.12630583
0.11260669 0.058800653 0.15935144 0.12846947 0.044225316 0.23799667 0.11890535 0.16826269
0.19038858 0.06346772 0.07669735 0.30611777 0.21651386 0.27402043 0.21927677 0.14532772
0.1554753 0.124935426 0.17444995 0.26868618 0.3004997 0.24141516 0.11757547 0.18929441
0.18958211 0.09115003 0.17698579 0.10425426 0.07723444 0.22829024 -0.04738266 0.013171033
0.17167868 0.035640728 0.09970144 0.049196318 0.07964678 0.21142918 0.089609966 0.045530885
0.011183511 -0.053607464 0.0053077703 -0.09962382 -0.034015916 0.038759857 0.04338413 -0.05555305
-0.035259653 -0.06342365 -0.0021131227 0.0048360745 -0.12835278 -0.016910901 0.0058084535 -0.12021539
0.036819696 0.004737924 -0.013274154 -0.06484975 -0.08249999 -0.09048319 -0.025251174 0.007827907
0.102786966 -0.007809321 0.10836346 0.017239017 0.03696233 -0.054401655 0.103678115 0.010895896
0.13997777 -0.026034128 0.11361099 0.068957165 0.0879742 0.060261942 0.042364433 0.024511626
0.041598205 0.004557505 0.044437256 0.07275008 0.008121893 -0.06807727 -0.04269659 0.00125697
0.031020459 -0.05659587 0.0101888245 0.0071494333 -0.0007615672 0.043380838 -0.017399438 0.097446844
0.04935905 -0.09434413 -0.07882066 0.006366154 -0.057219293 -0.04812651 -0.111579925 -0.0038213958
-0.049938533 -0.019426225 0.051977165 -0.042311724 0.0027949063 -0.019086383 -0.012670699 -0.045354176
-0.022686265 0.027289143 -0.055021163 -0.06849264 0.021731753 0.077606745 -0.05292083 -0.12274175
0.07990725 -0.014356878 -0.04724337 -0.04102509 0.05711781 0.044263743 0.009244312 -0.06793185
-0.0014579411 -0.070341945 -0.14360273 -0.06323588 -0.04772156 -0.018772714 0.061390627 -0.051135536
-0.008939911 0.0035085932 0.0070014107 0.05496234 -0.021286989 -0.045671757 0.052473035 -0.03418052
-0.09680295 -0.06299755 -0.05854979 0.053613115 0.10249824 0.07016047 0.036690805 -0.1429068
0.004544073 0.07976867 -0.038000967 0.012219607 0.045584537 -0.0058499523 0.041544985 -0.05809037
-0.012826659 -0.0027811294 0.014847762 0.03957368 -0.04197107 0.033221006 0.085114054 0.026395105
00000000: 2ec5 723c 8e2c fdbb 317e 713b d275 93b7
00000010: 78e9 93bc a91e 1e3d 535a bd3c c9c7 a9bd
00000020: 6b55 36bc f6a7 8a3c d6a2 523c c1fb a43d
00000030: f438 b73d 5d51 c83c d767 7dbc 31cd c3bd
00000040: 1d2e 36bd cc85 813d 2c79 483d f07c ba3c
00000050: c319 7c3d 7d31 7c3c 7b42 8fba 07fb 6cbd
00000060: 9b76 483d 1739 373d 0e1d 9abc 8a03 04bd
00000070: 85fa 293d 2ee7 babb 6429 253d 375a 6f3c
00000080: aae2 40bc bc9c 503d aa70 69bd 0768 ac3b
00000090: d60c 0c3d cdb7 7ebb 87e4 9b3b dd37 a33d
000000a0: 4ab8 a2bc 01b7 5c3d 233e a7bd ebf1 79bb
000000b0: 341e 573c 51e2 4ebd 1e3e 993b e46e 00bc
000000c0: ad8e 753c 85fc 053d 6b72 a4bd 77bd c9bd
000000d0: 8799 cc3b 8b63 cdbc bd73 0c3c 166e 223d
000000e0: 85ec 36bc 4547 c8bd 34f9 62bd 28f0 99bd
000000f0: 661d 583a 3859 06bd 2547 a93c b80d 883d
00000100: fa31 cd3d 17af 883e 03d5 833e 0385 013d
00000110: 49e4 663e b359 823e f290 d23d 0545 603e
00000120: 63f1 803d e305 183e 79ae 8d3e e8df a93d
00000130: b987 cd3d eea3 403e 25ea 9a3b 4809 373e
00000140: e124 b9bd e066 b83c 0815 b23d 70f6 ea3d
00000150: f036 a03d f505 343e 390a 763d 5156 013e
00000160: 569e e63d f4d8 703d 062d 233e 808d 033e
00000170: 9b25 353d 66b5 733e a684 f33d 0e4d 2c3e
00000180: 39f5 423e 5dfb 813d 8013 9d3d 78bb 9c3e
00000190: cfb5 5d3e 684c 8c3e 178a 603e cad0 143e
000001a0: eb34 1f3e 25de ff3d 02a3 323e 3c91 893e
000001b0: 19db 993e 8935 773e 68cb f03d 65d6 413e
000001c0: d021 423e deac ba3d c33b 353e 4283 d53d
000001d0: 172d 9e3d ebc4 693e 5214 42bd 51cb 573c
000001e0: 89cc 2f3e 03fc 113d 4530 cc3d 1482 493d
000001f0: da1d a33d e480 583e 6e85 b73d 987e 3a3d
00000200: 0b3b 373c 8093 5bbd ceec ad3b 9307 ccbd
00000210: 4654 0bbd a8c2 1e3d 8fb3 313d 988b 63bd
00000220: 6d6c 10bd 42e4 81bd 517c 0abb ef77 9e3b
00000230: e96e 03be bb88 8abc d754 be3b 7d33 f6bd
00000240: 40d0 163d 9640 9b3b d67b 59bc f2cf 84bd
00000250: c1f5 a8bd 404f b9bd 8ddb cebc 9f40 003c
00000260: f981 d23d 55e5 ffbb a9ed dd3d d738 8d3c
00000270: d065 173d 45d4 5ebd 3155 d43d b384 323c
00000280: 5556 0f3e 8645 d5bc e1ac e83d 6a39 8d3d
00000290: d12b b43d 3ad5 763d 5486 2d3d 9bcc c83c
000002a0: e162 2a3d 1f57 953b d703 363d fefd 943d
000002b0: b011 053c 196c 8bbd 9fe2 2ebd eac0 a43a
000002c0: 9e1e fe3c 12d1 67bd 07ef 263c cb45 ea3b
000002d0: e9a3 47ba 1bb0 313d 4489 8ebc 3692 c73d
000002e0: b72c 4a3d 7f37 c1bd ba6c a1bd 2c9b d03b
000002f0: c75e 6abd 4e20 45bd 0484 e4bd 6270 7abb
00000300: 598c 4cbd bf23 9fbc 02e6 543d 0f4f 2dbd
00000310: bf2a 373b 0c5b 9cbc c398 4fbc 4dc5 39bd
00000320: 8cd8 b9bc 7b8d df3c df5d 61bd df45 8cbd
00000330: ca06 b23c 49f0 9e3d 83c3 58bd 0760 fbbd
00000340: 6aa6 a33d 1c39 6bbc 4482 41bd ed09 28bd
00000350: 5df4 693d e64d 353d 7475 173c db1f 8bbd
00000360: 6318 bfba 700f 90bd 980c 13be d081 81bd
00000370: af77 43bd 3cc9 99bc bd74 7b3d 7f73 51bd
00000380: b478 12bc 6df0 653b 176c e53b 3120 613d
00000390: 0d62 aebc 4f12 3bbd f7ed 563d df00 0cbd
000003a0: a040 c6bd dc04 81bd e8d1 6fbd 6d99 5b3d
000003b0: 99ea d13d 4bb0 8f3d 1949 163d 2956 12be
000003c0: 72e6 943b c25d a33d e7a6 1bbd bf34 483c
000003d0: dab6 3a3d f5b0 bfbb 132b 2a3d 2bf0 6dbd
000003e0: e826 52bc 9c43 36bb 0744 733c 0318 223d
000003f0: dbe9 2bbd c012 083d 4750 ae3d 8c3a d83c

network_body.observation_encoder.processors.1.conv_layers.0.bias f4 [16]
0.010049227 -0.012256211 0.012938009 -0.034899704 0.048686966 -0.020136243 -0.025866263 -0.0019349435
-0.008546441 -0.011809681 -0.037611283 -0.030233318 -0.040527154 0.027878828 -0.032081183 -0.012075837
00000000: 83a5 243c 46ce 48bc f1f9 533c fef2 0ebd
00000010: fc6b 473d c3f4 a4bc 7ce5 d3bc ee9d fdba
00000020: 5f06 0cbc 647d 41bc 4a0e 1abd ddab f7bc
00000030: cdff 25bd 2462 e43c 8f67 03bd bbd9 45bc

network_body.observation_encoder.processors.1.conv_layers.2.weight f4 [32, 16, 4, 4]
-0.028149782 0.018794142 0.094052896 0.05426916 -0.08065683 0.056360323 -0.006195094 0.036469936
0.04543466 0.026081046 0.064621404 0.034721076 -0.041360807 0.013610194 0.10552675 0.20128435
0.09971442 0.0027078933 0.1862193 -0.032562733 0.012588826 -0.058089443 0.0009494924 0.1077773
-0.13953203 -0.049532965 0.032234736 0.009737374 -0.059902217 0.005023663 0.09579571 -0.029467631
-0.038277213 0.11629777 0.050001334 0.035564184 0.04096737 -0.008585457 -0.0022437542 -0.035603218
0.0036031897 0.052213892 -0.0320103 -0.11017324 -0.03068426 -0.11551909 -0.058348466 0.092981495
0.092255004 0.0706921 -0.03632661 0.028261129 0.050559063 0.0739724 0.13240613 0.12938307
-0.021602403 0.13144341 0.008911819 0.146366 0.10607039 0.037471 -0.030307794 0.16089177
-0.0412892 0.099578924 -0.013387333 0.029193278 0.002106216 0.007984647 0.07949796 -0.052576385
-0.08401865 0.10871075 0.048966903 0.048247207 0.030432146 0.07149135 -0.017865682 0.073945515
-0.021764185 -0.044769 0.027756559 0.01495674 -0.026225157 -0.07057636 -0.03429406 0.12032183
-0.018830243 -0.065913156 -0.15252452 0.06331891 0.032874797 -0.06644204 -0.016548052 0.12573712
-0.033462826 -0.112531014 0.1130697 -0.10163613 0.113727234 -0.113157324 -0.0016667773 -0.17106843
0.011275578 0.014172451 0.020895278 -0.0991856 -0.10597644 -0.045715902 0.0686155 -0.03220473
0.07485038 0.076381266 0.001316708 0.013232533 0.082534745 0.14914688 0.09908839 0.0983108
-0.047561247 0.08003466 0.20325439 0.14760527 0.07724544 0.14073461 0.13026609 0.21055646
0.043664772 0.07672801 0.10854115 0.10018598 -0.06918322 0.013831944 0.008501534 0.09326191
0.036497455 0.037449136 0.1265859 0.1209233 0.07734426 0.05338204 0.16467397 0.18639353
-0.011542195 -0.032860067 0.0037246635 -0.014408147 -0.022291282 -0.022233658 0.05643193 -0.09218241
-0.06549451 0.08883895 -0.012648831 0.14917664 0.08911667 -0.009488096 0.019134441 0.115316994
0.050576262 0.016293567 -0.057821475 -0.00089491723 -0.018691888 0.06366639 -0.13527091 0.068480626
-0.028710928 -0.10585512 0.03990397 -0.01710571 0.012358946 0.070105374 0.07588221 -0.05213909
-0.05568215 0.063897386 -0.0020014963 0.006604174 0.036446437 0.040420223 0.06318227 0.13142186
-0.032014865 -0.05794718 0.03423612 0.041316394 0.028195886 -0.09688004 -0.008544545 0.05595989
0.20053244 0.030393949 0.087868355 0.06904201 0.13473792 -0.061486866 0.06327199 0.04163026
0.047503095 -0.015926244 0.07754375 -0.072610684 -0.046755034 0.09699545 0.050901245 0.01495243
-0.018763365 0.0583696 0.022856738 -0.06541725 -0.06855891 -0.024450574 0.14102545 -0.05324465
-0.09871189 0.12048902 0.0138484575 0.002472474 0.16171224 0.032285415 0.10008247 0.2294548
0.050287213 0.137329 0.025423931 -0.01659189 0.08621861 0.05217389 0.08275925 -0.027843071
-0.0138083175 -0.009649502 0.055661656 0.020693613 0.05350629 -0.007279078 0.013265154 0.14645067
-0.074631244 -0.03235763 -0.10896022 -0.15737092 -0.0006451919 -0.08202223 -0.1353011 -0.044269454
0.015946345 -0.0543251 -0.027983844 0.045221232 -0.06508005 -0.042005524 -0.047378626 -0.049815815
00000000: 5f9a e6bc 2cf6 993c ce9e c03d 5749 5e3d
00000010: 682f a5bd 15da 663d 3700 cbbb 8061 153d
00000020: b219 3a3d eba7 d53c 3a58 843d b037 0e3d
00000030: f369 29bd 4bfd 5e3c 691e d83d 7c1d 4e3e
00000040: 1337 cc3d e976 313b 46b0 3e3e 8060 05bd
00000050: 5d41 4e3c 32ef 6dbd 5be7 783a 58ba dc3d
00000060: 7ce1 0ebe 14e3 4abd 9208 043d 8289 1f3c
00000070: 075c 75bd 8a9d a43b 8b30 c43d 1a66 f1bc
00000080: 91c8 1cbd 862d ee3d 33ce 4c3d c0ab 113d
00000090: 67cd 273d 04aa 0cbc f30b 13bb aed4 11bd
000000a0: 7e23 6c3b 3cde 553d 3b1d 03bd 82a2 e1bd
000000b0: 8f5d fbbc 4695 ecbd cdfe 6ebd 156d be3d
000000c0: 31f0 bc3d 05c7 903d 36cb 14bd e283 e73c
000000d0: 0517 4f3d d77e 973d 7995 073e ff7c 043e
000000e0: 86f7 b0bc 1a99 063e e102 123c f8e0 153e
000000f0: 6f3b d93d 317b 193d 0d48 f8bc d0c0 243e
00000100: dd1e 29bd 09f0 cb3d 8b56 5bbc be26 ef3c
00000110: 7108 0a3b 09d2 023c d4cf a23d 565a 57bd
00000120: f811 acbd bea3 de3d 8591 483d dd9e 453d
00000130: d64c f93c 0f6a 923d 0d5b 92bc bf70 973d
00000140: ce4a b2bc b35f 37bd b961 e33c 1d0d 753c
00000150: 24d6 d6bc 578a 90bd ee77 0cbd 4b6b f63d
00000160: e241 9abc 7afd 86bd 632f 1cbe 58ad 813d
00000170: b9a7 063d c412 88bd c88f 87bc 3bc1 003e
00000180: 5110 09bd a976 e6bd 1691 e73d 9a26 d0bd
00000190: d3e9 e83d 07bf e7bd c477 daba 902c 2fbe
000001a0: 34bd 383c 9133 683c 932c ab3c d221 cbbd
000001b0: 2d0a d9bd 9940 3bbd 4986 8c3d 1be9 03bd
000001c0: 284b 993d c86d 9c3d 6495 ac3a 44cd 583c
000001d0: fa07 a93d f6b9 183e dbee ca3d 2c57 c93d
000001e0: 95cf 42bd 36e9 a33d eb21 503e d625 173e
000001f0: db32 9e3d bc1c 103e 7964 053e 1d9c 573e
00000200: d5d9 323d 9323 9d3d d34a de3d 4f2e cd3d
00000210: efaf 8dbd 619f 623c 054a 0b3c 1a00 bf3d
00000220: 5b7e 153d 4464 193d bc9f 013e a3a6 f73d
00000230: ab66 9e3d 20a7 5a3d 4ba0 283e f2dd 3e3e
00000240: 7a1b 3dbc 4798 06bd 7c19 743b 2610 6cbc
00000250: 359c b6bc 5c23 b6bc 2b25 673d 22ca bcbd
00000260: fc21 86bd 32f1 b53d 0b3d 4fbc c3c1 183e
00000270: cd82 b63d f673 1bbc d5bf 9c3c 512b ec3d
00000280: 0e29 4f3d 167a 853c 36d6 6cbd e198 6aba
00000290: bb1f 99bc 8663 823d 7584 0abe 923f 8c3d
000002a0: 2e33 ebbc 92ca d8bd 5872 233d 4621 8cbc
000002b0: 2d7d 4a3c 6893 8f3d 2268 9b3d cc8f 55bd
000002c0: f712 64bd a2dc 823d 892b 03bb d467 d83b
000002d0: dc48 153d ad8f 253d b565 813d 7493 063e
000002e0: 0522 03bd 065a 6dbd 2c3b 0c3d 613b 293d
000002f0: 0ffb e63c 0b69 c6bd 6bfe 0bbc 3336 653d
00000300: 6058 4d3e bbfc f83c 53f4 b33d e665 8d3d
00000310: bdf8 093e a7d9 7bbd bf94 813d 7e84 2a3d
00000320: 9b92 423d c177 82bc 42cf 9e3d e9b4 94bd
00000330: 3582 3fbd 8da5 c63d d37d 503d 09fb 743c
00000340: a1b5 99bc f614 6f3d 0e3e bb3c 7bf9 85bd
00000350: 9d68 8cbd 924c c8bc fa68 103e 1017 5abd
00000360: 7629 cabd f3c2 f63d a4e4 623c 3b09 223b
00000370: e597 253e b63d 043d 0af8 cc3d 33f6 6a3e
00000380: f7f9 4d3d f99f 0c3e d945 d03c b7eb 87bc
00000390: 6293 b03d 4ab4 553d af7d a93d 2717 e4bc
000003a0: 483c 62bc f218 1ebc 7afd 633d a785 a93c
000003b0: 6929 5b3d 5585 eebb 1756 593c 2af7 153e
000003c0: 44d8 98bd 6f89 04bd 8926 dfbd d825 21be
000003d0: 1822 29ba 45fb a7bd 5f8c 0abe e353 35bd
000003e0: e9a1 823c ff83 5ebd 603e e5bc e639 393d
000003f0: b048 85bd fc0d 2cbd 1710 42bd ab0b 4cbd

network_body.observation_encoder.processors.1.conv_layers.2.bias f4 [32]
-0.010514572 0.04271874 0.021014674 -0.03417868 0.004093133 0.11869067 0.010537969 0.073165186
-0.051796507 0.043915294 0.027162356 0.006544895 0.01925604 0.020012975 -0.006281475 0.010643744
-0.030939817 0.053274207 0.006042005 -0.09792376 -0.028317807 -0.0059176753 -0.07020576 -0.051803313
-0.018617958 0.10576372 0.044897866 0.005865595 0.051481638 -0.045180503 -0.043651197 -0.06618507
00000000: 5045 2cbc d8f9 2e3d f726 ac3c f2fe 0bbd
00000010: b01f 863b 1814 f33d 72a7 2c3c a1d7 953d
00000020: 9328 54bd 86e0 333d 9783 de3c 8f76 d63b
00000030: d8be 9d3c 40f2 a33c d5d4 cdbb 1963 2e3c
00000040: 8075 fdbc 0e36 5a3d 03fc c53b 418c c8bd
00000050: bffa e7bc 0fe9 c1bb 0ac8 8fbd b62f 54bd
00000060: b084 98bc a69a d83d d3e6 373d 2d34 c03b
00000070: 69de 523d 310f 39bd 99cb 32bd 0a8c 87bd

network_body.observation_encoder.processors.1.dense.0.weight f4 [64, 128]
-0.057515774 -0.10761121 0.15343854 0.15141699 0.12177051 -0.0983572 -0.087723665 0.27495345
0.04989076 0.29098782 -0.11388857 0.22975808 0.070851654 0.042594492 0.09840446 -0.1121369
-0.21747997 0.15177205 -0.060393527 -0.11971094 0.07104707 0.09815386 -0.08304839 0.052548528
-0.038249858 -0.05405789 0.43465596 0.22395708 -0.07647828 0.13920496 0.00985027 0.20755555
-0.04656306 0.08275278 -0.034132406 0.13875648 -0.22846113 -0.11405075 0.016374724 0.12086165
-0.06801411 -0.12640327 -0.10767964 0.05972435 -0.23072788 -0.12400698 0.09423931 0.116600774
0.15857929 -0.040097144 -0.21682835 0.18997814 0.062279403 -0.12711768 -0.13312109 0.03262658
-0.111333884 0.12856942 -0.22943982 0.06082922 -0.033713084 -0.11374727 0.046614252 -0.056613874
-0.027769368 0.033854593 0.096865915 -0.058088753 0.09702075 -0.15391499 -0.12292097 -0.10644372
-0.07632755 0.069329485 0.04647769 0.19213226 -0.12541412 0.31365815 -0.098040275 0.01567426
0.27584487 0.15733388 -0.064400144 0.12054419 0.031387545 0.08492802 0.24989235 -0.21165508
-0.05636591 -0.3193414 0.15328324 0.021596024 -0.05257699 -0.07709423 0.013527367 0.4023792
0.15296862 -0.0661468 0.008697 0.21454868 0.2816484 0.15815915 0.08634016 -0.10211609
-0.025374414 -0.18818371 0.15017173 0.157612 -0.045775518 -0.10345956 0.20482495 0.2676646
-0.14773251 0.05465531 0.06965041 -0.32592583 -0.03708613 0.036136292 0.19347653 -0.0420122
-0.20336007 0.118205205 -0.21057743 0.28177682 -0.2367326 -0.20453987 0.20167135 -0.077232316
0.10711822 -0.17922807 0.18549736 -0.09550156 0.37543538 -0.061809827 0.035770126 -0.09366087
0.17189175 -0.18451236 0.16203973 -0.26295 0.13201699 -0.084682085 -0.013297852 -0.14004679
0.054716676 -0.16174552 0.10972441 0.1004246 0.005051501 -0.046231717 -0.13243864 -0.23037949
-0.23894764 0.008100629 -0.016464384 0.035324123 0.06116059 -0.35675257 0.17245167 -0.0072630215
-0.19298957 0.124685526 0.05406185 0.01731079 0.10258493 -0.2438947 0.075399294 -0.32654372
-0.17175944 -0.2129194 0.04028062 -0.20258372 0.26435763 0.038651288 0.26523364 0.066686206
0.19883722 0.051642336 0.2259244 0.05690955 0.036305383 0.08366993 -0.15497269 0.13841718
-0.07303116 -0.16877379 0.22806253 -0.16573785 -0.12052029 -0.058357757 -0.15202978 -0.095420256
-0.19134511 -0.013074375 0.024011761 0.014445434 -0.05156191 -0.0883268 -0.03934095 -0.0800871
0.05966195 0.013571908 0.31167027 0.14714396 0.22366567 -0.20920739 0.3144444 0.17348783
-0.04780386 -0.08902112 0.1589473 -0.1639644 0.021722836 0.15919518 0.27178338 -0.07032653
0.19986011 0.0034977584 0.16344745 -0.012458637 0.2739359 -0.032689273 0.115871824 -0.16735426
0.14243917 -0.1664528 0.0077861357 -0.09183911 -0.1507516 0.05580186 -0.019625861 -0.01027987
-0.1017639 -0.06558868 -0.039561164 -0.2064782 0.13836305 0.047785252 0.17633817 -0.23229629
0.070238225 0.08546646 -0.11523305 -0.22490159 0.31285492 -0.18651092 0.040136423 0.16841766
-0.048280306 0.19212125 0.13633154 -0.048486948 0.36336446 0.040357757 -0.0013486147 -0.06995043
00000000: a995 6bbd 4463 dcbd fe1e 1d3e 0e0d 1b3e
00000010: d162 f93d 806f c9bd 77a8 b3bd b3c6 8c3e
00000020: 415a 4c3d 5bfc 943e 693e e9bd b445 6b3e
00000030: ac1a 913d 9077 2e3d 4788 c93d 08a8 e5bd
00000040: 12b3 5ebe 226a 1b3e 345f 77bd 022b f5bd
00000050: 2081 913d e404 c93d 4615 aabd 203d 573d
00000060: e2ab 1cbd ce6b 5dbd 3a8b de3e 0155 653e
00000070: a5a0 9cbd bf8b 0e3e 0763 213c 7189 543e
00000080: e8b8 3ebd 4a7a a93d 6cce 0bbd 2e16 0e3e
00000090: b7f1 69be 7193 e9bd 4924 863c 5086 f73d
000000a0: fb4a 8bbd dc6f 01be 2587 dcbd 85a1 743d
000000b0: ee43 6cbe 5ff7 fdbd 8a00 c13d 63cc ee3d
000000c0: 9c62 223e e73c 24bd 4008 5ebe a189 423e
000000d0: b018 7f3d 232b 02be e550 08be 73a3 053d
000000e0: 0503 e4bd b4a7 033e 46f2 6abe 0f28 793d
000000f0: bb16 0abd 54f4 e8bd 96ee 3e3d f3e3 67bd
00000100: 967c e3bc 1dab 0a3d a361 c63d 79ee 6dbd
00000110: d1b2 c63d e49b 1dbe fdbd fbbd 2aff d9bd
00000120: 9e51 9cbd 9efc 8d3d 645f 3e3d 52be 443e
00000130: 8f6c 00be cd97 a03e 57c9 c8bd 4e67 803c
00000140: 8a3b 8d3e 221c 213e 39e4 83bd dfdf f63d
00000150: 3a90 003d beee ad3d c8e3 7f3e 1cbc 58be
00000160: f1df 66bd b780 a3be 48f6 1c3e 25ea b03c
00000170: f85a 57bd 94e3 9dbd e4a1 5d3c a604 ce3e
00000180: cea3 1c3e f977 87bd dd7d 0e3c a6b2 5b3e
00000190: 3834 903e 79f4 213e 1cd3 b03d 3e22 d1bd
000001a0: 01de cfbc 3bb3 40be 9ec6 193e 0a65 213e
000001b0: 1c7f 3bbd 9be2 d3bd a2bd 513e 560b 893e
000001c0: 3147 17be 3fde 5f3d e0a4 8e3d c0df a6be
000001d0: a0e7 17bd a603 143d b61e 463e fc14 2cbd
000001e0: 9f3d 50be 9215 f23d 9ca1 57be 0d45 903e
000001f0: 086a 72be e672 51be ef82 4e3e fa2b 9ebd
00000200: cc60 db3d 9087 37be 05f3 3d3e 5296 c3bd
00000210: 1139 c03e 4d2c 7dbd b283 123d 45d1 bfbd
00000220: 6404 303e cff0 3cbe beed 253e 62a1 86be
00000230: 762f 073e cd6d adbd 3cdf 59bc 6d68 0fbe
00000240: 981e 603d 9ea0 25be 31b7 e03d 6aab cd3d
00000250: 1087 a53b 785d 3dbd ff9d 07be 9ae8 6bbe
00000260: b1ae 74be 80b8 043c 51e0 86bc 07b0 103d
00000270: 8783 7a3d 46a8 b6be 2c97 303e a4fe edbb
00000280: 0f9f 45be 205b ff3d f56f 5d3d 5ccf 8d3c
00000290: 0c18 d23d 88bf 79be f26a 9a3d bd30 a7be
000002a0: b5e1 2fbe 8b07 5abe 4bfd 243d 1b72 4fbe
000002b0: e259 873e d050 1e3d b4cc 873e c792 883d
000002c0: fc9b 4b3e ea86 533d ba58 673e fd19 693d
000002d0: f4b4 143d 245b ab3d 29b1 1ebe 3cbd 0d3e
000002e0: 5c91 95bd 09d3 2cbe 3989 693e 2fb7 29be
000002f0: 58d3 f6bd 8b08 6fbd b2ad 1bbe b26b c3bd
00000300: f9ef 43be e735 56bc 50b4 c43c 8bac 6c3c
00000310: 9532 53bd aee4 b4bd fa23 21bd b504 a4bd
00000320: 1760 743d b55c 5e3c 3f93 9f3e e8ac 163e
00000330: 9d08 653e 763a 56be dbfe a03e cba6 313e
00000340: fbcd 43bd b450 b6bd 15c3 223e 49e6 27be
00000350: 17f4 b13c 1004 233e 3127 8b3e 5b07 90bd
00000360: 21a8 4c3e a63a 653b c55e 273e 501f 4cbc
00000370: 5441 8c3e 30e5 05bd 354e ed3d ea5e 2bbe
00000380: 93db 113e 9a72 2abe d722 ff3b 2516 bcbd
00000390: a15e 1abe 7e90 643d 6ac6 a0bc e66c 28bc
000003a0: 9769 d0bd 5c53 86bd e30a 22bd 056f 53be
000003b0: 0baf 0d3e 78ba 433d fe91 343e 14df 6dbe
000003c0: 0fd9 8f3d 0a09 af3d 4eff ebbd 9a4c 66be
000003d0: 852e a03e b8fc 3ebe 1766 243d ae75 2c3e
000003e0: 92c1 45bd 6fbb 443e 7f9a 0b3e 409a 46bd
000003f0: e80a ba3e 2d4e 253d 00c4 b0ba 2c42 8fbd

network_body.observation_encoder.processors.1.dense.0.bias f4 [64]
0.039740715 0.020743366 0.0036263696 0.028429395 0.029374082 -0.013712775 0.02535898 0.020136394
0.0336089 0.05029005 0.057826914 0.03630659 -0.02175143 0.04433608 0.060789246 0.05178107
0.025298765 0.015979351 0.021399012 0.0066696447 0.027631152 0.03946138 0.047346786 0.005662983
0.04659124 0.0058105565 0.009598151 0.038136713 0.03505996 0.053852163 -0.0033996897 0.042925622
0.01067053 0.047849845 0.008614551 0.024418542 0.02535044 0.03502154 0.043985 0.0416711
0.04514001 0.0075496826 0.019336922 0.024816101 0.045728922 0.015794327 0.031410344 -0.027237272
0.008849956 -0.034595452 0.02031395 0.07415436 0.05769825 0.04782701 0.0056097303 0.040820573
0.0628462 0.018443292 0.027635613 0.07453912 0.018869424 0.023088286 0.030013775 0.018802624
00000000: 29c7 223d feed a93c 63a8 6d3b c3e4 e83c
00000010: eaa1 f03c 8cab 60bc a3bd cf3c 14f5 a43c
00000020: 7ca9 093d f1fc 4d3d eadb 6c3d 38b6 143d
00000030: 0e30 b2bc c099 353d 25fe 783d 6318 543d
00000040: 5b3f cf3c 21e7 823c fb4c af3c 098d da3b
00000050: ba5a e23c 42a2 213d b4ee 413d 8b90 b93b
00000060: 75d6 3e3d 7b66 be3b 9041 1d3c 3e35 1c3d
00000070: 089b 0f3d 1694 5c3d 54cd 5ebb c7d2 2f3d
00000080: 72d3 2e3c 33fe 433d 0c24 0d3c 6509 c83c
00000090: baab cf3c bf72 0f3d 9e29 343d 51af 2a3d
000000a0: bbe4 383d 5463 f73b 7768 9e3c 234b cb3c
000000b0: 404e 3b3d 1b63 813c 22a8 003d b320 dfbc
000000c0: 68ff 103c f6b3 0dbd 7169 a63c 3ede 973d
000000d0: 0055 6c3d 41e6 433d d4d1 b73b 7933 273d
000000e0: 82b5 803d 6316 973c 1564 e23c f7a7 983d
000000f0: 0d94 9a3c a523 bd3c 73df f53c f607 9a3c

network_body._body_endoder.seq_layers.0.weight f4 [64, 142]
0.032625765 -0.07598017 -0.09047656 0.050838336 -0.044194028 -0.10948 -0.053304024 -0.028230144
-0.016795821 -0.024453757 0.1756205 -0.019100118 0.050634287 -0.08526439 0.073231846 0.068188295
0.117082216 -0.26231936 -0.04200063 -0.10325326 0.11403268 0.15140377 -0.07757626 -0.05737898
0.07271551 0.11001147 -0.004481981 -0.061912492 -0.15964086 -0.19499715 -0.023861159 0.05869273
-0.002295548 0.12865765 -0.032096494 -0.13114317 -0.015397629 -0.117416695 0.014156374 0.08731176
-0.12720403 0.0016710086 0.16741282 -0.03462864 0.08861864 0.0013948462 -0.021689102 -0.22457264
0.1902702 0.05578269 -0.050924838 -0.2038177 0.024513103 -0.011872056 -0.091820635 0.09419615
-0.05662529 -0.07613353 0.059053373 -0.119130924 0.109976344 0.15716787 -0.07384773 -0.15598902
0.06465863 0.12107106 -0.047072887 0.1769132 -0.049400058 -0.19202933 0.00036832198 -0.032784455
-0.04429783 0.04955051 -0.099704824 -0.1674293 0.12064542 -0.074998036 -0.056413043 0.08818595
0.1642607 0.09362067 0.069546685 -0.2049257 0.028268252 -0.023444166 -0.08427274 0.19080502
0.09891578 0.039438996 -0.039109997 0.007365174 -0.02187398 0.026223863 -0.13052374 0.094489016
0.08668481 -0.04045658 0.14025687 -0.034208268 0.0961801 0.020639623 -0.014565832 0.03369459
-0.23465589 0.21458359 -0.03713054 0.16160923 0.10767933 0.19280195 0.08464028 0.06841484
-0.021072915 0.06665305 0.13979053 0.05447556 0.07836604 0.049855977 -0.1660784 0.14581491
0.05515869 -0.2740909 -0.025274698 -0.020812837 -0.016668016 -0.08747262 0.1592024 0.0043212427
-0.0945287 -0.07941073 0.038039573 -0.29845807 -0.067769594 -0.0060172663 0.06525879 -0.14276607
-0.03675698 0.105223425 0.19749367 -0.20292628 0.017044969 -0.033992298 0.10552553 -0.005165038
0.096959576 -0.18268599 -0.082647465 -0.17529155 -0.034395687 0.0053382367 -0.119611986 -0.1187253
0.051424157 -0.017774295 -0.013688248 -0.046976715 -0.13919389 0.29602894 -0.10140304 -0.080294624
-0.042197093 -0.22035576 0.098551005 0.0343675 -0.073429674 -0.100587636 0.001603924 -0.14381298
-0.008889026 0.10723791 -0.049762264 -0.033718605 -0.057856977 -0.070543975 -0.1759468 -0.052930802
-0.06727168 0.035750303 -0.015400748 -0.05320227 -0.048016902 -0.059485897 -0.08217249 0.08876774
0.0030959398 -0.027440693 0.095833264 0.00296082 0.115586646 -0.14668205 0.1030229 -0.036923673
0.1090318 0.11592672 -0.078973405 0.124308445 0.06891617 0.1206228 0.07757456 -0.009125063
0.025963603 0.04117473 -0.082097925 0.22680196 -0.05115014 0.06524692 -0.09906785 -0.037352588
-0.24432787 0.14335397 0.026281036 -0.019231727 -0.1358991 -0.14656183 -0.054878682 -0.14138247
0.14550142 -0.18431772 0.11309499 0.035440955 -0.0736894 -0.07213187 0.011257791 -0.010243144
0.10053145 0.0023463136 -0.11957668 0.07341261 -0.080330916 -0.040766846 0.04529428 0.004184714
-0.12621193 -0.017323293 0.0419959 -0.119746946 0.1655318 0.100379735 -0.010023825 -0.17682901
0.10674747 0.35506237 0.042022243 0.12052903 0.13084221 -0.044691205 -0.084192164 -0.03143667
-0.01340084 0.14462219 0.18653095 0.15656638 -0.030115334 0.11417485 0.000104328356 -0.028991489
00000000: 98a2 053d 7e9b 9bbd c64b b9bd dc3b 503d
00000010: cc04 35bd 0d37 e0bd 5255 5abd e742 e7bc
00000020: 6497 89bc 3f53 c8bc dcd5 333e da77 9cbc
00000030: e665 4f3d 199f aebd 94fa 953d 4ea6 8b3d
00000040: cdc8 ef3d b94e 86be da08 2cbd 7276 d3bd
00000050: f789 e93d 9709 1b3e 4de0 9ebd 3906 6bbd
00000060: dfeb 943d b24d e13d 95dd 92bb f497 7dbd
00000070: e578 23be 55ad 47be 7a78 c3bc ca67 703d
00000080: e870 16bb d5be 033e 9d77 03bd 654a 06be
00000090: 5646 7cbc 2a78 f0bd 23f0 673c 82d0 b23d
000000a0: c641 02be bf05 db3a 446e 2b3e c3d6 0dbd
000000b0: b17d b53d 46d3 b63a 58ad b1bc 5ff6 65be
000000c0: 31d6 423e 647c 643d 9096 50bd 96b5 50be
000000d0: b4cf c83c 0383 42bc 750c bcbd e9e9 c03d
000000e0: ecef 67bd e5eb 9bbd f3e1 713d eafa f3bd
000000f0: 473b e13d 9df0 203e 7b3d 97bd 96bb 1fbe
00000100: be6b 843d 1bf4 f73d 80cf 40bd bc28 353e
00000110: b757 4abd 56a3 44be 571b c139 fe48 06bd
00000120: a471 35bd 7af5 4a3d 0b32 ccbd 9672 2bbe
00000130: f214 f73d 9298 99bd 5d11 67bd d69a b43d
00000140: f533 283e 32bc bf3d 7e6e 8e3d 0bd8 51be
00000150: d292 e73c fb0d c0bc 3097 acbd 6462 433e
00000160: 5b94 ca3d c98a 213d ce31 20bd 8f57 f13b
00000170: 1031 b3bc 6dd3 d63c 04a8 05be 7583 c13d
00000180: ce87 b13d cdb5 25bd 7f9f 0f3e f81d 0cbd
00000190: 13fa c43d 6d14 a93c 87a5 6ebc 5703 0a3d
000001a0: a249 70be cdbb 5b3e 3116 18bd e47c 253e
000001b0: fb86 dc3d e06d 453e e257 ad3d 141d 8c3d
000001c0: 1ba1 acbc 6581 883d 4025 0f3e c421 5f3d
000001d0: 607e a03d c835 4c3d 7510 2abe 8150 153e
000001e0: 14ee 613d a455 8cbe e20c cfbc af7f aabc
000001f0: 5d8b 88bc d824 b3bd f405 233e 3699 8d3b
00000200: 4398 c1bd 18a2 a2bd 62cf 1b3d 7fcf 98be
00000210: c9ca 8abd 7d2c c5bb 67a6 853d 4531 12be
00000220: 7d8e 16bd 617f d73d c83b 4a3e e8cb 4fbe
00000230: e4a1 8b3c 823b 0bbd c51d d83d 7b3f a9bb
00000240: be92 c63d 0912 3bbe 1343 a9bd a17f 33be
00000250: 7ee2 0cbd 60ec ae3b 21f7 f4bd 4026 f3bd
00000260: 23a2 523d 669b 91bc ac44 60bc a86a 40bd
00000270: d888 0ebe 1b91 973e 66ac cfbd 8271 a4bd
00000280: dcd6 2cbd f1a4 61be 1cd5 c93d f0c4 0c3d
00000290: 4c62 96bd e400 cebd c23a d23a b643 13be
000002a0: 47a3 11bc 8d9f db3d 84d3 4bbd 851c 0abd
000002b0: 70fb 6cbd 5c79 90bd 662b 34be f8cd 58bd
000002c0: bcc5 89bd e96e 123d 6b53 7cbc a0ea 59bd
000002d0: 5fad 44bd 7ca7 73bd 0d4a a8bd dccb b53d
000002e0: 40e5 4a3b 4ecb e0bc 3b44 c43d 510a 423b
000002f0: b1b8 ec3d d233 16be acfd d23d 473d 17bd
00000300: 104c df3d fd6a ed3d cfbc a1bd 6d95 fe3d
00000310: ec23 8d3d 1609 f73d 69df 9e3d 4a81 15bc
00000320: 9fb1 d43c d5a6 283d f522 a8bd c63e 683e
00000330: cf82 51bd 2da0 853d 16e4 cabd 07ff 18bd
00000340: 1631 7abe 62cb 123e 544b d73c db8b 9dbc
00000350: 2229 0bbe 4e14 16be 78c8 60bd 91c6 10be
00000360: 53fe 143e c9bd 3cbe 599e e73d 892a 113d
00000370: 78ea 96bd e0b9 93bd 9972 383c dcd2 27bc
00000380: 6fe3 cd3d 9cc4 193b 9ee4 f4bd 5a59 963d
00000390: 8984 a4bd 23fb 26bd 7f86 393d ed1f 893b
000003a0: b33d 01be 94e9 8dbc e503 2c3d e33d f5bd
000003b0: 2b81 293e e493 cd3d f83a 24bc aa12 35be
000003c0: 6b9e da3d bcca b53e 841f 2c3d edd7 f63d
000003d0: 80fb 053e 200e 37bd f16c acbd bdc3 00bd
000003e0: 328f 5bbc d717 143e f801 3f3e f052 203e
000003f0: 6fb4 f6bc 81d4 e93d dcca da38 8f7f edbc

network_body._body_endoder.seq_layers.0.bias f4 [64]
0.005169237 0.006260263 0.031791784 -0.0010820789 0.033348594 0.025267491 0.01348879 0.0038004357
0.032390114 0.050750606 0.01676155 0.052349173 -0.013117458 -0.0027344213 0.027284754 0.0064116884
0.01328162 0.008794294 0.011207773 0.037318464 0.037271578 0.03194716 0.060828745 -0.0031061945
0.044526752 0.0238701 0.047181368 0.026362149 -0.01136838 0.0016110418 0.00015208828 0.065112785
0.052562837 0.01569017 0.014767364 0.011651902 0.0542847 0.030226622 0.06535098 0.019251412
-0.029903699 0.052099746 -0.0069645112 0.009887787 0.03569307 0.04564747 0.036681034 0.0019902855
0.012037869 0.01392522 0.048046764 0.01706037 0.029926607 0.014229498 0.013494124 0.01190972
-0.0061776917 0.010840558 0.033656076 -0.005663842 -0.0030814009 0.001097931 0.047360457 0.030720567
00000000: b462 a93b e422 cd3b 1a38 023d 8bd4 8dba
00000010: 8998 083d c5fd ce3c 1600 5d3c bb10 793b
00000020: 7fab 043d dedf 4f3d 854f 893c 166c 563d
00000030: 9bea 56bc fa33 33bb 4784 df3c 2419 d23b
00000040: 279b 593c f115 103c cfa0 373c 3fdb 183d
00000050: 15aa 183d 06db 023d 9027 793d 4c91 4bbb
00000060: af61 363d 3a8b c33c 4041 413d 6ff5 d73c
00000070: 7142 3abc 9829 d33a e379 1f39 da59 853d
00000080: 214c 573d ac88 803c d0f2 713c 9fe7 3e3c
00000090: a259 5e3d d29d f73c bcd6 853d 23b5 9d3c
000000a0: 9af8 f4bc 8b66 553d 8e36 e4bb 6200 223c
000000b0: e632 123d d7f8 3a3d da3e 163d 736f 023b
000000c0: 7b3a 453c 9b26 643c afcc 443d 30c2 8b3c
000000d0: a528 f53c d722 693c 7516 5d3c fc20 433c
000000e0: 3c6e cabb 999c 313c f4da 093d c097 b9bb
000000f0: 54f1 49bb 73e8 8f3a 0afd 413d b3a9 fb3c

network_body._body_endoder.seq_layers.2.weight f4 [64, 64]
-0.07418525 -0.089283004 -0.05840503 -0.030888148 -0.15271258 -0.20444207 0.021350726 -0.12425668
0.14520355 0.27979684 0.15968509 0.035868574 -0.17382509 0.07609199 0.1385713 0.14902525
-0.20953332 -0.08386599 -0.002344803 0.035263162 0.056817025 0.05563504 0.039481994 0.04662055
0.057668198 -0.069298856 -0.15508412 0.19882356 -0.17001446 -0.16562481 0.12519105 0.12376064
0.10467752 0.08900086 0.04904678 0.076598056 0.0034371978 -0.09713125 0.20814583 -0.0022797016
0.24184956 -0.0048515024 -0.51741266 0.021421254 0.03379341 0.24267584 -0.1540872 0.2623162
-0.025993302 -0.23249815 -0.091709085 0.07205139 -0.022769334 0.0028604101 -0.03642894 0.041231327
0.29953706 0.16918947 0.22095166 0.054383334 -0.23936595 -0.24477334 0.25811255 0.08653155
0.20395514 -0.16493224 -0.015460522 0.058915667 -0.18745486 -0.48794606 0.109575175 -0.13172483
0.048114486 -0.22188956 0.061120715 -0.023855913 0.17083056 -0.012445603 -0.014727757 0.1640015
-0.14857057 0.06791851 0.001459679 0.14851807 -0.1433974 0.013492581 -0.055437263 0.0605228
-0.35902599 0.24028866 -0.18470977 0.19324306 0.16495913 -0.030522782 0.16705973 -0.15953971
0.04880332 -0.19504306 0.16935922 -0.0016869475 0.040080026 0.10795874 -0.027443351 -0.18344566
0.12573943 -0.031369023 0.052838456 -0.20671222 -0.09449803 -0.006396491 0.04958701 0.0102993
-0.22913416 0.15461764 -0.13803576 -0.123976134 -0.043637447 0.25854075 -0.17848848 0.22044186
-0.060178556 -0.13366853 -0.23450978 0.07679376 0.073604256 0.09101127 -0.008100929 -0.17140105
0.0026076913 0.05329066 0.037180923 -0.086854815 0.15196262 0.16839823 0.017906208 0.00921195
-0.039633688 0.19435234 0.047140803 0.17455983 0.11392555 -0.0325246 0.028557185 0.13979712
-0.10114928 -0.10860501 0.001170442 0.10860288 0.103901446 -0.036475454 0.09144001 -0.03855901
0.2128413 -0.21838832 0.047683783 -0.12918456 -0.18400873 0.0064194333 0.051746823 0.18473841
0.1861953 0.099392906 -0.15673247 0.057409626 0.06719942 -0.064468876 0.15798289 0.23522854
-0.29551187 -0.119735934 0.018352397 -0.080594115 0.0050776633 0.022681003 0.13897459 -0.13971758
0.105350934 -0.21733174 -0.013577214 -0.13880697 -0.07870236 0.16494569 0.242645 -0.073828794
0.0029404168 -0.045068763 0.06650745 0.14399658 -0.10192395 0.10048842 0.13230583 -0.15695989
-0.22507687 0.29438275 -0.12027358 -0.19670074 0.26448822 0.20336036 0.25207147 -0.09771876
-0.21119773 0.1098784 0.24974312 0.19224261 -0.09934429 0.08985658 0.14390169 -0.042077687
-0.13600467 -0.3876269 -0.30342257 -0.06411271 -0.024504049 -0.029390749 0.092544705 0.3526097
0.11249988 0.16046382 -0.10328821 -0.10038377 -0.16007082 -0.009951524 -0.16953832 0.15874325
-0.26791236 0.04061803 -0.2446019 -0.018259838 -0.055608027 0.038510032 0.1518597 0.04410117
-0.1214485 0.033994548 -0.11120367 -0.23666522 0.10994701 0.24245588 0.16286981 -0.15119989
0.07157098 0.06788464 -0.04443342 -0.110056505 0.30714116 0.060549747 -0.092784405 -0.1862614
-0.09730754 -0.0823334 0.07337478 0.0076474957 -0.099431165 -0.15776615 0.06632504 -0.017038248
00000000: 70ee 97bd 02da b6bd 1d3a 6fbd 2409 fdbc
00000010: b060 1cbe 4359 51be b8e7 ae3c 497a febd
00000020: 3db0 143e 8841 8f3e 7d84 233e edea 123d
00000030: 34ff 31be 1ed6 9b3d a3e5 0d3e 139a 183e
00000040: e78f 56be efc1 abbd 44ab 19bb 1b70 103d
00000050: f8b8 683d 91e1 633d dfb7 213d 31f5 3e3d
00000060: 7d35 6c3d 8fec 8dbd 5fce 1ebe 6798 4b3e
00000070: 4518 2ebe 8d99 29be 1532 003e 3876 fd3d
00000080: 2b61 d63d 1546 b63d 47e5 483d 71df 9c3d
00000090: 9c42 613b c0ec c6bd 2e24 553e 0c67 15bb
000000a0: 69a7 773e 5af9 9ebb 2875 04bf a07b af3c
000000b0: f56a 0a3d 0480 783e 09c9 1dbe 4f4e 863e
000000c0: e8ef d4bc ff13 6ebe f9d1 bbbd ae8f 933d
000000d0: c186 babc b875 3b3b 8336 15bd 2ee2 283d
000000e0: ec5c 993e 0140 2d3e 2741 623e 0fc1 5e3d
000000f0: 591c 75be dda5 7abe 5427 843e 7437 b13d
00000100: 9ed9 503e ffe3 28be 214e 7dbc 8e51 713d
00000110: 2bf4 3fbe 11d4 f9be f368 e03d e0e2 06be
00000120: b213 453d 0437 63be b759 7a3d 7a6d c3bc
00000130: 35ee 2e3e a4e8 4bbc b14c 71bc 02f0 273e
00000140: e222 18be dc18 8b3d b352 bf3a 1f15 183e
00000150: c5d6 12be fd0f 5d3c 2f12 63bd c1e6 773d
00000160: 41d2 b7be 3b0e 763e 8f24 3dbe 82e1 453e
00000170: 0ceb 283e ea0a fabc b511 2b3e 615e 23be
00000180: fde5 473d 5eb9 47be 816c 2d3e 911c ddba
00000190: f42a 243d 7919 dd3d e1d0 e0bc 2ed9 3bbe
000001a0: d6c1 003e ce7c 00bd 236d 583d 5eac 53be
000001b0: 2f88 c1bd a899 d1bb c01b 4b3d 65be 283c
000001c0: 25a2 6abe 1654 1e3e 3f59 0dbe 33e7 fdbd
000001d0: 2ebd 32bd 745f 843e afc5 36be 83bb 613e
000001e0: ca7d 76bd 67e0 08be 5523 70be 0c46 9d3d
000001f0: d4bd 963d 1e64 ba3d c2b9 04bc c283 2fbe
00000200: cde5 2a3b 4f47 5a3d 064b 183d f0e0 b1bd
00000210: 179c 1b3e 9670 2c3e 0ab0 923c b8ed 163c
00000220: ef56 22bd 4d04 473e b716 413d d0bf 323e
00000230: cc51 e93d 8438 05bd c2f0 e93c fa26 0f3e
00000240: 5b27 cfbd 4e6c debd 8469 993a 306b de3d
00000250: 48ca d43d 4967 15bd e644 bb3d 0df0 1dbd
00000260: 12f3 593e 30a1 5fbe 1250 433d f548 04be
00000270: c96c 3cbe 1c5a d23b 7af4 533d 112c 3d3e
00000280: fba9 3e3e 828e cb3d 7a7e 20be 5b26 6b3d
00000290: d99f 893d 4208 84bd 44c6 213e c0df 703e
000002a0: 554d 97be 1d38 f5bd c457 963c 870e a5bd
000002b0: 8762 a63b 83cd b93c 5b4f 0e3e 2012 0fbe
000002c0: 3bc2 d73d 368c 5ebe f772 5ebc 6a23 0ebe
000002d0: b42e a1bd 86e7 283e ee77 783e 8d33 97bd
000002e0: 02b4 403b 069a 38bd 0f35 883d d773 133e
000002f0: 81bd d0bd dfcc cd3d 2e7b 073e 18ba 20be
00000300: 8d7a 66be 56b9 963e ff51 f6bd eb6b 49be
00000310: 006b 873e b33d 503e 830f 813e c620 c8bd
00000320: 3844 58be ed07 e13d a9bc 7f3e 3fdb 443e
00000330: 0575 cbbd ba06 b83d f75a 133e a759 2cbd
00000340: cf44 0bbe 0877 c6be 345a 9bbe 864d 83bd
00000350: b7bc c8bc dec4 f0bc 1488 bd3d 4289 b43e
00000360: 5666 e63d a150 243e c588 d3bd 0296 cdbd
00000370: 9be9 23be b80b 23bc 749b 2dbe 978d 223e
00000380: cf2b 89be 175f 263d ec78 7abe a895 95bc
00000390: 3ec5 63bd b2bc 1d3d 1c81 1b3e 6ea3 343d
000003a0: feb9 f8bd de3d 0b3d c0be e3bd 5e58 72be
000003b0: e62b e13d 5b46 783e 58c7 263e 25d4 1abe
000003c0: ce93 923d 1a07 8b3d d1ff 35bd 4e65 e1bd
000003d0: 9b41 9d3e 0303 783d c005 bebd 4fbb 3ebe
000003e0: 2d49 c7bd 6a9e a8bd 8445 963d d897 fa3b
000003f0: 91a2 cbbd 738d 21be 6cd5 873d cc93 8bbc

network_body._body_endoder.seq_layers.2.bias f4 [64]
0.04376964 -0.040123664 0.04098608 0.07014587 -0.015088834 0.05998566 0.05105982 0.031618536
0.07407857 0.04893893 -0.033700775 0.016559 -0.00460542 0.0014212054 -0.052670754 -0.11252624
0.06102191 0.060070783 -0.00068921846 0.007186132 0.004386616 0.00063768437 -0.024566717 0.011212132
-0.0090470575 0.038402475 0.06109609 0.026719484 0.01438628 0.04176169 -0.0017329656 -0.027095085
0.045035157 0.035667248 0.053111404 0.029897826 0.028492495 0.05149268 -0.005998899 0.074162215
-0.02629775 -0.004756627 0.051548515 0.039280158 0.030321473 0.031962316 0.031588495 -0.01116168
0.0379099 0.04150572 0.0051356936 0.016873341 0.04457854 0.021339862 0.04002005 0.052032974
0.013268567 0.06517257 0.04613559 0.07668642 -0.029767038 0.023762733 0.04918786 -0.011386619
00000000: cb47 333d b658 24bd 05e1 273d a3a8 8f3d
00000010: 2837 77bc 86b3 753d 1a24 513d 7082 013d
00000020: 81b6 973d 3074 483d d309 0abd bda6 873c
00000030: 10e9 96bb bd47 ba3a 4abd 57bd 2874 e6bd
00000040: 1cf2 793d c80c 763d abac 34ba a579 eb3b
00000050: 9abd 8f3b 462a 273a 2440 c9bc 17b3 373c
00000060: 1c3a 14bc ea4b 1d3d e53f 7a3d d2e2 da3c
00000070: 6fb4 6b3c 4e0e 2b3d ad24 e3ba 83f6 ddbc
00000080: c976 383d d217 123d 588b 593d 49ec f43c
00000090: 1869 e93c fde9 523d 6a92 c4bb 5ce2 973d
000000a0: 616e d7bc 7bdd 9bbb 8924 533d 3be4 203d
000000b0: bd64 f83c ebea 023d f062 013d 7bdf 36bc
000000c0: 6947 1b3d e701 2a3d 5249 a83b f639 8a3c
000000d0: fd97 363d efd0 ae3c 10ec 233d 8720 553d
000000e0: 6764 593c 3279 853d acf8 3c3d c50d 9d3d
000000f0: 01da f3bc 10aa c23c 3679 493d f18e 3abc

action_model._continuous_distribution.log_sigma f4 [1, 2]
0.2252055 0.26303375
00000000: 459c 663e 5cac 863e

action_model._continuous_distribution.mu.weight f4 [2, 64]
0.114125274 -0.010569756 0.08025903 0.11130119 -0.0009798283 0.06165809 -0.05095665 -0.013742344
0.03373276 -0.034165744 -0.008434111 -0.06820177 -0.10939749 -0.0005193268 -0.038901057 0.005124262
0.046266142 -0.002715138 -0.03355709 -0.0015456192 -0.08990176 -0.057650566 -0.05262623 -0.036225557
-0.038857237 -0.036101412 0.09668442 0.033945035 0.030950062 0.04564565 0.023912627 -0.08709513
-0.091471195 0.025665263 -0.097060755 -0.0038388183 0.07294382 -0.06777873 -0.050487164 0.16352318
-0.0065815104 -0.00036753446 0.12621981 0.10623775 -0.069372736 0.05961838 -0.07644199 -0.06841238
0.055889767 -0.017860793 -0.010779446 0.0050519016 -0.0790187 -0.069311626 0.059942443 0.009625633
0.02640736 -0.057016023 0.08771794 0.08094764 0.032975834 -0.008673875 0.018741682 0.008168043
-0.11824843 0.051271252 -0.075360976 -0.08311372 0.012156362 -0.09412626 -0.074908994 0.12547958
-0.060442552 0.03500718 -0.073347725 0.08022167 0.05160686 0.04140248 -0.049739353 -0.0611632
-0.09440791 -0.12155205 0.10496683 0.05897314 0.024378795 -0.047989853 -0.026917707 0.12908575
-0.032938067 0.07304515 0.06733157 -0.008866654 -0.022257423 0.118444905 -0.008489875 -0.026307808
0.036243297 -0.12665655 0.04451988 -0.02162189 -0.09498402 0.070413075 -0.022930093 -0.14485502
0.017787112 0.046830688 -0.011230795 0.06521342 0.013386795 0.0632848 0.12661922 -0.0661147
-0.0954112 0.04835871 -0.062396362 -0.1399099 -0.060214523 -0.006886297 -0.03538862 0.044855315
-0.08815353 -0.1099291 -0.09178525 -0.014894079 0.011063044 -0.10225826 -0.061687432 0.0808446
00000000: 83ba e93d c52c 2dbc d95e a43d e1f1 e33d
00000010: 956d 80ba 328d 7c3d ecb7 50bd 9227 61bc
00000020: 5d2b 0a3d 61f1 0bbd 3a2f 0abc 5fad 8bbd
00000030: cb0b e0bd 6e23 08ba b756 1fbd 6de9 a73b
00000040: 9181 3d3d 75f0 31bb 2973 09bd 6096 caba
00000050: 6a1e b8bd 0023 6cbd 9a8e 57bd 4061 14bd
00000060: c428 1fbd 13df 13bd 7b02 c63d f309 0b3d
00000070: fc8a fd3c eff6 3a3d 6ae4 c33c ee5e b2bd
00000080: 4055 bbbd f53f d23c cac7 c6bd af94 7bbb
00000090: 9263 953d 93cf 8abd a1cb 4ebd 9f72 273e
000000a0: b6a9 d7bb a4b1 c0b9 c43f 013e 2d93 d93d
000000b0: 4b13 8ebd 6732 743d 9e8d 9cbd ca1b 8cbd
000000c0: abec 643d cc50 92bc 469c 30bc 6c8a a53b
000000d0: 8ed4 a1bd 41f3 8dbd 3586 753d d5b4 1d3c
000000e0: 3f54 d83c a289 69bd 77a5 b33d e0c7 a53d
000000f0: ab11 073d de1c 0ebc 2888 993c 41d3 053c
00000100: 3c2c f2bd ce01 523d db56 9abd 8737 aabd
00000110: 7a2b 473c 45c5 c0bd e369 99bd b87d 003e
00000120: 9c92 77bd b063 0f3d 5537 96bd 424b a43d
00000130: b761 533d a695 293d 7ebb 4bbd 4386 7abd
00000140: ef58 c1bd 48f0 f8bd d9f8 d63d d28d 713d
00000150: 0ab6 c73c 0291 44bd 8682 dcbc 0e2f 043e
00000160: 11ea 06bd b298 953d 22e5 893d 7145 11bc
00000170: 3355 b6bc 3e93 f23d 1e19 0bbc 7983 d7bc
00000180: da73 143d 41b2 01be 7a5a 363d 6420 b1bc
00000190: fb86 c2bd bb34 903d e4d7 bbbc e054 14be
000001a0: 47b6 913c 89d1 3f3d 5e01 38bc 9d8e 853d
000001b0: 4a54 5b3c 769b 813d 78a8 013e 2567 87bd
000001c0: f266 c3bd c813 463d 5493 7fbd 8a44 0fbe
000001d0: 81a3 76bd 72a6 e1bb a8f3 10bd 35ba 373d
000001e0: d789 b4bd 8222 e1bd e8f9 bbbd 4c06 74bc
000001f0: c541 353c c76c d1bd f6ab 7cbd db91 a53d

action_model._continuous_distribution.mu.bias f4 [2]
0.015357916 -0.00096310297
00000000: c59f 7b3c bf78 7cba

action_model._discrete_distribution.branches.0.weight f4 [3, 64]
-0.044599123 -0.049932282 0.073729105 0.08123738 0.02149336 0.06471919 -0.031127881 -0.019282857
0.06378652 0.13088563 0.034638673 -0.008925599 0.06547972 0.023061652 -0.04850138 -0.05379073
0.008823237 -0.090189114 0.048106804 0.060154367 -0.032359775 0.021160906 -0.056353062 -0.109856516
0.062478025 0.05982717 0.048848055 -0.11979979 -0.066866875 -0.030333893 -0.012701868 0.068182886
0.02085212 -0.054262664 0.094395064 -0.015588354 0.061131977 0.0043354947 -0.009917508 -0.045953814
-0.020936422 0.03283938 0.029710984 -0.02324947 0.0210208 0.01369105 0.099774025 -0.056014232
-0.086127944 0.012338701 -0.02654689 -0.05435249 0.0041650026 -0.085239425 -0.006941754 0.10845203
0.016099084 -0.055504642 0.010746414 0.10801612 -0.102208935 -0.04649135 -0.021061959 -0.12163068
0.04433269 0.12902191 -0.09128353 -0.020197287 -0.05928434 -0.013090052 0.045063887 0.044862937
-0.10637834 -0.01518869 0.055216335 0.11917022 -0.01943594 -0.111891344 0.09185776 0.072078995
-0.08547538 -0.007102371 -0.06863668 -0.053836633 -0.05026762 -0.16707043 -0.11467229 0.15598363
-0.047547728 0.0894783 0.12916182 0.12799153 -0.05055327 0.24211214 -0.010618774 -0.07700306
0.08693139 0.11960143 -0.056746133 0.12329455 -0.122873895 0.032386865 -0.014209791 0.013310493
-0.007975595 0.0028289557 0.028024768 0.009646672 0.06145268 -0.041862033 0.0373227 -0.032891534
0.057076924 0.015047265 0.06749733 -0.017488861 0.02473981 -0.04643979 -0.16150787 0.0439788
0.009321076 0.121013656 0.07054049 -0.04459281 0.1884229 0.020155597 -0.23940443 0.16803
-0.01728047 -0.063376576 -0.01913262 -0.07872386 0.03783684 -0.05123545 0.0017353834 -0.024555296
0.017151529 -0.13162678 -0.050320342 -0.16012427 -0.058822297 0.07094109 -0.023037426 0.059105225
0.13169995 0.100732274 0.019143378 -0.005479362 0.07974966 0.1563962 0.15176922 -0.0073854746
-0.097238235 -0.20803218 -0.21324462 0.0015996705 0.111081816 -0.28733718 0.004356571 0.034637365
-0.094103515 0.0031748395 -0.05152793 -0.049659837 0.029370869 0.024954889 0.0012837803 0.038818344
0.01190252 -0.030600483 0.0019925472 0.010592291 -0.03914149 -0.010934855 -0.17665811 0.0918346
0.017137917 -0.026142925 -0.024757767 0.09291608 -0.029580109 0.12978813 0.124226935 -0.21028052
-0.040311243 -0.005039115 -0.031950988 -0.100997776 -0.10606886 0.1010126 0.23616986 -0.099226065
00000000: 92ad 36bd cb85 4cbd 49ff 963d c95f a63d
00000010: d812 b03c 7f8b 843d e6ff febc 15f7 9dbc
00000020: 82a2 823d e206 063e 48e1 0d3d ad3c 12bc
00000030: 3b1a 863d caeb bc3c 62a9 46bd ab53 5cbd
00000040: 578f 103c 12b5 b8bd a40b 453d 6d64 763d
00000050: af8b 04bd a359 ad3c 78d2 66bd 74fc e0bd
00000060: f5e8 7f3d 560d 753d e614 483d 9859 f5bd
00000070: 80f1 88bd c97e f8bc 7f1b 50bc 78a3 8b3d
00000080: 11d2 aa3c 8742 5ebd 3352 c13d 4c66 7fbc
00000090: 8665 7a3d c410 8e3b 0b7d 22bc 113a 3cbd
000000a0: dc82 abbc 9682 063d 7364 f33c ac75 bebc
000000b0: d033 ac3c 6d50 603c 5356 cc3d 2e6f 65bd
000000c0: d963 b0bd 4328 4a3c dd78 d9bc b7a0 5ebd
000000d0: 937a 883b 0292 aebd a777 e3bb 191c de3d
000000e0: 3ae2 833c d658 63bd ba11 303c 8e37 dd3d
000000f0: eb52 d1bd b76d 3ebd 218a acbc 8219 f9bd
00000100: 3296 353d 521e 043e dcf2 babd c874 a5bc
00000110: 23d4 72bd a877 56bc e994 383d 33c2 373d
00000120: e3dc d9bd fcd9 78bc 862a 623d 840f f43d
00000130: 1f38 9fbc 4a27 e5bd ec1f bc3d 279e 933d
00000140: b70d afbd 02bb e8bb 6391 8cbd cd83 5cbd
00000150: 6be5 4dbd 8314 2bbe 4ed9 eabd 2cba 1f3e
00000160: 68c1 42bd 6640 b73d ff42 043e 3610 033e
00000170: f210 4fbd 3fec 773e 5efa 2dbc c8b3 9dbd
00000180: 1609 b23d 98f1 f43d a26e 68bd da81 fc3d
00000190: 4fa5 fbbd 17a8 043d 2fd0 68bc 4114 5a3c
000001a0: 12ac 02bc 0066 393b 3394 e53c 130d 1e3c
000001b0: ceb5 7b3d 8677 2bbd b0df 183d 46b9 06bd
000001c0: 7ec9 693d ce88 763c 0a3c 8a3d cd44 8fbc
000001d0: 24ab ca3c a637 3ebd 5262 25be 1d23 343d
000001e0: 6db7 183c 02d6 f73d 8877 903d f3a6 36bd
000001f0: eff1 403e 5a1d a53c 6f26 75be 0e10 2c3e
00000200: c68f 8dbc 94cb 81bd 03bc 9cbc fa39 a1bd
00000210: cdfa 1a3d 43dc 51bd ce75 e33a 3028 c9bc
00000220: 5d81 8c3c 2cc9 06be b41c 4ebd 9ef7 23be
00000230: a6ef 70bd 9049 913d fcb8 bcbc 5218 723d
00000240: 5adc 063e b94c ce3d 93d2 9c3c 388c b3bb
00000250: ca53 a33d 5326 203e 6469 1b3e da01 f2bb
00000260: d724 c7bd 6306 55be cc5c 5abe 09ac d13a
00000270: dd7e e33d dc1d 93be 91c1 8e3b e9df 0d3d
00000280: 58b9 c0bd f810 503b f30e 53bd 1d68 4bbd
00000290: 2d9b f03c 326e cc3c 8544 a83a fcff 1e3d
000002a0: ca02 433c ddad fabc 6595 023b 4a8b 2d3c
000002b0: d452 20bd 1b28 33bc dde5 34be c713 bc3d
000002c0: d164 8c3c b029 d6bc cdd0 cabc c94a be3d
000002d0: fc51 f2bc 2ee7 043e b16a fe3d c753 57be
000002e0: 671d 25bd 291f a5bb 0adf 02bd ecd7 cebd
000002f0: a13a d9bd b2df ce3d 83d6 713e 0937 cbbd

action_model._discrete_distribution.branches.0.bias f4 [3]
0.043742884 -0.033213492 -0.028838068
00000000: bd2b 333d df0a 08bd d03d ecbc

action_model._discrete_distribution.branches.1.weight f4 [3, 64]
0.0294755 -0.1970337 0.03219609 -0.09590643 -0.044393197 -0.013479256 -0.10804941 0.036274873
-0.025623474 -0.22368482 -0.10726142 -0.07538801 0.024583178 0.10852848 -0.1205687 -0.0696114
0.10139275 0.08001373 -0.064200215 -0.012524454 -0.0051566204 -0.033848416 0.05138259 0.06904412
-0.029945364 0.02037003 0.120688125 0.09294016 0.07378683 0.03507241 -0.010260015 0.07695006
0.006306715 -0.047107093 -0.034710128 -0.10333571 0.04015558 -0.0071722423 0.00422983 -0.04741594
0.0493629 0.025125258 -0.024759717 0.017220518 0.022266537 0.02653887 0.08208253 0.04714125
0.021798778 -0.023130422 -0.008504639 0.06985208 -0.026155405 -0.058492184 0.07900567 0.032341234
-0.0030591032 -0.046957426 0.0037751251 0.07296817 0.040116943 0.03927856 0.0075388914 -0.03390763
-0.019573962 -0.07808286 0.070890054 0.00018271008 -0.14312074 0.04458556 0.1091124 -0.07298196
0.21014377 0.334345 -0.050331432 -0.09174414 -0.07164073 -0.013184669 0.0958669 0.014053607
-0.068653814 -0.08142967 0.10002546 0.13729988 -0.021185452 -0.17506708 -0.13790537 -0.14248163
-0.010141426 -0.18670078 0.0041785995 -0.028803399 0.0057449304 0.14843556 0.074801765 -0.06722076
0.13075991 0.020861737 -0.04994449 0.09629059 0.14814717 0.108277574 0.049542207 -0.00014995573
-0.15511219 0.006543612 -0.04251894 -0.023176836 0.037392814 -0.025638994 -0.120641276 -0.015034043
-0.053861115 0.03977289 0.045611624 -0.08495109 0.0011842547 0.11313556 0.11841095 -0.17046484
-0.036999576 -0.047106456 -0.013931116 0.109378815 0.00055940397 -0.10919442 0.15556292 -0.051278774
0.0066947998 0.23719268 -0.09086952 0.12904084 0.13721617 0.042128738 0.034715354 -0.007868463
-0.19113979 -0.10682715 0.13694671 0.17844556 0.034309734 -0.09777848 0.04098855 0.09188532
-0.050244223 -0.007180748 -0.013722982 -0.18591353 0.008483963 0.17695129 0.06963075 0.035127882
0.05113001 0.096043564 -0.16417502 -0.101537876 -0.0836793 -0.25551727 -0.040556245 0.017584177
-0.15748547 0.047646116 0.10453029 0.058192957 -0.18032973 -0.117482886 -0.04480686 0.10611118
0.06686518 -0.010610257 0.0946454 -0.005997024 -0.031702906 -0.013573826 0.031442273 -0.022076176
0.05773364 -0.044272717 -0.023025867 0.04666937 0.031425204 -0.048842777 -0.24907854 0.0826828
-0.0043276087 0.12282974 0.017226145 -0.1417149 -0.060990147 0.09472421 -0.2020621 0.048043627
00000000: 9b76 f13c 34c3 49be 0ce0 033d 976a c4bd
00000010: a4d5 35bd 19d8 5cbc 0249 ddbd f694 143d
00000020: 52e8 d1bc a20d 65be e0ab dbbd 0765 9abd
00000030: a962 c93c 2e44 de3d b9ec f6bd 6c90 8ebd
00000040: 01a7 cf3d 3dde a33d 677b 83bd 5e33 4dbc
00000050: def8 a8bb a3a4 0abd 8d76 523d 0167 8d3d
00000060: fb4f f5bc 0ddf a63c 562b f73d 6957 be3d
00000070: 8d1d 973d 16a8 0f3d 9f19 28bc fe97 9d3d
00000080: 8fa8 ce3b 5ef3 40bd 352c 0ebd aca1 d3bd
00000090: 2d7a 243d 2105 ebbb 639a 8a3b 3737 42bd
000000a0: c130 4a3d 7cd3 cd3c e4d4 cabc 0b12 8d3c
000000b0: 5068 b63c 0b68 d93c e31a a83d 2f17 413d
000000c0: 5a93 b23c 037c bdbc 0b57 0bbc 9b0e 8f3d
000000d0: dc43 d6bc 8095 6fbd bacd a13d 3e78 043d
000000e0: 3c7b 48bb 6e56 40bd 1768 773b 5670 953d
000000f0: aa51 243d 8ee2 203d ce08 f73b bae2 0abd
00000100: 9359 a0bc e8e9 9fbd ce2e 913d dd95 3f39
00000110: 3e8e 12be 599f 363d 5276 df3d 9177 95bd
00000120: ee2f 573e 452f ab3e 5528 4ebd 5ae4 bbbd
00000130: 60b8 92bd 8304 58bc de55 c43d 1a41 663c
00000140: 5f9a 8cbd 99c4 a6bd 26da cc3d 5798 0c3e
00000150: 1d8d adbc c944 33be 1137 0dbe b4e6 11be
00000160: 3928 26bc 7d2e 3fbe a2ec 883b 1bf5 ebbc
00000170: f83f bc3b 7eff 173e ab31 993d 0aab 89bd
00000180: ede5 053e 3ce6 aa3c 9892 4cbd 0034 c53d
00000190: e4b3 173e a2c0 dd3d c5ec 4a3d 6f3d 1db9
000001a0: bbd5 1ebe cc6b d63b 5728 2ebd 59dd bdbc
000001b0: 3529 193d de08 d2bc c612 f7bd 5951 76bc
000001c0: 799d 5cbd e6e8 223d 41d3 3a3d d6fa adbd
000001d0: fe38 9b3a 9eb3 e73d 7181 f23d 568e 2ebe
000001e0: de8c 17bd b3f2 40bd 563f 64bc 0002 e03d
000001f0: f7a4 123a 53a1 dfbd e34b 1f3e b109 52bd
00000200: 0d60 db3b a3e2 723e cd19 babd 4823 043e
00000210: 6582 0c3e 2f8f 2c3d b031 0e3d baea 00bc
00000220: 26ba 43be 31c8 dabd c23b 0c3e 6fba 363e
00000230: 5d88 0c3d 1540 c8bd 9ce3 273d 5f2e bc3d
00000240: e3cc 4dbd 7b4c ebbb 5cd6 60bc 1e60 3ebe
00000250: 5200 0b3c b832 353e 919a 8e3d 41e2 0f3d
00000260: b46d 513d 7db2 c43d 7f1d 28be 17f3 cfbd
00000270: 0e60 abbd 29d3 82be 4e1e 26bd b10c 903c
00000280: df43 21be 9328 433d fa13 d63d bd5b 6e3d
00000290: 5ba8 38be de9a f0bd 6687 37bd d150 d93d
000002a0: 9df0 883d a5d6 2dbc 73d5 c13d af82 c4bb
000002b0: e8da 01bd c164 5ebc 9dc9 003d 19d9 b4bc
000002c0: 1c7a 6c3d 4f57 35bd bea0 bcbc 6228 3f3d
000002d0: b7b7 003d 5d0f 48bd 720e 7fbe 9a55 a93d
000002e0: 9dce 8dbb 298e fb3d d81d 8d3c b61d 11be
000002f0: ced0 79bd c4fe c13d 5ee9 4ebe 65c9 443d

action_model._discrete_distribution.branches.1.bias f4 [3]
0.05809504 -0.015280221 -0.057074364
00000000: 11f5 6d3d e459 7abc cfc6 69bd
