results/MLHades_main_11_grid32x32cellsize1x1/MLHades/MLHades-1499941.onnx (onnx, 158122 bytes, 22 tensors)

discrete_action_output_shape f4 [1, 4]
3.0 3.0 3.0 2.0
00000000: 0000 4040 0000 4040 0000 4040 0000 0040

network_body.observation_encoder.processors.1.conv_layers.0.weight f4 [16, 7, 8, 8]
0.0077002724 -0.014952847 -0.014215664 -0.009220904 -0.031114247 0.018215893 0.0024169674 -0.086842045
-0.033484034 -0.002876591 -0.006572756 0.06201437 0.06412749 -0.0020417187 -0.042682063 -0.11445324
-0.054756597 0.063875325 0.051694468 0.013219331 0.04274479 0.0006799268 -0.01628334 -0.06677231
0.0507683 0.049738243 -0.013169517 -0.040228732 0.0313015 -0.011652758 0.031714723 0.011558873
-0.016217098 0.04677297 -0.053734444 0.0059828283 0.032007284 -0.008202019 -0.0051364256 0.073059134
-0.014532668 0.06752193 -0.0639913 0.010873721 0.014274409 -0.054423593 -0.012048692 -0.029919751
-0.012280963 0.02740731 -0.096452355 -0.108262315 -0.010238208 -0.04363797 -0.026707035 0.005307293
-0.01781342 -0.0791981 -0.04707451 -0.077135816 -0.0018699443 -0.04430844 0.007204119 0.04387424
0.09187217 0.2695264 0.2450268 0.008143521 0.20489433 0.25215644 0.115865186 0.171633
0.050382156 0.14093974 0.2448692 0.077018894 0.110357165 0.19717439 0.025518231 0.18290912
-0.10565964 -0.0034453347 0.06140426 0.120499745 0.08930374 0.15240009 0.03946645 0.106061086
0.122728236 0.052400857 0.1391881 0.14166327 0.039913166 0.21761985 0.0912522 0.14576031
0.18901433 0.08565146 0.07222119 0.25472862 0.17367145 0.239202 0.21260451 0.116943434
0.13688578 0.14002715 0.19433407 0.2657094 0.26023734 0.23731722 0.14217517 0.18469067
0.1960216 0.07350941 0.1760048 0.111948326 0.07783571 0.22246853 -0.025746495 0.028892012
0.16575554 0.030178767 0.09438365 0.038133744 0.053679243 0.18474665 0.087513156 0.04148666
0.02617134 -0.042096607 0.009237534 -0.08127415 -0.0192086 0.058440298 0.05844175 -0.012408687
-0.013037484 -0.049087532 0.0041087535 0.030922567 -0.10079074 0.0047516045 0.00529527 -0.10284489
0.016986636 -0.008355867 -0.026300004 -0.059547495 -0.058523744 -0.07524366 -0.022642685 0.016786592
0.0634059 -0.025724754 0.078177854 0.011716113 0.06957939 -0.018596161 0.1278751 0.042426802
0.09231003 -0.04382394 0.104504555 0.068433695 0.102823265 0.076811045 0.08916252 0.04888218
0.022271704 -0.0012390714 0.044108707 0.05696123 0.025571702 -0.04828872 -0.009495505 0.04109768
0.0013317267 -0.064665295 0.004744238 -0.021071948 -0.009819791 0.045341127 -0.009721144 0.109242626
0.028048942 -0.0921268 -0.08069609 -0.00513917 -0.09785341 -0.04604589 -0.115526944 -0.001954749
-0.059548356 -0.038341157 0.038257904 -0.036327023 0.00377725 -0.009959382 -0.015764454 -0.050514594
-0.037216462 0.005175368 -0.04287854 -0.054541115 0.03590801 0.08957312 -0.05690645 -0.11386228
0.08767735 -0.016191317 -0.025825305 -0.032762785 0.04791414 0.03148506 -0.0061875237 -0.051371213
-0.0019630096 -0.076946266 -0.10012872 -0.043993782 -0.04703746 -0.026578926 0.06082511 -0.040801957
-0.004993754 0.019647386 0.026383141 0.06642277 -0.02939906 -0.037682634 0.06515652 -0.0030526211
-0.1031406 -0.04768323 -0.038271528 0.087579966 0.1180117 0.09397215 0.055669233 -0.124779165
-0.0045258626 0.09094403 -0.02472908 0.044304617 0.07001087 0.023871696 0.045728885 -0.06231994
-0.041935895 0.010428157 0.011160425 0.05198617 -0.03261588 0.053108398 0.05811348 -0.0025241475
00000000: 9152 fc3b c9fc 74bc d1e8 68bc 4613 17bc
00000010: 4ee3 febc 7f39 953c fc65 1e3b 3eda b1bd
00000020: 8e26 09bd 3085 3cbb 4660 d7bb c802 7e3d
00000030: 4655 833d 5bce 05bb 63d3 2ebd 7666 eabd
00000040: 7448 60bd 11d1 823d 94bd 533d e595 583c
00000050: 2915 2f3d 1d3d 323a a464 85bc ecbf 88bd
00000060: 6cf2 4f3d 54ba 4b3d f5c4 57bc e2c6 24bd
00000070: 0036 003d 36eb 3ebc 4ce7 013d 6d61 3d3c
00000080: b8d9 84bc 0495 3f3d a618 5cbd 9a0b c43b
00000090: 121a 033d c361 06bc 764f a8bb 07a0 953d
000000a0: 6d1a 6ebc f048 8a3d df0d 83bd b127 323c
000000b0: 36df 693c 46eb 5ebd e167 45bc 441a f5bc
000000c0: 1836 49bc 4c85 e03c d088 c5bd a2b8 ddbd
000000d0: 28be 27bc babd 32bd b6c8 dabc cde8 ad3b
000000e0: 73ed 91bc 9d32 a2bd 34d1 40bd 62f9 9dbd
000000f0: eb18 f5ba c47c 35bd 8810 ec3b 7ab5 333d
00000100: 7a27 bc3d 5dff 893e 4ee8 7a3e 676c 053c
00000110: d2cf 513e a61a 813e ba4a ed3d 90c0 2f3e
00000120: 855d 4e3d 8252 103e febe 7a3e 15bc 9d3d
00000130: f002 e23d 15e8 493e 9c0b d13c 874c 3b3e
00000140: 1564 d8bd 20cb 61bb 0983 7b3d 92c8 f63d
00000150: e1e4 b63d c50e 1c3e 93a7 213d 8e36 d93d
00000160: f158 fb3d 48a2 563d 5387 0e3e 2d10 113e
00000170: fd7b 233d bdd7 5e3e 6fe2 ba3d 3142 153e
00000180: f98c 413e 086a af3d b4e8 933d ca6b 823e
00000190: eed6 313e 5ef1 743e ffb4 593e 0a80 ef3d
000001a0: c92b 0c3e 4763 0f3e 83ff 463e 100b 883e
000001b0: d43d 853e 4903 733e 5e96 113e 8d1f 3d3e
000001c0: e3b9 483e 1a8c 963d 9a3a 343e 2a45 e53d
000001d0: 5468 9f3d cace 633e 50ea d2bc f1ae ec3c
000001e0: d2bb 293e 7639 f73c 374c c13d 2132 1c3d
000001f0: c4de 5b3d 3a2e 3d3e 193a b33d eaed 293d
00000200: 4765 d63c 7e6d 2cbd 0759 173c 1073 a6bd
00000210: 5b5b 9dbc 185f 6f3d 9e60 6f3d ce4d 4bbc
00000220: 2c9b 55bc 0210 49bd b9a2 863b 5351 fd3c
00000230: 606b cebd 59b3 9b3b f283 ad3b 57a0 d2bd
00000240: 8f27 8b3c 0ce7 08bc 1b73 d7bc 13e8 73bd
00000250: 98b6 6fbd 5919 9abd 277d b9bc 0984 893c
00000260: f4da 813d b8bc d2bc b61b a03d f1f4 3f3c
00000270: a47f 8e3d fa56 98bc b1f1 023e bac7 2d3d
00000280: 0a0d bd3d bb80 33bd 7c06 d63d f726 8c3d
00000290: 0195 d23d 1c4f 9d3d d79a b63d ae38 483d
000002a0: 2673 b63c 5668 a2ba 55ab 343d 2e50 693d
000002b0: bf7b d13c 65ca 45bd 0993 1bbc 0a56 283d
000002c0: 558d ae3a 3d6f 84bd 8e75 9b3b 149f acbc
000002d0: 30e3 20bc 9eb7 393d 6f45 1fbc 99ba df3d
000002e0: e5c6 e53c faac bcbd fe43 a5bd 7c66 a8bb
000002f0: 5e67 c8bd 9d9a 3cbd 6499 ecbd 3f1b 00bb
00000300: fae8 73bd 9e0b 1dbd 52b4 1c3d a5cb 14bd
00000310: bd8b 773b ad2c 23bc 7524 81bc 64e8 4ebd
00000320: 4a70 18bd 2296 a93b 68a1 2fbd 8166 5fbd
00000330: 4714 133d 1d72 b73d bd16 69bd a130 e9bd
00000340: 2f90 b33d a7a3 84bc 978f d3bc 4532 06bd
00000350: 9e41 443d 7af6 003d b6c0 cabb 9f6a 52bd
00000360: d6a5 00bb 0196 9dbd 4910 cdbd d332 34bd
00000370: 5aaa 40bd 0cbc d9bc c023 793d f41f 27bd
00000380: a5a2 a3bb 8ef3 a03c 7521 d83c a908 883d
00000390: 4cd6 f0bc 1b59 1abd c870 853d 7c0e 48bb
000003a0: 613b d3bd 7e4f 43bd 9bc2 1cbd 205d b33d
000003b0: 1eb0 f13d 7874 c03d 6c05 643d 388c ffbd
000003c0: b04d 94bb dd40 ba3d a494 cabc c278 353d
000003d0: dc61 8f3d 938e c33c 364e 3b3d 3243 7fbd
000003e0: f9c4 2bbd dcda 2a3c 37da 363c 73ef 543d
000003f0: 3b98 05bd 3188 593d 6708 6e3d 2b6c 25bb

network_body.observation_encoder.processors.1.conv_layers.0.bias f4 [16]
-0.0062402003 -0.015671192 -0.015320072 -0.009807615 0.060921684 0.0022848388 -0.016047128 -0.01561764
-0.011460021 -0.018009378 -0.030502684 -0.016820969 -0.02499694 0.024957497 -0.023803655 -0.010944906
00000000: 987a ccbb df60 80bc 0a01 7bbc 1eb0 20bc
00000010: 0489 793d 3cbd 153b 4475 83bc 21e1 7fbc
00000020: d0c2 3bbc 6788 93bc c4e0 f9bc 21cc 89bc
00000030: 62c6 ccbc aa73 cc3c e2ff c2bc 4352 33bc

network_body.observation_encoder.processors.1.conv_layers.2.weight f4 [32, 16, 4, 4]
-0.025538402 0.008720898 0.07317368 0.04277059 -0.07370964 0.055083364 0.0031949263 0.035064526
0.054509457 0.038925335 0.07017187 0.03419795 -0.028293926 0.027307803 0.085796356 0.20453893
0.0853986 0.0009676274 0.18444397 -0.041866496 0.008881806 -0.067215145 -0.0021539323 0.11442638
-0.12998778 -0.029030865 0.04043264 0.018949958 -0.03851373 0.0013866227 0.09374298 -0.017166916
-0.057444118 0.07552948 0.055597775 0.03703018 0.031564426 -0.013375886 -0.011145201 -0.022734283
0.007111788 0.08017666 -0.021591088 -0.10193059 -0.027944691 -0.10323161 -0.049670152 0.08125881
0.10173664 0.05773733 -0.044885352 0.043581367 0.044664063 0.06585122 0.13129404 0.13772206
-0.023411546 0.13546363 0.020717131 0.15230517 0.10509175 0.039316352 -0.0065000937 0.13549699
-0.051714625 0.08755351 -0.030618591 0.026655553 0.021422407 -0.0009425894 0.09257409 -0.044569314
-0.0716498 0.10468108 0.053800706 0.0429559 0.019695746 0.082007304 -0.022580532 0.05860253
-0.0073349737 -0.052890006 0.01728295 0.0057275575 -0.010862205 -0.04899507 -0.020764016 0.1379664
-0.011594227 -0.06500619 -0.14430258 0.06136036 0.038358644 -0.053676926 -0.01293374 0.1393942
-0.021266844 -0.1187092 0.084476545 -0.09430201 0.08856882 -0.12911479 -0.027050616 -0.16408604
-0.014251581 0.009154996 0.010714805 -0.07701783 -0.08459479 -0.065544486 0.079713576 -0.02956846
0.06982677 0.07002625 -0.04510767 0.02313655 0.08273261 0.14100592 0.101519585 0.09636164
-0.043083627 0.080199614 0.20057186 0.17401901 0.07605353 0.15348683 0.1279724 0.20511833
0.05417287 0.09443302 0.10168675 0.100826085 -0.06514056 0.010475947 -0.004189199 0.08918209
0.009195734 0.04238003 0.11997296 0.12895223 0.07499311 0.065576054 0.17716151 0.20384976
0.0023456337 -0.04232384 -0.008932222 -0.013377438 -0.0050970367 -0.018741166 0.051274225 -0.10081008
-0.044263296 0.097957075 -0.017311621 0.13841699 0.08135163 -0.01224555 0.0150029445 0.08830669
0.063564815 0.018464824 -0.05631041 0.029119648 0.0003278574 0.08975017 -0.13287777 0.07714285
0.0014450728 -0.08516126 0.03997231 -0.012616452 0.010905568 0.0890158 0.08574992 -0.04362021
-0.06004271 0.059233762 -0.007492983 0.02141211 0.024167478 0.06219831 0.060979396 0.11990618
-0.0068974663 -0.058638297 0.029687252 0.048992306 0.02772827 -0.08373438 -0.0022076673 0.0806543
0.20345192 0.025135826 0.09919923 0.08023707 0.16481021 -0.05241913 0.059301816 0.060665227
0.04684903 -0.01149671 0.061451867 -0.056629468 -0.026041947 0.083752416 0.033958625 0.012744121
-0.005569004 0.075491875 0.02438007 -0.053478263 -0.045040198 -0.021827502 0.14448096 -0.072446145
-0.09337109 0.099420525 0.02354976 0.016168615 0.13276011 0.038304944 0.088365264 0.21894436
0.037950512 0.12210626 -0.0011332727 -0.008429197 0.07189237 0.03321755 0.058948662 -0.02481001
-0.024992054 0.0021670656 0.07477968 0.056152325 0.077211715 0.004824858 0.016751152 0.14227171
-0.051401366 -0.050723016 -0.1211345 -0.14767107 0.0067489673 -0.06467873 -0.13377045 -0.036531284
0.0042135012 -0.045511853 -0.03028076 0.05784946 -0.048422355 -0.046722803 -0.03742539 -0.039497294
00000000: e935 d1bc 19e2 0e3c 15dc 953d 3730 2f3d
00000010: 14f5 96bd 189f 613d f861 513b d29f 0f3d
00000020: 4f45 5f3d 2c70 1f3d 45b6 8f3d 2613 0c3d
00000030: aac8 e7bc 9db4 df3c 00b6 af3d a772 513e
00000040: 76e5 ae3d 60a8 7d3a e1de 3c3e 347c 2bbd
00000050: ff84 113c 18a8 89bd fd28 0dbb 6158 ea3d
00000060: 841b 05be 23d2 edbc b29c 253d f13c 9b3c
00000070: 93c0 1dbd 56bf b53a 52fc bf3d a2a1 8cbc
00000080: 864a 6bbd 33af 9a3d 7eba 633d f5ac 173d
00000090: b349 013d 8826 5bbc 5c9a 36bc 3f3d babc
000000a0: 000a e93b a933 a43d cbdf b0bc fcc0 d0bd
000000b0: 44ec e4bc 186b d3bd ee72 4bbd 056b a63d
000000c0: 4d5b d03d fb7d 6c3d b4d9 37bd 6082 323d
000000d0: aaf1 363d 01dd 863d f271 063e 0307 0d3e
000000e0: 92c9 bfbc fab6 0a3e f9b6 a93c e3f5 1b3e
000000f0: 583a d73d 2f0a 213d bdfe d4bb b9bf 0a3e
00000100: b7d2 53bd 414f b33d d7d3 fabc bf5c da3c
00000110: 0b7e af3c 1b18 77ba 7c97 bd3d 508e 36bd
00000120: 21bd 92bd 0963 d63d 215e 5c3d 87f2 2f3d
00000130: f958 a13c 72f3 a73d cffa b8bc 3509 703d
00000140: 385a f0bb 31a3 58bd f994 8d3c 3cae bb3b
00000150: 64f7 31bc 0eaf 48bd 4c19 aabc 1047 0d3e
00000160: b6f5 3dbc f721 85bd 0ec4 13be 0055 7b3d
00000170: f41d 1d3d 56dc 5bbd 0ae8 53bc 5abd 0e3e
00000180: ce37 aebc cf1d f3bd 0a02 ad3d 6a21 c1bd
00000190: 9263 b53d ab36 04be 4199 ddbc 2c06 28be
000001a0: 777f 69bc d6fe 153c 268d 2f3c 86bb 9dbd
000001b0: 0940 adbd 303c 86bd df40 a33d 8e39 f2bc
000001c0: 5601 8f3d ec69 8f3d d2c2 38bd dd88 bd3c
000001d0: b76f a93d db63 103e 80e9 cf3d 4059 c53d
000001e0: 7578 30bd b23f a43d b662 4d3e 0a32 323e
000001f0: f4c1 9b3d a72b 1d3e 320b 033e 8a0a 523e
00000200: 5fe4 5d3d 1966 c13d 2541 d03d e87d ce3d
00000210: 6a68 85bd 4ea3 2b3c 8c45 89bb 19a5 b63d
00000220: b4a9 163c af96 2d3d 62b4 f53d 0e0c 043e
00000230: fd95 993d bd4c 863d d469 353e febd 503e
00000240: 34b9 193b c35b 2dbd 7458 12bc 0b2d 5bbc
00000250: 0b05 a7bb 1387 99bc ec04 523d 8475 cebd
00000260: 6e4d 35bd b89d c83d 1ad1 8dbc 2fbd 0d3e
00000270: af9b a63d 8fa1 48bc e9ce 753c 23da b43d
00000280: 452e 823d 8b43 973c bfa5 66bd 548c ee3c
00000290: 46e4 ab39 f0ce b73d 1c11 08be 12fd 9d3d
000002a0: 9968 bd3a 0769 aebd 01ba 233d 3cb5 4ebc
000002b0: 44ad 323c ea4d b63d a79d af3d 1bab 32bd
000002c0: 58ef 75bd 1a9f 723d b287 f5bb 7368 af3c
000002d0: e0fa c53c a8c3 7e3d 88c5 793d 5f91 f53d
000002e0: 2404 e2bb b62e 70bd ae32 f33c 28ac 483d
000002f0: 6626 e33c ee7c abbd 83ae 10bb 152e a53d
00000300: b355 503e a6e9 cd3c f728 cb3d 5553 a43d
00000310: 02c4 283e 71b5 56bd 76e6 723d 1a7c 783d
00000320: c5e4 3f3d b25c 3cbc f4b4 7b3d 4df4 67bd
00000330: ec55 d5bc 6386 ab3d 3318 0b3d b8cc 503c
00000340: 317c b6bb 7c9b 9a3d b6b8 c73c 060c 5bbd
00000350: 127c 38bd 97cf b2bc d1f2 133e a55e 94bd
00000360: 5839 bfbd fd9c cb3d 6deb c03c 0b74 843c
00000370: 44f2 073e a5e5 1c3d d9f8 b43d f332 603e
00000380: ff71 1b3d d912 fa3d 528a 94ba 9d1a 0abc
00000390: 4f3c 933d 200f 083d 2774 713d 5d3e cbbc
000003a0: 23bc ccbc 5405 0e3b 1726 993d fbff 653d
000003b0: 2d21 9e3d d819 9e3b b639 893c adaf 113e
000003c0: 3d8a 52bd f0c2 4fbd 5d15 f8bd 1637 17be
000003d0: 7126 dd3b 4876 84bd 1ffb 08be d4a1 15bd
000003e0: 6911 8a3b a36a 3abd 5b0f f8bc 8ef3 6c3d
000003f0: 8556 46bd 6960 3fbd 5e4b 19bd eac7 21bd

network_body.observation_encoder.processors.1.conv_layers.2.bias f4 [32]
0.0063958713 0.047343835 0.028200252 -0.036490425 0.0032363164 0.118782446 0.012788628 0.08761091
-0.035668552 0.050028384 0.029543882 0.009062519 0.015104553 0.040370338 0.0014252962 0.014817333
-0.02977222 0.04607167 0.016486026 -0.093482204 -0.037081122 -0.0051518804 -0.064511046 -0.064870864
-0.014679011 0.10356895 0.04488186 0.004586554 0.043861594 -0.041136593 -0.028261922 -0.06991061
00000000: 7594 d13b 9ceb 413d 3704 e73c fc76 15bd
00000010: 6118 543b 3644 f33d 6587 513c 596d b33d
00000020: 3019 12bd 90ea 4c3d 0306 f23c f67a 143c
00000030: 1679 773c 5e5b 253d 01d1 ba3a 66c4 723c
00000040: dfe4 f3bc a6b5 3c3d b40d 873c 9973 bfbd
00000050: 60e2 17bd 1bd1 a8bb 5e1e 84bd 04db 84bd
00000060: 3c80 70bc f51b d43d 0bd6 373d ce4a 963b
00000070: 37a8 333d d87e 28bd 8c85 e7bc 4b2d 8fbd

network_body.observation_encoder.processors.1.dense.0.weight f4 [64, 128]
-0.06698298 -0.09364001 0.15098041 0.14680406 0.12505491 -0.09662991 -0.096793555 0.26199898
0.0455878 0.3017967 -0.11427243 0.21604104 0.05807812 0.04186293 0.07414718 -0.106134795
-0.19679384 0.12753169 -0.08308401 -0.11728032 0.06964636 0.08785967 -0.09076971 0.035878573
-0.04731564 -0.051661674 0.42633763 0.21151654 -0.07908999 0.14897056 -0.005174545 0.18581921
-0.033482976 0.082199894 -0.04955955 0.13581279 -0.22435758 -0.12745039 -0.0002079345 0.115187965
-0.08000083 -0.11402059 -0.09030281 0.04932077 -0.25622883 -0.111008 0.091453284 0.11738627
0.15388703 -0.038805775 -0.21772674 0.18293743 0.053735215 -0.14253613 -0.13472988 0.03866793
-0.116596945 0.12927327 -0.24166624 0.04491537 -0.01758407 -0.10235833 0.036780037 -0.046112802
-0.069544405 0.026229128 0.08886093 -0.040154677 0.08006762 -0.15325986 -0.09765595 -0.11321326
-0.09115269 0.085884735 0.04327667 0.1924688 -0.12736444 0.32531857 -0.09423285 -0.009633672
0.2845589 0.15648451 -0.074717514 0.11366669 0.025259145 0.084833644 0.25172937 -0.20585695
-0.06550237 -0.3134422 0.1431772 0.018299066 -0.042618122 -0.07503748 0.0010370401 0.40325502
0.15962884 -0.0764547 -0.010282689 0.1911575 0.25351924 0.16277657 0.07382182 -0.09760147
-0.023856241 -0.19079454 0.1527074 0.14163272 -0.05283895 -0.10316174 0.20392181 0.2521866
-0.1666034 0.054387 0.0673139 -0.34120348 -0.02986567 0.058463868 0.19564968 -0.052631974
-0.20464613 0.1176097 -0.21400875 0.27754134 -0.23985371 -0.21503246 0.18217522 -0.07122972
0.109462455 -0.1740876 0.19657925 -0.09252219 0.3823233 -0.0657013 0.041460574 -0.09031273
0.18616152 -0.16533862 0.17438105 -0.24616367 0.12884068 -0.0926386 -0.0067360858 -0.11902076
0.041054167 -0.14603087 0.108332284 0.1022312 0.015396725 -0.032891177 -0.12988012 -0.21619634
-0.23614143 0.019707622 -0.012658866 0.044573586 0.06786484 -0.3398277 0.19157535 0.0072768456
-0.20938979 0.114746444 0.046534803 0.0133155435 0.098344736 -0.24018228 0.09157723 -0.3215878
-0.18300833 -0.2034699 0.03893387 -0.19835514 0.26467162 0.041731007 0.26262817 0.06865321
0.19510522 0.05201138 0.22902592 0.06880303 0.06367795 0.09830038 -0.16014302 0.14514261
-0.060425583 -0.1823851 0.24127012 -0.12272124 -0.12086271 -0.0574954 -0.14948677 -0.11282628
-0.20746762 -0.012106036 0.025139473 0.022390023 -0.03963681 -0.07808338 -0.03656302 -0.07471703
0.058825918 0.014799025 0.31759918 0.14465936 0.22221887 -0.21238805 0.3256351 0.19234559
-0.032740362 -0.063523114 0.16322921 -0.16162376 0.026239518 0.15776958 0.28404048 -0.07009074
0.1998717 0.004973639 0.16841921 -0.013988559 0.25838214 -0.02841018 0.12561078 -0.1537366
0.14520219 -0.16920215 0.02651538 -0.07326034 -0.12928845 0.06699708 0.0007585689 -0.02141489
-0.080228224 -0.06912483 -0.042364895 -0.20633443 0.14482683 0.048371106 0.18722537 -0.21830936
0.07479599 0.08341979 -0.106565885 -0.2166758 0.33245674 -0.18650053 0.05266467 0.17531602
-0.05264887 0.19626445 0.14014825 -0.046211544 0.35040677 0.036969215 -0.007128722 -0.057004247
00000000: 5f2e 89bd 55c6 bfbd 9c9a 1a3e ce53 163e
00000010: 650e 003e e7e5 c5bd b33b c6bd bb24 863e
00000020: 46ba 3a3d 1985 9a3e aa07 eabd dd39 5d3e
00000030: 53e3 6d3d 7778 2b3d 7ada 973d 335d d9bd
00000040: 5384 49be ab97 023e f327 aabd aa30 f0bd
00000050: c0a2 8e3d c5ef b33d 78e5 b9bd 69f5 123d
00000060: 0bce 41bd 319b 53bd ed48 da3e cb97 583e
00000070: eff9 a1bd bd8b 183e 3b8f a9bb 6447 3e3e
00000080: 7225 09bd 6b58 a83d f4fe 4abd 8212 0b3e
00000090: febd 65be 5b82 02be fe08 5ab9 abe7 eb3d
000000a0: 7ad7 a3bd a183 e9bd aef0 b8bd 9304 4a3d
000000b0: 6d30 83be 2a58 e3bd dc4b bb3d 3668 f03d
000000c0: 9094 1d3e cef2 1ebd c2f3 5ebe f353 3b3e
000000d0: 7519 5c3d fef4 11be a1f6 09be 4362 1e3d
000000e0: 61ca eebd 3660 043e 5b77 77be 2ef9 373d
000000f0: 780c 90bc 3ea1 d1bd aaa6 163d c7e0 3cbd
00000100: 4c6d 8ebd 78de d63c b8fc b53d 3b79 24bd
00000110: 7efa a33d 27f0 1cbe d8ff c7bd 5bdc e7bd
00000120: 43ae babd 56e4 af3d e142 313d 8b16 453e
00000130: d36b 02be 2890 a63e 27fd c0bd 8dd6 1dbc
00000140: b4b1 913e 7a3d 203e 7f05 99bd 15ca e83d
00000150: 44ec ce3c 43bd ad3d ace2 803e 2acc 52be
00000160: 1b26 86bd 7f7b a0be 0b9d 123e ece7 953c
00000170: 5790 2ebd 40ad 99bd 4bed 873a 7177 ce3e
00000180: be75 233e 4894 9cbd b978 28bc cbbe 433e
00000190: 46cd 813e e7ae 263e e52f 973d 48e3 c7bd
000001a0: 2a6e c3bc a55f 43be 545f 1c3e 2b08 113e
000001b0: a86d 58bd 7646 d3bd e1d0 503e 9a1e 813e
000001c0: 159a 2abe e7c4 5e3d dfdb 893d 39b2 aebe
000001d0: d9a8 f4bc cf77 6f3d 6458 483e a094 57bd
000001e0: c18e 51be 5bdd f03d 1c25 5bbe e619 8e3e
000001f0: 369c 75be 7831 5cbe 248c 3a3e e3e0 91bd
00000200: da2d e03d 0544 32be 124c 493e 467c bdbd
00000210: e1bf c33e 678e 86bd 90d2 293d e1f5 b8bd
00000220: 20a1 3e3e 874e 29be f290 323e 5412 7cbe
00000230: d0ee 033e 4eb9 bdbd 62ba dcbb 28c1 f3bd
00000240: 6a28 283d 1e89 15be 51dd dd3d 975e d13d
00000250: 8c42 7c3c e6b8 06bd 4bff 04be 9362 5dbe
00000260: 0fcf 71be e171 a13c 2267 4fbc cb92 363d
00000270: b9fc 8a3d e5fd adbe 542c 443e 9b72 ee3b
00000280: 476a 56be 2f00 eb3d 479b 3e3d 7029 5a3c
00000290: f768 c93d 58f2 75be d88c bb3d 28a7 a4be
000002a0: 8966 3bbe 6a5a 50be 1f79 1f3d 9c1d 4bbe
000002b0: 0a83 873e 22ee 2a3d 3377 863e 0e9a 8c3d
000002c0: aac9 473e e309 553d c585 6a3e 9ae8 8c3d
000002d0: 9669 823d b651 c93d 88fc 23be 44a0 143e
000002e0: d180 77bd 29c3 3abe 840f 773e 4655 fbbd
000002f0: de86 f7bd 4c80 6bbd 0f13 19be 7711 e7bd
00000300: 6472 54be 6558 46bc 4cf1 cd3c 486b b73c
00000310: 355a 22bd 2eea 9fbd 1bc3 15bd 3e05 99bd
00000320: 72f3 703d 9c77 723c 5c9c a23e 9521 143e
00000330: 588d 633e 417c 59be a5b9 a63e 3ef6 443e
00000340: c21a 06bd 6818 82bd 8f25 273e b380 25be
00000350: 42f4 d63c 598e 213e c16d 913e bc8b 8fbd
00000360: 2bab 4c3e e8f9 a23b 1676 2c3e 4530 65bc
00000370: aa4a 843e 77bc e8bc 1da0 003e 216d 1dbe
00000380: e2af 143e 5443 2dbe c836 d93c 8409 96bd
00000390: 3164 04be c435 893d b2da 463a 486e afbc
000003a0: b24e a4bd 5291 8dbd d086 2dbd 5549 53be
000003b0: 7c4d 143e c820 463d 02b8 3f3e 7d8c 5fbe
000003c0: a42e 993d ffd7 aa3d 373f dabd 43e0 5dbe
000003d0: c537 aa3e fff9 3ebe e9b6 573d 0b86 333e
000003e0: 57a6 57bd 8cf9 483e 0683 0f3e 5148 3dbd
000003f0: 8468 b33e 086d 173d 0e98 e9bb 497d 69bd

network_body.observation_encoder.processors.1.dense.0.bias f4 [64]
0.032671712 0.033012696 0.0033120748 0.028202936 0.031428777 -0.00078592123 0.023445904 0.03138378
0.04203807 0.04681818 0.06779932 0.020558815 -0.038246673 0.046129435 0.06335367 0.054622225
0.0241256 0.016622921 0.015274436 0.008459943 0.034703907 0.04034554 0.041702226 0.0053673186
0.035197325 0.005231798 0.0125988 0.028315844 0.040726673 0.060683794 0.002420312 0.042770706
0.014562602 0.05207415 0.016842289 0.02733818 0.032291155 0.039253972 0.045753427 0.043405455
0.061206184 0.009108378 0.032432158 0.023973916 0.049272407 0.011692585 0.013054299 -0.02750037
-0.007783294 -0.03415801 0.014796989 0.06900636 0.054398112 0.044344645 0.0017638842 0.03487874
0.06688299 0.029053742 0.023909556 0.060342558 0.014554816 0.021705208 0.034095217 0.022103518
00000000: c6d2 053d 5238 073d 650f 593b d809 e73c
00000010: 76bb 003d 4806 4eba a011 c03c 478c 003d
00000020: 1c30 2c3d 6bc4 3f3d 5fda 8a3d f66a a83c
00000030: 8ba8 1cbd 38f2 3c3d 92bf 813d 8ebb 5f3d
00000040: 0da3 c53c cb2c 883c a141 7a3c 939b 0a3c
00000050: af25 0e3d 5d41 253d f4cf 2a3d 55e0 af3b
00000060: 122b 103d 816f ab3b 326b 4e3c a1f6 e73c
00000070: 03d1 263d 928f 783d 199e 1e3b 5630 2f3d
00000080: fb97 6e3c b44b 553d d7f8 893c 52f4 df3c
00000090: bb43 043d c6c8 203d f267 3b3d ebc9 313d
000000a0: 56b3 7a3d 4e3b 153c 95d7 043d f264 c43c
000000b0: ddd1 493d 4292 3f3c b3e1 553c 7548 e1bc
000000c0: 010b ffbb 45e9 0bbd 126f 723c 3553 8d3d
000000d0: 8ed0 5e3d bba2 353d 2232 e73a 02dd 0e3d
000000e0: f3f9 883d 1d02 ee3c f9dd c33c c229 773d
000000f0: 5377 6e3c 1fcf b13c 6da7 0b3d 7012 b53c

network_body._body_endoder.seq_layers.0.weight f4 [64, 142]
0.049719717 -0.06588684 -0.06947573 0.04537248 -0.031480495 -0.087893605 -0.045388628 -0.009332837
0.004746677 -0.06230097 0.19953631 0.0063875583 0.03810402 -0.0683376 0.0940048 0.051687587
0.14092684 -0.2385934 -0.037331544 -0.08121405 0.13462183 0.14859177 -0.049967363 -0.03539973
0.05905475 0.13271244 0.014678287 -0.058556713 -0.13340183 -0.17465338 0.0035269663 0.07047503
0.009044204 0.10391082 -0.009623278 -0.11199538 -0.0054408526 -0.117646135 0.02119416 0.058070097
-0.10872665 0.020260854 0.17170416 -0.026428716 0.098775946 0.0059331874 -0.007797284 -0.21015064
0.21310614 0.05336735 -0.045267265 -0.18298087 0.040949933 -0.002833948 -0.06176265 0.09716684
-0.04952207 -0.040939532 0.06907759 -0.11317151 0.12449433 0.16636029 -0.06801493 -0.12124557
0.066979766 0.12586781 -0.047940236 0.18494418 -0.041990858 -0.18080539 0.005424771 -0.027994325
-0.03307386 0.05460695 -0.094861954 -0.15562907 0.12280315 -0.063506596 -0.036386356 0.098861575
0.15722282 0.09463291 0.076883495 -0.19467567 0.014305818 -0.020438371 -0.083613954 0.2066228
0.10786861 0.04499976 -0.03767415 0.012831211 -0.020754127 0.03534376 -0.12729324 0.0755503
0.082069084 -0.03799159 0.14882784 -0.023524377 0.10749129 0.022978494 -0.015654355 0.049186755
-0.232724 0.21704333 -0.03366547 0.16777606 0.109320946 0.18769553 0.09287291 0.06709428
-0.011413262 0.0707488 0.13081166 0.05428884 0.08785058 0.052728646 -0.16097859 0.1482698
0.06287361 -0.2763477 -0.017040657 -0.0048303967 -0.0150130605 -0.07476497 0.14271188 -0.0002274297
-0.0911164 -0.071350016 0.042836238 -0.2918593 -0.062195078 0.0007275272 0.07320498 -0.13434349
-0.029660713 0.09345693 0.2023754 -0.21148053 0.017044969 -0.059294842 0.11079087 -0.0016017703
0.10795274 -0.19895151 -0.073580764 -0.16868044 -0.03948002 0.019904716 -0.10476271 -0.14163813
0.046684787 -0.015646156 -0.02834892 -0.03124158 -0.12143986 0.2826229 -0.10059803 -0.078637965
-0.024045993 -0.20180319 0.11570975 0.0009569855 -0.06632057 -0.09539293 0.008828748 -0.12481584
0.0052784136 0.08290888 -0.042113464 -0.02645288 -0.0074664815 -0.06092211 -0.16614532 -0.07302334
-0.072072886 0.037156872 0.0043553985 -0.044966698 -0.043489944 -0.07380364 -0.07813453 0.09450902
0.014233374 -0.016364368 0.10693255 0.013983831 0.12949312 -0.13999651 0.14764015 -0.035004165
0.11583344 0.1392561 -0.06274974 0.13034987 0.098717906 0.13040878 0.08748318 0.03756763
0.023240386 0.04108732 -0.059146777 0.23573275 -0.043633036 0.10498148 -0.10429284 -0.03979717
-0.23403008 0.15711349 0.037341427 -0.0018497028 -0.12919213 -0.13719049 -0.0374966 -0.1346755
0.15491298 -0.16024406 0.10626026 0.041831158 -0.04258849 -0.05852409 0.0053148274 -0.007881543
0.10524664 0.013920397 -0.122288674 0.08503046 -0.09589199 -0.0372549 0.04996005 0.012135909
-0.13432585 -0.0056350883 0.03447964 -0.09639123 0.16468063 0.06447251 -0.004797344 -0.1742981
0.106045425 0.36463183 0.048738383 0.11085763 0.123116985 -0.017694056 -0.09141664 -0.04675887
-0.010030387 0.14405386 0.18202601 0.1571567 -0.0144649 0.11088229 0.011817028 -0.012200694
00000000: e7a6 4b3d aeef 86bd 4b49 8ebd 7ed8 393d
00000010: b1f1 00bd 9001 b4bd 6de9 39bd c1e8 18bc
00000020: 038a 9b3b 4d2f 7fbd 3f53 4c3e b94e d13b
00000030: f612 1c3d 95f4 8bbd 9785 c03d 5db6 533d
00000040: 204f 103e d451 74be f6e8 18bd 8d53 a6bd
00000050: 4eda 093e 7128 183e 94aa 4cbd 4fff 10bd
00000060: 65e3 713d c5e5 073e 337d 703c 2ad9 6fbd
00000070: 7d9a 08be 56d8 32be ad24 673b 3655 903d
00000080: 242e 143c 32cf d43d f4aa 1dbc d55d e5bd
00000090: 2e49 b2bb 75f0 f0bd 609f ad3c e9da 6d3d
000000a0: 14ac debd 17fa a53c 37d3 2f3e 0981 d8bc
000000b0: 0b4b ca3d 2f6b c23b 5c80 ffbb bb31 57be
000000c0: 7f38 5a3e b997 5a3d 2b6a 39bd 565f 3bbe
000000d0: 1ebb 273d c2b9 39bb d5fa 7cbd 69ff c63d
000000e0: a7d7 4abd 36b0 27bd 8d78 8d3d 77c6 e7bd
000000f0: e2f6 fe3d 5a5a 2a3e 694b 8bbd 994f f8bd
00000100: b02c 893d 7ee3 003e fb5c 44bd 0262 3d3e
00000110: 9bfe 2bbd 0c25 39be 47c2 b13b 5b54 e5bc
00000120: 7578 07bd 8aab 5f3d fc46 c2bd 3a5d 1fbe
00000130: 3880 fb3d bf0f 82bd dc09 15bd f077 ca3d
00000140: 05ff 203e e6ce c13d 1875 9d3d 0f59 47be
00000150: f362 6a3c 5f6e a7bc cb3d abbd ed94 533e
00000160: 38ea dc3d ab51 383d 3650 1abd 003a 523c
00000170: 8f04 aabc 9ec4 103d 2959 02be 1eba 9a3d
00000180: d613 a83d 129d 1bbd 5366 183e 32b6 c0bc
00000190: 6524 dc3d 653d bc3c 903d 80bc 0d78 493d
000001a0: 334f 6ebe 9b40 5e3e cee4 09bd 7dcd 2b3e
000001b0: a9e3 df3d 4233 403e 2734 be3d ba68 893d
000001c0: b1fe 3abc bfe4 903d 7ef3 053e fa5d 5e3d
000001d0: 01eb b33d fef9 573d 92d7 24be 0ad4 173e
000001e0: e1c3 803d 727d 8dbe d998 8bbc 4e48 9ebb
000001f0: 57f9 75bc 601e 99bd 1023 123e 327a 6eb9
00000200: 3c9b babd f51f 92bd 0d75 2f3d 956e 95be
00000210: 44c0 7ebd 86b7 3e3a 7eec 953d 5791 09be
00000220: 06fb f2bc 5966 bf3d 7f3b 4f3e 5a8e 58be
00000230: e4a1 8b3c 26df 72bd 53e6 e23d 7ef2 d1ba
00000240: 5316 dd3d f2b9 4bbe 83b1 96bd 91ba 2cbe
00000250: cdb5 21bd 370f a33c d58d d6bd 9609 11be
00000260: 8c38 3f3d 5e2c 80bc ff3b e8bc 58ee ffbc
00000270: 76b5 f8bd f3b3 903e 5706 cebd f10c a1bd
00000280: 1afc c4bc 7fa5 4ebe 3cf9 ec3d 36de 7a3a
00000290: 14d3 87bd 5e5d c3bd 74a6 103c 729f ffbd
000002a0: 8bf6 ac3b 22cc a93d 2b7f 2cbd b6b3 d8bc
000002b0: 63a9 f4bb 7689 79bd 0022 2abe 438d 95bd
000002c0: f39a 93bd ce31 183d bbb7 8e3b 002f 38bd
000002d0: 8322 32bd 5d26 97bd ff04 a0bd f28d c13d
000002e0: 1933 693c 910e 86bc 74ff da3d 701c 653c
000002f0: d899 043e 3f5b 0fbe fb2e 173e 8760 0fbd
00000300: 153a ed3d 2799 0e3e f082 80bd 707a 053e
00000310: 9d2c ca3d e189 053e 622a b33d 84e0 193d
00000320: 9f62 be3c 2d4b 283d e443 72bd ed63 713e
00000330: 8eb8 32bd 8800 d73d 7c97 d5bd 5b02 23bd
00000340: 95a5 6fbe 5ce2 203e 53f3 183d ba71 f2ba
00000350: f14a 04be aa7b 0cbe 0996 19bd 60e8 09be
00000360: 82a1 1e3e 0517 24be fb9e d93d 2657 2b3d
00000370: 4571 2ebd f5b6 6fbd 0128 ae3b 9621 01bc
00000380: 8d8b d73d 6012 643c 7c72 fabd 7324 ae3d
00000390: 0563 c4bd 9898 18bd e9a2 4c3d b1d5 463c
000003a0: b78c 09be 8ca6 b8bb 863a 0d3d c468 c5bd
000003b0: 0aa2 283e 2a0a 843d 0a33 9dbb 337b 32be
000003c0: 582e d93d 06b1 ba3e e6a1 473d 5309 e33d
000003d0: c224 fc3d 20f3 90bc a638 bbbd 3b86 3fbd
000003e0: 7e56 24bc db82 133e 0765 3a3e b0ed 203e
000003f0: 30fe 6cbc 4116 e33d 359c 413c 6be5 47bc

network_body._body_endoder.seq_layers.0.bias f4 [64]
0.015625695 0.014327868 0.024708636 0.002318331 0.025076896 0.024264818 0.014418205 0.0009110331
0.025105106 0.04924085 0.0142264785 0.05636871 -0.007797637 0.0018992892 0.022529855 -0.001112726
0.013572422 0.0012302303 0.01109935 0.04009545 0.035348307 0.022494676 0.067952186 -0.013612889
0.04401902 0.033865433 0.046964977 0.028669672 -0.01739804 -0.012667215 -0.008786702 0.07309782
0.049523186 0.01753562 -0.0007531337 0.011167084 0.053748913 0.030263025 0.06569337 0.01762481
-0.017109616 0.04434297 -0.011395478 0.015032383 0.037834406 0.043468878 0.03069998 -0.0008505277
0.009688384 0.009363163 0.05194933 0.022898618 0.027578104 0.014727114 0.018928703 -0.004891969
-0.0031036693 0.011833876 0.028964203 -0.0037209815 -0.0139822215 0.0045306636 0.04476884 0.026138214
00000000: 7501 803c 6fbf 6a3c c469 ca3c 24ef 173b
00000010: 106e cd3c 03c7 c63c 563a 6c3c 65d2 6e3a
00000020: 39a9 cd3c c6b0 493d 2d16 693c e0e2 663d
00000030: 5283 ffbb 92f1 f83a 8890 b83c e4d8 91ba
00000040: dd5e 5e3c ae3f a13a 0cda 353c 203b 243d
00000050: 63c9 103d c146 b83c 842a 8b3d 9808 5fbc
00000060: 4a4d 343d 7bb6 0a3d 595e 403d a9dc ea3c
00000070: 5686 8ebc 278a 4fbc 19f6 0fbc 4fb4 953d
00000080: d3d8 4a3d dca6 8f3c f26d 45ba 25f6 363c
00000090: d227 5c3d 2aea f73c 3f8a 863d e861 903c
000000a0: 7729 8cbc f9a0 353d 19b4 3abc 624a 763c
000000b0: 40f8 1a3d 6c0c 323d 867e fb3c f3f5 5eba
000000c0: 07bc 1e3c f467 193c d2c8 543d e295 bb3c
000000d0: 7aeb e13c fe49 713c 5e10 9b3c cf4c a0bb
000000e0: ee66 4bbb e0e2 413c 5646 ed3c b6db 73bb
000000f0: b015 65bc f675 943b 885f 373d cf1f d63c

network_body._body_endoder.seq_layers.2.weight f4 [64, 64]
-0.07751886 -0.08301053 -0.06404992 -0.056498196 -0.12857026 -0.20149925 0.026797328 -0.1384555
0.14568762 0.2805866 0.16636834 0.035486624 -0.19713251 0.04958073 0.15248379 0.1464841
-0.21224388 -0.09223273 -0.00573654 0.035302505 0.05218783 0.07264524 0.032958977 0.055519216
0.052634332 -0.053285703 -0.14485344 0.18665695 -0.18176602 -0.16171072 0.11984991 0.11951261
0.08093807 0.08810251 0.03580145 0.07512846 0.020632803 -0.108275756 0.2099924 -0.012127565
0.23967612 0.013346594 -0.49719805 0.0074442215 0.038202576 0.24356063 -0.13324161 0.24275517
-0.031794928 -0.22590892 -0.094893776 0.08242473 -0.021240762 -0.008295497 -0.03569763 0.05834243
0.27215344 0.14631917 0.21611105 0.0585425 -0.24222992 -0.23817262 0.26226184 0.08477079
0.20104738 -0.16445024 -0.013398515 0.05981922 -0.19068255 -0.48210108 0.108725205 -0.13897209
0.036394846 -0.20396827 0.061734244 -0.015572061 0.16160929 -0.008326748 -0.028334735 0.158891
-0.16783896 0.05541049 0.03173586 0.14185221 -0.14659655 0.002612358 -0.053585757 0.04678241
-0.3330384 0.23150963 -0.19976681 0.18633482 0.16136116 -0.029952966 0.16622251 -0.15036781
0.053563893 -0.1757198 0.17052782 -0.004229381 0.029527571 0.12156862 -0.014753624 -0.17827277
0.11796587 -0.03825486 0.039869383 -0.2100197 -0.09194604 0.0069698426 0.047728747 0.020891188
-0.22866628 0.14271928 -0.14185016 -0.13148755 -0.03159992 0.2555716 -0.18214531 0.20848994
-0.044505343 -0.1079409 -0.23820977 0.08390147 0.05972967 0.083291054 -0.0060413894 -0.15981886
-0.016956933 0.037512142 0.042489428 -0.09205678 0.15554449 0.15492512 0.02317504 0.011257222
-0.049340922 0.19029854 0.04539497 0.18322013 0.105771184 -0.041481216 0.033666298 0.13063274
-0.10084522 -0.12259089 -0.017862488 0.10381229 0.09194657 -0.03215052 0.085084096 -0.026890393
0.20795861 -0.22423966 0.035763573 -0.12793547 -0.18917859 -0.01358163 0.04432167 0.1843373
0.18308502 0.08922475 -0.14765856 0.051692944 0.059589706 -0.048093863 0.16530621 0.23660591
-0.2852466 -0.11538163 0.016862696 -0.09554489 0.004865209 0.02861505 0.14812765 -0.14943874
0.108421005 -0.23061697 -0.025601676 -0.13321818 -0.068256505 0.19296873 0.21525232 -0.053710125
-0.013743731 -0.040517177 0.0849012 0.142899 -0.108497046 0.080264054 0.12920389 -0.16752234
-0.21374305 0.32573044 -0.119468965 -0.22126174 0.26781866 0.20738748 0.25016043 -0.10487614
-0.19839647 0.11441328 0.26492685 0.18766262 -0.12978603 0.06497566 0.14102767 -0.034005117
-0.13047148 -0.3759163 -0.2941726 -0.052647606 -0.006602683 -0.012009313 0.10719289 0.34837967
0.11477633 0.1771676 -0.0954218 -0.12095798 -0.16301595 0.004196496 -0.14950743 0.15918985
-0.29494146 0.05206108 -0.23857886 -0.028944517 -0.035969168 0.035003953 0.15034862 0.04085804
-0.12303945 0.04758941 -0.091665655 -0.23594117 0.10603282 0.25233945 0.17739712 -0.16967629
0.06191069 0.0780785 -0.034859534 -0.104139805 0.295554 0.05521362 -0.07751333 -0.17582464
-0.111317955 -0.10310329 0.073628 0.017685398 -0.10322445 -0.14593898 0.06604232 -0.003163675
00000000: 35c2 9ebd 6d01 aabd 9b2c 83bd a76a 67bd
00000010: eca7 03be d255 4ebe 1286 db3c 47c7 0dbe
00000020: 232f 153e 0ca9 8f3e 765c 2a3e 6c5a 113d
00000030: 1bdd 49be 2a15 4b3d b624 1c3e eeff 153e
00000040: 7656 59be 83e4 bcbd 96f9 bbbb 5c99 103d
00000050: e8c2 553d 07c7 943d feff 063d 1e68 633d
00000060: 1997 573d 1c42 5abd 7654 14be 0023 3f3e
00000070: df20 3abe 7f97 25be df73 f53d 07c3 f43d
00000080: dcc2 a53d 176f b43d 8ba4 123d f3dc 993d
00000090: 2006 a93c aebf ddbd 3f08 573e b2b2 46bc
000000a0: a86d 753e acab 5a3c be90 febe a8ee f33b
000000b0: 4e7a 1c3d f567 793e 7d70 08be d094 783e
000000c0: 663b 02bd ab54 67be ab57 c2bd 4cce a83d
000000d0: 1b01 aebc d6e9 07bc ae37 12bd 79f8 6e3d
000000e0: b257 8b3e b1d4 153e 374c 5d3e 43ca 6f3d
000000f0: 1f0b 78be 86e3 73be 2f47 863e 4f9c ad3d
00000100: 5ddf 4d3e a565 28be 7285 5bbc 0005 753d
00000110: 4942 43be f4d5 f6be 52ab de3d b34e 0ebe
00000120: c312 153d 0fdd 50be 0cdd 7c3d f521 7fbc
00000130: e87c 253e ea6c 08bc 3f1e e8bc 53b4 223e
00000140: fadd 2bbe 1cf6 623d 76fd 013d b541 113e
00000150: 681d 16be 1834 2b3b bd7c 5bbd ea9e 3f3d
00000160: 0284 aabe dc10 6d3e ac8f 4cbe 8ece 3e3e
00000170: dc3b 253e ec5f f5bc 3c36 2a3e 05fa 19be
00000180: d065 5b3d e4ef 33be d89e 2e3e 9f96 8abb
00000190: cee3 f13c f8f8 f83d 2fb9 71bc 238d 36be
000001a0: 1798 f13d 21b1 1cbd 144e 233d 670f 57be
000001b0: 354e bcbd 4763 e43b 387f 433d ff23 ab3c
000001c0: 7e27 6abe 0125 123e 2b41 11be aca4 06be
000001d0: eb6e 01bd 48da 823e 4d84 3abe 637e 553e
000001e0: 3c4b 36bd 1e10 ddbd 43ed 73be 89d4 ab3d
000001f0: 19a7 743d 8094 aa3d d9f6 c5bb 8ea7 23be
00000200: 44e9 8abc 55a6 193d 6509 2e3d 4488 bcbd
00000210: 0e47 1f3e b1a4 1e3e 95d9 bd3c 3670 383c
00000220: b519 4abd 9fdd 423e 13f0 393d 0f9e 3b3e
00000230: 909e d83d 35e8 29bd ace5 093d 97c4 053e
00000240: f087 cebd ef10 fbbd 5a54 92bc 8a9b d43d
00000250: 7c4e bc3d 43b0 03bd 9240 ae3d 3e49 dcbc
00000260: 1af3 543e 159f 65be d37c 123d 8401 03be
00000270: 08b8 41be 7c85 5ebc a48a 353d ebc2 3c3e
00000280: a47a 3b3e 77bb b63d ce33 17be fbbb 533d
00000290: 5614 743d 12fe 44bd 0846 293e d248 723e
000002a0: d80b 92be 344d ecbd a323 8a3c 0aad c3bd
000002b0: 556c 9f3b 1c6a ea3c c6ae 173e 7806 19be
000002c0: d50b de3d db26 6cbe 9bba d1bc 596a 08be
000002d0: 11ca 8bbd 9899 453e 1b6b 5c3e 26ff 5bbd
000002e0: 632d 61bc 57f5 25bd aee0 ad3d 1e54 123e
000002f0: b333 debd 7b61 a43d 064e 043e fa8a 2bbe
00000300: 75df 5abe 24c6 a63e 25ac f4bd 7092 62be
00000310: 871f 893e 625d 543e 0715 803e 4dc9 d6bd
00000320: 7228 4bbe 8251 ea3d 7ea4 873e a12a 403e
00000330: a1e6 04be f511 853d 8f69 103e f348 0bbd
00000340: 519a 05be 1a78 c0be cb9d 96be 04a5 57bd
00000350: 525b d8bb b6c2 44bc f287 db3d d25e b23e
00000360: da0f eb3d 6c6b 353e 816c c3bd d1b8 f7bd
00000370: a7ed 26be c382 893b 7a18 19be aa02 233e
00000380: 9102 97be 003e 553d 044e 74be 0d1d edbc
00000390: 6854 13bd 4e60 0f3d fdf4 193e c35a 273d
000003a0: 1bfc fbbd 1ded 423d 34bb bbbd 909a 71be
000003b0: bc27 d93d a332 813e 97a7 353e 9fbf 2dbe
000003c0: 1096 7d3d 9fe7 9f3d dfc8 0ebd 4047 d5bd
000003d0: db52 973e ad27 623d 4fbf 9ebd 600b 34be
000003e0: abfa e3bd d127 d3bd 47ca 963d f8e0 903c
000003f0: 5767 d3bd 0771 15be 3241 873d a955 4fbb

network_body._body_endoder.seq_layers.2.bias f4 [64]
0.041892953 -0.04057901 0.03122412 0.073853016 -0.028630609 0.056169223 0.035322566 0.026783552
0.07067692 0.025745925 -0.039493237 0.016007194 -0.009828768 -0.0073716706 -0.061976373 -0.1252063
0.0598742 0.05231612 0.0019307485 0.007914062 0.014271442 -0.006442868 -0.02304352 0.012047326
-0.018730076 0.02924112 0.05566024 0.030471854 0.02695016 0.027286485 -0.005627482 -0.043615136
0.03432123 0.023531638 0.043275576 0.023591751 0.03015567 0.050988227 -0.015764024 0.079343855
-0.057204295 -0.0029046412 0.057310842 0.044361435 0.03674722 0.018476704 0.0251041 -0.009488419
0.027386362 0.027256237 -0.0029938645 0.00089020206 0.04025563 0.0052383686 0.038212612 0.039114762
0.005226212 0.056012485 0.04029223 0.065115444 -0.026479665 0.011902182 0.06429604 -0.0080110235
00000000: f297 2b3d 2d36 26bd bac9 ff3c 4040 973d
00000010: bd8a eabc b311 663d 65ae 103d 2e69 db3c
00000020: 10bf 903d 1ee9 d23c a9c3 21bd 8521 833c
00000030: d708 21bc 0e8e f1bb f0da 7dbd 1536 00be
00000040: a63e 753d 6e49 563d 2b11 fd3a fba9 013c
00000050: c4d2 693c b21e d3bb c4c5 bcbc 2662 453c
00000060: d16f 99bc 138b ef3c fefb 633d 1ca0 f93c
00000070: 95c6 dc3c e887 df3c be66 b8bb c9a5 32bd
00000080: 6b94 0c3d 6cc5 c03c bb41 313d 7d43 c13c
00000090: 0609 f73c 08d9 503d 8e23 81bc 087f a23d
000000a0: 0d4f 6abd cb5b 3ebb c6be 6a3d 56b4 353d
000000b0: 4184 163d 755c 973c 1da7 cd3c 5075 1bbc
000000c0: 5d59 e03c 7948 df3c b634 44bb 735c 693a
000000d0: 16e3 243d 9fa6 ab3b d484 1c3d cd36 203d
000000e0: a540 ab3b 596d 653d 7709 253d 3f5b 853d
000000f0: e2eb d8bc 5f01 433c a4ad 833d ab40 03bc

action_model._continuous_distribution.log_sigma f4 [1, 2]
0.28023693 0.3117278
00000000: 377b 8f3e c99a 9f3e

action_model._continuous_distribution.mu.weight f4 [2, 64]
0.10945929 -0.022047857 0.076389834 0.11258756 0.005330659 0.06319777 -0.04327119 -0.01525488
0.03399538 -0.040461358 -0.0029036573 -0.07294452 -0.11430643 -0.021275656 -0.040656675 -0.008858193
0.035184983 -0.013895573 -0.027324056 -0.005210762 -0.09836531 -0.06124377 -0.0676966 -0.03611626
-0.038939442 -0.0354543 0.09297321 0.019114327 0.017783994 0.04716806 0.037102513 -0.0770249
-0.09420279 0.02008936 -0.10323695 -0.024961969 0.07409427 -0.06987799 -0.054054018 0.15798134
-0.018766582 -0.009062583 0.12594882 0.10965474 -0.06783865 0.04193277 -0.08098302 -0.08336021
0.06016668 -0.035037458 -0.011921796 -0.00041224883 -0.07133473 -0.07775142 0.052516367 0.004224355
0.018059427 -0.065576665 0.084082626 0.07831708 0.015285134 -0.017173234 0.012089011 0.003771254
-0.114222646 0.042524338 -0.07501507 -0.09641437 0.0043665743 -0.098379776 -0.076748505 0.10824232
-0.06953704 0.015841778 -0.06080062 0.073880196 0.042025294 0.037703954 -0.051160112 -0.07902858
-0.08537839 -0.114980005 0.1054677 0.054477494 0.03795917 -0.031340763 -0.010702702 0.11863193
-0.029847218 0.064853236 0.053195383 -0.018497206 -0.012978693 0.09916754 -0.015217094 -0.023545722
0.02701795 -0.118903525 0.039138805 -0.027828667 -0.09903146 0.046380617 -0.032101378 -0.14953764
0.012026609 0.038792424 -0.016000131 0.057903532 0.020090377 0.054052297 0.11712037 -0.05487525
-0.09395302 0.03992692 -0.051165078 -0.13512558 -0.05872639 -0.016584475 -0.03816327 0.04000726
-0.08866887 -0.110733144 -0.09483435 -0.031097343 -0.0075407964 -0.087689124 -0.061736453 0.068983234
00000000: 312c e03d b59d b4bc 4672 9c3d 4f94 e63d
00000010: cfac ae3b d56d 813d 223d 31bd 9bef 79bc
00000020: bd3e 0b3d cfba 25bd 494b 3ebb f063 95bd
00000030: 7d19 eabd 494a aebc 9d87 26bd f421 11bc
00000040: 211e 103d 42aa 63bc b3d6 dfbc 0abf aabb
00000050: c073 c9bd bfda 7abd 84a4 8abd a5ee 13bd
00000060: f77e 1fbd 8738 11bd bd68 be3d a695 9c3c
00000070: bdaf 913c 4c33 413d cef8 173d 3bbf 9dbd
00000080: 64ed c0bd 7192 a43c e56d d3bd 0b7d ccbc
00000090: bdbe 973d 311c 8fbd bf67 5dbd dcc5 213e
000000a0: 60bc 99bc 3a7b 14bc baf8 003e aa92 e03d
000000b0: fdee 8abd b2c1 2b3d 6dda a5bd c2b8 aabd
000000c0: 5671 763d 7083 0fbd a353 43bc 1a23 d8b9
000000d0: f117 92bd 233c 9fbd 671b 573d 756c 8a3b
000000e0: 5df1 933c 0f4d 86bd 8333 ac3d b564 a03d
000000f0: 806e 7a3c e2ae 8cbc fd10 463c 2527 773b
00000100: 90ed e9bd 002e 2e3d 80a1 99bd e674 c5bd
00000110: 7b15 8f3b 567b c9bd 522e 9dbd 26ae dd3d
00000120: 7069 8ebd 9ec6 813c 120a 79bd 804e 973d
00000130: b722 2c3d 766f 1a3d 448d 51bd bcd9 a1bd
00000140: deda aebd a37a ebbd 73ff d73d cb23 5f3d
00000150: 137b 1b3d 2c5f 00bd 635a 2fbc 4cf5 f23d
00000160: 2782 f4bc c6d1 843d 67e3 593d 7487 97bc
00000170: 95a4 54bc 5a18 cb3d 1e51 79bc f5e2 c0bc
00000180: bf54 dd3c b183 f3bd 0350 203d f2f8 e3bc
00000190: 02d1 cabd 9af9 3d3d bc7c 03bd 6520 19be
000001a0: 410b 453c cee4 1e3d b512 83bc 412c 6d3d
000001b0: 9394 a43c f165 5d3d cedc ef3d dfc4 60bd
000001c0: 716a c0bd 698a 233d 7992 51bd 5c5e 0abe
000001d0: 158b 70bd 2adc 87bc 1751 1cbd a7de 233d
000001e0: 0698 b5bd 0fc8 e2bd 8338 c2bd dbbf febc
000001f0: c918 f7bb 5b96 b3bd 5ddf 7cbd 1547 8d3d

action_model._continuous_distribution.mu.bias f4 [2]
0.01675031 0.010516963
00000000: f237 893c 574f 2c3c

action_model._discrete_distribution.branches.0.weight f4 [3, 64]
-0.03658156 -0.03955033 0.07304411 0.07416031 0.023834087 0.07295887 -0.026934857 -0.004505691
0.052620728 0.09863657 0.03168063 0.017409248 0.04939955 0.020699913 -0.06481105 -0.020773478
0.014747105 -0.077063434 0.024461675 0.036438774 -0.06634279 0.0043556434 -0.067794755 -0.10618511
0.06786241 0.057910122 0.044735074 -0.12225294 -0.06337855 -0.05172274 -0.009596809 0.04488979
-0.0038278662 -0.043166842 0.08765274 -0.0019285455 0.05531095 -0.015632126 -0.033244666 -0.053165767
-0.008307719 0.020675402 0.025596632 -0.03137686 -0.009061852 -0.00085432763 0.09272046 -0.086333886
-0.061833326 0.02211377 -0.040187426 -0.038057156 -0.012296453 -0.10461832 -0.013208477 0.1064256
0.029839199 -0.04978847 0.027888585 0.0996282 -0.109287985 -0.05631541 -0.02109475 -0.10862189
0.03751279 0.124602936 -0.08939423 -0.014465615 -0.061896026 -0.019022685 0.039307784 0.030124232
-0.09128749 0.018737115 0.055338748 0.09651412 -0.009074587 -0.10880777 0.100233145 0.05630176
-0.0959274 -0.02562391 -0.04164871 -0.033116456 -0.021949697 -0.15369338 -0.105677344 0.15408294
-0.05683347 0.092236094 0.13640246 0.13846028 -0.07187803 0.26415777 -0.018548617 -0.05923663
0.10277261 0.10352819 -0.053763118 0.101675406 -0.12307454 0.054221187 0.009449729 0.016310409
-0.00019362892 0.017250204 0.031306624 0.017003393 0.08829205 -0.02967068 0.04334984 -0.015512496
0.032769185 0.0035610872 0.07658135 -0.03155548 0.03226619 -0.021178387 -0.15696475 0.046899647
-0.00092250825 0.10941339 0.04753407 -0.03352532 0.19835015 0.0026725722 -0.23999403 0.15530364
-0.02159309 -0.08875298 -0.021056535 -0.076745465 0.03485826 -0.057338763 0.002213384 -0.025105331
0.01780639 -0.13261853 -0.046798207 -0.17804113 -0.04685251 0.06896148 -0.014267771 0.0326264
0.1315307 0.1002733 0.016061828 0.0049298117 0.09315599 0.16288836 0.1566417 -0.018345192
-0.09124137 -0.21405405 -0.22271438 -0.018438082 0.119821176 -0.28897455 0.0092003355 0.047298327
-0.07962097 0.0047259424 -0.044901136 -0.03801853 0.03531543 0.025533836 0.00070902467 0.043865446
-0.011480579 -0.03531217 0.0026537292 0.012379963 -0.030867208 -0.0018755039 -0.17478201 0.10898777
0.011324021 -0.021692548 -0.017696723 0.08631306 -0.019852964 0.12417165 0.12828574 -0.21675575
-0.047286745 -0.00012282164 -0.030933965 -0.105358124 -0.11168579 0.12065106 0.23679388 -0.10101228
00000000: 8cd6 15bd 87ff 21bd 2698 953d 5ce1 973d
00000010: b43f c33c 766b 953d 7da6 dcbc 7aa4 93bb
00000020: d588 573d f801 ca3d 8cc3 013d d79d 8e3c
00000030: 2f57 4a3d dd92 a93c a8bb 84bd 242d aabc
00000040: d79d 713c 6fd3 9dbd da63 c83c d340 153d
00000050: bbde 87bd c9b9 8e3b fad7 8abd 9477 d9bd
00000060: 72fb 8a3d 2a33 6d3d 203c 373d c05f fabd
00000070: 9dcc 81bd 39db 53bd ef3b 1dbc 5bde 373d
00000080: f0dc 7abb b7cf 30bd 4883 b33d 40c7 fcba
00000090: bc8d 623d f20e 80bc 8f2b 08bd 59c4 59bd
000000a0: 191d 08bc 765f a93c 07b0 d13c 0685 00bd
000000b0: 2978 14bc f5f4 5fba 39e4 bd3d d2cf b0bd
000000c0: f144 7dbd f027 b53c 929b 24bd d2e1 1bbd
000000d0: 1077 49bc 2142 d6bd 5e68 58bc aaf5 d93d
000000e0: 5671 f43c ffee 4bbd 9a76 e43c df09 cc3d
000000f0: 61d2 dfbd fdaa 66bd e6ce acbc 2775 debd
00000100: 03a7 193d d32f ff3d 5214 b7bd 3001 6dbc
00000110: b086 7dbd 76d5 9bbc 3301 213d 18c7 f63c
00000120: f0f4 babd 947e 993c e2aa 623d 32a9 c53d
00000130: 94ad 14bc 9cd6 debd 0947 cd3d ad9c 663d
00000140: 9675 c4bd 3ce9 d1bc d697 2abd 1fa5 07bd
00000150: dacf b3bc cc61 1dbe 5d6d d8bd ebc7 1d3e
00000160: 36ca 68bd 47e6 bc3d 16ad 0b3e 88c8 0d3e
00000170: ca34 93bd b03f 873e 45f3 97bc 1ca2 72bd
00000180: 727a d23d 9606 d43d b736 5cbd 323b d03d
00000190: 810e fcbd 0917 5e3d 09d3 1a3c 689d 853c
000001a0: de08 4bb9 4d50 8d3c 603b 003d b34a 8b3c
000001b0: 76d2 b43d ed0f f3bc 9a8f 313d 2028 7ebc
000001c0: fb38 063d 2161 693b afd6 9c3d 5240 01bd
000001d0: 8d29 043d 4c7e adbc 5ebb 20be d819 403d
000001e0: 7bd4 71ba 2114 e03d 16b3 423d d951 09bd
000001f0: 4d1c 4b3e 5226 2f3b ffc0 75be eb07 1f3e
00000200: fee3 b0bc 1fc4 b5bd c17e acbc ba2c 9dbd
00000210: 89c7 0e3d 0ddc 6abd 6c0e 113b b2a9 cdbc
00000220: b5de 913c 27cd 07be 7aaf 3fbd 6a50 36be
00000230: 6be8 3fbd ad3b 8d3d 5ec3 69bc 43a3 053d
00000240: fcaf 063e 175c cd3d 1894 833c 428a a13b
00000250: 91c8 be3d 35cc 263e af66 203e a848 96bc
00000260: c1dc babd fc30 5bbe 3d0f 64be 760b 97bc
00000270: ce64 f53d 79f4 93be 01bd 163c e4bb 413d
00000280: 5210 a3bd 14dc 9a3b 41ea 37bd 51b9 1bbd
00000290: eaa6 103d 562c d13c d7dd 393a 41ac 333d
000002a0: 0a19 3cbc 7ea3 10bd 30ea 2d3b 54d5 4a3c
000002b0: 3add fcbc 78d3 f5ba 0efa 32be fb34 df3d
000002c0: 6388 393c 92b4 b1bc b8f8 90bc e7c4 b03d
000002d0: afa2 a2bc b54d fe3d 565d 033e 38f5 5dbe
000002e0: bfaf 41bd afc9 00b9 3a69 fdbc 00c6 d7bd
000002f0: 85bb e4bd e717 f73d 187a 723e 87df cebd

action_model._discrete_distribution.branches.0.bias f4 [3]
0.026874399 -0.022918804 -0.01839055
00000000: b327 dc3c 37c0 bbbc c7a7 96bc

action_model._discrete_distribution.branches.1.weight f4 [3, 64]
0.03949766 -0.17841643 0.041018352 -0.08748957 -0.03939932 -0.005991608 -0.09012331 0.026052501
-0.009488053 -0.19510187 -0.093730524 -0.072490275 0.017633507 0.090500765 -0.09708601 -0.06035752
0.10078935 0.07532609 -0.06720814 -0.01261179 0.0075302953 -0.020781312 0.043013923 0.05864058
-0.015577032 0.015089992 0.11245994 0.06465356 0.06339729 0.015858289 -0.0062913736 0.072253965
0.01057431 -0.032410067 -0.026682459 -0.10222377 0.05240746 -0.0100092795 0.0037901832 -0.044400763
0.0438918 0.017941829 -0.023156805 0.019832185 0.02305217 0.009667945 0.074054256 0.059456207
0.025138214 -0.029822664 0.0006051811 0.07179315 -0.002656403 -0.060676586 0.08525876 0.026497513
-0.00824913 -0.028555933 0.0020452095 0.07261306 0.015498729 0.0368283 0.017313782 -0.037376504
-0.029230546 -0.07768304 0.056449458 -0.007922863 -0.11269982 0.035652217 0.07907737 -0.05772558
0.19896188 0.32170248 -0.078860216 -0.070522174 -0.07664075 0.0056898934 0.076847464 0.0150585165
-0.06363054 -0.061204035 0.09455365 0.13642417 -0.033389457 -0.16218342 -0.11829732 -0.12815583
0.008731838 -0.16797742 0.0019132368 -0.01519873 0.024523303 0.16221206 0.07772738 -0.065211706
0.10839991 0.0034866398 -0.053743746 0.08399153 0.14021094 0.115200944 0.024397569 -0.0014134555
-0.14130534 0.00054464943 -0.046618897 -0.021028558 0.028610336 -0.004214566 -0.117573604 -0.026374279
-0.04874703 0.027069502 0.03025016 -0.06791558 -0.004077639 0.115651436 0.1116384 -0.1451028
-0.043457787 -0.06378865 -0.011857097 0.09413846 0.021714736 -0.08565201 0.15113173 -0.034322374
0.005089214 0.21833843 -0.08337363 0.12797596 0.11649743 0.04375411 0.051077206 -0.00530043
-0.20044285 -0.15583436 0.15681565 0.1692216 0.04328646 -0.09117448 0.033427827 0.08169696
-0.058962353 -0.026598468 -0.007874215 -0.18387726 0.0010853373 0.15457888 0.0622458 0.037884414
0.028738737 0.09511463 -0.14906828 -0.077842616 -0.09284858 -0.24447279 -0.04912694 0.019632788
-0.14769462 0.0499694 0.097917154 0.07019135 -0.18920141 -0.12004002 -0.022700386 0.10348687
0.058985483 0.0021107048 0.09749974 -0.012118906 -0.029188685 -0.008160708 0.038090184 -0.030263485
0.04740592 -0.03018796 -0.017772391 0.02670695 0.010975239 -0.049173154 -0.24886982 0.08135423
0.013557139 0.11886697 0.016840672 -0.11230984 -0.047901034 0.068314254 -0.21420681 0.043067995
00000000: 4cc8 213d ccb2 36be dc02 283d bb2d b3bd
00000010: 2e61 21bd 4055 c4bb 9292 b8bd 0e6c d53c
00000020: c773 1bbc c9c8 47be caf5 bfbd c875 94bd
00000030: 2574 903c 7758 b93d 08d5 c6bd 7239 77bd
00000040: a66a ce3d 9144 9a3d 6ca4 89bd aea1 4ebc
00000050: b2c0 f63b 923d aabc 5e2f 303d 1b31 703d
00000060: cf36 7fbc 043c 773c 6651 e63d 1669 843d
00000070: 70d6 813d 3ee9 813c de27 cebb e3f9 933d
00000080: df3f 2d3c 6bc0 04bd 2c95 dabc b25a d1bd
00000090: 34a9 563d f6fd 23bc b964 783b 93dd 35bd
000000a0: e3c7 333d befa 923c 57b3 bdbc 1b77 a23c
000000b0: e8d7 bc3c 4d66 1e3c c2a9 973d 5a88 733d
000000c0: a8ee cd3c a94e f4bc 04a5 1e3a 4908 933d
000000d0: 0c17 2ebb 0388 78bd 259c ae3d 5011 d93c
000000e0: 5c27 07bc 22ee e9bc ec08 063b 28b6 943d
000000f0: 62ee 7d3c 46d9 163d a2d5 8d3c 1b18 19bd
00000100: e674 efbc 4918 9fbd 8c37 673d e5ce 01bc
00000110: 2acf e6bd 0f08 123d 51f3 a13d a871 6cbd
00000120: aabc 4b3e 30b6 a43e 7781 a1bd ee6d 90bd
00000130: d3f5 9cbd 4972 ba3b 3462 9d3d ffb7 763c
00000140: bb50 82bd 15b1 7abd 58a5 c13d c7b2 0b3e
00000150: 62c3 08bd 6913 26be de45 f2bd 483b 03be
00000160: fc0f 0f3c 4602 2cbe 93c5 fa3a 1804 79bc
00000170: 18e5 c83c eb1a 263e 882f 9f3d b78d 85bd
00000180: c600 de3d 1c80 643b 6722 5cbd c003 ac3d
00000190: 7593 0f3e 79ee eb3d 69dd c73c b243 b9ba
000001a0: 59b2 10be cec6 0e3a 75f3 3ebd 1544 acbc
000001b0: 3960 ea3c 581a 8abb 6eca f0bd df0e d8bc
000001c0: f7aa 47bd dcc0 dd3c 2fcf f73c 5317 8bbd
000001d0: b79d 85bb a9da ec3d aca2 e43d d495 14be
000001e0: cb00 32bd a0a3 82bd 4544 42bc aacb c03d
000001f0: 1ae3 b13c 526a afbd 47c2 1a3e 9e95 0cbd
00000200: 6cc3 a63b 1c94 5f3e cbbf aabd 210c 033e
00000210: 3496 ee3d 8237 333d 5536 513d 3baf adbb
00000220: e440 4dbe 0b93 1fbe 4894 203e 6d48 2d3e
00000230: 254d 313d b0b9 babd 9eeb 083d bc50 a73d
00000240: 8282 71bd 08e5 d9bc da02 01bc 524a 3cbe
00000250: e041 8e3a ed49 1e3e 74f5 7e3d b02c 1b3d
00000260: 806d eb3c 76cb c23d 5ba5 18be f36b 9fbd
00000270: 6527 bebd 1357 7abe 5539 49bd f1d4 a03c
00000280: 423d 17be b7ac 4c3d ca88 c83d 7cc0 8f3d
00000290: 04be 41be 8bd7 f5bd 29f6 b9bc edf0 d33d
000002a0: c39a 713d c053 0a3b f2ad c73d 608e 46bc
000002b0: 1c1d efbc 7db4 05bc 7404 1c3d 21eb f7bc
000002c0: b62c 423d be4c f7bc 6897 91bc 89c8 da3c
000002d0: 7dd1 333c ca69 49bd bbd7 7ebe 0c9d a63d
000002e0: c31e 5e3c 8770 f33d 73f5 893c b402 e6bd
000002f0: e033 44bd 58e8 8b3d 0859 5bbe 1168 303d

action_model._discrete_distribution.branches.1.bias f4 [3]
0.058633577 -0.01988159 -0.05371663
00000000: c329 703d b7de a2bc f805 5cbd
