results/MLHades_main_11_grid32x32cellsize1x1/MLHades/MLHades-2499979.onnx (onnx, 158122 bytes, 22 tensors)

discrete_action_output_shape f4 [1, 4]
000000 00 00 40 40 00 00 40 40 00 00 40 40 00 00 00 40
       3.0 3.0 3.0 2.0

network_body.observation_encoder.processors.1.conv_layers.0.weight f4 [16, 7, 8, 8]
000000 27 3f 47 3c d8 8e 6b bc d1 8f 11 bb 84 42 a2 ba
       0.012161053 -0.014377318 -0.0022210965 -0.0012379442
000010 9e 19 86 bc fe bf 1b 3d bf ae e1 3c 36 f9 8b bd
       -0.016369637 0.038024895 0.027549146 -0.068346426
000020 de b7 31 bc 5e 34 2e 3c f4 27 ba 3b bf 02 a3 3d
       -0.01084706 0.0106326025 0.0056810323 0.07959508
000030 77 f6 a6 3d a2 71 a6 3c 0f 88 49 bc 5e e7 bd bd
       0.08152478 0.020317856 -0.012300505 -0.092726454
000040 8c 16 2d bd 19 85 79 3d 9d 80 48 3d f9 36 d0 3c
       -0.04225783 0.060917947 0.04895078 0.025416838
000050 50 7a 68 3d 30 e1 68 3c c9 de 82 3b 05 3f 5c bd
       0.05675727 0.014213845 0.003993843 -0.053771038
000060 2e 65 25 3d 97 0b 10 3d f1 91 a3 bc 16 2d 03 bd
       0.040379696 0.035167303 -0.019967051 -0.03202542
000070 69 5e 0d 3d 75 54 6e bc bd 96 0b 3d e6 3f 22 3c
       0.034513865 -0.014546503 0.034079302 0.00990293
000080 fa 7f 89 bc ed c7 30 3d f7 08 65 bd b5 a4 07 3c
       -0.016784657 0.043159414 -0.055916753 0.008279015
000090 43 a7 19 3d 52 83 f2 ba eb 71 04 3c d2 64 a9 3d
       0.03751303 -0.0018502271 0.008083801 0.08271183
0000a0 86 cb 9b bc ef 00 58 3d fb 03 9b bd 9f 6a 38 3c
       -0.019017946 0.052735265 -0.075691186 0.011255889
0000b0 a6 00 ed 3c 8b 39 1f bd 30 c5 8b 3c 44 cb 39 3b
       0.028930973 -0.038873237 0.0170618 0.0028349916
0000c0 d2 55 3c 3c cb 8d d3 3c 5a e3 af bd 65 ff c6 bd
       0.0114950705 0.025824448 -0.08588286 -0.097166814
0000d0 b0 7b dc 3b 7d 6f ac bc 3f 2d 78 3c dd 8d 26 3d
       0.006728612 -0.021049256 0.015147506 0.040662635
0000e0 07 ce 84 bb a6 f8 d5 bd 71 33 8d bd f9 26 97 bd
       -0.0040528807 -0.104478166 -0.06894577 -0.0738048
0000f0 c8 09 a4 3b fb ac 0a bd ce f7 8b 3c d3 b5 75 3d
       0.005006049 -0.033856373 0.017085936 0.059987854
000100 28 0c bd 3d af 6c 84 3e a0 dc 84 3e 13 b6 37 3d
       0.09230834 0.2586417 0.25949574 0.044851374
000110 f4 6a 82 3e 6b 65 8c 3e a0 66 c1 3d a1 ae 5b 3e
       0.25472224 0.27421126 0.09443402 0.21453334
000120 d1 9f 73 3d 6a 60 13 3e cd 7e 90 3e 77 a3 9f 3d
       0.059478585 0.14392248 0.2822174 0.0779485
000130 f2 39 dd 3d 16 3d 4f 3e 03 3d df 3c fc 94 49 3e
       0.10802068 0.20238146 0.027250772 0.1968574
000140 98 21 c2 bd c6 a4 ad 3c 62 59 c7 3d ab 3c df 3d
       -0.09479064 0.021196734 0.09733845 0.10900243
000150 ad 67 9f 3d f5 7e 3c 3e e1 43 a6 3d 9d b5 0e 3e
       0.077834465 0.18407805 0.081184156 0.13936467
000160 e8 6a e3 3d 67 d4 8f 3d c1 41 23 3e be dd f9 3d
       0.11104375 0.070229344 0.15943052 0.12200497
000170 3e b6 1f 3d d5 ce 74 3e 5f 7e 0a 3e b2 66 25 3e
       0.03899216 0.23907025 0.13524769 0.16152456
000180 49 53 4a 3e 43 5c 98 3d 31 1c a0 3d f8 f5 99 3e
       0.19758333 0.074394725 0.07817877 0.30070472
000190 14 18 54 3e e0 04 8b 3e 23 24 63 3e d6 9f 1b 3e
       0.2071231 0.27152157 0.22181754 0.15197691
0001a0 b7 ab 31 3e c5 95 10 3e d9 19 39 3e 6a 2f 8f 3e
       0.1735066 0.14119633 0.18076266 0.27965862
0001b0 9c 58 9f 3e 62 04 7b 3e ab c9 f3 3d de fc 51 3e
       0.3112229 0.2451339 0.119036995 0.20506617
0001c0 4a 1d 48 3e b9 8f b5 3d fd ac 37 3e 4c 52 f2 3d
       0.19542423 0.088653035 0.17937084 0.11832103
0001d0 94 11 8f 3d 49 62 6e 3e 51 8d 05 bd f8 41 07 3d
       0.06985775 0.2327968 -0.032605473 0.033021897
0001e0 dc 46 37 3e 2c e7 03 3d fc dc e3 3d 45 21 af 3d
       0.17898124 0.032202885 0.11126134 0.085512675
0001f0 bd e9 8e 3d 43 a4 4b 3e 82 a0 bb 3d 67 c1 c9 3c
       0.06978176 0.1988688 0.09161474 0.024628354
000200 1c ab bb 3c 72 61 46 bd e2 eb cb ba d9 8b cd bd
       0.02290874 -0.048432775 -0.001555797 -0.100364394
000210 58 e2 e2 bc 13 0b 4f 3d 32 63 54 3d cb 38 67 bd
       -0.02769582 0.05054767 0.051852413 -0.056450646
000220 c8 11 1f bd 6f 91 7c bd aa 77 0a bc d6 80 14 3c
       -0.038835317 -0.061662134 -0.008451382 0.00906392
000230 9f 64 01 be 1e f5 9e bc d5 ee a4 3c 2e ec ea bd
       -0.1263604 -0.01940399 0.020133415 -0.11470829
000240 be fd f3 3c e4 e3 94 3b 5a 61 aa bc 28 8d 80 bd
       0.02978408 0.0045437682 -0.020798374 -0.062769234
000250 20 17 9c bd c8 c3 aa bd 23 ba b6 bb 7f 39 cc 3c
       -0.07621598 -0.083381236 -0.0055763884 0.02492976
000260 5c 01 b5 3d e9 79 3a bc 89 32 c3 3d 6b 23 8f 3c
       0.0883815 -0.011381605 0.09531123 0.017472943
000270 29 6e 48 3d d7 bb 43 bd 5c fc eb 3d 3b 54 8d 3c
       0.048933182 -0.04778656 0.11522743 0.017252078
000280 14 01 0c 3e 01 b7 7d bc d5 25 ec 3d a4 73 92 3d
       0.13672286 -0.015485526 0.115306534 0.07150963
000290 b7 a8 d2 3d b6 ca 59 3d b9 48 57 3d bf f9 e8 3c
       0.10286086 0.053171836 0.052559588 0.0284394
0002a0 71 1e 16 3d 54 ca 6f ba 63 af 01 3d a2 f7 9d 3d
       0.036650125 -0.00091472757 0.031661402 0.07713248
0002b0 88 e8 99 3c 1f 86 a7 bd 2f b8 2c bd df 14 86 3b
       0.018787637 -0.081798784 -0.04216784 0.0040918435
0002c0 c0 f6 c9 3c a5 37 64 bd 3f 12 a1 ba 3f cc 5d 3b
       0.024653792 -0.05571713 -0.0012288763 0.0033843664
0002d0 54 e3 84 3c b9 aa ee 3c 20 e1 05 bd d7 fc c2 3d
       0.01622168 0.029134141 -0.0326854 0.095208816
0002e0 de 53 22 3d 0b f5 cf bd 62 f2 b7 bd b8 cb e4 3a
       0.039630763 -0.1015416 -0.08981778 0.0017455732
0002f0 4e be 91 bd 8e 49 72 bd e2 af 03 be 2b 93 55 bc
       -0.07116376 -0.05915218 -0.12860063 -0.013035576
000300 2e 2e dc bc b7 42 03 3b c1 ca 2a 3d 1a d2 3e bd
       -0.026877489 0.0020028779 0.041697267 -0.046587087
000310 d4 6a f5 3a 32 1d 9d bc 75 fa 01 bc e0 df 23 bd
       0.0018723854 -0.01917896 -0.007933249 -0.040008426
000320 37 2e 4b bc 08 f3 1e 3d bf 6b 8b bd c0 6f 9c bd
       -0.012401155 0.03880599 -0.0680766 -0.07638502
000330 a3 8f de 3c fa 66 bd 3d 7e 2d 3e bd f2 b9 ee bd
       0.0271681 0.09248157 -0.046430103 -0.1165656
000340 ab 50 b7 3d 62 ea 2f bb b0 8a 62 bd 17 0f 08 bd
       0.08950933 -0.0026842584 -0.055308044 -0.033217516
000350 6e db 5b 3d 78 f1 0f 3d 15 58 82 3a f8 ae a6 bd
       0.05367606 0.035142392 0.0009944463 -0.081388414
000360 05 f7 82 3c 2a 41 85 bd be 11 11 be 16 9d 40 bd
       0.015986929 -0.0650657 -0.14166924 -0.04702481
000370 56 47 13 bd ae ca 5f bc 84 1b 7f 3d 0e 2f 5c bd
       -0.035956703 -0.013659162 0.0622821 -0.053755812
000380 de 8f 9d ba 82 c2 b1 bb 1b a8 97 ba f1 99 74 3d
       -0.0012021025 -0.0054247985 -0.0011570485 0.059717122
000390 ec b7 88 bc a8 9f 4a bd 6e ac 40 3d 42 0d 0b bd
       -0.016689263 -0.049468666 0.04703944 -0.03394819
0003a0 6a 55 de bd 9d 19 90 bd fa 1e 6a bd 9d 55 6a 3d
       -0.10856135 -0.07036135 -0.057158448 0.057210553
0003b0 2d 17 dd 3d 31 d7 98 3d c9 24 05 3d 3d e1 1c be
       0.10795436 0.074629195 0.032505784 -0.15320297
0003c0 45 13 32 3b d1 00 a9 3d 43 c0 22 bd 6c 8d 61 3c
       0.002717213 0.08252109 -0.039734136 0.013766628
0003d0 e1 43 32 3d 7e 6e 57 bb 62 9d 24 3d 97 12 81 bd
       0.043521766 -0.0032872255 0.040189154 -0.06302374
0003e0 f2 45 6b bc 5b 73 9b bb a0 44 58 3c c0 cf 32 3d
       -0.014359938 -0.004743976 0.013199955 0.043655157
0003f0 fa 79 05 bd 60 62 05 3d 70 fb aa 3d 3f 30 dc 3c
       -0.03258703 0.03256452 0.08348739 0.026878474

network_body.observation_encoder.processors.1.conv_layers.0.bias f4 [16]
000000 1e 5f 3b 3c 14 51 a2 bc d0 37 aa 3c ea 2a a9 bc
       0.011436252 -0.019814052 0.020778567 -0.020650346
000010 ce 90 32 3d bc 71 93 bc 24 fa d3 bc ec e5 2d bb
       0.043595128 -0.017998569 -0.025876112 -0.002653475
000020 de be 73 bc b5 f0 6d bc 7e 5a 1c bd 4a 26 0f bd
       -0.014877049 -0.014522721 -0.038172238 -0.034948625
000030 5c bf 2e bd e2 97 ed 3c 5d 0f b7 bc 6c 80 44 bc
       -0.042662963 0.029003087 -0.022346193 -0.011993509

network_body.observation_encoder.processors.1.conv_layers.2.weight f4 [32, 16, 4, 4]
000000 b6 0d ef bc c6 3e ba 3c 60 06 b6 3d 8b d6 45 3d
       -0.029181343 0.02273501 0.08887935 0.048300307
000010 9c 39 9d bd fc 8b 77 3d df db f6 3b 57 8b 12 3d
       -0.07677004 0.060436234 0.007533535 0.035777416
000020 35 ab 52 3d 98 1b c8 3c 0d 56 8d 3d 52 1d e0 3c
       0.051432807 0.02442722 0.069011785 0.027357731
000030 09 69 1c bd 7a 9b 8f 3c 39 64 d8 3d 08 72 5b 3e
       -0.038186107 0.017530192 0.10565991 0.21430218
000040 68 74 cc 3d af 9b ba 39 58 ae 35 3e 91 5f a0 bc
       0.0998314 0.00035592678 0.17742288 -0.01957682
000050 6b 4a 4d 3c 5e a8 6b bd 86 4f 1c 3b bc 54 df 3d
       0.01252995 -0.057533614 0.002385111 0.10904834
000060 58 38 11 be 00 76 59 bd 64 ea e2 3c 1e 73 1e bb
       -0.1418165 -0.05309105 0.027699657 -0.0024177502
000070 2e 6f 5f bd d2 98 0e 3c cc 0b af 3d 18 e6 20 bd
       -0.05454939 0.008703427 0.08547172 -0.039281934
000080 9a 35 f2 bc 16 73 e7 3d 79 dc fe 3c ec 75 28 3d
       -0.029566575 0.11301248 0.031110989 0.041128084
000090 09 bd 2f 3d 34 c8 03 3c 2e f0 ba bb 63 47 c3 bc
       0.042904887 0.008043338 -0.005704901 -0.02383775
0000a0 41 cc 3c 3c 46 c2 d6 3c 1d 51 f7 bc 97 06 e7 bd
       0.011523307 0.026215684 -0.030190045 -0.11280554
0000b0 f4 26 2f bd 2f 19 01 be 0a 6c 55 bd 0b 1a bf 3d
       -0.042761758 -0.12607263 -0.052104987 0.09331139
0000c0 89 69 c5 3d 45 34 8e 3d 1b 5a b4 bc ad c3 88 3c
       0.0963927 0.06943563 -0.022015622 0.016694868
0000d0 62 63 84 3d 1b 69 9c 3d dc b6 1a 3e b8 fd 0d 3e
       0.06464268 0.07637235 0.15108818 0.13866317
0000e0 dd 30 0a bc 12 89 13 3e 6d 84 86 3b cc 5b 1c 3e
       -0.0084345015 0.14407757 0.004105142 0.15269393
0000f0 57 2f ca 3d 8d 89 fd 3c 89 d6 ff bc 5a 80 28 3e
       0.098723106 0.030949378 -0.031230228 0.16455212
000100 51 67 42 bd e2 cc d8 3d fb d9 b2 bc 00 30 11 3d
       -0.04746181 0.10585953 -0.021832457 0.035446167
000110 54 d8 68 bb d7 2d 25 3c 29 79 e4 3d ab be 4a bd
       -0.0035529332 0.01008173 0.11155922 -0.04949824
000120 95 ca bc bd 3a 31 d4 3d 49 fb 55 3d 44 35 84 3d
       -0.09218327 0.10360952 0.052241597 0.06455472
000130 8c a6 bf 3c 95 e7 a8 3d fd a9 e8 bc e1 10 9e 3d
       0.023394845 0.08247296 -0.02840137 0.07718063
000140 56 62 2f bc 30 54 34 bd 8c d9 fc 3c e9 f3 6d 3c
       -0.010704597 -0.0440256 0.030865453 0.014523485
000150 99 57 c7 bc 76 43 98 bd 37 71 d2 bc 74 1b eb 3d
       -0.024333762 -0.07434742 -0.02568875 0.11479846
000160 e6 3e 16 bd 27 44 89 bd 38 24 1f be 3e 00 a8 3d
       -0.03668108 -0.06702452 -0.1554116 0.08203171
000170 d3 6b 20 3d 1f 3b 3a bd 55 90 a4 bc 71 92 fd 3d
       0.03916533 -0.04546654 -0.020088354 0.12381447
000180 76 fd 32 bd 88 13 e7 bd e5 0c c5 3d e1 5e ce bd
       -0.04369875 -0.11283022 0.096216 -0.100766905
000190 41 2d ed 3d b8 63 d5 bd c0 42 22 bc e4 e4 27 be
       0.11580897 -0.104194105 -0.00990361 -0.16395909
0001a0 c0 c2 9c 3c cf ca 8d 3c 9c ee 87 3c bc 79 b8 bd
       0.019135833 0.01730862 0.01659327 -0.09007594
0001b0 82 4c bf bd af 98 10 bd fc 1e 9e 3d 1c 29 d6 bc
       -0.093407646 -0.03530186 0.077207536 -0.02614265
0001c0 49 42 a0 3d 7c f7 9d 3d b8 3c 3b 3c bf 7e 0a 3c
       0.07825143 0.077132195 0.011428051 0.00845307
0001d0 8e 46 c1 3d 98 3b 27 3e 57 e1 e4 3d 79 5f da 3d
       0.09437285 0.16331327 0.11175793 0.10662741
0001e0 b7 60 2a bd 5e b7 ab 3d 1d b5 4a 3e 56 8b 14 3e
       -0.04159614 0.08384584 0.19795652 0.14506277
0001f0 3c 42 74 3d ef d4 07 3e 43 93 01 3e fa c3 5f 3e
       0.05963348 0.13264821 0.12653832 0.21852103
000200 59 b4 1b 3d 7d e6 95 3d 74 51 e6 3d 5b ea b6 3d
       0.03801379 0.07319353 0.11246005 0.089314185
000210 aa cb 95 bd 3a a5 bc 3c ef 25 c5 3c 92 f4 c7 3d
       -0.073142365 0.023028005 0.02406594 0.09763445
000220 8b 1e e3 3c 89 54 07 3d 93 82 fa 3d e7 89 e8 3d
       0.027724525 0.033039603 0.12231936 0.11354428
000230 f5 53 91 3d ae a1 3f 3d db 51 17 3e 27 a1 36 3e
       0.07096092 0.04678505 0.14777319 0.17834912
000240 9c f8 79 bc ff e3 db bc a9 a5 5b 3c 97 b3 79 bc
       -0.015257027 -0.026842115 0.013406196 -0.015240571
000250 8f 9d bf bc 02 90 d2 bc 0a db 94 3d 03 f1 c9 bd
       -0.02339056 -0.025703434 0.07268341 -0.098604225
000260 4a 9a 9e bd 82 0e cc 3d 94 d8 4c bc 4c b3 1a 3e
       -0.07744272 0.09963705 -0.012502808 0.15107459
000270 70 c4 c4 3d 59 99 1c 3b 70 f4 af 3c 35 d0 fd 3d
       0.0960778 0.0023895113 0.021478862 0.12393228
000280 9d 0c 61 3d 0f f5 08 3d 1d 0d 6a bd 75 96 8b 3b
       0.05494367 0.03343683 -0.057141412 0.0042598792
000290 cb b8 72 bc 08 07 6f 3d ee 37 10 be e5 31 8b 3d
       -0.014814566 0.058356315 -0.14083835 0.06796626
0002a0 b9 25 f2 bc b0 88 ea bd dc 9d 2b 3d f7 0e d1 bc
       -0.029559003 -0.11451852 0.041898593 -0.025519831
0002b0 00 1e a9 3c 47 c7 a8 3d 04 66 8f 3d 18 1f 56 bd
       0.020644188 0.08241134 0.0700188 -0.052275747
0002c0 4f 05 6b bd cd fe 48 3d 28 83 9b bc 2c 8d c5 bb
       -0.05737811 0.049071122 -0.018983439 -0.006028792
0002d0 4f 9e b3 3c 4d e2 2f 3d 53 7c 84 3d 3c f6 15 3e
       0.021926073 0.042940427 0.064690255 0.14644712
0002e0 71 80 2e bd 99 fe 62 bd cc b6 f9 3c 97 33 5b 3d
       -0.04260296 -0.055418584 0.030482672 0.053515997
0002f0 7a c7 35 3d 5c a3 bf bd fd 55 38 bb 33 f7 69 3d
       0.04437969 -0.0935733 -0.0028127425 0.057120513
000300 03 68 4f 3e 87 0b 60 3d 85 16 a7 3d 4e 05 a4 3d
       0.20254521 0.054698493 0.08158592 0.08008824
000310 78 28 0e 3e 4d a5 89 bd ed 80 80 3d eb b2 43 3d
       0.13882625 -0.06720982 0.06274591 0.04777805
000320 d5 06 0f 3d 13 76 d1 bc 05 fd a4 3d f3 f9 b8 bd
       0.034918625 -0.025568997 0.08056072 -0.09032049
000330 76 cb 53 bd c8 b5 cd 3d 90 a1 15 3d bb e8 25 3c
       -0.051707707 0.10044438 0.03653103 0.010126288
000340 17 ef 09 bc 8f 0c 9d 3d 5d f9 bd 3c d2 ba 61 bd
       -0.00841882 0.07668411 0.023190195 -0.055109806
000350 fc 6e b2 bd f9 77 03 bc a4 10 20 3e 9b 53 81 bd
       -0.08712575 -0.008024209 0.15631348 -0.063147746
000360 09 86 cd bd ee ec 05 3e c1 6f b7 3c 20 a6 1d 3c
       -0.10035331 0.13078663 0.022392156 0.009622127
000370 94 8f 27 3e cc 18 13 3d 02 d5 cb 3d 03 fd 6f 3e
       0.16363364 0.03591232 0.099527374 0.2343636
000380 04 c7 2d 3d fd 37 02 3e 6e 49 36 3d 8b ce b9 bc
       0.042426124 0.1271667 0.04450362 -0.022681495
000390 89 f3 b9 3d 7b 94 8c 3d 29 65 ad 3d f6 ff 1b bc
       0.09079654 0.06864258 0.084665604 -0.009521475
0003a0 e5 ea 76 bb ec 94 e0 bb 51 f3 34 3d 40 19 45 3c
       -0.003767663 -0.0068536904 0.044177357 0.012029946
0003b0 84 20 1e 3d 80 f7 a1 bc da a7 47 3c 6d a3 0a 3e
       0.038605228 -0.019771338 0.012186015 0.13538904
0003c0 2b 7d 6f bd 3b bf 02 bd d7 8c c9 bd ae 4a 19 be
       -0.05846898 -0.031920653 -0.09841316 -0.14969894
0003d0 7d 41 2a 3c 7b 1a b5 bd 90 92 14 be 92 29 44 bd
       0.01039159 -0.088429414 -0.14509034 -0.047891207
0003e0 5a d6 b0 3c e8 db 3c bd da f2 91 bc 52 f4 1a 3d
       0.021586586 -0.046108156 -0.017815996 0.03783066
0003f0 6c a9 4a bd 4b 20 d4 bc b0 d7 e0 bc 99 f7 39 bd
       -0.04947798 -0.025894305 -0.027446598 -0.045402143

network_body.observation_encoder.processors.1.conv_layers.2.bias f4 [32]
000000 96 30 94 bb 63 67 1a 3d bd 3e 66 3c e3 e0 f3 bc
       -0.0045223935 0.037696254 0.014053044 -0.02977032
000010 5c f6 0a 3c c9 e8 ec 3d 3d 44 16 3c b7 17 93 3d
       0.008481588 0.11567838 0.009171543 0.071822576
000020 8a 26 25 bd 9b 2d 33 3d 9d aa a4 3c 09 9e 27 3c
       -0.040319957 0.043744665 0.020100886 0.01023055
000030 bb b2 be 3c ea 8d bf 3c 25 07 cd bb 17 5f d7 3b
       0.023278585 0.0233831 -0.006256955 0.006572615
000040 65 e3 d7 bc b4 e4 4d 3d 26 7c 38 3c 9e 2c b6 bd
       -0.026353547 0.050266936 0.011260068 -0.08895229
000050 01 d4 e0 bc 63 7f 21 bc 93 dd 9d bd cc 85 42 bd
       -0.027444841 -0.0098570315 -0.077082776 -0.04749088
000060 5b c8 cf bc d0 c5 e0 3d ec 39 1e 3d 0b 3a 5e 3b
       -0.025364092 0.1097523 0.038629457 0.0033909108
000070 eb 55 61 3d 2b da 4d bd eb 6f 35 bd 45 24 79 bd
       0.05501358 -0.05025689 -0.044296186 -0.060825605

network_body.observation_encoder.processors.1.dense.0.weight f4 [64, 128]
000000 49 bb 73 bd 3c a6 db bd 81 5a 1a 3e 62 ee 15 3e
       -0.05950478 -0.10725066 0.15073587 0.14641717
000010 e5 aa f2 3d 53 9c d2 bd 44 55 b5 bd d6 88 89 3e
       0.11849002 -0.10283723 -0.08854154 0.2686221
000020 d3 0b 66 3d e9 40 92 3e ee 48 e3 bd 9d 37 6a 3e
       0.05616362 0.28565148 -0.110978946 0.22872777
000030 1b 43 6c 3d 9b 3a 39 3d ab 4e aa 3d 8b ca fb bd
       0.057681184 0.045221906 0.08315786 -0.122944914
000040 87 25 68 be a1 5f 13 3e fd 76 98 bd f5 0b f5 bd
       -0.22670566 0.14391948 -0.0744457 -0.11965171
000050 7f be 95 3d 53 2d d2 3d 3b 11 b9 bd 52 66 46 3d
       0.07311725 0.10262551 -0.090364896 0.048437424
000060 a2 1c 32 bd e0 69 5a bd 81 c9 db 3e 72 78 61 3e
       -0.043484338 -0.053323627 0.42927173 0.22018602
000070 4f 22 97 bd 1f a7 07 3e 54 bf a7 3b 2c 3e 54 3e
       -0.07379591 0.13247345 0.0051192436 0.20726842
000080 71 45 3c bd a2 5d ac 3d 41 c4 41 bd fc 0b 12 3e
       -0.045964662 0.084162965 -0.047306303 0.14262384
000090 fd f5 74 be 32 8f e3 bd 1a 4c 0a 3c a6 9f e8 3d
       -0.23921962 -0.11111297 0.008440996 0.113585755
0000a0 b9 13 93 bd 4b 8d ee bd 6b f3 c9 bd 54 65 89 3d
       -0.07181496 -0.11648043 -0.098608814 0.0670878
0000b0 f6 a4 6d be 85 55 f7 bd c4 c6 b8 3d b5 be ea 3d
       -0.23207459 -0.120768584 0.090222865 0.11462156
0000c0 33 47 22 3e 87 51 32 bd ca b5 64 be eb fb 45 3e
       0.15847473 -0.04353478 -0.22334972 0.1933438
0000d0 e5 95 77 3d 44 68 04 be 6d cf 11 be 40 8d 06 3d
       0.060445685 -0.12930399 -0.14239283 0.03284955
0000e0 bb 42 e0 bd a3 df 06 3e af db 7f be 41 18 4d 3d
       -0.10950228 0.13171248 -0.24986146 0.05007196
0000f0 0d 06 29 bd e3 1b d3 bd 9c cc 24 3d 45 1a 8c bd
       -0.041265536 -0.10308053 0.040234193 -0.06840948
000100 a7 a9 08 bd e2 0e 49 3d ad 17 a3 3d e7 03 3c bd
       -0.033364918 0.04908646 0.079635 -0.04590216
000110 75 68 b6 3d 4b 20 18 be 09 21 f2 bd 1a 58 db bd
       0.08906642 -0.14856069 -0.11822707 -0.107101634
000120 4d 97 ab bd a7 9a 8a 3d b0 eb 40 3d 01 ed 41 3e
       -0.08378468 0.06767779 0.04709977 0.18938066
000130 04 2f f4 bd 34 7f 9f 3e 9b 8d db bd af 77 d7 3c
       -0.1192303 0.31151736 -0.107203685 0.026302187
000140 68 43 90 3e c4 0e 11 3e 4d 42 99 bd ed 21 f3 3d
       0.28176427 0.14165789 -0.07483349 0.11871705
000150 d5 19 f8 3c d3 2f ba 3d 6d 7d 81 3e 0f 78 63 be
       0.030285755 0.09091153 0.25291005 -0.22213767
000160 89 55 6f bd d1 17 9f be ee 4f 20 3e 48 7a cd 3c
       -0.058431182 -0.31072858 0.15655491 0.025082722
000170 ac 96 4a bd b4 9c b0 bd 40 75 4b 3c a5 31 ce 3e
       -0.0494601 -0.08623639 0.012418091 0.4027225
000180 c2 f1 16 3e 43 f9 8b bd 9a 6a 41 3c 67 4e 50 3e
       0.14740661 -0.06834652 0.011805201 0.20342408
000190 12 3f 90 3e bb 54 1e 3e d3 30 ab 3d 41 55 cf bd
       0.2817312 0.1546201 0.08358922 -0.10123683
0001a0 13 dd cb bc ef 2e 43 be 0b 6a 1a 3e 38 d0 1f 3e
       -0.02488569 -0.19060872 0.15079515 0.15606773
0001b0 9c 77 49 bd 5b 0c d1 bd 2f bf 51 3e 41 ea 86 3e
       -0.049186334 -0.10207435 0.20483087 0.26350597
0001c0 0d 5c 22 be ba 98 6d 3d 87 01 8b 3d d4 8a a4 be
       -0.15855427 0.05800698 0.06787401 -0.32137167
0001d0 04 23 35 bd 9c b6 2d 3d 93 ee 43 3e 44 74 30 bd
       -0.044222847 0.042410478 0.19133978 -0.04307963
0001e0 20 03 53 be de d2 f3 3d ff d0 57 be fa be 8d 3e
       -0.20606661 0.11905454 -0.2107582 0.27684766
0001f0 49 f1 75 be ae c6 51 be d8 ce 3f 3e f9 d7 a7 bd
       -0.24017824 -0.20485947 0.18731248 -0.081954904
000200 4e 97 ec 3d 7b 16 35 be 83 2e 3b 3e 97 1c c2 bd
       0.115522966 -0.17684357 0.18279462 -0.09478109
000210 eb 97 bf 3e 48 ef 6f bd 9a d2 0e 3d 80 13 c2 bd
       0.37420592 -0.058577806 0.034868814 -0.094763756
000220 68 1c 34 3e a2 a3 2b be 9e d0 28 3e 26 cd 87 be
       0.17588961 -0.1676164 0.16485831 -0.26523703
000230 f0 2d 1d 3e b2 b8 b1 bd 06 09 8f bc 39 45 18 be
       0.15349555 -0.08677806 -0.017460357 -0.14870156
000240 32 dc 4e 3d 06 78 2a be ec f8 e5 3d 03 3c cb 3d
       0.050502963 -0.16647348 0.11229119 0.09923556
000250 d5 52 c6 bb b2 f0 4f bd cf 6c fe bd a4 f5 65 be
       -0.006052355 -0.050766654 -0.12423097 -0.22456986
000260 da 08 70 be 5e 0d 3b 3c ae 49 97 bc b4 cf 05 3d
       -0.23440877 0.011416761 -0.01846775 0.032668784
000270 b9 33 8b 3d 3d 32 b2 be 4b 89 2c 3e e4 d3 04 bc
       0.06796975 -0.34803954 0.16849248 -0.008107159
000280 ca 1a 51 be 7d dd fb 3d 3b 21 6e 3d 21 51 7c 3c
       -0.20420375 0.12298105 0.05813716 0.015400202
000290 86 b4 e3 3d f1 b1 78 be 05 70 ac 3d 8b c1 a5 be
       0.111184165 -0.2428663 0.084198035 -0.32374224
0002a0 55 b3 2e be e2 45 62 be 59 98 15 3d a5 fa 58 be
       -0.17060597 -0.2209697 0.036522243 -0.21189363
0002b0 ed 65 86 3e 8f 5e 25 3d 71 30 88 3e 5c f0 87 3d
       0.26249638 0.04037338 0.26599458 0.06637642
0002c0 0b f0 49 3e 96 46 48 3d 82 11 6e 3e 01 52 71 3d
       0.19720475 0.04889544 0.23248866 0.058916096
0002d0 73 e3 1c 3d aa 78 ab 3d e4 5f 1d be 36 81 07 3e
       0.03830285 0.08372624 -0.1536861 0.13232884
0002e0 a4 29 6e bd b2 93 2f be 6e ff 6a 3e de d8 2c be
       -0.05814518 -0.17146185 0.22949001 -0.16879603
0002f0 13 ce f4 bd 51 6f 6c bd cb 23 16 be cd 12 bd bd
       -0.11953368 -0.057723347 -0.14662091 -0.092321016
000300 31 3a 49 be ff c0 a2 bc ec cf ee 3c 68 c7 ad 3c
       -0.19651105 -0.019867418 0.02915188 0.021213248
000310 32 6e 57 bd dc c6 c0 bd 7c 15 31 bd 8b df a0 bd
       -0.052595325 -0.094129294 -0.04323338 -0.078551374
000320 fc ad 75 3d 75 9d 85 3c 20 cb 9e 3e b7 ed 17 3e
       0.059980378 0.016310433 0.31014347 0.14836775
000330 3c 19 68 3e a8 e1 52 be b1 6e a1 3e e3 ee 1b 3e
       0.22665876 -0.20593894 0.31529763 0.15227847
000340 7a 61 47 bd cf 0d a9 bd d2 2a 29 3e 7c c2 27 be
       -0.048676945 -0.08254587 0.16520241 -0.16382784
000350 6f ae ca 3c 0d 92 1f 3e ff 37 86 3e d6 15 88 bd
       0.02474138 0.15583058 0.26214597 -0.0664479
000360 86 97 46 3e 5b a0 59 3a fc 46 1f 3e ac 8e ef bb
       0.19393739 0.0008301788 0.15554422 -0.007310709
000370 b1 17 91 3e 12 59 d5 bc 0a 35 ec 3d 9a 61 27 be
       0.28338388 -0.026043449 0.11533554 -0.16345826
000380 98 6e 15 3e b0 6a 2b be 49 f9 09 3c 1b f7 c2 bd
       0.1459297 -0.16739917 0.008421251 -0.09519788
000390 fa c7 1d be a0 a9 66 3d eb cf 16 bc 90 38 c6 3b
       -0.15408316 0.05631411 -0.009204845 0.0060492232
0003a0 3a 92 d9 bd 15 5d 86 bd ef a0 28 bd 9a 10 55 be
       -0.10623594 -0.06560723 -0.041169103 -0.20807114
0003b0 bd 87 13 3e 5c 79 44 3d b1 9d 32 3e 60 c8 6d be
       0.14407249 0.0479673 0.17442967 -0.23220968
0003c0 b3 97 8c 3d 94 7e a9 3d 5b cc e6 bd 3b b6 63 be
       0.06864872 0.08276096 -0.112694465 -0.22237484
0003d0 7a 75 9f 3e c3 e4 42 be aa b5 23 3d 07 d4 2a 3e
       0.31144315 -0.19032578 0.03996817 0.16682445
0003e0 46 52 3c bd ed cd 44 3e f2 43 08 3e 6f c6 41 bd
       -0.0459769 0.1921918 0.13307169 -0.04730838
0003f0 ba e0 b9 3e bd 97 30 3d 45 2b c1 3b 9c a5 89 bd
       0.36304265 0.04311346 0.0058950507 -0.067210406

network_body.observation_encoder.processors.1.dense.0.bias f4 [64]
000000 bb bb 15 3d e2 f1 af 3c b0 3f 80 3c 8c 04 d8 3c
       0.036555987 0.021477643 0.015655369 0.026369356
000010 74 dd f2 3c 49 1a cf bc 21 fc 80 3c ef 22 9f 3c
       0.029646613 -0.025281088 0.015745224 0.019425837
000020 c6 67 04 3d aa fc 53 3d d8 5c 57 3d 5e d9 0d 3d
       0.03232553 0.05175463 0.052578777 0.034631126
000030 29 0d d0 bc 6e 6b 54 3d a5 94 7d 3d 77 9a 60 3d
       -0.0253969 0.051860265 0.061909337 0.05483481
000040 b2 d4 0a 3d 54 5b 95 3c 5b e2 e4 3c 79 34 84 3c
       0.03389425 0.018232025 0.027939966 0.016138302
000050 e6 05 15 3d 5a 65 2b 3d a6 69 44 3d 09 53 af 3b
       0.03638258 0.041844703 0.047952317 0.0053504747
000060 a3 7b 4b 3d 47 14 9b ba 33 fe fb 3b 17 6b 31 3d
       0.049678456 -0.0011831605 0.007690215 0.04331502
000070 b9 76 21 3d 23 3e 41 3d 59 27 0d ba 9e 26 3d 3d
       0.039419863 0.0471784 -0.00053845864 0.046179406
000080 d4 f7 88 3c 07 9b 3d 3d 69 0f 0c 3c bc 93 dd 3c
       0.016719736 0.046290424 0.008548596 0.027047984
000090 76 f5 fc 3c 46 bc 0a 3d 6e d1 44 3d 59 52 14 3d
       0.030878764 0.033870958 0.04805129 0.036211345
0000a0 97 ca 52 3d 30 b3 8c 3b 26 db 9f 3c 5d a5 10 3d
       0.051462736 0.0042938218 0.019513678 0.035313953
0000b0 b3 4c 36 3d 66 08 8f 3c 24 8d fe 3c 19 10 e7 bc
       0.04450674 0.01746006 0.03107316 -0.028205918
0000c0 60 97 2d 3c b5 94 fc bc 9f 3f 9c 3c 93 16 91 3d
       0.010595173 -0.030832628 0.019073306 0.07084384
0000d0 ca 26 81 3d 60 0c 27 3d 6a 04 9a 3c 7c 4a 1b 3d
       0.063062266 0.040783286 0.018800933 0.03791283
0000e0 35 66 70 3d 9d ec 88 3c 94 67 ae 3c 65 27 96 3d
       0.058691222 0.016714389 0.021289624 0.07331733
0000f0 f8 70 93 3c 0c 67 dc 3c b7 9f 10 3d f5 ef b6 3c
       0.017998204 0.026904605 0.035308566 0.022331217

network_body._body_endoder.seq_layers.0.weight f4 [64, 142]
000000 b2 bb 8e 3c d2 c2 91 bd 0b 11 b9 bd ba 5b 37 3d
       0.017423484 -0.07117237 -0.09036454 0.04476521
000010 d3 b8 20 bd 17 da e0 bd ed ae 7a bd aa 81 a8 bc
       -0.039238762 -0.10979097 -0.06120198 -0.020569641
000020 7b 5d 98 bc db 51 80 bc ff 7d 38 3e aa 5e 97 bc
       -0.018599262 -0.015664032 0.18016814 -0.018477757
000030 dd 79 39 3d d7 bf a6 bd 93 7f 95 3d 56 fa 8f 3d
       0.045282234 -0.08142059 0.072997235 0.0703017
000040 1b ef e9 3d c5 f0 86 be db 9f 07 bd 18 6c cf bd
       0.11422559 -0.26355568 -0.033111434 -0.10128039
000050 2b 1c e8 3d de 07 0a 3e 5f 44 96 bd 3a 70 5c bd
       0.113334976 0.13479564 -0.073372595 -0.053817965
000060 b8 13 b4 3d e2 1e d6 3d d8 8f d3 bb b3 b5 8b bd
       0.087928236 0.10455109 -0.0064563565 -0.06821766
000070 db 4e 22 be 67 75 45 be 80 9a fa bc 2c 41 80 3d
       -0.15850393 -0.19283067 -0.03059125 0.062624305
000080 40 04 9b ba 79 ac 03 3e a4 65 1c bd 73 2f 08 be
       -0.0011826828 0.12858762 -0.03818287 -0.1329935
000090 8d 20 db bc 46 cc f0 bd a5 4f 79 3c 6c cc b5 3d
       -0.02674892 -0.11757712 0.015216743 0.08876881
0000a0 16 11 0c be d0 d6 18 bb 78 41 17 3e 41 94 01 bd
       -0.13678393 -0.0023321398 0.14771068 -0.031635527
0000b0 f7 72 bd 3d 5b 60 9d ba 0e 16 d8 bc 48 3b 69 be
       0.092504434 -0.0012006866 -0.026377704 -0.2277652
0000c0 77 57 33 3e a3 53 77 3d 88 da 3c bd 09 ae 53 be
       0.17513834 0.060382497 -0.046106845 -0.20671858
0000d0 6e 46 db 3c 7f f8 62 bc f0 71 d4 bd 17 b9 ce 3d
       0.026766982 -0.013853191 -0.10373294 0.10093897
0000e0 d3 30 4f bd a9 28 ac bd 55 57 79 3d cf 48 f3 bd
       -0.05058367 -0.08406193 0.060874302 -0.118791215
0000f0 fd e3 c9 3d 7c b9 2b 3e af 39 8a bd a1 e2 21 be
       0.098579384 0.16769975 -0.067492835 -0.15809108
000100 47 72 80 3d ae d6 f1 3d d7 e5 77 bd 5c e2 40 3e
       0.06271797 0.11808525 -0.060521927 0.18836349
000110 2c 8d 3c bd 43 0f 4e be c8 4e 76 3b 2e 2b fb bc
       -0.04603307 -0.2012301 0.0037583578 -0.030660238
000120 2c 21 5b bd e8 d6 58 3d 4f d9 c7 bd 65 99 2d be
       -0.053498432 0.052939326 -0.09758245 -0.16953047
000130 67 c1 ea 3d 04 8f 9d bd d9 a0 5e bd c1 60 ad 3d
       0.1146267 -0.07693294 -0.054352615 0.0846572
000140 73 1f 15 3e 29 8f b2 3d 39 4c 7c 3d f3 38 52 be
       0.14562778 0.08718712 0.06159613 -0.20529537
000150 9a 42 c3 3c e2 98 86 bc 50 74 a5 bd c2 c6 40 3e
       0.023835469 -0.016430322 -0.080788255 0.1882582
000160 0a 31 d0 3d ae 74 1b 3d 5c 18 43 bd 2d 56 66 3c
       0.101656035 0.03795307 -0.047630653 0.014058632
000170 42 1e d0 bc 3d dc cb 3c ad c8 04 be 6b d5 be 3d
       -0.025405053 0.024885291 -0.12967177 0.0931805
000180 03 62 a9 3d a6 b9 28 bd 87 e5 0b 3e 19 b9 36 bd
       0.082706474 -0.041192673 0.13661776 -0.044610117
000190 d5 41 bf 3d 94 5f 9a 3c 2a 9f b0 bc 3a cf 1a 3d
       0.09338728 0.018844403 -0.02156027 0.037795283
0001a0 a0 69 71 be 5a 9f 57 3e be 3c 26 bd 36 dc 22 3e
       -0.23575449 0.21056882 -0.040585272 0.15904316
0001b0 2e 3c d0 3d 2b 6a 48 3e a1 25 a1 3d 0c df 90 3d
       0.10167728 0.1957175 0.07868505 0.07073793
0001c0 16 72 d1 bc 41 72 94 3d 5a 58 10 3e 2a 88 57 3d
       -0.025567096 0.07248355 0.14096203 0.05262009
0001d0 e9 93 9d 3d 13 6e 3e 3d d4 52 31 be 93 08 0f 3e
       0.07694227 0.046491694 -0.17316753 0.13968115
0001e0 76 bc 57 3d 7b f2 88 be d1 d6 eb bc 86 3f e1 bc
       0.052669965 -0.26747498 -0.028788956 -0.02749611
0001f0 5c 26 a2 bc a6 59 af bd c0 13 20 3e 40 0d 4e ba
       -0.019793682 -0.08562021 0.15632534 -0.0007860251
000200 8e 22 c5 bd ae 4e a4 bd a8 54 0f 3d a3 13 97 be
       -0.096257314 -0.080228195 0.034992844 -0.2950717
000210 16 39 90 bd 4b 74 9c bb 1d ef 81 3d 2d 49 16 be
       -0.07042138 -0.0047746054 0.06344435 -0.14676352
000220 c6 29 10 bd d7 5c cc 3d 74 28 43 3e 41 4a 4a be
       -0.03519609 0.09978645 0.190584 -0.19754888
000230 e4 a1 8b 3c 24 0f e7 bc a9 90 b2 3d c8 b5 a8 3b
       0.017044969 -0.028205462 0.08718998 0.005148623
000240 b3 4e d1 3d b2 04 42 be 55 ae 9f bd de 93 30 be
       0.10220089 -0.18947104 -0.07796923 -0.17243907
000250 8e 30 11 bd 39 68 88 3c f9 77 ef bd f8 67 fd bd
       -0.035446696 0.01665126 -0.11692805 -0.12373346
000260 40 b3 81 3d 67 b2 2b bc 00 22 65 bc e8 96 11 bd
       0.06333017 -0.010479546 -0.013985157 -0.035544306
000270 37 02 09 be 35 37 95 3e a0 b8 c1 bd 9d 42 9b bd
       -0.13379751 0.29143682 -0.094590425 -0.07581065
000280 9d 34 47 bd 9f 70 4e be 55 2e de 3d fb 82 80 3c
       -0.04863416 -0.20160149 0.10848681 0.015687456
000290 a1 a6 8b bd 64 ce c1 bd 41 59 25 3c 11 2f 0b be
       -0.06818891 -0.09463194 0.010092081 -0.13592173
0002a0 ca 8e d1 ba 68 db bb 3d 31 80 3e bd 3f 5d e8 bc
       -0.0015987989 0.09172708 -0.04650897 -0.028364776
0002b0 2e 07 7d bd f6 00 56 bd 9b b1 28 be 98 8a 51 bd
       -0.061774425 -0.05224701 -0.16474001 -0.051157564
0002c0 34 f2 95 bd 5f 16 23 3d 44 dd 90 bc 11 2c 0b bd
       -0.07321587 0.039816257 -0.017683633 -0.033977572
0002d0 7f f0 0b bd 05 3b 21 bd 53 e8 b4 bd fc 0b bd 3d
       -0.0341649 -0.039362926 -0.08833375 0.092308015
0002e0 51 d2 08 3c 38 2c 67 bc 20 f8 df 3d 52 2d 9d 3c
       0.008350925 -0.014109664 0.10935998 0.01918665
0002f0 71 7b e0 3d aa 9d 11 be 48 ba d2 3d 70 dc cb bc
       0.109610446 -0.142203 0.102894366 -0.024885386
000300 8c 55 fc 3d 2e bc 0d 3e f5 51 9f bd 22 b7 03 3e
       0.12321004 0.13841316 -0.07779304 0.12862828
000310 40 3e 89 3d 4d f1 0a 3e 35 cb c1 3d f8 f8 da 3b
       0.06701326 0.13568611 0.09462587 0.0066825114
000320 0f b5 fd 3c 47 65 4a 3d 50 7a b0 bd 0f cc 7b 3e
       0.030970125 0.04941299 -0.08617079 0.24589561
000330 6a 26 09 bd f0 6d b3 3d d6 7d c4 bd 01 81 f6 bc
       -0.0334839 0.08761203 -0.09594314 -0.03009081
000340 44 0b 72 be eb e4 24 3e 4b a5 1f 3d 01 d5 77 bb
       -0.2363711 0.1610295 0.038975995 -0.003781617
000350 74 9e fa bd f3 dc 09 be e7 7f 21 bd 33 ed 02 be
       -0.12237254 -0.13463192 -0.039428618 -0.12785797
000360 3a 35 21 3e 64 9f 30 be db 92 e3 3d 50 ad 15 3d
       0.1574296 -0.17248303 0.11111995 0.036542237
000370 03 fd 8b bd df c9 84 bd cd ec 71 3b e3 2a 1b bc
       -0.068353675 -0.06483816 0.0036914826 -0.009470674
000380 6f 55 ba 3d 40 ba 52 3c 7e b4 e3 bd 9d 26 ae 3d
       0.090983264 0.012861788 -0.111184105 0.08503459
000390 0e 6e 92 bd ef 8d 39 bd f6 58 59 3d 3d 4a 20 3c
       -0.071498975 -0.045301374 0.053063355 0.009783325
0003a0 a5 7b 06 be c8 8e 0d bc 83 2a 39 3d 46 83 da bd
       -0.13133104 -0.008639999 0.045206558 -0.1066957
0003b0 30 d0 3d 3e 9a 90 e2 3d 2f 72 3e 3a e1 4d 30 be
       0.18536448 0.11062737 0.00072649395 -0.17217208
0003c0 85 34 dd 3d f3 d9 b3 3e 51 51 24 3d c1 19 fa 3d
       0.10801033 0.3512722 0.040116612 0.122119434
0003d0 3b 94 04 3e 16 0f 33 bd 5f 9a a1 bd 3d 83 05 bd
       0.1294717 -0.04371556 -0.07890772 -0.03259586
0003e0 f1 f3 06 bc 4a a2 15 3e 12 20 40 3e 6a 89 2d 3e
       -0.008236871 0.1461269 0.18762234 0.1694695
0003f0 6b d0 fb bc 4e 91 00 3e 78 c8 1d 3c bf 54 2d bc
       -0.03073903 0.1255543 0.009630315 -0.010579287

network_body._body_endoder.seq_layers.0.bias f4 [64]
000000 90 98 9b 3b e3 48 83 3c 07 67 e7 3c 01 9b 1d bb
       0.0047484115 0.016025966 0.02824737 -0.0024048688
000010 6f 7a 14 3d aa 98 ea 3c 2c 3b c1 3c 4c ad 6e 3b
       0.036249574 0.028637249 0.023587786 0.003641921
000020 38 cc 07 3d d9 3f 4c 3d 4c da 25 3c 8a 6a 4c 3d
       0.033153743 0.049865577 0.010122847 0.04990629
000030 14 e1 a1 b8 76 cd 7c 3a 98 91 11 3d 03 77 61 3c
       -7.719002e-05 0.0009643653 0.03553924 0.013761285
000040 22 bf 76 3c c1 53 9f 3b b8 05 3f 3c bd e9 02 3d
       0.015060218 0.004862279 0.011659078 0.03196119
000050 6d 64 13 3d 63 7b 06 3d 96 f0 71 3d c0 aa 87 3a
       0.035984445 0.032832514 0.05906733 0.001035057
000060 66 19 31 3d 9e bc 99 3c 79 30 3e 3d b3 b0 09 3d
       0.043237112 0.018766697 0.046432946 0.03361578
000070 f0 61 d5 bb fa fc 99 bb 5f af 2c bb b5 23 7f 3d
       -0.006511919 -0.0046993466 -0.0026349647 0.062289912
000080 d8 6d 48 3d d0 5a 96 3c e1 34 40 3c 4b 3e ba 3c
       0.04893288 0.01835385 0.011731357 0.022734782
000090 95 fd 4f 3d 70 92 00 3d 4e e7 81 3d e8 a5 99 3c
       0.050778944 0.031389654 0.06342946 0.018755868
0000a0 eb 50 a4 bc d6 04 4d 3d 2f e1 41 bb 9a ee 5a 3c
       -0.020058116 0.05005344 -0.0029583683 0.013362551
0000b0 c1 9d 18 3d 36 de 36 3d ab cc 24 3d 0a 7a ff 3b
       0.03725982 0.04464551 0.04023425 0.0077965306
0000c0 3c 59 21 3c 17 e9 62 3c 66 25 46 3d 11 26 85 3c
       0.009847935 0.013849518 0.04837551 0.016253503
0000d0 49 c3 19 3d 0c 49 57 3c b3 3d 9c 3c 0f 39 80 3c
       0.037539754 0.013139974 0.01907239 0.015652208
0000e0 cf a8 e7 bb f2 ba 58 3c 1e 25 f3 3c 50 5f 67 bc
       -0.007069684 0.013228165 0.029680785 -0.014121845
0000f0 8c b9 7d bb fc 1d 7d 3c 1c be 4b 3d 82 18 e8 3c
       -0.003871533 0.015449043 0.04974185 0.028331999

network_body._body_endoder.seq_layers.2.weight f4 [64, 64]
000000 67 79 8e bd 3a 0c a5 bd 1f 23 8c bd 5e 36 32 bd
       -0.069567494 -0.08058973 -0.06842636 -0.04350888
000010 e5 46 1a be a5 5c 52 be 4c d4 1c 3c 9c bf fb bd
       -0.15066107 -0.20543154 0.0095721 -0.12292406
000020 f2 a3 19 3e ef bb 8e 3e 75 95 1d 3e c0 3f 07 3d
       0.15003946 0.27877757 0.15389045 0.03301978
000030 ac 67 40 be 33 7a 98 3d 1e 7a 0d 3e 83 15 24 3e
       -0.18789548 0.07445183 0.13816115 0.16023831
000040 3e 3c 54 be 1f 6a a8 bd 3d 0d 35 ba 4b 0e 1a 3d
       -0.20726106 -0.08223366 -0.00069065747 0.037611287
000050 1b 8e 5d 3d ad 18 66 3d a7 00 27 3d 24 ef f9 3c
       0.0540906 0.056175876 0.040772106 0.030509539
000060 7d 07 64 3d 77 d3 93 bd 56 16 1e be fa 60 47 3e
       0.055671204 -0.07218068 -0.15438208 0.19470587
000070 e6 c0 3a be 44 10 2c be 2b 1b 00 3e 79 86 ef 3d
       -0.18237647 -0.1680308 0.12510364 0.116955705
000080 31 0c c8 3d 1c 17 b8 3d ba d2 2b 3d d0 a0 95 3d
       0.0976795 0.08988783 0.04194901 0.07306063
000090 e6 2e 3a 3a 2f 8f e3 bd ac 06 55 3e 75 95 95 3b
       0.00071023253 -0.111112945 0.20803326 0.004564936
0000a0 12 2f 7e 3e 1c 81 b7 bb 67 29 02 bf 41 95 ab 3c
       0.24822643 -0.005600108 -0.50844425 0.020945193
0000b0 04 9d 07 3d bf f8 75 3e b0 1c 1c be ab 67 85 3e
       0.033108726 0.2402067 -0.15245318 0.26055655
0000c0 81 d4 f2 bc f0 e3 68 be fe b7 b7 bd 7f 80 98 3d
       -0.029642345 -0.22743201 -0.089706406 0.07446384
0000d0 6b 1e b8 bc 1e 81 67 3c 6a 48 0c bd 55 4e 29 3d
       -0.022475442 0.014129905 -0.034248747 0.04133447
0000e0 87 c6 9a 3e 60 71 1f 3e e3 30 63 3e be 13 44 3d
       0.3022959 0.15570593 0.22186618 0.04787039
0000f0 2a e5 75 be 9d 91 7d be 50 f4 85 3e 11 37 b8 3d
       -0.240132 -0.24762578 0.26162958 0.08994878
000100 5b c4 4f 3e 86 bb 21 be d1 24 93 bb 2d d2 82 3d
       0.20289747 -0.15794191 -0.004490473 0.06387744
000110 90 c5 43 be ad 79 f9 be eb e9 04 3e 88 c9 f6 bd
       -0.19118333 -0.48725644 0.12979858 -0.12050158
000120 69 7b 56 3d 21 d2 59 be 97 d4 97 3d 6a e7 f4 bb
       0.052363787 -0.21271564 0.07413595 -0.007473876
000130 be 4d 3f 3e 43 de 70 bb 5e e8 cd 3b 5a 0a 33 3e
       0.18682 -0.0036753572 0.006283804 0.17484418
000140 4e a3 18 be d5 5d 9b 3d f9 06 2c bb ff 00 2c 3e
       -0.14906046 0.075862564 -0.0026249273 0.16797255
000150 3d c6 11 be fd 69 6d 3c dd 07 2a bd 2c 35 95 3d
       -0.14235778 0.014490602 -0.041511405 0.07285532
000160 e5 60 b4 be 93 aa 82 3e 58 71 32 be 7a 9e 5a 3e
       -0.35230175 0.25520763 -0.1742605 0.21349517
000170 ef 8e 36 3e fc 1f f1 bc 71 7c 2d 3e f8 de 16 be
       0.17827962 -0.029434197 0.16942002 -0.14733493
000180 19 01 43 3d 0b 7f 4c be 8f c9 3c 3e 96 6d ee 3a
       0.04760847 -0.19970338 0.18436264 0.0018190618
000190 8a 62 46 3d 94 e5 fe 3d fa 94 55 bc ff 71 4c be
       0.048433818 0.12446132 -0.013036007 -0.19965361
0001a0 60 bb f8 3d 4e 91 be bc 3f da 6b 3d f1 a3 4e be
       0.12145114 -0.023262646 0.057581183 -0.20179726
0001b0 f1 28 c0 bd af 08 5b 3c a2 8e 4d 3d 2f 85 8b 3b
       -0.09382809 0.01336877 0.050184853 0.00425782
0001c0 5f 18 62 be 41 e9 26 3e c6 1d 04 be f0 4f de bd
       -0.2207961 0.16299917 -0.12901983 -0.108550906
0001d0 38 c4 eb bc 89 08 78 3e 86 3c 36 be f8 33 67 3e
       -0.028780088 0.24222006 -0.17796525 0.22578418
0001e0 1c 0e 84 bd 39 de 0f be 9a cb 7b be 76 8b c0 3d
       -0.06448004 -0.14049615 -0.24589387 0.094016
0001f0 bf 73 bc 3d b0 12 c3 3d fe 8f b1 ba fa 39 32 be
       0.09201764 0.09525049 -0.0013546941 -0.17404929
000200 be 06 33 3c fb 53 7a 3d d7 94 21 3d a8 f0 b5 bd
       0.0109269 0.061115246 0.039448585 -0.08883792
000210 0e 7a 1e 3e de 0f 2f 3e 17 f1 6b 3c 5e 17 a2 3c
       0.15476248 0.17095897 0.014400742 0.019786533
000220 35 19 fd bc 39 b4 47 3e 59 cb 44 3d 08 11 33 3e
       -0.030895809 0.19502343 0.04804549 0.17486966
000230 28 d5 ec 3d 5b d4 01 bd 85 55 08 3d 85 be 1d 3e
       0.11564094 -0.03169666 0.033284683 0.15404709
000240 69 f1 c5 bd 47 83 c7 bd b5 97 d4 3b 5e 72 ee 3d
       -0.09665186 -0.09741836 0.0064878114 0.116429076
000250 58 4a d7 3d 62 90 02 bd 7d 80 c1 3d 23 55 03 bd
       0.10512227 -0.031875975 0.09448335 -0.032063615
000260 d5 7c 59 3e 7c bc 5d be 81 e2 73 3d 32 3e 01 be
       0.21239026 -0.21653932 0.059542183 -0.12621382
000270 82 8a 3b be e3 ad b0 3b d1 d8 61 3d de 30 3a 3e
       -0.18314555 0.0053918227 0.055138413 0.18182704
000280 23 48 3a 3e 99 66 cc 3d 2b 30 1b be a2 6b 6b 3d
       0.1819158 0.099805064 -0.15155093 0.057475694
000290 8a 8e 8e 3d 98 2d 90 bd 79 17 22 3e 9f 8e 71 3e
       0.06960781 -0.07039946 0.15829267 0.23589562
0002a0 ee 59 98 be 6e c9 f6 bd cc 43 ec 3c 79 81 97 bd
       -0.2975611 -0.120501384 0.028840922 -0.07397742
0002b0 8f 95 c6 3b f4 ea a5 3c 02 b0 11 3e 3a 7b 08 be
       0.0060603092 0.020253636 0.14227298 -0.13328257
0002c0 9e 63 d4 3d 50 6e 55 be 8f 4d dc bb ea 70 08 be
       0.10370563 -0.20842862 -0.006723113 -0.13324323
0002d0 b3 71 a1 bd ed f6 22 3e 28 73 80 3e e7 77 8c bd
       -0.078830145 0.15914507 0.25087857 -0.06858807
0002e0 54 9a 54 3b 83 12 66 bd 09 66 88 3d 7e ca 02 3e
       0.003244062 -0.056169998 0.06660087 0.12772557
0002f0 a0 9e ba bd a2 ae d6 3d d1 a6 0e 3e 94 e5 1a be
       -0.091122866 0.10482527 0.13930823 -0.1512664
000300 03 52 5f be aa bd a4 3e eb 32 e9 bd 97 f0 4b be
       -0.21808629 0.32175952 -0.11386665 -0.19915996
000310 d6 17 88 3e 41 13 51 3e ff af 89 3e a9 c6 98 bd
       0.26580685 0.20417501 0.26892087 -0.074597664
000320 ce 70 66 be a2 19 ea 3d 1b 89 82 3e 16 57 4a 3e
       -0.22503969 0.1143067 0.25495228 0.19759783
000330 5e 2d b4 bd d0 18 cb 3d 15 47 19 3e 9c 29 ef bc
       -0.087977156 0.09916842 0.14968522 -0.029194646
000340 4e 2f 13 be a8 d7 c9 be 67 2b 99 be 8c d4 59 bd
       -0.14373514 -0.39422345 -0.29915926 -0.053181216
000350 a3 cf 35 bc ea 08 25 bd 47 ec e5 3d 2d 3b b6 3e
       -0.011096868 -0.040291704 0.11226707 0.35592023
000360 6a 77 fc 3d 6c 1f 21 3e 42 0e e2 bd ed 94 cf bd
       0.12327464 0.15734643 -0.11037876 -0.10135827
000370 35 b9 1c be 03 1f ce bb 8b f0 2c be d2 6e 29 3e
       -0.15305026 -0.006290318 -0.16888635 0.16546181
000380 56 93 85 be 27 e5 7e 3d a2 cd 6c be 82 e0 d5 bc
       -0.2608897 0.062230255 -0.23125318 -0.02610803
000390 22 4a 8a bd 5d b5 66 3d b8 ff 23 3e 59 51 82 3d
       -0.06752421 0.056325305 0.16015518 0.06363172
0003a0 11 b0 f7 bd cf 6a dd 3c d6 89 f5 bd bb 97 68 be
       -0.12094129 0.02702847 -0.11989181 -0.2271413
0003b0 f8 31 db 3d bf 3f 83 3e 67 a2 24 3e 69 1e 19 be
       0.1070289 0.25634572 0.16077577 -0.14953007
0003c0 ef ca a4 3d 31 25 77 3d 5d fd f4 bc 36 3e ce bd
       0.08046519 0.060338203 -0.02990597 -0.100704595
0003d0 f5 24 a0 3e 29 7d 80 3d 53 64 b2 bd 73 bf 40 be
       0.31278196 0.062738724 -0.087105416 -0.18823032
0003e0 45 d2 aa bd 0a e2 9c bd 87 ab b2 3d 63 f2 67 3c
       -0.08340887 -0.07660301 0.087241225 0.014156911
0003f0 01 20 ad bd 10 65 24 be 99 a1 87 3d a8 72 ec bb
       -0.0845337 -0.16054177 0.06622619 -0.0072158165

network_body._body_endoder.seq_layers.2.bias f4 [64]
000000 56 ff 16 3d 56 89 e4 bc 07 a4 2e 3d 9c 5c 9b 3d
       0.0368646 -0.027897518 0.042636897 0.07586023
000010 19 b0 9f ba 55 cf 59 3d 20 cd 6b 3d 05 4d ef 3c
       -0.0012183218 0.053176243 0.05756867 0.02921153
000020 54 ef af 3d 9c c9 4d 3d 98 a6 d6 bc 6b da 8a 3c
       0.0859057 0.050241098 -0.026202485 0.016949853
000030 82 54 f8 bb 06 23 b6 3b 4b 19 3a bd 55 15 da bd
       -0.0075784335 0.0055583743 -0.045434278 -0.106486
000040 d0 5b 61 3d c6 35 54 3d f1 04 86 3b b8 d1 ce 3c
       0.0550192 0.051809095 0.0040899445 0.025246486
000050 7a 45 02 3c c5 30 07 3c e2 d1 a3 bc 47 33 38 3c
       0.007951135 0.008251374 -0.01999754 0.011242694
000060 c1 8f a7 bb bf 58 11 3d 06 0b 63 3d ed d8 f1 3c
       -0.0051135723 0.035485025 0.055430435 0.029522384
000070 a8 9a 85 3c 00 cc 2d 3d 0e ca 54 3b 9b 0b d1 bc
       0.016309097 0.042430878 0.0032469067 -0.02551823
000080 80 a9 38 3d ad 1f f1 3c 84 b3 5c 3d 59 a1 42 3d
       0.045083523 0.02943405 0.053882137 0.047517154
000090 1b f2 19 3d cc 64 6b 3d 7e 54 b0 3b 4f 2c 90 3d
       0.037584405 0.057469174 0.005381166 0.07039701
0000a0 73 4d 17 bd 35 8b 6f ba c0 97 50 3d b0 ed 13 3d
       -0.036939096 -0.000913787 0.05092597 0.03611535
0000b0 1b 00 07 3d 59 57 e6 3c 48 f6 c9 3c 34 78 6f bb
       0.032959085 0.028117822 0.024653569 -0.0036540153
0000c0 97 c7 14 3d 24 80 0c 3d b3 ef 2f 3b a2 f7 9d 3b
       0.036323156 0.034301892 0.0026845753 0.00482078
0000d0 87 c7 08 3d 29 c6 dc 3c 5d dd 40 3d a1 03 67 3d
       0.03339341 0.026949959 0.04708611 0.056399945
0000e0 0b ec 0b 3c e4 8e 78 3d c7 2a 2e 3d ce 54 a0 3d
       0.008540164 0.060683146 0.042521264 0.07828675
0000f0 af d4 a5 bc 53 f2 ca 3c 88 10 68 3d 2d d0 26 bc
       -0.020243017 0.024773752 0.05665639 -0.010181469

action_model._continuous_distribution.log_sigma f4 [1, 2]
000000 ae 5a 33 3e 2a b1 43 3e
       0.1751506 0.19110551

action_model._continuous_distribution.mu.weight f4 [2, 64]
000000 0a 1e f3 3d 4f 5e 8f bb c8 d0 b2 3d b1 64 e9 3d
       0.11870964 -0.004375256 0.08731228 0.113961585
000010 6a 52 49 3c 76 0c 87 3d 34 72 1d bd ba 04 59 bc
       0.012287715 0.065941736 -0.03843899 -0.013245756
000020 3c 3c 17 3d 4f a2 0b bd 09 dd 53 3b c3 a1 82 bd
       0.03692268 -0.034090336 0.0032327792 -0.0637851
000030 ae bf e3 bd 2b d2 35 3b bf 83 13 bd 4f 72 42 3c
       -0.111205444 0.0027743678 -0.036014315 0.011868074
000040 0d 6a 47 3d 91 fa 21 bb 83 aa 26 bd 96 de c2 bb
       0.048685122 -0.0024716 -0.040689956 -0.0059469445
000050 35 16 c2 bd 9f a7 60 bd d0 cd 6f bd 72 64 0f bd
       -0.09476892 -0.054847356 -0.058545887 -0.0350079
000060 ce 92 e2 bc 64 e5 1b bd 73 af cf 3d 9a 09 2d 3d
       -0.027657893 -0.03806056 0.10140886 0.042245485
000070 0f 75 df 3c d7 b5 41 3d 50 94 d0 3c 5d 5a c2 bd
       0.027277498 0.047292557 0.025461346 -0.09489892
000080 e8 12 b1 bd 61 7c e3 3c 00 5c c4 bd 1b 0d 82 bb
       -0.08646184 0.02776927 -0.0958786 -0.0039688474
000090 1d 75 9b 3d 34 24 a0 bd 26 08 41 bd b4 cd 2c 3e
       0.07590697 -0.07819405 -0.04712691 0.16875345
0000a0 b2 92 a7 bb 46 aa 65 bb 3b 93 05 3e b3 21 e4 3d
       -0.005113923 -0.0035044118 0.13044445 0.1113924
0000b0 81 ba 94 bd 7e 1b 81 3d 5f c1 a1 bd 46 fa 89 bd
       -0.07262135 0.06304072 -0.07898211 -0.06737189
0000c0 83 e5 87 3d 41 27 95 bc 63 2a 0d 3a 42 22 0a 3c
       0.06635573 -0.018207194 0.0005385039 0.008431019
0000d0 af b7 86 bd e5 99 a0 bd 4c 67 82 3d 3a af 49 3c
       -0.065780036 -0.07841853 0.063673586 0.012309844
0000e0 56 f1 0f 3d 95 57 4b bd fa c3 c4 3d 6f e1 a4 3d
       0.035142265 -0.04964407 0.09607692 0.080508105
0000f0 cb 3b 17 3d fb 06 05 bc 65 b9 9f 3c 13 3d 5b 3c
       0.036922257 -0.00811934 0.019497583 0.01338126
000100 b9 7c e7 bd a9 22 81 3d 8a e2 8b bd 63 4c af bd
       -0.11303086 0.06305439 -0.06830318 -0.085594915
000110 02 de 00 3d 25 be b4 bd ed 57 75 bd 8e 25 01 3e
       0.031461723 -0.0882533 -0.059898306 0.12611982
000120 da 63 89 bd 60 9e e3 3c 01 4a 80 bd 40 d5 ac 3d
       -0.06708498 0.02778548 -0.06264115 0.08439112
000130 67 76 2f 3d 66 e0 26 3d d6 53 19 bd 1c 20 6f bd
       0.042837527 0.040741347 -0.037433468 -0.05838023
000140 84 c2 b0 bd 71 38 ed bd 62 7b c4 3d 9b 78 6e 3d
       -0.08630851 -0.11583031 0.09593846 0.058220487
000150 66 bf b2 3c ed 53 28 bd 16 e4 bf bc d0 23 03 3e
       0.021819782 -0.041095663 -0.02342419 0.1280663
000160 65 55 d6 bc e4 71 92 3d e2 f9 90 3d 12 6a f4 bb
       -0.026163766 0.07150629 0.07078911 -0.0074589336
000170 b7 68 83 bc 4f 90 f2 3d 5c 3a ea bb ca f0 1d bd
       -0.016041143 0.11843931 -0.0071480703 -0.038559712
000180 bc 43 a4 3c e8 0e f3 bd 2f 71 3e 3d 9d 55 1c ba
       0.02005183 -0.118680775 0.04649466 -0.0005963685
000190 80 f6 d4 bd 85 9e 9b 3d 03 bd 0e bd 34 96 1c be
       -0.10398579 0.075985946 -0.034848224 -0.15291673
0001a0 ec e1 59 3c de ad 6e 3d 8f ad 03 bc 86 4c 88 3d
       0.013298493 0.05827128 -0.008036985 0.06655221
0001b0 95 8a 1e 3c 3e 42 9a 3d 17 dd f7 3d 74 81 8e bd
       0.009676595 0.07532166 0.121027164 -0.06958285
0001c0 b9 f1 b2 bd 2c 32 62 3d 86 28 60 bd 03 64 fd bd
       -0.08737511 0.05522363 -0.054726146 -0.12372591
0001d0 ca 06 3c bd 63 1d 08 bc 66 6f 1a bd be cc 49 3d
       -0.045904912 -0.008307788 -0.037703894 0.049267523
0001e0 6a 92 b1 bd 0e 4a d1 bd b5 83 ab bd c2 87 43 bc
       -0.086705044 -0.10219203 -0.083747305 -0.011934223
0001f0 77 31 f8 3b ff 60 bf bd fb c9 89 bd 47 64 a4 3d
       0.007574256 -0.093446724 -0.06727978 0.08026939

action_model._continuous_distribution.mu.bias f4 [2]
000000 ff 16 6a 3c 41 e1 be 3a
       0.014287709 0.001456298
