results/MLHades_main_10_grid48x48cellsize0_75x0_75/MLHades/MLHades-2499998.onnx (onnx, 256426 bytes, 22 tensors)

discrete_action_output_shape f4 [1, 4]
3.0 3.0 3.0 2.0
00000000: 0000 4040 0000 4040 0000 4040 0000 0040

network_body.observation_encoder.processors.1.conv_layers.0.weight f4 [16, 7, 8, 8]
0.15596564 0.08856365 0.09318244 0.02526721 0.030028041 0.05203612 -0.04201475 -0.06675032
0.10609568 0.008006126 0.033498067 -0.040171407 -0.02775621 -0.001930283 -0.029238544 -0.039931245
0.023011006 0.057097584 0.05716215 0.008322602 0.10755526 0.030680796 0.055911165 -0.061932385
0.10407686 0.06620922 0.050886057 0.01773657 0.011664671 0.0007438451 0.01943662 -0.031752687
0.16577214 0.0587102 0.07972514 -0.00090598344 0.070870824 0.08606892 0.04962894 -0.030237006
0.081518725 0.054685723 0.085595325 0.010991045 0.06873808 -0.00930811 -0.019580357 0.011903342
0.04625318 -0.030573763 0.03887291 -0.05228344 -0.0034929267 -0.032612283 0.004061507 -0.07184783
0.0028843456 0.019174311 0.08626188 0.06755385 0.09895405 0.09054144 0.068383604 0.035074748
0.0950328 0.0012397465 0.12230456 0.06268195 0.15967117 0.15092157 0.03286811 0.11357374
0.061409906 0.16737314 0.07580356 0.10248649 0.008371844 -0.050397415 0.054651313 0.12937833
0.11236771 0.14769648 0.030206267 -0.00047537684 -0.08688111 -0.08493684 0.14777267 0.10341269
-0.023739751 -0.059664603 -0.037627067 -0.1635395 0.018798208 -0.041102875 0.09919876 0.0070186164
-0.07663065 -0.1110193 -0.17045535 -0.06408652 0.071502045 0.12524486 -0.036468297 0.06724784
-0.09671312 0.02181128 -0.03662877 -0.032365583 0.04849361 0.03657777 0.008661295 -0.018524893
-0.055550028 -0.09207902 -0.020090159 0.06488279 0.02531707 -0.013092403 0.07543274 0.11206009
-0.03805462 -0.01465083 -0.0897284 -0.061792772 0.09905515 0.007242563 0.03249509 0.113619246
-0.012292776 -0.007012911 0.06826934 0.11270387 0.115729034 -0.01914764 -0.05048713 0.059459023
0.07765364 0.04925902 0.11346739 0.18998958 0.1706501 0.09689874 -0.01834873 0.08785408
0.07613814 0.06269867 0.053966794 0.08294833 0.15767628 0.1372624 0.1896997 0.12896456
-0.046330653 0.029012045 -0.09502162 0.017013378 0.01672165 -0.04053477 0.06625932 -0.0012290874
-0.057808824 -0.011583795 0.04710054 -0.038281333 0.07271046 -0.0292944 0.027168563 0.07527292
-0.03554049 -0.026231643 -0.08470115 -0.061045714 0.072764374 0.014924689 0.061639946 0.07612008
0.030442737 0.010210486 -0.05148443 0.031236043 0.053995617 0.07092026 0.06577701 0.087218195
-0.074476555 -0.05471858 -0.052925617 -0.10017193 -0.02237804 -0.03396762 -0.01883065 0.057826623
-0.07647079 -0.08250204 -0.14080447 -0.06082564 0.07439184 -0.019206088 -0.025103288 -0.012272762
0.04104862 -0.08785335 -0.19556466 -0.13478397 -0.12587622 -0.097774826 -0.15626661 -0.12518023
0.03440234 0.0035971059 -0.01838773 0.010950873 0.011912642 0.0024418102 -0.14244448 -0.12825607
0.09536285 0.04884881 0.0709397 0.10763964 0.040373143 0.10149594 0.032797717 0.07061202
0.11878199 0.08116287 0.021722553 0.088404305 0.08748319 0.115580395 0.021933408 0.09300726
0.09630496 0.024886897 -0.026822003 0.10126523 0.097796835 0.09023741 0.0803778 0.11201825
0.04187347 0.10356409 -0.020382421 0.015574095 0.033147182 0.09742323 -0.04797329 0.07041562
-0.09600488 -0.13555853 -0.12338621 0.0046700574 0.008988908 -0.06650004 -0.027331976 0.00206915
00000000: 75b5 1f3e dc60 b53d 6fd6 be3d 2efd ce3c
00000010: 5efd f53c d423 553d a917 2cbd 64b4 88bd
00000020: b148 d93d 202c 033c 4535 093d c68a 24bd
00000030: fe60 e3bc 8d01 fdba ac85 efbc f28e 23bd
00000040: 9481 bc3c 28df 693d dc22 6a3d 865b 083c
00000050: ef45 dc3d 4b56 fb3c 1b03 653d d0ac 7dbd
00000060: 4026 d53d b398 873d e66d 503d 494c 913c
00000070: 2d1d 3f3c 9afe 423a 8c39 9f3c 1b0f 02bd
00000080: 2cc0 293e 1b7a 703d ef46 a33d 857f 6dba
00000090: b924 913d e744 b03d b747 4b3d 99b3 f7bc
000000a0: 4af3 a63d 23fe 5f3d 9a4c af3d c913 343c
000000b0: 8dc6 8c3d 0b81 18bc fc66 a0bc 3c06 433c
000000c0: f973 3d3d d475 fabc 3339 1f3d 2927 56bd
000000d0: 96e9 64bb 7594 05bd 6416 853b f524 93bd
000000e0: 4a07 3d3b 7213 9d3c 12aa b03d ac59 8a3d
000000f0: 6ca8 ca3d ca6d b93d b40c 8c3d 8aaa 0f3d
00000100: 8fa0 c23d fd7e a23a d07a fa3d 655f 803d
00000110: d780 233e 2f8b 1a3e b6a0 063d 5999 e83d
00000120: f488 7b3d dd63 2b3e e63e 9b3d 70e4 d13d
00000130: 0f2a 093c 856d 4ebd 0eda 5f3d c17b 043e
00000140: 0b21 e63d bf3d 173e 2273 f73c 003c f9b9
00000150: b9ee b1bd 5ef3 adbd b851 173e 08ca d33d
00000160: de79 c2bc df62 74bd d71e 1abd e676 27be
00000170: b3fe 993c 7d5b 28bd b828 cb3d 6cfc e53b
00000180: 88f0 9cbd 165e e3bd d98b 2ebe cb3f 83bd
00000190: aa6f 923d 3040 003e c85f 15bd 3cb9 893d
000001a0: 8711 c6bd 92ad b23c 0d08 16bd c691 04bd
000001b0: 3ca1 463d 92d2 153d 1be8 0d3c 84c1 97bc
000001c0: 6d88 63bd ed93 bcbd 1e94 a4bc 45e1 843d
000001d0: be65 cf3c 8581 56bc 7b7c 9a3d c37f e53d
000001e0: 29df 1bbd 090a 70bc 86c3 b7bd 6b1a 7dbd
000001f0: 6ddd ca3d 0653 ed3b 9219 053d 35b1 e83d
00000200: a467 49bc 90cc e5bb ccd0 8b3d 49d1 e63d
00000210: 5803 ed3d 83db 9cbc 98cb 4ebd 4e8b 733d
00000220: df08 9f3d d3c3 493d 9761 e83d a18c 423e
00000230: e6be 2e3e d972 c63d 1350 96bc d7ec b33d
00000240: 50ee 9b3d 2968 803d 490c 5d3d d0e0 a93d
00000250: e475 213e 848e 0c3e a340 423e 490f 043e
00000260: 36c5 3dbd abaa ed3c b29a c2bd a45f 8b3c
00000270: d7fb 883c c907 26bd f7b2 873d 5419 a1ba
00000280: f2c8 6cbd f5c9 3dbc 7fec 403d e3cc 1cbd
00000290: 39e9 943d cffa efbc 9b90 de3c b028 9a3d
000002a0: e892 11bd bee3 d6bc cc77 adbd 120b 7abd
000002b0: 7d05 953d af86 743c 2b7a 7c3d d8e4 9b3d
000002c0: 0c63 f93c e249 273c 56e1 52bd bbe2 ff3c
000002d0: 822a 5d3d a43e 913d 19b6 863d 749f b23d
000002e0: 2a87 98bd 9720 60bd 88c8 58bd f126 cdbd
000002f0: 2752 b7bc a221 0bbd bc42 9abc 9cdb 6c3d
00000300: b89c 9cbd d4f6 a8bd 0c2f 10be 4e24 79bd
00000310: c05a 983d 1656 9dbc 69a5 cdbc b213 49bc
00000320: 9922 283d 75ec b3bd 1a42 48be cf04 0abe
00000330: b2e5 00be 2b3e c8bd 5b04 20be 3f2f 00be
00000340: 78e9 0c3d 6cbd 6b3b dda1 96bc 4a6b 333c
00000350: 3e2d 433c c706 203b f7dc 11be 8f55 03be
00000360: 994d c33d b115 483d d548 913d 2c72 dc3d
00000370: 4f5e 253d 1add cf3d e656 063d 099d 903d
00000380: f943 f33d b838 a63d 7ff3 b13c 510d b53d
00000390: 632a b33d 6ab5 ec3d b1ad b33c 977a be3d
000003a0: 893b c53d 9bdf cb3c d1b9 dbbc 2564 cf3d
000003b0: b549 c83d 64ce b83d 1e9d a43d d369 e53d
000003c0: 8483 2b3d 6919 d43d 09f9 a6bc 7d2a 7f3c
000003d0: 57c5 073d d585 c73d a47f 44bd 1136 903d
000003e0: 359e c4bd dbcf 0abe e9b1 fcbd 4807 993b
000003f0: 3646 133c 2c31 88bd 4fe7 dfbc 949a 073b

network_body.observation_encoder.processors.1.conv_layers.0.bias f4 [16]
0.008132597 -0.013107537 0.003496931 -0.012323471 0.009691692 -0.0021140333 -0.0806655 -0.006507666
0.007968497 -0.0024267852 -0.00019911418 -0.009752697 -0.012359084 0.036421 0.012699724 0.044928137
00000000: 963e 053c ffc0 56bc c42c 653b 62e8 49bc
00000010: e7c9 1e3c 988b 0abb f433 a5bd 423e d5bb
00000020: 4d8e 023c b30a 1fbb 4ec9 50b9 c7c9 1fbc
00000030: c17d 4abc 302e 153d 8112 503c 9106 383d

network_body.observation_encoder.processors.1.conv_layers.2.weight f4 [32, 16, 4, 4]
0.08202108 -0.060060706 -0.086411245 0.115818575 0.0023475357 -0.0724331 0.057835255 -0.015639946
-0.036469884 -0.031587906 -0.055141915 -0.027460441 -0.04401618 -0.043438997 -0.11054775 -0.0800426
-0.017734908 -0.02768056 -0.051102433 -0.03140868 0.013722518 -0.05718662 -0.024188107 0.009498738
0.07559223 -0.12643106 0.116986886 0.020349627 -0.03665977 0.021524891 0.09171872 0.12846322
0.13323143 0.12497633 0.114583306 0.08786426 -0.078577794 0.081009656 0.096556164 0.050136942
0.011029743 0.03265142 0.07682657 0.16631493 0.11057785 0.231343 0.07121461 0.09995664
-0.01972574 0.0037363165 0.050098766 0.13418451 -0.00875367 -0.06484171 0.05928489 0.20577206
0.06946491 -0.0050099883 0.023666695 0.11619608 0.19360842 0.12549402 0.23943697 0.170567
0.041947845 0.010140702 -0.03995065 -0.0023274904 0.07145387 -0.03755719 0.010649487 0.04929397
0.038079627 -0.14036919 -0.07326556 -0.017187152 -0.022780871 -0.025339805 0.15961689 0.16970079
0.13528702 0.008150925 0.039362546 0.0933863 0.010840198 -0.068139195 0.05130648 0.11154039
0.06654257 -0.028153403 0.098429665 0.13384761 0.013490884 0.14687109 0.19042057 0.07748311
-0.05400391 -0.14966908 -0.07218384 -0.13651524 -0.072933435 0.0024646502 -0.0357164 -0.118444614
-0.0026450788 0.042472586 -0.007204184 -0.072729036 -0.028582811 -0.10651669 -0.121531576 -0.07688973
0.09202693 -0.00063620537 -0.101205386 0.118754864 0.12078236 0.116440974 0.0038808207 -0.11625882
0.04172015 0.0434564 0.05091822 0.098689064 0.15931754 -0.052257173 -0.025299616 -0.0704577
-0.10560283 0.0176552 0.028893663 -0.119271696 0.08861225 0.018594272 0.09306979 0.028874917
-0.052480955 -0.20610918 -0.086415686 -0.02776358 -0.029842922 0.036048464 -0.027434926 0.05159791
0.076159455 -0.033576418 -0.09986617 0.021368511 0.022683958 -0.0023893365 -0.062498268 0.11295419
0.021559762 0.045984045 -0.04212403 0.045940682 0.10098676 0.063392885 0.01313156 0.022822712
0.0071263574 0.06685524 0.05136899 0.18591595 -0.04497066 0.0047695134 0.044167526 0.03343656
0.15150836 0.012943694 0.08882883 0.1357361 0.19379018 0.13481417 0.15955609 0.011803252
0.18748547 0.10178574 -0.045714885 0.15283914 0.06469202 0.0577944 0.120445736 0.17452951
0.030178102 -0.07090794 0.00307291 0.04762728 0.012737445 0.039321918 0.069220856 -0.0316119
-0.076141566 -0.06755724 0.024029668 0.01609129 0.03472974 -0.0067642312 0.029833257 -0.0057153045
-0.0025980354 0.016850108 -0.0022299152 0.030077554 0.09175135 -0.09568685 -0.06674243 0.041567687
0.0052552046 -0.038864333 -0.06413564 -0.096285485 0.03341791 -0.06407759 -0.03477619 -0.0047678277
0.101723626 -0.13086306 -0.08340436 -0.07401169 0.08137399 0.0025168147 0.106955536 -0.090423755
0.056530915 0.19701786 0.09522744 0.011927498 -0.021848762 -0.040629778 -0.031822875 0.018445728
0.023634152 -0.023195218 -0.011555003 0.0063619055 0.11897844 0.022281034 0.10873654 0.044071164
-0.068960674 0.0682697 0.025908248 -0.033274267 0.085512795 0.04380462 -0.054514423 0.04958026
-0.033523943 0.030341279 -0.105062656 -0.044632923 -0.06809477 -0.26856598 -0.06952982 -0.043691646
00000000: abfa a73d 3702 76bd 61f8 b0bd 4a32 ed3d
00000010: 1dd9 193b ce57 94bd a9e4 6c3d 581f 80bc
00000020: 7261 15bd 5262 01bd 7ddc 61bd b8f4 e0bc
00000030: 4f4a 34bd 17ed 31bd dc66 e2bd 60ed a3bd
00000040: cc48 91bc 57c2 e2bc c950 51bd 63a6 00bd
00000050: 6ad4 603c 843c 6abd 2326 c6bc 98a0 1b3c
00000060: 19d0 9a3d 2577 01be d296 ef3d 43b4 a63c
00000070: 8e28 16bd f854 b03c 06d7 bb3d dd8b 033e
00000080: d26d 083e 97f3 ff3d a7aa ea3d 2df2 b33d
00000090: 65ed a0bd 64e8 a53d 3dbf c53d 655c 4d3d
000000a0: 18b6 343c 7fbd 053d 4057 9d3d 764e 2a3e
000000b0: a476 e23d 2ee5 6c3e f7d8 913d 11b6 cc3d
000000c0: e097 a1bc fddc 743b 5d34 4d3d aa67 093e
000000d0: 8e6b 0fbc bbcb 84bd b6d4 723d e9b5 523e
000000e0: 9e43 8e3d d42a a4bb a8e0 c13c 36f8 ed3d
000000f0: 4941 463e 8181 003e f72e 753e 1ea9 2e3e
00000100: 81d1 2b3d 3025 263c 4ba3 23bd cf88 18bb
00000110: 6856 923d 91d5 19bd 307b 2e3c 79e8 493d
00000120: 62f9 1b3d f1bc 0fbe 410c 96bd 12cc 8cbc
00000130: f39e babc 6c95 cfbc 9c72 233e 0bc6 2d3e
00000140: ae88 0a3e 758b 053c 9f3a 213d 5141 bf3d
00000150: 169b 313c 908c 8bbd be26 523d 4a6f e43d
00000160: 7947 883d f7a1 e6bc 7e95 c93d 590f 093e
00000170: de08 5d3c 6065 163e 9cfd 423e 77af 9e3d
00000180: 3433 5dbd da42 19be 1fd5 93bd a7ca 0bbe
00000190: 205e 95bd f885 213b 5c4b 12bd 1793 f2bd
000001a0: 0f59 2dbb bcf7 2d3d 1311 ecbb f6f2 94bd
000001b0: 8026 eabc 6c25 dabd 8ce5 f8bd 5d78 9dbd
000001c0: 9d78 bc3d 05c7 26ba c544 cfbd c035 f33d
000001d0: be5c f73d 9b78 ee3d 5e55 7e3b 1b19 eebd
000001e0: bfe2 2a3d 57ff 313d a08f 503d 7e1d ca3d
000001f0: 2324 233e 9e0b 56bd 2441 cfbc 204c 90bd
00000200: 4c46 d8bd a3a1 903c 67b2 ec3c b844 f4bd
00000210: 577a b53d 0453 983c 609b be3d 178b ec3c
00000220: 45f6 56bd 490e 53be b5fa b0bd 7370 e3bc
00000230: 2579 f4bc 8ea7 133d 36bf e0bc 5458 533d
00000240: 7df9 9b3d 6d87 09bd a286 ccbd 040d af3c
00000250: b5d3 b93c 6a96 1cbb 2ffe 7fbd 8754 e73d
00000260: 199e b03c c459 3c3d 3f8a 2cbd 4c2c 3c3d
00000270: 25d2 ce3d 21d4 813d c125 573c b2f6 ba3c
00000280: 3884 e93b 66eb 883d 4a68 523d c060 3e3e
00000290: 2833 38bd 9449 9c3b 02e9 343d c6f4 083d
000002a0: 0225 1b3e ca11 543c e4eb b53d 67fe 0a3e
000002b0: ef70 463e ba0c 0a3e ac62 233e 6d62 413c
000002c0: 31fc 3f3e 0b75 d03d 883f 3bbd dd81 1c3e
000002d0: 407d 843d d2b9 6c3d 41ac f63d ddb7 323e
000002e0: 1138 f73c 2f38 91bd e062 493b d314 433d
000002f0: b7b0 503c 0510 213d aac3 8d3d 7b7b 01bd
00000300: 1cf0 9bbd 735b 8abd ded9 c43c e2d1 833c
00000310: c640 0e3d 7ca6 ddbb e064 f43c 7347 bbbb
00000320: cd43 2abb 3d09 8a3c c523 12bb 3465 f63c
00000330: 22e8 bb3d 78f7 c3bd 41b0 88bd e142 2a3d
00000340: da33 ac3b 3530 1fbd 8c59 83bd 5331 c5bd
00000350: 38e1 083d 1d3b 83bd 7a71 0ebd 703b 9cbb
00000360: 7a54 d03d f700 06be e8cf aabd 7193 97bd
00000370: 68a7 a63d 25f1 243b 810b db3d 1730 b9bd
00000380: f68c 673d 0dbf 493e 9b06 c33d 8d6b 433c
00000390: 2dfc b2bc 696b 26bd b458 02bd 7f1b 973c
000003a0: 699c c13c e603 bebc 3251 3dbc 8877 d03b
000003b0: f8aa f33d b786 b63c 43b1 de3d f783 343d
000003c0: 413b 8dbd fcd0 8b3d 893d d43c 994a 08bd
000003d0: 5521 af3d 796c 333d 844a 5fbd ac14 4b3d
000003e0: 6750 09bd 468e f83c 172b d7bd 03d1 36bd
000003f0: 4575 8bbd 7b81 89be a665 8ebd 03f6 32bd

network_body.observation_encoder.processors.1.conv_layers.2.bias f4 [32]
-0.06342945 0.009681579 0.037042174 -0.024923079 0.016648985 -0.0136571815 -0.056181483 -0.049452968
-0.07387418 0.023709435 0.031384736 0.02115902 0.007209347 -0.05547317 0.039390232 -0.035450034
-0.054461833 -0.012355509 0.026580593 -0.013986104 0.03119613 -0.043916848 -0.12111701 -0.032243438
0.08645398 -0.089996584 -0.0056816344 -0.057216953 -0.08179747 -0.06623875 -0.051717944 -0.035568092
00000000: 4de7 81bd 7c9f 1e3c 89b9 173d 7c2b ccbc
00000010: 7463 883c 5fc2 5fbc 8e1e 66bd 328f 4abd
00000020: 594b 97bd 4a3a c23c 488d 003d ae55 ad3c
00000030: 633c ec3b d637 63bd a757 213d 0e34 11bd
00000040: 5f13 5fbd c36e 4abc 8bbf d93c f925 65bc
00000050: 078f ff3c 27e2 33bd 320c f8bd b211 04bd
00000060: c90e b13d 2150 b8bd 012d babb 535c 6abd
00000070: 6f85 a7bd 2fa8 87bd 32d6 53bd d9af 11bd

network_body.observation_encoder.processors.1.dense.0.weight f4 [64, 512]
-0.043277286 0.007623658 0.107262574 0.0200934 0.075696364 0.0034560855 -0.086616985 7.0063907e-06
0.04244306 -0.014979518 0.036229387 -0.2694704 -0.08024839 -0.00047059022 -0.037545256 -0.053744476
-0.08787773 -0.14512113 0.043678932 -0.056856558 0.056185603 -0.029493334 0.0059299576 -0.06864731
0.06347608 -0.1523372 0.039699715 -0.06944237 -0.013331052 0.16519408 -0.008361788 -0.03682162
-0.0003412139 0.12459328 0.057583157 0.048757326 0.0011495311 0.10121876 0.08744927 0.13889092
0.052484795 0.063553825 0.006489527 0.096689284 0.13982962 -0.004664403 0.08194293 0.0052006464
0.05678717 0.0534647 0.07814076 0.026827985 -0.17049669 -0.014593066 0.06633684 -0.044492677
-0.008074296 0.050399072 -0.050601356 -0.07030179 -0.013212357 0.004002786 0.021572374 0.07432472
-0.14449148 -0.03468449 -0.04726349 -0.00793342 0.00062897673 -0.002713064 -0.04117853 0.08698799
0.037145007 -0.06726154 -0.027412739 0.035196852 0.06873539 -0.036158618 0.01734236 -0.18020247
0.032179672 0.0369387 0.022754489 0.089286104 -0.023861807 -0.1153599 0.022545269 -0.028697198
0.040873367 -0.08217508 -0.036357906 -0.07416157 0.060364556 0.04395706 -0.05480818 -0.13719386
-0.025351042 0.05513301 0.1047284 -0.123797745 -0.005563175 -0.021725146 0.0081002265 0.0848537
-0.01238645 0.043001935 -0.043468084 0.03775401 0.06759061 0.1302168 -0.05608908 -0.03136029
0.03756687 0.06797912 0.103549965 -0.0053515523 -0.15602152 -0.059792355 -0.013002416 0.045157123
0.16432661 -0.043090824 0.03552071 -0.064268805 0.078417026 0.03278013 -0.06392292 0.020986583
0.04798964 0.010346738 0.27243182 0.097472176 0.04750588 0.06863968 -0.034161337 0.03226415
0.044704746 -0.04145832 -0.033607714 -0.056266908 0.07040972 -0.044507906 -0.049491055 -0.13213609
0.12346405 0.115585595 0.053365324 0.07445718 0.008416255 0.014190747 -0.034370884 0.057620168
0.0017603966 -0.03838162 -0.038157478 0.0075146444 -0.0005276416 0.08834698 -0.008357117 0.00463203
0.043545436 0.009619871 0.013350035 -0.06504493 0.052484468 0.059459895 -0.044137225 -0.073590405
-0.10507047 0.07660906 -0.004701989 -6.432811e-05 0.10399001 -0.058616035 -0.07851706 -0.012330051
-0.021433346 0.13893947 0.15716189 0.014808845 -0.018742219 -0.05464783 -0.10098027 -0.0411533
-0.0318183 0.021634122 0.056805052 0.12023565 0.06687692 0.14658402 0.096899495 0.0015724502
0.061171863 0.036559418 0.13171782 0.046682533 -0.0036956128 -0.11856089 -0.045120057 -0.070324495
0.015676323 -0.085407466 -0.046962805 -0.03609828 -0.032806974 -0.07519867 -0.20054768 0.005030725
0.040690385 0.006207721 -0.023325877 0.016397774 0.13792546 -0.08449766 -0.060395345 -0.06622513
0.12953308 -0.010492718 0.02418356 -0.02682743 -0.07377007 0.095087156 -0.08721178 -0.024429098
0.009573437 -0.058985453 -0.08266968 0.024795445 0.066095576 -0.04792234 0.1371286 0.14313856
0.2586888 -0.089482814 0.0036424731 0.09551383 0.12792994 0.06834212 0.14920159 0.2743164
-0.028088696 -0.23304528 -0.002105458 -0.03127436 0.1246216 -0.0026011965 -0.02853256 -0.058822274
-0.037904397 0.08302007 -0.11866472 0.18613064 -0.07235799 0.0924329 -0.11750998 0.14830144
00000000: 8643 31bd e1cf f93b 7bac db3d ea9a a43c
00000010: b206 9b3d 7e7f 623b 3f64 b1bd 7018 eb36
00000020: c6d8 2d3d a76c 75bc 4465 143d 06f8 89be
00000030: 4559 a4bd 8db9 f6b9 0ec9 19bd 2b23 5cbd
00000040: 3df9 b3bd a29a 14be aee8 323d 6ce2 68bd
00000050: e022 663d 019c f1bc 1750 c23b f696 8cbd
00000060: bfff 813d 48fe 1bbe 2b9c 223d cd37 8ebd
00000070: 7c6a 5abc a328 293e e1ff 08bc 44d2 16bd
00000080: f4e4 b2b9 c32a ff3d 51dc 6b3d c3b5 473d
00000090: ddab 963a c84b cf3d 9a18 b33d 6c39 0e3e
000000a0: 4cfa 563d 8228 823d 19a6 d43b 0805 c63d
000000b0: 7f2f 0f3e d9d7 98bb b2d1 a73d 2f6a aa3b
000000c0: aa99 683d cdfd 5a3d 4308 a03d 5dc6 db3c
000000d0: af96 2ebe c117 6fbc 9cdb 873d f43d 36bd
000000e0: 0d4a 04bc 426f 4e3d 5e43 4fbd 63fa 8fbd
000000f0: a478 58bc cd29 833b 8cb8 b03c 8f37 983d
00000100: 93f5 13be 5311 0ebd 5c97 41bd 2dfb 01bc
00000110: eae1 243a a9cd 31bb d1aa 28bd c226 b23d
00000120: 5d25 183d 6bc0 89bd ae90 e0bc 932a 103d
00000130: 24c5 8c3d 0f1b 14bd 9111 8e3c ff86 38be
00000140: d5ce 033d 094d 173d 9f67 ba3c a2db b63d
00000150: d679 c3bc d041 ecbd dbb0 b83c 6316 ebbc
00000160: d56a 273d 694b a8bd 07ec 14bd 05e2 97bd
00000170: d340 773d 510c 343d 8b7e 60bd 8c7c 0cbe
00000180: fdac cfbc 27d3 613d d87b d63d ac89 fdbd
00000190: 4b4b b6bb eff8 b1bc d0b6 043c c7c7 ad3d
000001a0: 89f0 4abc cc22 303d 970b 32bd f3a3 1a3d
000001b0: f26c 8a3d 8e57 053e aabd 65bd a673 00bd
000001c0: b8df 193d a338 8b3d 0112 d43d 135c afbb
000001d0: 1bc4 1fbe d4e8 74bd 1608 55bc adf6 383d
000001e0: 3c45 283e 0180 30bd 2a7e 113d 5d9f 83bd
000001f0: 1b99 a03d 7544 063d 05ea 82bd 0eec ab3c
00000200: c990 443d 5d85 293c 2f7c 8b3e 7e9f c73d
00000210: 8795 423d f692 8c3d c2ec 0bbd 6a27 043d
00000220: 531c 373d 33d0 29bd 3ea8 09bd 2178 66bd
00000230: f932 903d ec4d 36bd 22b7 4abd af4e 07be
00000240: b8da fc3d 24b8 ec3d 9995 5a3d 027d 983d
00000250: 55e4 093c 4f80 683c 7cc8 0cbd 2003 6c3d
00000260: 1cbd e63a 0c36 1dbd 044b 1cbd 683d f63b
00000270: 6e51 0aba 43ef b43d 4aec 08bc 49c8 973b
00000280: b35c 323d aa9c 1d3c 1bba 5a3c 4736 85bd
00000290: f4f9 563d 388c 733d 3cc9 34bd 91b6 96bd
000002a0: 302f d7bd 36e5 9c3d 2413 9abb e4e7 86b8
000002b0: b7f8 d43d 5e17 70bd 8dcd a0bd fb03 4abc
000002c0: fc94 afbc 2646 0e3e 0cef 203e cca0 723c
000002d0: 4889 99bc 67d6 5fbd bece cebd 5d90 28bd
000002e0: e853 02bd 0b3a b13c 6aac 683d 1c3e f63d
000002f0: c4f6 883d 1f1a 163e 3e73 c63d ac1a ce3a
00000300: 598f 7a3d 54bf 153d 09e1 063e 2f36 3f3d
00000310: 1832 72bb 0dd0 f2bd cfcf 38bd 4a06 90bd
00000320: a26b 803c 1cea aebd 125c 40bd cadb 13bd
00000330: 9b60 06bd c301 9abd 5f5c 4dbe c8d8 a43b
00000340: f6aa 263d 236a cb3b e915 bfbc a054 863c
00000350: 553c 0d3e 1c0d adbd 1c61 77bd 0aa1 87bd
00000360: 52a4 043e a6e9 2bbc 9a1c c63c 33c5 dbbc
00000370: c314 97bd 0ebd c23d 179c b2bd 881f c8bc
00000380: e8d9 1c3c bb9a 71bd b94e a9bd d11f cb3c
00000390: 1e5d 873d 374a 44bd 716b 0c3e ea92 123e
000003a0: dc72 843e c442 b7bd 8fb6 6e3b c19c c33d
000003b0: 1100 033e f4f6 8b3d 4dc8 183e 3373 8c3e
000003c0: 441a e6bc 6ca3 6ebe b9fb 09bb 8b19 00bd
000003d0: 9c39 ff3d d678 2abb 1ebd e9bc a0ef 70bd
000003e0: a441 1bbd 6d06 aa3d 7d06 f3bd 0899 3e3e
000003f0: 6d30 94bd 764d bd3d 13a9 f0bd 55dc 173e

network_body.observation_encoder.processors.1.dense.0.bias f4 [64]
0.10561669 0.04721674 0.04364522 0.0474327 0.006057103 -0.01905504 0.01184798 0.055425227
0.011889221 0.030783668 0.0038693433 0.008582799 0.005273621 0.05085261 0.07220376 0.022882128
0.06832064 0.033103034 0.04976202 0.06950225 0.013397123 0.025124019 -0.033481598 0.008488753
0.04260871 0.03656011 0.015853658 0.05033399 0.06550976 0.015906064 0.040878706 0.016776595
0.03544622 -0.020771554 0.04679983 0.061297357 0.038611334 0.0017008419 0.077213235 0.06948525
0.020443223 0.028536825 0.017644908 -0.01678197 0.025080904 0.063883536 0.02915812 0.02326351
0.0010700163 0.031205602 0.035838064 0.06086472 -0.020193782 0.0030145706 0.048022196 -0.019329296
0.014257117 0.02327547 0.030920792 0.03233659 0.028783292 0.046956316 0.01552895 0.01654555
00000000: 904d d83d 5766 413d 55c5 323d ca48 423d
00000010: aa7a c63b 5119 9cbc 081e 423c 9005 633d
00000020: 02cb 423c 082e fc3c cf94 7d3b de9e 0c3c
00000030: 57ce ac3b d44a 503d 91df 933d 4d73 bb3c
00000040: b1eb 8b3d 0c97 073d 43d3 4b3d 3257 8e3d
00000050: 9b7f 5b3c e3d0 cd3c 0024 09bd 6914 0b3c
00000060: 7886 2e3d 0ec0 153d 88df 813c 042b 4e3d
00000070: fb29 863d 6f4d 823c 6e70 273d 126f 893c
00000080: 0e30 113d 1b29 aabc 2eb1 3f3d f012 7b3d
00000090: eb26 1e3d c9ee de3a f921 9e3d 484e 8e3d
000000a0: 8c78 a73c 0fc6 e93c 0e8c 903c 587a 89bc
000000b0: 7876 cd3c 5fd5 823d 02dd ee3c 1e93 be3c
000000c0: ca3f 8c3a e4a2 ff3c efca 123d 494d 793d
000000d0: 6e6d a5bc 1a90 453b ecb2 443d 7958 9ebc
000000e0: af96 693c 33ac be3c 9a4d fd3c 5f73 043d
000000f0: f0ca eb3c 4455 403d 236d 7e3c 898a 873c

network_body._body_endoder.seq_layers.0.weight f4 [64, 142]
-0.19540817 -0.25563896 0.0680906 -0.06717633 0.08559845 0.11967933 0.13189067 -0.036697604
0.14616774 0.077484004 -0.011434654 -0.029048348 -0.0022246463 -0.09104564 0.046805203 0.0052630217
-0.08336233 -0.051234193 0.18953933 -0.083665125 -0.015922481 -0.009716605 -0.016083566 0.03571454
0.0009546805 0.0014902533 0.016698325 0.10385276 -0.03838769 0.029949028 0.041068844 0.1305504
-0.0046977713 -0.09076808 0.089935556 -0.07061112 0.03444281 0.04009207 0.0291652 -0.07165958
-0.0732802 -0.044646382 0.10176649 0.10644578 0.11565186 -0.058882117 0.07543428 -0.05430545
0.09037264 0.13744348 0.05726903 0.16547357 -0.050326366 -0.06606191 -0.012505516 -0.034588084
0.16454993 0.083977535 0.012351055 -0.025208818 0.030961998 -0.034654584 -0.024825204 0.09707077
-0.17121428 0.10449595 -0.05824383 -0.042266686 0.070819706 -0.027900664 -0.18828802 -0.20394601
0.13980615 -0.036593046 -0.004950911 0.057073593 -0.07996601 0.06610429 0.00414052 -0.14221683
0.19198631 -0.05686455 -0.09174213 -0.21844475 -0.07414686 -0.09540774 -0.025901247 0.0449625
0.21668641 -0.005613276 0.09351442 0.1323089 0.039384432 0.018815158 0.0007499721 0.054033883
-0.11089118 -0.12328432 0.056082014 -0.08726474 0.036801945 0.02902461 -0.17295286 0.034879856
-0.21112226 -0.02750385 -0.2766036 -0.034596484 0.078020856 -0.18373314 0.13931234 0.14441463
0.0930548 -0.0074261473 0.0029461826 0.12117123 -0.009325178 0.08303439 -0.17305401 0.014204584
0.08662435 0.030166576 0.062270086 -0.052201737 0.04373477 -0.0843741 -0.04518389 -0.026032725
0.051261287 -0.060620945 -0.027897796 -0.05823715 -0.08548909 -0.13337417 -0.17257838 0.07364921
0.024312153 -0.011643321 -0.0062446375 0.19825518 0.08910997 -0.25728953 -0.021236133 -0.046924878
0.07998292 0.1277811 -0.21682432 0.19366623 0.045699485 -0.0037323544 -0.08295764 0.050090857
-0.091666974 0.07277607 0.07327281 0.06509239 -0.029604483 -0.09652083 0.0382659 0.036890477
-0.072365314 -0.0034620296 0.13173863 0.06165301 0.1349359 -0.05729896 0.14011186 0.0051012975
-0.010410029 0.11695464 -0.034928314 0.050842103 0.07583789 0.21419953 0.029131928 -0.030077921
-0.03356342 -0.11350783 -0.08734135 0.048099253 -0.029819734 -0.0019371253 0.028319266 0.10968485
0.059979822 -0.07142017 -0.05577575 0.050882988 0.051077772 0.09708859 -0.27788207 -0.016654702
0.13522297 0.120787345 0.059123028 0.03342673 0.02741265 0.02679024 -0.052457564 -0.00043640553
0.03846021 0.08426831 -0.08594983 0.091022305 0.04747621 0.11339815 0.09088417 0.07179118
-0.087639615 -0.043797635 0.053777754 0.22212481 -0.0038248259 0.05211029 0.2316417 -0.1297659
-0.012461706 -0.0125261545 -0.012384647 0.1350989 0.19635263 0.16320674 0.06037022 0.006762407
-0.049192972 -0.054689053 0.022600055 0.29697812 0.005897423 -0.021465896 0.04653092 -0.036402877
-0.14596407 -0.15541221 0.0063521536 -0.12564397 0.1468413 -0.09361894 -0.09985461 -0.061940808
0.010756739 -0.15360893 -0.25938028 0.035386227 0.06720998 -0.09128526 0.1756601 0.007978914
0.019367147 -0.07115513 -0.14992723 0.13462134 0.043641467 -0.1738633 -0.18016484 -0.04281333
00000000: 1419 48be 1ce3 82be 1673 8b3d be93 89bd
00000010: 3d4e af3d 701a f53d 590e 073e 3a50 16bd
00000020: ffac 153e efaf 9e3d 6a58 3bbc cdf6 edbc
00000030: 5fcb 11bb 2376 babd d0b6 3f3d 6d75 ac3b
00000040: dfb9 aabd f2da 51bd 9916 423e 9f58 abbd
00000050: dd6f 82bc 6532 1fbc afc1 83bc 6949 123d
00000060: 8643 7a3a 9a54 c33a edca 883c c1b0 d43d
00000070: 693c 1dbd aa57 f53c ce37 283d 01af 053e
00000080: c3ef 99bb 9de4 b9bd 2230 b83d 909c 90bd
00000090: e713 0d3d 9537 243d dceb ee3c 42c2 92bd
000000a0: ee13 96bd 20df 36bd f36a d03d 3f00 da3d
000000b0: e2da ec3d 602e 71bd 4a7d 9a3d 646f 5ebd
000000c0: 4a15 b93d fcbd 0c3e ee92 6a3d e771 293e
000000d0: 0523 4ebd 774b 87bd f0e3 4cbc 3cac 0dbd
000000e0: c77f 283e 6afc ab3d 145c 4a3c b982 cebc
000000f0: 04a4 fd3c f7f1 0dbd 3a5e cbbc 0acd c63d
00000100: cc52 2fbe f901 d63d 1591 6ebd d51f 2dbd
00000110: ec09 913d ef8f e4bc 93ce 40be 39d7 50be
00000120: 5829 0f3e 97e2 15bd 403b a2bb 00c6 693d
00000130: 38c5 a3bd b061 873d 33ad 873b 4aa1 11be
00000140: 0f98 443e cdea 68bd 4ce3 bbbd fbaf 5fbe
00000150: 4fda 97bd 2265 c3bd da2e d4bc 992a 383d
00000160: 0be3 5d3e 92ef b7bb 7d84 bf3d fc7b 073e
00000170: 9251 213d 3f22 9a3c c799 443a a252 5d3d
00000180: ea1a e3bd 7d7c fcbd 41b6 653d dbb7 b2bd
00000190: a3bd 163d 05c5 ed3c 8e1a 31be 2ede 0e3d
000001a0: 6f30 58be c14f e1bc fd9e 8dbe 0bb5 0dbd
000001b0: 66c9 9f3d 8a24 3cbe e5a7 0e3e 6ee1 133e
000001c0: 8493 be3d 0a57 f3bb be14 413b 9f28 f83d
000001d0: a2c8 18bc ef0d aa3d 1235 31be 58ba 683c
000001e0: 1b68 b13d e51f f73c eb0e 7f3d 7dd1 55bd
000001f0: 3b23 333d 54cc acbd be12 39bd 9542 d5bc
00000200: 5bf7 513d ab4d 78bd eb89 e4bc 148a 6ebd
00000210: e714 afbd 3d93 08be 63b8 30be 66d5 963d
00000220: 482a c73c a1c3 3ebc d19f ccbb 6803 4b3e
00000230: 4a7f b63d 74bb 83be 66f7 adbc 4d34 40bd
00000240: 16ce a33d 0cd9 023e 3207 5ebe 7150 463e
00000250: 622f 3b3d 849a 74bb b2e5 a9bd 122c 4d3d
00000260: e5bb bbbd 9f0b 953d 0e10 963d 294f 853d
00000270: 1a85 f2bc b7ac c5bd b4bc 1c3d 781a 173d
00000280: 4434 94bd 38e3 62bb 7ee6 063e de87 7c3d
00000290: a32c 0a3e 50b2 6abd 7c79 0f3e c928 a73b
000002a0: d48e 2abc ea85 ef3d fe10 0fbd cf3f 503d
000002b0: e550 9b3d 1f57 5b3e 15a6 ee3c f965 f6bc
000002c0: cc79 09bd cb76 e8bd 06e0 b2bd b903 453d
000002d0: 8448 f4bc 24e7 fdba cefd e73c 73a2 e03d
000002e0: 67ad 753d bd44 92bd 1d75 64bd ae6a 503d
000002f0: ed36 513d 62d6 c63d 8f46 8ebe 716f 88bc
00000300: e477 0a3e 5b5f f73d fd2a 723d 78ea 083d
00000310: 7e90 e03c 3577 db3c bedd 56bd 5ccd e4b9
00000320: 7488 1d3d dd94 ac3d 7706 b0bd e769 ba3d
00000330: 6a76 423d 4a3d e83d 7b21 ba3d 4107 933d
00000340: 667c b3bd 2665 33bd 1046 5c3d b074 633e
00000350: eea9 7abb 9971 553d 7b33 6d3e 5ae1 04be
00000360: 2f2c 4cbc 803a 4dbc f9e8 4abc 5e57 0a3e
00000370: aa10 493e ab1f 273e c446 773d 2e97 dd3b
00000380: 927e 49bd a101 60bd c023 b93c 840d 983e
00000390: 2b3f c13b 3fd9 afbc 3597 3e3d 2f1b 15bd
000003a0: 9b77 15be 6124 1fbe ba25 d03b d0a8 00be
000003b0: 915d 163e 49bb bfbd 9380 ccbd a5b5 7dbd
000003c0: 093d 303c a94b 1dbe 7ecd 84be 26f1 103d
000003d0: 63a5 893d c4f3 babd 3ee0 333e feb9 023c
000003e0: daa7 9e3c c8b9 91bd 8686 19be 2dda 093e
000003f0: 65c1 323d 3909 32be 227d 38be 085d 2fbd

network_body._body_endoder.seq_layers.0.bias f4 [64]
0.02583863 0.016684026 0.021818642 0.027868189 0.0674186 -0.01592116 0.059270132 0.06956163
0.015472637 0.011524563 -0.012084425 0.042847447 -0.007512129 0.02819668 0.005424229 0.0259102
0.035579074 0.024298508 0.016953293 0.046103068 0.022940638 0.00016106121 0.016387518 0.033456687
0.011672636 0.05476978 -0.019254358 0.030953491 -0.016479228 0.045121215 -0.009730779 0.021424424
0.028752545 0.055758685 -0.008489571 0.003614668 0.01088335 0.034731016 0.024674324 0.00020178648
0.03865205 0.07591612 0.023584578 0.02613633 0.05841134 0.008475716 0.046351407 0.0012558328
0.008684486 -0.009849409 0.08697798 -0.014889856 0.0013695176 0.023402572 0.014468292 0.022217944
0.012798015 -0.067011945 0.030427452 0.0585469 0.03205328 0.026191715 0.058755774 0.042192668
00000000: 89ab d33c f0ac 883c 02bd b23c d44b e43c
00000010: c312 8a3d 186d 82bc 3dc5 723d 5476 8e3d
00000020: f180 7d3c 85d1 3c3c c1fd 45bc ce80 2f3d
00000030: 4e28 f6bb b9fc e63c bbbd b13b a141 d43c
00000040: 5dbb 113d aa0d c73c a2e1 8a3c 92d6 3c3d
00000050: 01ee bb3c 8ae2 2839 1e3f 863c e109 093d
00000060: 953e 3f3c 4756 603d 51bb 9dbc 2d92 fd3c
00000070: 72ff 86bc 06d1 383d d86d 1fbc 4682 af3c
00000080: 758a eb3c 3863 643d d717 0bbc 11e4 6c3b
00000090: 1450 323c 1c42 0e3d cf21 ca3c a596 5339
000000a0: 9d51 1e3d e979 9b3d 7234 c13c db1b d63c
000000b0: bb40 6f3d bbdd 0a3c f9da 3d3d c29a a43a
000000c0: 6049 0e3c 6a5f 21bc 8321 b23d 95f4 73bc
000000d0: 6381 b33a c0b6 bf3c 6a0c 6d3c 6802 b63c
000000e0: c4ae 513c 8f3d 89bd fe42 f93c e0ce 6f3d
000000f0: 4d4a 033d 0290 d63c e5a9 703d 38d2 2c3d

network_body._body_endoder.seq_layers.2.weight f4 [64, 64]
0.12398077 -0.05989442 -0.08270057 -0.22766541 -0.101461545 -0.12751085 0.27822787 -0.12453687
-0.13152577 -0.07568968 -0.17528163 0.17266215 -0.19684106 0.050085172 -0.12116162 0.0723532
0.13315119 -0.191772 -0.11342096 -0.2602564 0.18492502 0.09904161 -0.35922018 0.061569583
-0.0019584717 -0.034201715 0.052651614 0.07163719 0.09654279 -0.0011399455 0.27475828 0.25858217
0.056210544 0.11318299 0.119089276 -0.2474937 0.103967085 0.11855177 0.09849157 -0.14340554
0.06064335 0.096399665 -0.11612733 0.11853318 -0.025098186 -0.012044894 0.22482748 -0.20881596
-0.35823178 -0.055544753 0.13445523 -0.07144775 0.09605858 0.056101426 -0.09624681 -0.25832412
0.08510568 -0.20959505 -0.108670056 -0.013191272 0.23640288 -0.14334351 0.18465492 -0.008258689
-0.17161989 0.09344066 -0.13902122 -0.018535282 0.15161304 0.34105483 0.109448634 0.015049775
0.32716638 -0.20407575 -0.07594178 0.04849803 -0.0023568235 0.00094736734 -0.07258957 -0.13404079
0.045558933 -0.20677003 0.08330639 0.044224665 0.07846562 -0.29683143 0.33989948 -0.08290842
-0.024608126 0.008747401 0.117503114 0.070933715 -0.053163595 0.11246675 -0.29612604 -0.23689798
0.09715504 0.005115933 0.16679351 0.044210203 0.1749758 0.074359335 -0.15513694 -0.3252296
-0.26521266 -0.017519083 0.09375128 -0.24625178 -0.3035925 -0.02258052 0.07648802 -0.024094282
-0.061603088 -0.20548151 0.014403876 -0.10945998 -0.1322417 0.26307738 -0.1674364 -0.0199768
-0.2670902 0.061445836 -0.18722224 0.24755156 0.27769482 0.12229146 -0.11377668 0.1805624
-0.14359766 -0.052171983 0.04764398 -0.17073116 -0.059815023 -0.16791146 0.12808673 0.07402046
-0.11903703 0.08319182 -0.120919734 0.12338915 -0.1845782 -0.26094663 -0.14200129 0.24069318
0.023618396 -0.202092 -0.08269286 -0.32553145 -0.04643474 -0.050677102 0.05499334 0.1354721
0.10120742 -0.3117317 0.018484496 -0.11200802 0.13368814 0.09737379 0.09731599 -0.046374254
0.17714593 0.08098516 0.17891514 0.0761667 -0.19898911 0.10890767 0.03192288 0.10762085
0.32276925 -0.14444037 -0.17497422 -0.044688232 0.09445278 0.16665037 0.0026212833 0.050786134
-0.05263086 0.35439408 -0.14095807 0.2643365 0.12849997 0.07974736 0.022128252 0.1799976
0.04621666 0.3099076 -0.23982038 -0.02495193 0.3603813 -0.14241306 -0.1074463 0.10369263
0.21117611 -0.027384177 0.1011337 -0.39405814 0.10368694 -0.0857197 -0.050355703 0.058228206
0.05411003 -0.06348245 -0.08388405 0.058788415 -0.093890265 -0.100991294 -0.04056409 -0.1879956
-0.10249538 -0.057047386 0.1934968 -0.0793656 0.00836514 -0.047457073 0.03995369 -0.022237875
0.115167156 0.054519854 0.0061861794 0.03506005 0.054778777 -0.015895728 -0.043600246 0.107704565
0.0049627596 0.05018007 0.17887421 0.0070402888 0.048974708 -0.17972244 -0.25569856 -0.21221936
0.13586488 0.037218053 -0.0051862914 0.21208839 -0.20347783 0.1263753 -0.2486336 -0.082187854
-0.2830744 -0.089238785 -0.10449996 0.15352075 -0.011569543 -0.027223654 -0.0012649032 -0.032461926
-0.111243956 -0.09528058 0.032254267 -0.13268709 -0.010214762 -0.13834713 -0.13996047 0.23954122
00000000: a1e9 fd3d da53 75bd eb5e a9bd 1f21 69be
00000010: 12cb cfbd 3492 02be e273 8e3e 300d ffbd
00000020: b1ae 06be 3103 9bbd 077d 33be 59ce 303e
00000030: b490 49be 1c26 4d3d 9523 f8bd ea2d 943d
00000040: c958 083e e15f 44be 4049 e8bd 5440 85be
00000050: fc5c 3d3e 54d6 ca3d b5eb b7be 6330 7c3d
00000060: b459 00bb 1917 0cbd 38a9 573d 85b6 923d
00000070: 3ab8 c53d 396a 95ba 1ead 8c3e e264 843e
00000080: 073d 663d 7ccc e73d 14e5 f33d fd6e 7dbe
00000090: b2ec d43d 45cb f23d f3b5 c93d e7d8 12be
000000a0: 2965 783d 306d c53d 2ad4 edbd 86c1 f23d
000000b0: b69a cdbc f257 45bc 2d39 663e dad3 55be
000000c0: 286a b7be e582 63bd a2ae 093e 3353 92bd
000000d0: 5cba c43d 9cca 653d 0c1d c5bd 0f43 84be
000000e0: e34b ae3d 16a0 56be 688e debd 3420 58bc
000000f0: 9913 723e a4c8 12be 2e16 3d3e 744f 07bc
00000100: 20bd 2fbe d15d bf3d 945b 0ebe 4ed7 97bc
00000110: 7340 1b3e bd9e ae3e 9b26 e03d 5593 763c
00000120: 5a82 a73e 3cf9 50be 5d87 9bbd dfa5 463d
00000130: f074 1abb bf58 783a d7a9 94bd fd41 09be
00000140: 019c 3a3d 86bb 53be 8a9c aa3d ec24 353d
00000150: 95b2 a03d 4afa 97be 4e07 ae3e e4cb a9bd
00000160: fb96 c9bc 4251 0f3c 79a5 f03d b245 913d
00000170: 12c2 59bd f854 e63d d59d 97be 6295 72be
00000180: 39f9 c63d 8ea3 a73b ebcb 2a3e c215 353d
00000190: db2c 333e b549 983d 38dc 1ebe 7e84 a6be
000001a0: f4c9 87be 2e84 8fbc ac00 c03d 6d29 7cbe
000001b0: 7a70 9bbe c8fa b8bc c0a5 9c3d 5f61 c5bc
000001c0: 8553 7cbd bf69 52be 3cfe 6b3c 8e2c e0bd
000001d0: 5e6a 07be 14b2 863e 7374 2bbe 63a6 a3bc
000001e0: 0cc0 88be a1ae 7b3d 30b7 3fbe 287e 7d3e
000001f0: 042e 8e3e f273 fa3d bf03 e9bd 5ae5 383e
00000200: 440b 13be 4ab2 55bd 5526 433d 26d4 2ebe
00000210: 9900 75bd fbf0 2bbe 2b29 033e 0a98 973d
00000220: b0c9 f3bd 7960 aa3d c4a4 f7bd 73b3 fc3d
00000230: 1102 3dbe cc9a 85be c968 11be 4678 763e
00000240: 5e7b c13c 35f1 4ebe e05a a9bd 0fac a6be
00000250: 5b32 3ebd cb92 4fbd b240 613d 33b9 0a3e
00000260: d645 cf3d 4c9b 9fbe cc6c 973c 7664 e5bd
00000270: 8be5 083e e96b c73d 9b4d c73d eef2 3dbd
00000280: be65 353e 8cdb a53d 8835 373e 49fd 9b3d
00000290: cdc3 4bbe fc0a df3d 91c1 023d 5268 dc3d
000002a0: 0342 a53e 2de8 13be 712c 33be 020b 37bd
000002b0: 7670 c13d 65a6 2a3e d6c9 2b3b 1f05 503d
000002c0: 7593 57bd 2473 b53e 5057 10be 1d57 873e
000002d0: 7f95 033e 9552 a33d 4f46 b53c 4a51 383e
000002e0: ae4d 3d3d 35ac 9e3e 7993 75be fd67 ccbc
000002f0: e683 b83e bbd4 11be ce0c dcbd cd5c d43d
00000300: 8d3e 583e c854 e0bc 2f1f cf3d fdc1 c9be
00000310: d259 d43d cf8d afbd c841 4ebd b380 6e3d
00000320: 7ba2 5d3d 1603 82bd 67cb abbd 1fcc 703d
00000330: 8a49 c0bd 86d4 cebd 8826 26bd eb81 40be
00000340: 19e9 d1bd 85aa 69bd 0624 463e 6f8a a2bd
00000350: f10d 093c 5962 42bd 7ba6 233d 342c b6bc
00000360: c2dc eb3d 3650 5f3d 6fb5 ca3b 219b 0f3d
00000370: b65f 603d c237 82bc 2c96 32bd 3694 dc3d
00000380: a59e a23b 9e89 4d3d cd2a 373e 39b2 e63b
00000390: b499 483d 2909 38be ecea 82be 0850 59be
000003a0: 2a20 0b3e f571 183d c4f1 a9bb b32d 593e
000003b0: 7e5c 50be 8768 013e ce99 7ebe 1b52 a8bd
000003c0: 21ef 90be d3c2 b6bd 1304 d6bd 8b34 1d3e
000003d0: 2e8e 3dbc 2404 dfbc 1ccb a5ba ccf6 04bd
000003e0: dfd3 e3bd 7722 c3bd 0d1d 043d 20df 07be
000003f0: d15b 27bc dfaa 0dbe cc51 0fbe 4b4a 753e

network_body._body_endoder.seq_layers.2.bias f4 [64]
0.08177424 0.035048217 0.042655203 -0.0062251403 0.024181908 0.07005737 0.031011282 0.017627554
-0.061906215 0.06897248 0.028420594 -0.045992203 0.06953629 0.012398875 0.00769205 0.007278478
0.051393617 0.00800249 0.033399053 0.017835313 0.06940572 0.010589271 0.04096684 0.023524467
-0.026744612 0.111711636 0.03026624 0.057590455 0.062239848 0.057834655 0.071291395 -0.003887643
-0.026361939 0.07459965 0.020035978 0.0075101336 0.07235434 0.025813332 -0.004597342 0.0060392106
0.0322246 0.025757527 -0.012218467 0.048728254 0.06750028 0.0589043 0.059619077 0.019869534
-0.113135725 0.026438039 0.0226884 0.028552517 0.116739094 0.06514122 0.02234164 0.04680533
0.047649547 0.019781804 -0.034028146 0.024345202 0.06182776 0.026992949 0.013494119 0.0035338234
00000000: 4179 a73d b88e 0f3d 39b7 2e3d 43fc cbbb
00000010: 2319 c63c 3d7a 8f3d 5f0b fe3c a967 903c
00000020: 5f91 7dbd 7241 8d3d 4ed2 e83c 5262 3cbd
00000030: 0b69 8e3d a724 4b3c 980d fc3b 4c80 ee3b
00000040: 1d82 523d e01c 033c 72cd 083d 5d1b 923c
00000050: 9624 8e3d 9f7e 2d3c d8cc 273d 62b6 c03c
00000060: 8417 dbbc 12c9 e43d e8f0 f73c f8e3 6b3d
00000070: 36ef 7e3d 08e4 6c3d 3901 923d d4c7 7ebb
00000080: fef4 d7bc b4c7 983d 7e22 a43c 9117 f63b
00000090: 832e 943d 7b76 d33c 4da5 96bb 92e4 c53b
000000a0: f1fd 033d 7301 d33c f72f 48bc 4797 473d
000000b0: 963d 8a3d a345 713d 2233 743d 6fc5 a23c
000000c0: b4b3 e7bd 9694 d83c 06dd b93c f8e6 e93c
000000d0: e814 ef3d c368 853d d105 b73c f2b6 3f3d
000000e0: 2c2c 433d 730d a23c 1961 0bbd 976f c73c
000000f0: 1b3f 7d3d 5120 dd3c 7016 5d3c b897 673b

action_model._continuous_distribution.log_sigma f4 [1, 2]
0.1920787 0.036555305
00000000: 47b0 443e 04bb 153d

action_model._continuous_distribution.mu.weight f4 [2, 64]
-0.16276066 0.07501973 -0.036512535 0.0731748 0.06724421 -0.1158252 -0.026804052 -0.05194614
0.033195447 0.0894975 -0.07512861 0.009785154 -0.0075428467 0.0394498 0.06941256 0.037366472
0.12195475 -0.0009430387 -0.028878083 -0.032658838 0.033822358 0.053048674 -0.04662501 -0.027754959
0.04269013 -0.109631985 0.10463364 -0.10293731 0.033481676 0.0040075164 -0.10125863 0.019471513
-0.02362184 -0.008665828 0.044805046 0.057309944 0.08685384 -0.0135099385 0.0043324702 0.10421026
0.051278077 0.036457986 0.06294607 -0.10620208 0.022650251 -0.09985987 -0.004970681 -0.085982636
0.030548075 0.035097394 -0.037898596 0.028750287 -0.045447502 0.10535364 0.03935696 0.08720866
-0.10792502 0.005092363 0.0008655667 -0.014509172 0.07742579 -0.018086381 0.08741892 0.024937205
-0.039147068 0.04098439 -0.055690356 0.0042440994 -0.16249947 0.031824645 0.09069784 -0.12895346
-0.041676387 0.08060162 0.019853493 -0.08004208 0.10686199 0.0800647 0.017447079 0.038680084
-0.1148776 -0.026297348 0.016679997 0.04735051 0.059425056 -0.082703 -0.10065886 -0.10190487
-0.0017255313 0.1034367 -0.003931948 -0.03040146 0.114075 0.054018144 0.09443916 0.012718785
-0.015746374 0.04835843 0.025608148 -0.020752374 -0.16523932 0.09575063 0.055603582 0.027715767
0.01052073 0.09499063 -0.002359517 0.04622304 0.058867544 0.06857425 0.062886685 -0.020890092
-0.015011046 0.090630956 0.053174224 0.0018944837 0.12403491 -0.010261055 0.0455101 -0.12129563
-0.08426488 0.036688294 0.05030889 -0.020297455 0.043763645 0.08544621 -0.11949356 -0.09891333
00000000: bbaa 26be f2a3 993d 2b8e 15bd abdc 953d
00000010: 55b7 893d c335 edbd 2c94 dbbc 7ac5 54bd
00000020: f3f7 073d 774a b73d 07dd 99bd e951 203c
00000030: fc29 f7bb 1d96 213d 2c28 8e3d 960d 193d
00000040: 69c3 f93d 4236 77ba bb91 ecbc 46c5 05bd
00000050: 5089 0a3d 9149 593d def9 3ebd 5e5e e3bc
00000060: d9db 2e3d bc86 e0bd 294a d63d ccd0 d2bd
00000070: 1524 093d 7c51 833b af60 cfbd b982 9f3c
00000080: 9782 c1bc 1efb 0dbc 7f85 373d d5bd 6a3d
00000090: 6de0 b13d ca58 5dbc 65f7 8d3b 306c d53d
000000a0: f608 523d f854 153d dfe9 803d 7a80 d9bd
000000b0: 058d b93c 5583 ccbd 18e1 a2bb aa17 b0bd
000000c0: f53f fa3c 49c2 0f3d 8f3b 1bbd b985 eb3c
000000d0: 2927 3abd a6c3 d73d c434 213d 749a b23d
000000e0: cb07 ddbd d6dd a63b 33e7 623a e1b7 6dbc
000000f0: 6a91 9e3d e429 94bc b108 b33d 1c49 cc3c
00000100: ad58 20bd 3fdf 273d 921b 64bd 1612 8b3b
00000110: 4366 26be 8f5a 023d cabf b93d 600c 04be
00000120: dcb4 2abd 7612 a53d cba3 a23c 1aed a3bd
00000130: 76da da3d f6f8 a33d 2ded 8e3c 026f 1e3d
00000140: f244 ebbd 896d d7bc 7da4 883c 9cf2 413d
00000150: b067 733d 3160 a9bd 3b26 cebd 80b3 d0bd
00000160: 392b e2ba 9fd6 d33d 92d7 80bb 7c0c f9bc
00000170: 27a0 e93d 2142 5d3d 5169 c13d 7362 503c
00000180: 8afe 80bc 7d13 463d 2ec8 d13c e200 aabc
00000190: 7f34 29be e818 c43d 95c0 633d 2d0c e33c
000001a0: 245f 2c3c 738a c23d 20a2 1abb 5f54 3d3d
000001b0: 181f 713d a870 8c3d bcca 803d b321 abbc
000001c0: e4f0 75bc b99c b93d 37cd 593d 5350 f83a
000001d0: 0406 fe3d fc1d 28bc cc68 3a3d d869 f8bd
000001e0: 1193 acbd 7746 163d b210 4e3d d946 a6bc
000001f0: 8241 333d 6cfe ae3d 0ab9 f4bd 1293 cabd

action_model._continuous_distribution.mu.bias f4 [2]
-0.029744063 -0.00047445716
00000000: d2a9 f3bc 90c0 f8b9

action_model._discrete_distribution.branches.0.weight f4 [3, 64]
-0.012962177 0.052677136 0.071207434 -0.11158484 -0.022110444 0.057024024 -0.06836516 0.039326433
-0.04540375 0.16651815 0.15919308 -0.12413028 -0.14076918 0.01197927 -0.015445403 0.12018914
0.06152301 -0.029193563 0.011856827 0.051133495 0.0033571469 0.02991937 -0.011030611 -0.04969305
0.04202135 -0.04913954 0.013209871 0.023280192 0.06926969 -0.08223942 0.027564919 -0.044806585
-0.011846285 -0.059576966 -0.07125301 -0.0008515198 0.04102768 -0.12602754 -0.049108032 0.039469983
0.06403484 -0.02924428 -0.1269341 0.089626715 0.052016735 0.07946764 0.035787053 0.004477059
-0.059025798 -0.021451002 0.03301447 0.103269346 -0.06481179 0.04243911 -0.041700203 -0.06611557
0.017713068 -0.09962881 -0.031066906 -0.18228859 0.0086080665 0.032004215 0.0062561044 -0.043567702
0.011925726 -0.045296926 -0.13483758 0.074835666 0.04202188 -0.06448928 0.13020377 -0.12788935
0.04931594 -0.23351991 0.01701507 0.0695699 0.048684068 0.014184212 0.022239428 -0.101338185
-0.027549265 0.03521666 -0.24899597 -0.12495219 0.021634167 -0.074071504 0.110797696 -0.14336364
-0.080446914 0.023500657 -0.033504352 0.08746131 0.03620705 0.21238746 -0.0021425623 -0.07960435
0.054500174 0.17077388 0.19671975 -0.07244166 0.054859098 0.16883582 -0.021028308 -0.08701989
-0.11571778 0.07703076 -0.089093305 -0.06601683 0.056191582 -0.03612791 -0.08168995 -0.06423013
0.034668718 0.0368235 -0.029522387 -0.14130242 -0.026957344 0.019536944 -0.083933875 -0.06532524
0.01659765 0.20745459 -0.030572772 0.06810054 0.112185724 0.033042867 0.08417102 -0.16648465
0.028004719 0.03194453 0.049613215 0.03913317 -0.037300184 0.03874198 -0.12518087 0.086459905
0.009344662 0.032808293 -0.21497671 0.06672969 0.15466885 -0.013324217 -0.06389534 -0.096165136
-0.054955438 -0.0035226473 0.19825225 0.043495018 -0.029468283 -0.011762146 -0.089392975 0.15335235
0.07437698 0.006420793 0.00076146726 -0.119101636 -0.15978697 -0.19881894 0.0014083422 0.17295282
-0.050689593 -0.17775041 -0.13661577 0.060581345 -0.11055752 -0.037259422 0.07533384 0.059749506
0.03230822 -0.04027425 0.2027287 -0.031377617 -0.12750816 -0.06787384 0.06721518 0.07679933
0.036359657 -0.067407236 -0.04983796 -0.034125607 0.10828575 -0.07330235 0.08434346 0.14787343
-0.051787294 -0.14878316 0.09469787 0.093912706 -0.14052519 -0.086447105 -0.1310338 0.17898585
00000000: 505f 54bc fbc3 573d 34d5 913d 9886 e4bd
00000010: f620 b5bc 0692 693d 0803 8cbd c114 213d
00000020: 48f9 39bd bc83 2a3e 8303 233e 0438 febd
00000030: cc25 10be b344 443c b70e 7dbc b925 f63d
00000040: 8dff 7b3d 5727 efbc 2343 423c 5b71 513d
00000050: 9403 5c3b 7719 f53c bcb9 34bc f18a 4bbd
00000060: 941e 2c3d 8b46 49bd 376e 583c 1ab6 be3c
00000070: 44dd 8d3d 246d a8bd d3cf e13c 1c87 37bd
00000080: ec16 42bc fa06 74bd 19ed 91bd 8738 5fba
00000090: a40c 283d 5d0d 01be 8125 49bd 47ab 213d
000000a0: b324 833d b391 efbc 03fb 01be 368e b73d
000000b0: 800f 553d eebf a23d 7295 123d 4bb4 923b
000000c0: 09c5 71bd 03ba afbc 2e3a 073d e17e d33d
000000d0: 0bbc 84bd a2d4 2d3d d5cd 2abd 9a67 87bd
000000e0: ff1a 913c 310a ccbd 0680 febc dca9 3abe
000000f0: d908 0d3c da16 033d 0200 cd3b 0c74 32bd
00000100: 1f64 433c 4589 39bd dd12 0abe 7143 993d
00000110: 231f 2c3d f512 84bd 2354 053e 6df5 02be
00000120: 83ff 493d d81f 6fbe 3063 8b3c aa7a 8e3d
00000130: f268 473d e664 683c 762f b63c 658a cfbd
00000140: ffae e1bc 583f 103d cdf8 7ebe efe6 ffbd
00000150: 233a b13c cdb2 97bd e7e9 e23d ebcd 12be
00000160: 5ac1 a4bd 7384 c03c dc3b 09bd ea1e b33d
00000170: d84d 143d 197c 593e 3b6a 0cbb 9b07 a3bd
00000180: 933b 5f3d 59df 2e3e e770 493e 4b5c 94bd
00000190: efb3 603d 4ce3 2c3e 8f43 acbc 7c37 b2bd
000001a0: 72fd ecbd 4ec2 9d3d 8d76 b6bd d533 87bd
000001b0: 2529 663d dcfa 13bd 0f4d a7bd 168b 83bd
000001c0: c900 0e3d 3dd4 163d efd8 f1bc 95b1 10be
000001d0: a6d5 dcbc f10b a03c 86e5 abbd 3dc9 85bd
000001e0: cbf7 873c fa6e 543e c073 fabc 4c78 8b3d
000001f0: a1c1 e53d f557 073d db61 ac3d f47a 2abe
00000200: 276a e53c 44d8 023d 3a37 4b3d 1a4a 203d
00000210: 14c8 18bd e9af 1e3d 6a2f 00be e411 b13d
00000220: 5a1a 193c fd61 063d db22 5cbe 93a9 883d
00000230: 8361 1e3e d14d 5abc 8fdb 82bd 3af2 c4bd
00000240: f418 61bd 37dc 66bb a302 4b3e d527 323d
00000250: 7867 f1bc 04b6 40bc aa13 b7bd 6608 1d3e
00000260: f552 983d 8465 d23b 349d 473a 8feb f3bd
00000270: 329f 23be 3197 4bbe 1f98 b83a 8b1a 313e
00000280: e49f 4fbd 3404 36be 01e5 0bbe 2524 783d
00000290: fb6b e2bd 569d 18bd a148 9a3d e6bb 743d
000002a0: a055 043d 9df6 24bd 1d98 4f3e d185 00bd
000002b0: 8091 02be 7101 8bbd 1da8 893d f848 9d3d
000002c0: dded 143d ce0c 8abd e422 4cbd 4bc7 0bbd
000002d0: ebc4 dd3d 8b1f 96bd 44bc ac3d 226c 173e
000002e0: ea1e 54bd 9d5a 18be f5f0 c13d 4e55 c03d
000002f0: d6e5 0fbe 2e0b b1bd b92d 06be 1148 373e

action_model._discrete_distribution.branches.0.bias f4 [3]
0.050522774 -0.025413472 -0.033977814
00000000: f8f0 4e3d ea2f d0bc 522c 0bbd

action_model._discrete_distribution.branches.1.weight f4 [3, 64]
-0.044010546 -0.08955952 0.040989682 0.06889568 0.023420628 -0.025130704 0.043553106 0.08447875
-0.042756677 0.048581626 0.025374547 -0.020516109 -0.026947156 0.041794714 0.06692716 -0.025832625
-0.024686184 0.013570104 -0.008604388 0.028105376 0.05033095 -0.061739214 -0.06360432 0.055181436
0.03270957 -0.00041368988 -0.018185217 0.063258745 0.077185355 0.030165669 -0.01661916 0.022653135
0.042260956 0.086363316 -0.0034516337 0.040910292 -0.05024536 -0.0610864 0.061594073 -0.014581374
0.013809597 0.119128294 0.05468544 -0.034845002 0.073401265 -0.05473895 0.067793936 0.0742114
-0.093006074 0.046574533 -0.02706277 0.0747359 0.058124565 -0.13702409 -0.0154951755 -0.032381788
-0.074166305 0.0788839 0.021413641 -0.056014296 0.0027875795 -0.10326901 0.0745576 0.03079124
0.13431211 0.18920366 -0.064042136 -0.050831065 -0.027846636 -0.064054206 0.042099882 -0.07444774
0.06506275 0.0816 -0.09796396 0.095769174 -0.014148377 0.013239802 -0.02434169 0.004114658
-0.02931596 -0.0010198731 -0.20732647 -0.13476072 0.07847339 0.0909925 -0.02586499 -0.1126524
-0.06074898 0.054839328 0.009711815 -0.07260798 0.019315308 -0.2523489 -0.07517555 -0.17802107
-0.09705036 -0.26556727 0.06570202 0.020701086 0.02373604 -0.1634513 -0.017055573 0.0076177656
0.019815665 -0.063069224 -0.031679306 0.017544013 0.08719286 -0.03721371 0.021861728 -0.05285067
0.037852068 0.005735394 0.050570063 -0.03925871 0.07363377 0.13987185 0.059914935 0.16656448
0.08503929 -0.115717195 -0.117476694 0.12231116 0.14660156 -0.25299487 -0.0329478 0.073225714
-0.034618918 -0.1084108 -0.009746948 -0.027140373 0.022112262 0.07402967 -0.11241857 -0.03795651
0.029427817 -0.19950028 0.05260441 -0.04434232 0.09219552 -0.037948456 -0.054394715 0.028224947
0.050735552 0.010926486 0.13184288 0.06400157 -0.19128004 -0.017380029 0.11122861 0.033747952
-0.016343167 -0.030902974 0.054128714 0.007516093 -0.13293047 0.14368726 0.08480322 0.098509185
0.07203431 0.091291696 -0.059031986 -0.058097918 0.0068793995 0.15521277 -0.07952538 0.042053387
-0.03774629 -0.059650764 -0.014358698 0.021458125 -0.2046637 0.053989504 -0.110654086 -0.020955162
0.048418645 -0.14400479 -0.007533213 -0.05614256 -0.089458205 0.029688383 -0.014565234 -0.2297016
-0.0142101655 0.04299625 0.06087511 -0.066801555 -0.27105832 0.22026819 -0.016287126 -0.08932532
00000000: 6744 34bd fb6a b7bd cce4 273d 2e19 8d3d
00000010: 9edc bf3c e8de cdbc be64 323d 3203 ad3d
00000020: a021 2fbd 87fd 463d 48de cf3c 6611 a8bc
00000030: 48c0 dcbc ef30 2b3d 1b11 893d f19e d3bc
00000040: ae3a cabc 2455 5e3c 6bf9 0cbc 3f3d e63c
00000050: d427 4e3d 42e2 7cbd fb42 82bd ee05 623d
00000060: 78fa 053d 84e4 d8b9 2af9 94bc cd8d 813d
00000070: 5b13 9e3d fe1d f73c e824 88bc 1193 b93c
00000080: d319 2d3d 40df b03d ce34 62bb 8d91 273d
00000090: 14ce 4dbd bc35 7abd 114a 7c3d b7e6 6ebc
000000a0: a641 623c 89f9 f33d d7fd 5f3d a2b9 0ebd
000000b0: 6753 963d f335 60bd 8cd7 8a3d 25fc 973d
000000c0: f879 bebd f0c4 3e3d beb2 ddbc 230f 993d
000000d0: 0614 6e3d 0b50 0cbe 7adf 7dbc c4a2 04bd
000000e0: 81e4 97bd e28d a13d a96b af3c 3f6f 65bd
000000f0: d3af 363b b47e d3bd a8b1 983d e93d fc3c
00000100: 1d89 093e 9bbe 413e 8628 83bd 3c34 50bd
00000110: a11e e4bc da2e 83bd ed70 2c3d 0f78 98bd
00000120: 9e3f 853d e71d a73d 54a1 c8bd a122 c43d
00000130: 98ce 67bc c1eb 583c 3968 c7bc 41d4 863b
00000140: 0628 f0bc 43ad 85ba 644d 54be b7fe 09be
00000150: a8b6 a03d 475a ba3d d1e2 d3bc 4db6 e6bd
00000160: ecd3 78bd 349f 603d 4e1e 1f3c 7eb3 94bd
00000170: 233b 9e3c e033 81be a4f5 99bd 284b 36be
00000180: 57c2 c6bd 6ff8 87be c88e 863d 5395 a93c
00000190: 1572 c23c c75f 27be 21b8 8bbc 739e f93b
000001a0: 7654 a23c 702a 81bd 29c2 01bd 76b8 8f3c
000001b0: 2c92 b23d 676d 18bd 5e17 b33c f279 58bd
000001c0: c50a 1b3d f9ef bb3b 8e22 4f3d becd 20bd
000001d0: 4dcd 963d 913a 0f3e 5d69 753d e18f 2a3e
000001e0: 1429 ae3d 23fd ecbd 9f97 f0bd 467e fa3d
000001f0: b81e 163e 8b88 81be 46f4 06bd 5df7 953d
00000200: 91cc 0dbd 7b06 debd aab1 1fbc 7d55 debc
00000210: c624 b53c de9c 973d b53b e6bd 4978 1bbd
00000220: 9b12 f13c cd49 4cbe b977 573d 4ba0 35bd
00000230: 01d1 bc3d d76f 1bbd fecc 5ebd 0138 e73c
00000240: 15d0 4f3d 0105 333c d201 073e 4113 833d
00000250: eade 43be 9060 8ebc d3cb e33d 4b3b 0a3d
00000260: 1be2 85bc 3c28 fdbc 12b6 5d3d 8f49 f63b
00000270: ed1e 08be c122 133e 50ad ad3d 2fbf c93d
00000280: b986 933d 24f7 ba3d 86cb 71bd 15f8 6dbd
00000290: 966c e13b 19f0 1e3e 34de a2bd 2c40 2c3d
000002a0: db9b 1abd 5c54 74bd bf40 6bbc f3c8 af3c
000002b0: 5c93 51be 1924 5d3d 9c9e e2bd 29aa abbc
000002c0: a152 463d fe75 13be 2cd9 f6bb bef5 65bd
000002d0: dd35 b7bd 0d35 f33c 05a3 6ebc e536 6bbe
000002e0: c1d1 68bc d61c 303d 2e58 793d 41cf 88bd
000002f0: 28c8 8abe fc8d 613e 946c 85bc 32f0 b6bd

action_model._discrete_distribution.branches.1.bias f4 [3]
0.058313284 -0.027648835 -0.048997518
00000000: e9d9 6e3d cf7f e2bc 9fb1 48bd
