results/MLHades_main_10_grid48x48cellsize0_75x0_75/MLHades/MLHades-1499966.onnx (onnx, 256426 bytes, 22 tensors)

discrete_action_output_shape f4 [1, 4]
3.0 3.0 3.0 2.0
00000000: 0000 4040 0000 4040 0000 4040 0000 0040

network_body.observation_encoder.processors.1.conv_layers.0.weight f4 [16, 7, 8, 8]
0.12939158 0.09247581 0.08015903 -0.0042898706 0.008244367 0.038833927 -0.047114376 -0.10396416
0.104893185 0.027119849 0.03862381 -0.05413605 -0.03738658 -0.0019365945 -0.013399255 -0.055208698
0.04165159 0.089580156 0.07435353 0.0042581824 0.11092313 0.050453115 0.09296596 -0.058252547
0.09991228 0.0795344 0.05168798 0.0074430774 0.0049914215 0.016480595 0.043540675 -0.03791091
0.1520885 0.059830487 0.06668239 -0.027256863 0.044187125 0.07637629 0.052075114 -0.058202613
0.08802107 0.07459384 0.09543802 0.011251983 0.06477414 0.002160437 0.0025391036 0.006362337
0.058886353 -0.0027841465 0.0553125 -0.045186058 -0.0012353992 -0.013312584 0.028971367 -0.07370345
0.02391981 0.049781453 0.10884791 0.07724051 0.115696944 0.115380324 0.09670594 0.035388254
0.12051024 0.009681741 0.11986722 0.093281336 0.15806116 0.13574316 0.028909896 0.11265371
0.059607465 0.1827174 0.07735656 0.13311411 0.033904687 -0.043616895 0.055538297 0.14668168
0.1399138 0.15566143 0.03526702 0.021458581 -0.034652498 -0.08992306 0.14748567 0.10626621
-0.011466888 -0.06323099 -0.015467394 -0.14155993 0.00613417 -0.03963964 0.10701097 0.015601422
-0.043140534 -0.092491485 -0.13153012 -0.028281935 0.08862922 0.1312548 -0.014828179 0.06377433
-0.07018808 0.04884878 -0.013683859 0.017879875 0.0807231 0.04186639 0.0013036156 -0.0016307809
-0.04231723 -0.07043249 0.0054956307 0.11133356 0.07921335 0.020045688 0.09411512 0.1317041
-0.0598128 -0.011831308 -0.054330304 -0.039263178 0.12268632 0.047898203 0.08090953 0.10636596
-0.014058221 -1.8507608e-05 0.06879247 0.08976077 0.1152802 0.008197802 0.003993805 0.08726094
0.08014257 0.04749345 0.12611547 0.17756362 0.16863735 0.10123991 -0.016162116 0.1040491
0.06188465 0.076549344 0.07305075 0.09683323 0.16614926 0.13766249 0.18441188 0.13839835
-0.0590497 0.045319285 -0.06048859 0.04621825 0.047775548 -0.0023886191 0.08219564 0.008270816
-0.061119296 0.005468197 0.07710684 -0.022880279 0.105835386 0.0043837763 0.028394965 0.06864286
0.00068427087 -0.0016764071 -0.042085517 -0.023657618 0.12523426 0.034233037 0.06844955 0.07131225
0.059951767 0.043510027 -0.03382655 0.04633828 0.068815164 0.09565745 0.07863673 0.09388214
-0.042635825 -0.03286547 -0.037531637 -0.07295549 -0.019961325 -0.016930822 -0.035399124 0.05393835
-0.10213213 -0.07857062 -0.11980792 -0.04878771 0.062056024 -0.02594447 -0.046732675 -0.026861655
0.011674412 -0.105356365 -0.17431404 -0.103120156 -0.09601167 -0.06774798 -0.15401813 -0.14297597
0.006251501 -0.014498156 -0.017742382 0.023425667 0.028454628 0.026036752 -0.13254966 -0.13362849
0.0712003 0.018800259 0.06474661 0.110779405 0.0431504 0.08385065 0.028886596 0.06357071
0.10016324 0.05331456 0.0064323144 0.08243887 0.08140435 0.101612374 0.022125501 0.08802025
0.077242255 0.0006206168 -0.04488534 0.08969151 0.09258749 0.08728316 0.092506856 0.12125749
0.040263075 0.086603455 -0.04991962 0.0010623552 0.02740776 0.09783149 -0.034639973 0.07588681
-0.102924705 -0.14622268 -0.14098834 -0.0049963696 0.009091545 -0.047841556 -0.008514006 0.022401588
00000000: 3a7f 043e f563 bd3d 6b2a a43d 0b92 8cbb
00000010: 6213 073c 5310 1f3d 01fb 40bd 29eb d4bd
00000020: 3dd2 d63d 722a de3c 0034 1e3d c3bd 5dbd
00000030: ac22 19bd 54d5 fdba 8d88 5bbc 8422 62bd
00000040: dc9a 2a3d cd75 b73d aa46 983d 3988 8b3b
00000050: aa2b e33d eda7 4e3d f064 be3d 399a 6ebd
00000060: cf9e cc3d eee2 a23d c6b6 533d 0fe5 f33b
00000070: 148f a33b 5002 873c b557 323d 7848 1bbd
00000080: 16bd 1b3e d010 753d c790 883d c949 dfbc
00000090: 8ffd 343d 2c6b 9c3d b74c 553d dd65 6ebd
000000a0: 6444 b43d a8c4 983d 0275 c33d 3d5a 383c
000000b0: 4ea8 843d 1e96 0d3b 1767 263b 277b d03b
000000c0: d132 713d 3a76 36bb 5c8f 623d 0415 39bd
000000d0: 1eed a1ba 061d 5abc 5c55 ed3c d6f1 96bd
000000e0: 7af3 c33c a3e7 4b3d a7eb de3d 4630 9e3d
000000f0: 85f2 ec3d 854c ec3d c40d c63d 46f3 103d
00000100: 13ce f63d 2aa0 1e3c f27c f53d 490a bf3d
00000110: c9da 213e 4100 0b3e 72d4 ec3c fdb6 e63d
00000120: f526 743d 451a 3b3e 1e6d 9e3d 114f 083e
00000130: a4df 0a3d a1a7 32bd 207c 633d b933 163e
00000140: 9045 0f3e b665 1f3e 2774 103d e8c9 af3c
00000150: c7ef 0dbd 9529 b8bd 7c06 173e 19a2 d93d
00000160: 9ddf 3bbc 407f 81bd f46a 7dbc 16f5 10be
00000170: 2601 c93b 2d5d 22bd 9128 db3d 1b9d 7f3c
00000180: 21b4 30bd 2d6c bdbd d5af 06be 84af e7bc
00000190: 3d83 b53d a967 063e e4f1 72bc 1e9c 823d
000001a0: c5be 8fbd a915 483d 4432 60bc d178 923c
000001b0: 2752 a53d 177c 2b3d 15de aa3a edbf d5ba
000001c0: d554 2dbd e93e 90bd b114 b43b d902 e43d
000001d0: 9c3a a23d db36 a43c 6ebf c03d 71dd 063e
000001e0: 44fe 74bd 1ad8 41bc 7489 5ebd 6dd2 20bd
000001f0: f742 fb3d e830 443d e5b3 a53d 65d6 d93d
00000200: 7454 66bc c940 9bb7 11e3 8c3d 7fd4 b73d
00000210: 0718 ec3d 1350 063c 77de 823b ddb5 b23d
00000220: ca21 a43d 7e88 423d 6a24 013e 3dd3 353e
00000230: 45af 2c3e df56 cf3d 6a66 84bc b217 d53d
00000240: c27a 7d3d e7c5 9c3d a29b 953d 8050 c63d
00000250: 0823 2a3e 65f7 0c3e 78d6 3c3e 4cb8 0d3e
00000260: 19de 71bd b7a0 393d e2c2 77bd 594f 3d3d
00000270: 4bb0 433d 618a 1cbb 3056 a83d 5182 073c
00000280: 3a58 7abd 902e b33b 31ea 9d3d 6c6f bbbc
00000290: 39c0 d83d c8a5 8f3b 8f9c e83c a194 8c3d
000002a0: a460 333a e3ba dbba dd61 2cbd 9fcd c1bc
000002b0: 693d 003e f137 0c3d 472f 8c3d 280c 923d
000002c0: fc8f 753d 9237 323d b58d 0abd 35cd 3d3d
000002d0: f7ee 8c3d 0ee8 c33d 4b0c a13d 4845 c03d
000002e0: e7a2 2ebd f19d 06bd c6ba 19bd b069 95bd
000002f0: ef85 a3bc 82b2 8abc acfe 10bd 76ee 5c3d
00000300: a62a d1bd a2e9 a0bd db5d f5bd 9fd5 47bd
00000310: 752e 7e3d 7f89 d4bc c36a 3fbd f90c dcbc
00000320: 0846 3f3c 14c5 d7bd 617f 32be a930 d3bd
00000330: c4a1 c4bd 74bf 8abd eeb6 1dbe 4b68 12be
00000340: 64d9 cc3b ac89 6dbc 7958 91bc 2fe7 bf3c
00000350: ae19 e93c 074b d53c 19bb 07be e8d5 08be
00000360: 76d1 913d 0003 9a3c df99 843d 50e0 e23d
00000370: 79be 303d e4b9 ab3d 95a3 ec3c 5c31 823d
00000380: 6322 cd3d 5e60 5a3d 2ac6 d23b b6d5 a83d
00000390: 53b7 a63d 261a d03d 8a40 b53c f643 b43d
000003a0: 3031 9e3d e3b0 223a b1d9 37bd 2fb0 b73d
000003b0: 839e bd3d 83c1 b23d 3c74 bd3d d955 f83d
000003c0: e5ea 243d 275d b13d 8478 4cbd ba3e 8b3a
000003d0: 3d86 e03c e05b c83d a5e2 0dbd 8b6a 9b3d
000003e0: 30ca d2bd 66bb 15be 3f5f 10be 96b8 a3bb
000003f0: b4f4 143c 82f5 43bd 547e 0bbc 8983 b73c

network_body.observation_encoder.processors.1.conv_layers.0.bias f4 [16]
0.00864939 -0.009076759 0.023225464 -0.011003306 0.0023961174 0.03375936 -0.06691848 0.01352811
0.0013273786 0.0022037271 -0.011153508 0.003780231 -0.008883852 0.02869165 -0.009651358 0.04145193
00000000: 2cb6 0d3c b0b6 14bc 5443 be3c 3647 34bc
00000010: 2e08 1d3b 4147 0a3d 8e0c 89bd 02a5 5d3c
00000020: 6ffb ad3a 686c 103b 34bd 36bc c1bd 773b
00000030: 938d 11bc c00a eb3c bb20 1ebc 80c9 293d

network_body.observation_encoder.processors.1.conv_layers.2.weight f4 [32, 16, 4, 4]
0.041905202 -0.080286376 -0.100333475 0.102916054 -0.03457473 -0.08176799 0.04879037 -0.024537528
-0.06702747 -0.040785216 -0.041942094 0.0005457136 -0.05228777 -0.04980719 -0.09873192 -0.0635936
0.032752648 -0.058660295 -0.04403606 -0.035233364 0.021736428 -0.041455485 -0.030042239 -0.012321556
0.07605897 -0.11885654 0.115870744 0.054333 -0.05939552 -0.0013212927 0.100302376 0.12876385
0.122006565 0.12082698 0.10816203 0.06530007 -0.096845865 0.07012725 0.10823359 0.034031183
-0.002018555 0.026020998 0.10025641 0.17742959 0.09920186 0.20598394 0.041565564 0.10801449
-0.028683523 -0.012997143 0.049575344 0.11850259 -0.017171629 -0.043676246 0.0573873 0.16629012
0.025237348 -0.026049586 0.035476174 0.108302884 0.19720855 0.11818719 0.22394934 0.17266916
0.033466592 -0.011420971 -0.061386026 -0.01030088 0.081991196 -0.025044441 0.0073783942 0.014334414
0.021611419 -0.14307639 -0.01883621 -2.6595199e-05 -0.029344559 -0.044472385 0.17674729 0.15686679
0.14371718 -0.00549397 0.04489668 0.08341954 -0.005696196 -0.075225376 0.06149448 0.07904911
0.04752883 -0.054145183 0.10787004 0.12061006 0.015291157 0.1290554 0.16506456 0.076662675
-0.042632926 -0.16264722 -0.04840151 -0.12556766 -0.05555869 0.01661975 -0.040019177 -0.11203516
0.0139453625 0.051761877 0.0056083286 -0.068110734 -0.028777989 -0.11289299 -0.113837674 -0.07726311
0.08516864 0.0019024155 -0.10901491 0.12222334 0.12589444 0.09754517 -0.0041087866 -0.10803589
0.040067416 0.06064793 0.05462138 0.07664333 0.121409625 -0.07285424 -0.049985 -0.04543806
-0.098641306 0.035588954 -0.00039833479 -0.1111632 0.08740646 0.046091974 0.09786282 0.03765123
-0.057144184 -0.2017374 -0.058616824 -0.010979276 -0.054676972 0.035163846 -0.02405639 0.038376514
0.09691242 -0.06380352 -0.10175248 0.013415547 0.036483288 0.014770526 -0.07801172 0.06440826
-0.005286221 0.050989952 -0.0115914475 0.033239063 0.07579768 0.030750087 0.010281683 0.03276247
0.003879505 0.06374197 0.038005557 0.16882531 -0.052130714 -0.00086982956 0.041765865 0.013218156
0.12143492 0.01229461 0.10538684 0.12235376 0.1786485 0.110932834 0.16775085 0.028881472
0.19033948 0.07698436 -0.03647402 0.11383256 0.07347594 0.05482083 0.111303896 0.1243377
0.0059656757 -0.08573179 0.036631096 0.0370476 0.014631082 0.00437446 0.081659496 -0.0040131286
-0.05167507 -0.055151027 0.024375787 0.02631967 0.08004128 0.0035823553 0.035542812 -0.022023682
-0.01649089 0.030294215 0.002841896 0.009447727 0.08901641 -0.109224245 -0.045470413 0.075565875
0.016888386 -0.06770459 -0.0930688 -0.078017585 0.010821057 -0.056369036 -0.038059734 -0.032379873
0.09102765 -0.13936357 -0.037555132 -0.048225984 0.07590324 0.00092895725 0.12215463 -0.074076235
0.050637256 0.20272128 0.07750675 0.0013882555 -0.044784434 -0.021752574 -0.039151035 -0.015172152
-0.031759433 -0.04017009 0.00541943 -0.0055723204 0.12409224 0.022032367 0.10608864 0.05594681
-0.045926362 0.076636866 0.013095004 -0.0124323405 0.09582013 0.05221143 -0.05513913 0.025086844
-0.052644067 0.041001327 -0.101212285 -0.012627905 -0.04841427 -0.24204226 -0.03492949 0.005706327
00000000: caa4 2b3d 2f6d a4bd a37b cdbd a7c5 d23d
00000010: 3b9e 0dbd fa75 a7bd 69d8 473d ed02 c9bc
00000020: b345 89bd 660e 27bd 79cb 2bbd 380e 0f3a
00000030: b32b 56bd a002 4cbd f633 cabd 5d3d 82bd
00000040: a427 063d c745 70bd 285f 34bd dc50 10bd
00000050: 9810 b23c 3acd 29bd 241b f6bc 5ae0 49bc
00000060: cec4 9b3d 0f6b f3bd a44d ed3d 488c 5e3d
00000070: b748 73bd 3a2f adba 556b cd3d acda 033e
00000080: 94de f93d 2374 f73d 0e84 dd3d 0bbc 853d
00000090: 2057 c6bd e09e 8f3d 93a9 dd3d 4864 0b3d
000000a0: bc49 04bb fd29 d53c 3c53 cd3d 1ab0 353e
000000b0: 582a cb3d 74ed 523e a740 2a3d b336 dd3d
000000c0: b5f9 eabc f8f1 54bc 840f 4b3d 7cb1 f23d
000000d0: 84ab 8cbc dde5 32bd f20e 6b3d f547 2a3e
000000e0: 8ebe ce3c f165 d5bc 774f 113d e7cd dd3d
000000f0: 0af1 493e 200c f23d fa52 653e 2fd0 303e
00000100: 4414 093d 061f 3bbc ea6f 7bbd 06c5 28bc
00000110: 00eb a73d 002a cdbc 75c6 f13b e4da 6a3c
00000120: 6e0a b13c 9e82 12be 654e 9abc c118 dfb7
00000130: 0064 f0bc ad28 36bd 3efd 343e b0a1 203e
00000140: 992a 133e c306 b4bb 95e5 373d ddd7 aa3d
00000150: 28a7 babb c30f 9abd a3e1 7b3d 80e4 a13d
00000160: 97ad 423d 57c7 5dbd f8ea dc3d 6802 f73d
00000170: c387 7a3c 1927 043e af06 293e 5201 9d3d
00000180: dd9f 2ebd fe8c 26be a940 46bd cf94 00be
00000190: 8291 63bd 2426 883c 26eb 23bd b172 e5bd
000001a0: 177b 643c 4304 543d 12c6 b73b a47d 8bbd
000001b0: d1bf ebbc 7134 e7bd ba23 e9bd 1f3c 9ebd
000001c0: e56c ae3d 795a f93a 3643 dfbd 3b50 fa3d
000001d0: 79ea 003e c3c5 c73d 00a3 86bb ec41 ddbd
000001e0: bb1d 243d f769 783d abba 5f3d 2ef7 9c3d
000001f0: 9ca5 f83d 9b34 95bd 12bd 4cbd 421d 3abd
00000200: 7404 cabd b9c5 113d 97d7 d0b9 88a9 e3bd
00000210: 2802 b33d f0ca 3c3d 4d6c c83d 2d38 1a3d
00000220: 0510 6abd 4094 4ebe 3218 70bd 6ce2 33bc
00000230: f6f4 5fbd f707 103d e811 c5bc b130 1d3d
00000240: 057a c63d 6bab 82bd 9b63 d0bd e2cc 5b3c
00000250: 806f 153d 1400 723c 9cc4 9fbd 7ae8 833d
00000260: 0938 adbb d7da 503d 0eea 3dbc af25 083d
00000270: d03b 9b3d 9be7 fb3c 8174 283c f131 063d
00000280: 4b3f 7e3b 268b 823d b7ab 1b3d 8be0 2c3e
00000290: 0487 55bd 4605 64ba af12 2b3d f790 583c
000002a0: dfb2 f83d 556f 493c 0ed5 d73d 9c94 fa3d
000002b0: a2ef 363e c130 e33d e1c6 2b3e d698 ec3c
000002c0: 5ae8 423e faa9 9d3d c865 15bd 0c21 e93d
000002d0: 8e7a 963d ce8b 603d 4cf3 e33d c4a4 fe3d
000002e0: b77b c33b 2694 afbd 7d0a 163d 39bf 173d
000002f0: 35b7 6f3c a157 8f3b 183d a73d 9080 83bb
00000300: 3da9 53bd 0be6 61bd bbaf c73c 599c d73c
00000310: afec a33d f3c5 6a3b 5795 113d 026b b4bc
00000320: e717 87bc 932b f83c 1a3f 3a3b a4ca 1a3c
00000330: 3c4e b63d f6b0 dfbd 2f3f 3abd 48c2 9a3d
00000340: 8359 8a3c b4a8 8abd db9a bebd afc7 9fbd
00000350: cd4a 313c 38e3 66bd 86e4 1bbd c2a0 04bd
00000360: b46c ba3d 53b5 0ebe 69d3 19bd 9c88 45bd
00000370: 2873 9b3d 4485 733a 352c fa3d 48b5 97bd
00000380: 0369 4f3d 2b96 4f3e dcbb 9e3d 20f6 b53a
00000390: e26f 37bd 7432 b2bc d65c 20bd 9e94 78bc
000003a0: 2e16 02bd 6489 24bd 7995 b13b 0398 b6bb
000003b0: 1324 fe3d 397d b43c 0045 d93d 7b28 653d
000003c0: 481d 3cbd caf3 9c3d 6d8c 563c 04b1 4bbc
000003d0: 583d c43d a7db 553d 92d9 61bd ed82 cd3c
000003e0: 4ea1 57bd 02f1 273d 6348 cfbd 46e5 4ebc
000003f0: 0b4e 46bd edd9 77be 3a12 0fbd 24fc ba3b

network_body.observation_encoder.processors.1.conv_layers.2.bias f4 [32]
-0.06699995 0.017800907 0.05898446 -0.031980358 0.008764763 0.011984103 -0.02684015 -0.043941386
-0.07580563 0.029324252 0.041011203 0.02249652 0.005612124 -0.060004536 0.03652918 -0.029451516
-0.037594274 -0.00916378 0.012216615 -0.017455088 0.020966932 -0.047609806 -0.10818501 -0.024142291
0.07606917 -0.07374562 -0.0067081987 -0.05777686 -0.06497271 -0.07633662 -0.04456445 -0.0034373342
00000000: 4537 89bd 35d3 913c b099 713d d6fd 02bd
00000010: 159a 0f3c f958 443c e0df dbbc e2fb 33bd
00000020: fb3f 9bbd 6a39 f03c 5dfb 273d 9f4a b83c
00000030: e9e5 b73b 51c7 75bd 9f9f 153d 4e44 f1bc
00000040: 74fc 19bd ae23 16bc 3228 483c f9fd 8ebc
00000050: d8c2 ab3c 8002 43bd 1a90 ddbd 0ec6 c5bc
00000060: 27ca 9b3d f207 97bd 73d0 dbbb 6ea7 6cbd
00000070: 6a10 85bd 6056 9cbd 3689 36bd e644 61bb

network_body.observation_encoder.processors.1.dense.0.weight f4 [64, 512]
-0.039028436 0.039890148 0.09661451 0.014097132 0.086801 0.023633825 -0.08386324 -0.021668097
0.06648088 0.008928515 0.055704862 -0.2618971 -0.0926942 -0.00087535765 -0.050130285 -0.061320994
-0.080706865 -0.11275646 0.06258673 -0.053274482 0.051218677 -0.031110732 -0.008296313 -0.09299614
0.04488712 -0.18834287 0.043473378 -0.07626593 -0.024502218 0.15451723 -0.012381848 -0.0051134117
0.01265626 0.11700287 0.039656747 0.060284626 0.005988025 0.07290565 0.0826482 0.11635156
0.040191803 0.05669199 -0.038195148 0.08165091 0.12040893 0.003270397 0.0757397 0.003324987
0.05748391 0.05435563 0.061146848 0.018648695 -0.14802401 -0.01429125 0.07376154 -0.071403086
-0.010257084 0.052210364 -0.042280424 -0.071477786 -0.04159502 -0.025333518 0.024986474 0.062123917
-0.15045325 -0.0038412686 -0.02655045 -0.011590312 -0.022974228 0.010202716 -0.018813547 0.06272313
0.020269299 -0.0735219 -0.028594282 0.03238934 0.04733745 -0.0512583 0.024265107 -0.15347895
0.05198675 0.053728934 0.02825885 0.088474065 -0.026367232 -0.08152608 0.04442913 -0.029526865
0.024317771 -0.06523675 -0.029430091 -0.08146305 0.049393926 0.04358126 -0.03617572 -0.11553003
-0.04041862 0.06415401 0.08695884 -0.11796451 0.00048705644 -0.010839104 -0.0055892873 0.09184407
-0.04837347 0.030189268 -0.029689956 0.05739797 0.06248129 0.13194299 -0.08127394 -0.028175887
0.02458974 0.056081466 0.10233525 -0.0039541777 -0.19352618 -0.02137413 -0.001809635 0.04027261
0.14437418 -0.06388347 0.044278722 -0.038890384 0.0883053 0.024747448 -0.038740564 0.03388634
0.043213867 0.009960365 0.27134702 0.06677816 0.028166978 0.07780873 -0.0430551 0.036434304
0.040167905 -0.0663163 -0.038083535 -0.051484086 0.038522076 -0.0739385 -0.043552447 -0.14035714
0.11083009 0.109073855 0.060662992 0.0692181 0.017073737 0.019647839 -0.025753146 0.054871883
-0.023209063 -0.06414163 -0.056435917 -0.0071233804 -0.020910922 0.07509635 -0.004981815 0.010441517
0.053685833 0.002820135 0.017134149 -0.08777039 0.054536484 0.07138404 -0.044030994 -0.07218101
-0.10483118 0.06748436 0.004043663 0.00028299636 0.082011335 -0.06081717 -0.089592546 -0.048674677
-0.025581188 0.13256322 0.15093753 0.012051911 -0.024458097 -0.069844455 -0.1175316 -0.06333536
-0.037668895 0.0072393524 0.051347367 0.09341452 0.04178587 0.15139253 0.08062321 0.009743363
0.04479173 0.043058023 0.14229186 0.04195546 0.008036204 -0.06564682 -0.020921843 -0.079077095
-0.014123298 -0.053502295 0.010068684 -0.05570266 -0.03023041 -0.09942739 -0.23187548 0.03636033
0.02712301 -0.0055708075 -0.0168338 0.04163779 0.1203071 -0.07442045 -0.0642134 -0.07038415
0.12894684 -0.009771277 0.005633803 -0.0420797 -0.093504995 0.08436941 -0.107374005 -0.012757578
-0.001766281 -0.04889226 -0.091088414 0.028453097 0.061343912 -0.053978525 0.11457136 0.13243517
0.26303843 -0.07285801 -0.010195522 0.08437969 0.11727851 0.06893035 0.12606238 0.26471066
-0.024656843 -0.21290538 -0.0036611713 -0.008861873 0.112169 -0.022252401 -0.022377871 -0.071162105
-0.018875774 0.062167823 -0.14474048 0.1942736 -0.07675431 0.059903067 -0.124496125 0.13152778
00000000: 48dc 1fbd da63 233d d4dd c53d a8f7 663c
00000010: b9c4 b13d b99b c13c 7ec0 abbd 4b81 b1bc
00000020: 2127 883d e848 123c c82a 643d 6017 86be
00000030: 75d6 bdbd 4278 65ba 6a55 4dbd b92b 7bbd
00000040: a449 a5bd dcec e6bd 792d 803d 5836 5abd
00000050: adca 513d efdb febc 42ed 07bc c374 bebd
00000060: 8fdb 373d f4dc 40be 2411 323d 5031 9cbd
00000070: e0b8 c8bc c439 1e3e 3cdd 4abc 688e a7bb
00000080: 345c 4f3c 339f ef3d 1d6f 223d 03ed 763d
00000090: 3237 c43b 8f4f 953d 7643 a93d ba49 ee3d
000000a0: 29a0 243d dc35 683d 8472 1cbd 9838 a73d
000000b0: f598 f63d 2854 563b 6a1d 9b3d 06e8 593b
000000c0: 4074 6b3d 02a4 5e3d 1e75 7a3d 26c5 983c
000000d0: 9b93 17be d925 6abc 4a10 973d c83b 92bd
000000e0: 540d 28bc 89da 553d 3d2e 2dbd f262 92bd
000000f0: 8a5f 2abd 3d88 cfbc 6fb0 cc3c a675 7e3d
00000100: 6b10 1abe cbbd 7bbb 5480 d9bc 4be5 3dbc
00000110: 7334 bcbc 4b29 273c de1e 9abc fc74 803d
00000120: cd0b a63c a692 96bd 8e3e eabc afaa 043d
00000130: eae4 413d 39f4 51bd 9ec7 c63c 9629 1dbe
00000140: 0ff0 543d df12 5c3d 1b7f e73c e431 b53d
00000150: 1800 d8bc 25f7 a6bd 52fb 353d 53e2 f1bc
00000160: 1036 c73c d89a 85bd 6017 f1bc 19d6 a6bd
00000170: 4951 4a3d 4382 323d fe2c 14bd 029b ecbd
00000180: ff8d 25bd 2d63 833d 7a17 b23d 6197 f1bd
00000190: 9c5b ff39 7f96 31bc 5726 b7bb be18 bc3d
000001a0: 4223 46bd 7c4f f73c 5a38 f3bc 221a 6b3d
000001b0: 62ec 7f3d 101c 073e f472 a6bd 1ed1 e6bc
000001c0: 6c70 c93c aeb5 653d 2595 d13d 0c92 81bb
000001d0: ba2b 46be cd18 afbc 4631 edba e4f4 243d
000001e0: d3d6 133e 56d5 82bd 9b5d 353d 864b 1fbd
000001f0: 69d9 b43d 29bb ca3c 6dae 1ebd 67cc 0a3d
00000200: 0601 313d cc30 233c ffed 8a3e fdc2 883d
00000210: 6fbe e63c 2f5a 9f3d 8b5a 30bd 233c 153d
00000220: 1a87 243d d7d0 87bd 7bfd 1bbd fae0 52bd
00000230: 53c9 1d3d 116d 97bd 0d64 32bd c8b9 0fbe
00000240: e3fa e23d 1d62 df3d c279 783d 38c2 8d3d
00000250: 39de 8b3c 81f4 a03c 43f8 d2bc 57c1 603d
00000260: ef20 bebc b05c 83bd 5929 67bd 3f6b e9bb
00000270: 624d abbc 1dcc 993d 7e3e a3bb e612 2b3c
00000280: ade5 5b3d 04d2 383b ea5c 8c3c f6c0 b3bd
00000290: a661 5f3d cc31 923d d859 34bd a3d3 93bd
000002a0: bbb1 d6bd 3d35 8a3d b480 843b 215f 9439
000002b0: 8ff5 a73d 6d1b 79bd 4c7c b7bd 195f 47bd
000002c0: a48f d1bc a7be 073e 5e8f 1a3e 6175 453c
000002d0: 595c c8bc 9c0a 8fbd 68b4 f0bd f8b5 81bd
000002e0: b34a 1abd 1738 ed3b 9e51 523d 1d50 bf3d
000002f0: a927 2b3d a506 1b3e c81d a53d a0a2 1f3c
00000300: 8877 373d 9c5d 303d f5b4 113e 7dd9 2b3d
00000310: 48aa 033c d771 86bd 4964 abbc 2cf3 a1bd
00000320: 6865 67bc 3925 5bbd 1ff7 243c 7928 64bd
00000330: c4a5 f7bc 96a0 cbbd c470 6dbe 92ee 143d
00000340: 1331 de3c 528b b6bb 0ae7 89bc 638c 2a3d
00000350: 9263 f63d c069 98bd 5182 83bd 9125 90bd
00000360: a40a 043e b517 20bc c49b b83b c35b 2cbd
00000370: 8c7f bfbd dfc9 ac3d e7e6 dbbd 2905 51bc
00000380: 8e82 e7ba 4043 48bd 908c babd 7816 e93c
00000390: c143 7b3d 9618 5dbd 64a4 ea3d 169d 073e
000003a0: f9ac 863e 9536 95bd 1e0b 27bc 42cf ac3d
000003b0: b72f f03d 5b2b 8d3d 7f16 013e 2888 873e
000003c0: 26fd c9bc de03 5abe 43f0 6fbb 6431 11bc
000003d0: dcb8 e53d ab4a b6bc cc51 b7bc 70bd 91bd
000003e0: 5ea1 9abc b0a3 7e3d d936 14be a9ef 463e
000003f0: 5d31 9dbd eb5c 753d d3f7 febd 38af 063e

network_body.observation_encoder.processors.1.dense.0.bias f4 [64]
0.09113074 0.046117824 0.033738717 0.013827161 0.0064207395 -0.011782296 0.008387474 0.04669296
0.012758839 0.02312718 0.0064244266 0.017294837 0.019845342 0.0432704 0.07032166 0.021335516
0.045149118 0.035575442 0.053114295 0.049849644 0.010119152 0.028993655 -0.039391577 0.009081134
0.04708876 0.024318159 0.012773163 0.049339827 0.0455353 0.024918642 0.018593587 0.021493752
0.006750275 -0.017692354 0.03562315 0.046546876 0.040843535 0.0044035544 0.0701067 0.062937774
0.017480982 0.02802616 0.023942068 -0.007521703 0.014357006 0.055409506 0.0010505951 0.022460166
0.004681897 0.029829606 0.02714779 0.05424403 -0.013996406 -0.0075899195 0.043054886 -0.0113758985
0.024985213 0.01867281 0.022679757 0.028358378 0.028864998 0.034193866 0.0071597244 0.016900234
00000000: c1a2 ba3d 0be6 3c3d 9c31 0a3d 518b 623c
00000010: 1165 d23b 880a 41bc 9e6b 093c 1e41 3f3d
00000020: 730a 513c 3675 bd3c ff83 d23b e7ad 8d3c
00000030: b392 a23c 4e3c 313d cd04 903d d2c7 ae3c
00000040: 48ee 383d 8eb7 113d 608e 593d 242f 4c3d
00000050: cdca 253c 1a84 ed3c 1059 21bd 09c9 143c
00000060: 25e0 403d e036 c73c 8746 513c 8f18 4a3d
00000070: 3983 3a3d 2e22 cc3c 9451 983c aa13 b03c
00000080: 6931 dd3b 8eef 90bc 95e9 113d f0a7 3e3d
00000090: 8d4b 273d b14b 903b 1a94 8f3d 85e5 803d
000000a0: 4734 8f3c 1e97 e53c 2822 c43c 9e78 f6bb
000000b0: a639 6b3c 14f5 623d 1fb4 893a 62fe b73c
000000c0: 996a 993b 385d f43c 0b65 de3c fd2e 5e3d
000000d0: 2f51 65bc dcb4 f8bb 525a 303d fa61 3abc
000000e0: caad cc3c b9f7 983c e6ca b93c d44f e83c
000000f0: 4a76 ec3c de0e 0c3d 1f9c ea3b 5c72 8a3c

network_body._body_endoder.seq_layers.0.weight f4 [64, 142]
-0.21648437 -0.25611374 0.07072414 -0.05137737 0.09539562 0.12626992 0.10462773 -0.026214117
0.1555914 0.09285121 -0.0074786544 -0.02466141 0.0030495282 -0.07650459 0.058420002 -0.0017492257
-0.063649386 -0.04124901 0.18120454 -0.06494623 0.0009982988 -0.01632157 0.0023809378 0.045403536
0.00015739686 0.024196334 0.0332033 0.102446444 -0.023714684 0.041093376 0.042871956 0.14210808
0.0040605194 -0.07065869 0.09028393 -0.06537121 0.060693394 0.042932257 0.03699154 -0.060969334
-0.061441556 -0.04068315 0.09777316 0.10120569 0.114302695 -0.041604664 0.06466956 -0.0601209
0.059927125 0.13181965 0.053970534 0.1509668 -0.043959167 -0.06365072 -0.045611992 -0.04172717
0.15986635 0.046104606 0.029634785 -0.018910868 -0.013744055 -0.039892785 -0.029827243 0.08400168
-0.16024253 0.110231616 -0.06989275 -0.053213343 0.067673214 -0.026510017 -0.19269271 -0.20512037
0.14119783 -0.040990815 -0.006160309 0.048646316 -0.08602527 0.06207796 -0.017964752 -0.15384537
0.19228327 -0.053310156 -0.076241106 -0.22198148 -0.08826763 -0.08909564 -0.015551816 0.06278668
0.21671803 -0.009419519 0.09070811 0.12878035 0.045263227 0.018299475 -0.007995791 0.058933932
-0.13950782 -0.09986048 0.05897295 -0.07069492 0.039171074 0.033956338 -0.17689747 0.06421258
-0.23726892 -0.016940812 -0.28932428 -0.028445652 0.058807172 -0.1850412 0.14959995 0.12562844
0.098657236 -0.020158028 -0.002373803 0.13720456 0.00047559972 0.09461063 -0.16093418 0.034259167
0.077121966 0.035460632 0.059311617 -0.04701856 0.018934987 -0.07067183 -0.065411866 -0.019636603
0.07092967 -0.06812461 -0.015918834 -0.059341546 -0.09821862 -0.119648054 -0.21269335 0.07220379
0.03956302 -0.007751219 -0.011113479 0.25471354 0.08910997 -0.20321286 0.035066593 -0.039724074
0.074193396 0.16713919 -0.21322 0.19021277 0.082014814 0.007154005 -0.08506933 0.08908509
-0.09543182 0.066731736 0.11403474 0.0743491 -0.03129377 -0.0739966 0.03510774 0.02910791
-0.09939252 0.015227885 0.13140434 0.07926319 0.124108806 -0.06433256 0.13582349 0.024555791
-0.01203637 0.093667865 -0.04981589 0.04396032 0.06096261 0.22273248 0.021617066 -0.067073986
-0.054755952 -0.12876344 -0.08828192 0.04333667 -0.043121025 -0.017929325 0.0006046371 0.093653284
0.05494697 -0.061271276 -0.06269205 0.010595166 0.028513923 0.08512639 -0.24009874 -0.0154208625
0.12667002 0.06898256 0.041830122 0.022165203 0.02663555 0.021644179 -0.062843926 -0.0473008
0.02809177 0.07664951 -0.061423164 0.07959461 0.035975892 0.113021344 0.070964165 0.059207194
-0.06549131 -0.055201277 0.04357905 0.2445769 -0.02419311 0.038318288 0.2540951 -0.15012877
-0.026260538 -0.04201852 -0.02100562 0.13440825 0.17309287 0.17135024 0.0503591 0.015889566
-0.06178619 -0.054251485 0.042452764 0.29134238 0.0072996193 -0.011966605 0.048207235 -0.042167418
-0.12716998 -0.13825715 0.0021593552 -0.12920615 0.14709243 -0.12556249 -0.10410997 -0.035698857
0.013815455 -0.13819915 -0.25967258 0.022124128 0.051435024 -0.07654804 0.16565478 0.00089651527
0.018091502 -0.05219072 -0.15683734 0.124204904 0.03341776 -0.18760236 -0.15164457 -0.033037968
00000000: 14ae 5dbe 5721 83be d1d7 903d 1471 52bd
00000010: c75e c33d e74c 013e 1047 d63d fdbe d6bc
00000020: 5a53 1f3e c628 be3d 800f f5bb ba06 cabc
00000030: 98da 473b 70ae 9cbd d049 6f3d 4646 e5ba
00000040: 9c5a 82bd b9f4 28bd af8d 393e 8702 85bd
00000050: 59d9 823a d0b4 85bc 8209 1c3b 0ff9 393d
00000060: e60a 2539 6437 c63c 2f00 083d 71cf d13d
00000070: 4c45 c2bc 8751 283d 819a 2f3d c884 113e
00000080: 1b0e 853b 81b5 90bd c8e6 b83d 57e1 85bd
00000090: a399 783d bcd9 2f3d 7184 173d fbba 79bd
000000a0: 24aa 7bbd 60a3 26bd 4b3d c83d ee44 cf3d
000000b0: 8817 ea3d a769 2abd 7971 843d 5541 76bd
000000c0: 2576 753d bbfb 063e 3510 5d3d 0a97 1a3e
000000d0: 870e 34bd 4f5b 82bd a4d3 3abd 1cea 2abd
000000e0: 01b4 233e 2fd8 3c3d a6c4 f23c f7ea 9abc
000000f0: bf2e 61bc 9e66 23bd 4358 f4bc 1309 ac3d
00000100: 9e16 24be 1dc1 e13d ee23 8fbd 3cf6 59bd
00000110: 4198 8a3d 892b d9bc 3d51 45be 130b 52be
00000120: 2a96 103e fce5 27bd 6bdc c9bb 5c41 473d
00000130: 042e b0bd 7645 7e3d d12a 93bc a489 1dbe
00000140: e8e5 443e c05b 5abd 4c24 9cbd 1d4f 63be
00000150: a9c5 b4bd c677 b6bd 0bcd 7ebc 4e96 803d
00000160: 55eb 5d3e 5454 1abc 2cc5 b93d ffde 033e
00000170: ef65 393d c8e8 953c c700 03bc b564 713d
00000180: 23db 0ebe a783 ccbd 9f8d 713d 80c8 90bd
00000190: d971 203d cd15 0b3d 9c24 35be e381 833d
000001a0: a0f6 72be 75c7 8abc 5022 94be db06 e9bc
000001b0: cadf 703d 717b 3dbe bb30 193e bea4 003e
000001c0: ce0c ca3d 7322 a5bc ce91 1bbb 5a7f 0c3e
000001d0: ea59 f939 38c3 c13d eecb 24be 5753 0c3d
000001e0: 1ff2 9d3d 2b3f 113d bdf0 723d 8996 40bd
000001f0: 8c1d 9b3c 64bc 90bd a8f6 85bd f1dc a0bc
00000200: 9343 913d ea84 8bbd 3768 82bc 1f10 73bd
00000210: d826 c9bd 0a0a f5bd 49cc 59be 95df 933d
00000220: d50c 223d f0fd fdbb 4f15 36bc d069 823e
00000230: 4a7f b63d 0817 50be fda1 0f3d b6b5 22bd
00000240: b5f2 973d 8926 2b3e 5856 5abe 23c7 423e
00000250: 62f7 a73d 256c ea3b d438 aebd 3e72 b63d
00000260: c271 c3bd a6aa 883d 0c8b e93d 5744 983d
00000270: e52d 00bd 888b 97bd 22cd 0f3d b673 ee3c
00000280: 4e8e cbbd 617e 793c dc8e 063e bd54 a23d
00000290: c22c fe3d cac0 83bd 5015 0b3e 3a29 c93c
000002a0: 3234 45bc f0d4 bf3d bf0b 4cbd bd0f 343d
000002b0: eeb3 793d fc13 643e 4616 b13c 165e 89bd
000002c0: c747 60bd 90da 03be 27cd b4bd cb81 313d
000002d0: ac9f 30bd 85e0 92bc 8280 1e3a 4bcd bf3d
000002e0: 1310 613d 97f7 7abd b164 80bd 5997 2d3c
000002f0: 0896 e93c bf56 ae3d 72dc 75be c9a7 7cbc
00000300: c9b5 013e ba46 8d3d 1056 2b3d cd93 b53c
00000310: cc32 da3c 224f b13c 51b4 80bd 7cbe 41bd
00000320: b620 e63c 6bfa 9c3d db96 7bbd 8002 a33d
00000330: 755b 133d bc77 e73d a955 913d 3e83 723d
00000340: 4f20 86bd bc1a 62bd f27f 323d 5e72 7a3e
00000350: a130 c6bc a3f3 1c3d c118 823e 5bbb 19be
00000360: 5720 d7bc 9d1b 2cbd fa13 acbc 51a2 093e
00000370: 423f 313e 7076 2f3e 5845 4e3d d62a 823c
00000380: 8413 7dbd ce36 5ebd f3e2 2d3d d42a 953e
00000390: a531 ef3b 940f 44bc f374 453d beb7 2cbd
000003a0: d938 02be 4893 0dbe f883 0d3b 9e4e 04be
000003b0: 669f 163e 7493 00be 9c37 d5bd f738 12bd
000003c0: 385a 623c 1484 0dbe cef3 84be a93d b53c
000003d0: 88ad 523d 38c5 9cbd 68a1 293e 1f04 6b3a
000003e0: a134 943c f0c5 55bd f899 20be 245f fe3d
000003f0: 10e1 083d d51a 40be b748 1bbe d252 07bd

network_body._body_endoder.seq_layers.0.bias f4 [64]
0.02769044 0.0020521383 0.0316492 0.025709277 0.062500335 -0.022124404 0.05423602 0.04869651
-4.040158e-05 0.018787289 -0.006055359 0.045328207 -0.01093385 0.02695285 0.015530191 0.027173731
0.03534721 0.025563119 -3.480176e-05 0.028267696 0.0074698175 0.007850432 0.0119966315 0.033733957
0.0032686405 0.044444572 -0.03546305 0.02383679 -0.005806873 0.038033914 -0.012845371 0.014499776
0.027074916 0.04164166 -0.019574078 -0.002950329 0.00237284 0.027537365 0.023878904 -0.003409554
0.04644816 0.0623297 0.011713939 0.035563704 0.05875227 0.004348002 0.054314528 0.010695464
0.0007681096 -0.0074275653 0.075955294 -0.015110704 0.0038887 0.015092432 0.020878227 0.02056319
0.020266978 -0.06295972 0.032856844 0.054656714 0.027100807 0.0026333707 0.060426667 0.04720899
00000000: 10d7 e23c 2b7d 063b 97a2 013d 439c d23c
00000010: 2d00 803d 3d3e b5bc 9726 5e3d fe75 473d
00000020: de74 29b8 cde7 993c 086c c6bb 12aa 393d
00000030: e423 33bc 39cc dc3c 5872 7e3c 729b de3c
00000040: 3cc8 103d bf69 d13c 1bf8 11b8 a891 e73c
00000050: 5fc5 f43b 199f 003c 858d 443c 9e2c 0a3d
00000060: b036 563b 830b 363d b441 11bd 5f45 c33c
00000070: 9547 bebb 73c9 1b3d 6475 52bc 7890 6d3c
00000080: 37cc dd3c 7290 2a3d d159 a0bc 4f5a 41bb
00000090: a681 1b3b 0a96 e13c b19d c33c d372 5fbb
000000a0: 6d40 3e3d 6d4d 7f3d d2eb 3f3c 3fab 113d
000000b0: 38a6 703d af79 8e3b e978 5e3d 073c 2f3c
000000c0: f65a 493a ef62 f3bb 738e 9b3d e392 77bc
000000d0: 8fd9 7e3b 3f46 773c d108 ab3c 2374 a83c
000000e0: ef06 a63c 07f1 80bd e694 063d b8df 5f3d
000000f0: 8302 de3c a194 2c3b f481 773d 375e 413d

network_body._body_endoder.seq_layers.2.weight f4 [64, 64]
0.13442539 -0.058597874 -0.07996251 -0.21362035 -0.11247101 -0.14281893 0.28606465 -0.1268365
-0.124453716 -0.08438439 -0.18324068 0.16910507 -0.18624255 0.056165233 -0.091401555 0.053789765
0.13992468 -0.19274697 -0.1203481 -0.24332716 0.20503435 0.1058641 -0.34891924 0.057338517
-0.030280147 -0.01482364 0.0518491 0.050998036 0.06250827 -0.031151375 0.25156897 0.22184154
0.052591834 0.09764955 0.100480236 -0.26174685 0.099014945 0.08679245 0.101327494 -0.1451442
0.073452644 0.10910895 -0.10394083 0.11850492 -0.016538085 -0.0017907816 0.2265444 -0.2151452
-0.35033232 -0.05233563 0.13706459 -0.06250153 0.07708412 0.034111027 -0.08879587 -0.24215734
0.117860824 -0.21508269 -0.10267189 -0.014652299 0.22158326 -0.11410779 0.1814849 -0.029912671
-0.12818469 0.06607731 -0.14712353 0.0022206076 0.15213476 0.34368956 0.0889208 0.020085223
0.30097324 -0.17169811 -0.0934132 0.037652526 0.05031606 0.022725457 -0.081476174 -0.15769587
0.0404947 -0.19888294 0.07946098 0.03201147 0.046436246 -0.2745979 0.3171734 -0.09293717
-0.034005195 0.011508821 0.13912399 0.073768415 -0.034036044 0.0918331 -0.26934883 -0.22265074
0.09050494 -0.006942395 0.15642844 0.05417457 0.1461345 0.065286 -0.1578809 -0.3039958
-0.23198299 -0.036143858 0.092211455 -0.24226083 -0.2871108 -0.0073246756 0.042839624 -0.032719187
-0.05329025 -0.2041642 -0.010091557 -0.09686294 -0.14916329 0.24313752 -0.15469329 -0.026675899
-0.25352463 0.08522705 -0.19840235 0.2113025 0.26056919 0.094859645 -0.1330615 0.17198473
-0.12092288 -0.067580014 0.0391287 -0.14955421 -0.06325264 -0.17245117 0.10868934 0.08538119
-0.12840523 0.06541396 -0.11408781 0.12841073 -0.15135472 -0.23443677 -0.14791748 0.22429596
0.027564457 -0.19036312 -0.08932945 -0.27915257 -0.014024696 -0.015182723 0.043968204 0.12811528
0.09304035 -0.31520346 0.010478208 -0.12072081 0.1288196 0.089483015 0.11831698 -0.059913743
0.15970588 0.048052628 0.15650627 0.078668416 -0.22653571 0.09823158 0.043187458 0.094930336
0.30984384 -0.14721552 -0.124254696 -0.030849688 0.09416805 0.15917696 -0.003719877 0.03844777
-0.023129245 0.3432221 -0.13843477 0.2732308 0.11693727 0.065771036 0.029167706 0.18933922
0.03277163 0.33491454 -0.2359021 -0.029809205 0.34173703 -0.10738156 -0.11952104 0.090869516
0.19557428 -0.018535845 0.11880159 -0.40366375 0.08659252 -0.083359204 -0.040248837 0.034309585
0.034596927 -0.08904509 -0.07824488 0.045421876 -0.09205323 -0.11728466 -0.022041239 -0.17720988
-0.1210902 -0.045156203 0.19726217 -0.10509516 0.012740161 -0.049020745 0.025751555 0.0043919696
0.12779203 0.021056175 -0.009914279 0.03258554 0.054028362 0.003494389 -0.05020718 0.1119734
-0.011832303 0.05047998 0.18494776 0.00028408098 0.056116547 -0.1757343 -0.28130764 -0.18280177
0.14770901 0.0474842 -0.056240074 0.22187279 -0.18654773 0.13109821 -0.23268482 -0.07986475
-0.30795488 -0.0721252 -0.091949776 0.14624096 0.00037090448 -0.033769142 0.015287062 -0.04661058
-0.110880636 -0.10090071 0.030319393 -0.12702209 0.00811782 -0.1518196 -0.13126299 0.25061142
00000000: cfa6 093e 5304 70bd 62c3 a3bd 4bbf 5abe
00000010: 3357 e6bd 203f 12be 1177 923e 6de1 01be
00000020: 97e1 febd b9d1 acbd 72a3 3bbe e129 2d3e
00000030: 5eb6 3ebe 840d 663d bd30 bbbd a852 5c3d
00000040: 6a48 0f3e 765f 45be 1179 f6bd c12a 79be
00000050: 86f4 513e 47cf d83d 8ba5 b2be cbdb 6a3d
00000060: 120e f8bc dade 72bc b95f 543d 51e3 503d
00000070: 5604 803d 2b31 ffbc a6cd 803e 6e2a 633e
00000080: 896a 573d 7dfc c73d 95c8 cd3d af03 86be
00000090: 59c8 ca3d 3dc0 b13d ca84 cf3d aea0 14be
000000a0: 576e 963d 8374 df3d eede d4bd b5b2 f23d
000000b0: e17a 87bc a9b8 eaba 41fb 673e 064f 5cbe
000000c0: c25e b3be e35d 56bd a95a 0c3e cd00 80bd
000000d0: 47de 9d3d 01b8 0b3d 9cda b5bd 18f8 77be
000000e0: 0461 f13d a33e 5cbe a445 d2bd 3210 70bc
000000f0: b9e6 623e 58b1 e9bd 2dd7 393e 6b0b f5bc
00000100: d942 03be 8a53 873d 8da7 16be 9d87 113b
00000110: 37c9 1b3e 14f8 af3e 1c1c b63d c489 a43c
00000120: 2a19 9a3e a1d1 2fbe 6b4f bfbd 8939 1a3d
00000130: 3718 4e3d bd2a ba3c fbdc a6bd 077b 21be
00000140: c5dd 253d f8a7 4bbe 70bc a23d 761e 033d
00000150: ef33 3e3d 1998 8cbe 8d64 a23e d855 bebd
00000160: 0849 0bbd 7e8f 3c3c 8576 0e3e e513 973d
00000170: 6169 0bbd fe12 bc3d 17e8 89be 8efe 63be
00000180: a75a b93d 087d e3bb c72e 203e 27e6 5d3d
00000190: 48a4 153e abb4 853d 88ab 21be 56a5 9bbe
000001a0: f38c 6dbe 950b 14bd 5cd9 bc3d 3913 78be
000001b0: 3000 93be d503 f0bb 9a78 2f3d 8e04 06bd
000001c0: e146 5abd 6c10 51be 0f57 25bc 1460 c6bd
000001d0: 43be 18be 0bf9 783e eb67 1ebe 6a87 dabc
000001e0: fbcd 81be 858b ae3d fc29 4bbe af5f 583e
000001f0: 5369 853e c645 c23d 4641 08be c41c 303e
00000200: 6aa6 f7bd 6467 8abd 6a45 203d bd24 19be
00000210: 9a8a 81bd 0a97 30be 8498 de3d 55dc ae3d
00000220: a97c 03be c1f7 853d dfa6 e9bd 1a7e 033e
00000230: bbfc 1abe 3110 70be ae77 17be d7ad 653e
00000240: dbce e13c 8dee 42be 5cf2 b6bd 16ed 8ebe
00000250: d7c7 65bc f5c0 78bc 0118 343d a730 033e
00000260: f08b be3d 5962 a1be caac 2b3c 793c f7bd
00000270: 49e9 033e df42 b73d 2c50 f23d 1d68 75bd
00000280: f089 233e d5d2 443d 2e43 203e e81c a13d
00000290: faf8 67be a32d c93d 55e5 303d d66a c23d
000002a0: daa3 9e3e aabf 16be 3f79 febd 7cb8 fcbc
000002b0: 2edb c03d 49ff 223e 2ec9 73bb 697b 1d3d
000002c0: 8b79 bdbc cfba af3e d8c1 0dbe e8e4 8b3e
000002d0: cf7c ef3d f7b2 863d 1df1 ee3c 24e2 413e
000002e0: 8b3b 063d eb79 ab3e 5290 71be 6f32 f4bc
000002f0: 28f8 ae3e ddea dbbd 72c7 f4bd cc19 ba3d
00000300: a044 483e 7cd8 97bc 3f4e f33d 04ad cebe
00000310: 6b57 b13d 3bb8 aabd f7db 24bd 3588 0c3d
00000320: 82b5 0d3d 465d b6bd da3e a0bd 4a0c 3a3d
00000330: 6786 bcbd f132 f0bd d48f b4bc 8276 35be
00000340: 24fe f7bd b6f5 38bd 18ff 493e 223c d7bd
00000350: 1cbc 503c fac9 48bd edf4 d23c 83ea 8f3b
00000360: eadb 023e 007e ac3c 806f 22bc 6a78 053d
00000370: d84c 5d3d 1e02 653b 0ba6 4dbd 4f52 e53d
00000380: 47dc 41bc 18c4 4e3d f262 3d3e b4f0 9439
00000390: 77da 653d b1f3 33be 8e07 90be 6330 3bbe
000003a0: 0841 173e cb7e 423d fe5b 66bd 9f32 633e
000003b0: 5e06 3fbe 9c3e 063e ee44 6ebe 2190 a3bd
000003c0: 43ac 9dbe 60b6 93bd 2a50 bcbd 31c0 153e
000003d0: f575 c239 8351 0abd 9676 7a3c bcea 3ebd
000003e0: 6315 e3bd 08a5 cebd 6060 f83c 1412 02be
000003f0: 9b00 053c 9976 1bbe ce69 06be 2450 803e

network_body._body_endoder.seq_layers.2.bias f4 [64]
0.08605461 0.012464346 0.02489373 -0.00039118837 0.020398661 0.067799374 0.034727246 0.003572118
-0.037020776 0.046745617 0.023822665 -0.030337287 0.07795326 -0.009214278 0.01124966 0.016944736
0.06073351 0.020922577 0.028532581 0.007740088 0.046176724 0.0068334406 0.038613323 0.009900158
-0.0305582 0.111627206 0.02950666 0.047528975 0.062950626 0.04598143 0.0614046 -0.010795684
-0.026342537 0.05868586 0.013808097 0.000224746 0.06915908 0.027314888 -0.0158367 0.0117596295
0.024342442 0.013247708 -0.005560237 0.0452793 0.049777973 0.055657238 0.040418174 0.01680172
-0.09589199 0.013249671 0.025980327 0.020536171 0.11478448 0.04654504 0.0111565385 0.038961872
0.049781736 0.011397784 -0.047382537 0.023176938 0.046342637 0.0303448 0.014768532 0.004958553
00000000: 663d b03d 4237 4c3c f0ed cb3c 6a18 cdb9
00000010: 181b a73c 66da 8a3d 283e 0e3d 321a 6a3b
00000020: 19a3 17bd 5578 3f3d c027 c33c e785 f8bc
00000030: f5a5 9f3d 7cf7 16bc 7e50 383c b0cf 8a3c
00000040: b3c3 783d d365 ab3c 29bd e93c 90a0 fd3b
00000050: ce23 3d3d 0eeb df3b 0129 1e3d 4634 223c
00000060: 3155 fabc ce9c e43d f3b7 f13c bead 423d
00000070: 42ec 803d 0657 3c3d 6483 7b3d 61e0 30bc
00000080: 4ecc d7bc 9660 703d 5b3b 623c cca9 6b39
00000090: 47a3 8d3d 79c3 df3c f8bb 81bc 76ab 403c
000000a0: cd69 c73c ea0c 593c a632 b6bb ca76 393d
000000b0: fde3 4b3d d8f8 633d 878d 253d c3a3 893c
000000c0: 0563 c4bd 2615 593c b2d4 d43c 793b a83c
000000d0: 2014 eb3d 03a6 3e3d eac9 363c 7c96 1f3d
000000e0: efe7 4b3d c5bd 3a3c 3114 42bd 90dd bd3c
000000f0: c7d1 3d3d a895 f83c b6f7 713c 5b7b a23b

action_model._continuous_distribution.log_sigma f4 [1, 2]
0.27808675 0.1961617
00000000: 6361 8e3e 9dde 483e

action_model._continuous_distribution.mu.weight f4 [2, 64]
-0.1587519 0.05318321 -0.03487129 0.07330174 0.06936129 -0.11749847 -0.03247289 -0.048630152
0.04350431 0.07878066 -0.068870634 0.009823665 -0.00707567 0.035507835 0.091773145 0.04212272
0.1129174 -0.0043343585 -0.030761866 -0.038197406 0.02689076 0.04542436 -0.03695963 -0.017120408
0.06570074 -0.11424154 0.09366868 -0.10772413 0.040235437 0.01203424 -0.10160359 0.00067549
-0.019566238 -0.0026178884 0.046601724 0.05360889 0.08645864 -0.00863296 0.005822261 0.10481415
0.06491096 0.04791465 0.05978084 -0.1057231 0.024295256 -0.10080053 -0.010463856 -0.09915415
0.028373323 0.035483055 -0.048341315 0.042842735 -0.053270902 0.08733793 0.041629035 0.08422664
-0.1011568 0.020282108 -0.0038565714 -0.022087697 0.0732799 -0.022031488 0.08202587 0.033369727
-0.025256526 0.03170354 -0.044121064 -0.002684211 -0.15121064 0.043535836 0.09873474 -0.1062566
-0.041771345 0.075277425 0.042932034 -0.06500313 0.09187831 0.072698794 0.029298944 0.030764297
-0.09787279 -0.018028075 0.015673129 0.04721908 0.05125049 -0.07228599 -0.08164091 -0.09266711
-0.0011256597 0.10544889 -0.011090825 -0.0110499 0.11830579 0.06762692 0.091984525 0.011956075
-0.01165514 0.06748407 0.028882198 -0.03633106 -0.15402913 0.095675625 0.044908993 0.033935584
-0.00630807 0.09432675 -0.002591347 0.060691953 0.051309224 0.077605404 0.053194735 -0.014801936
-0.018013204 0.07728036 0.06683373 0.0029397632 0.11856023 -0.010328849 0.045072407 -0.1188858
-0.07374895 0.057219356 0.03495407 -0.011316804 0.039983694 0.09317721 -0.109005995 -0.09571419
00000000: dc8f 22be a3d6 593d 33d5 0ebd 391f 963d
00000010: 4b0d 8e3d 0aa3 f0bd 4b02 05bd 6930 47bd
00000020: 9331 323d c157 a13d 0c0c 8dbd 70f3 203c
00000030: 06db e7bb aa70 113d 8ff3 bb3d e088 2c3d
00000040: 3d41 e73d 3c07 8ebb 4f00 fcbc e274 1cbd
00000050: 034a dc3c e50e 3a3d fb62 17bd 1940 8cbc
00000060: 1c8e 863d 78f7 e9bd 5dd5 bf3d 789e dcbd
00000070: eacd 243d 432b 453c 8b15 d0bd 5e13 313a
00000080: 6049 a0bc e190 2bbb 73e1 3e3d ff94 5b3d
00000090: 3a11 b13d 4271 0dbc aac8 be3b cda8 d63d
000000a0: 0af0 843d 2742 443d c1dc 743d 5a85 d8bd
000000b0: d806 c73c 8270 cebd 9870 2bbc 5511 cbbd
000000c0: 2c6f e83c ae56 113d 8b01 46bd dd7b 2f3d
000000d0: 9732 5abd 3bde b23d 3583 2a3d 047f ac3d
000000e0: 4c2b cfbd aa26 a63c 88be 7cbb 42f1 b4bc
000000f0: c613 963d 617b b4bc 2efd a73d b2ae 083d
00000100: c6e6 cebc 92db 013d 4ab8 34bd 96e9 2fbb
00000110: f6d6 1abe a252 323d 7035 ca3d 0f9d d9bd
00000120: 6e18 2bbd 0d2b 9a3d 80d9 2f3d 5c20 85bd
00000130: b22a bc3d 1be3 943d 5704 f03c 6805 fc3c
00000140: 8871 c8bd 9daf 93bc ef64 803c cb68 413d
00000150: 09ec 513d ad0a 94bd 5933 a7bd 41c8 bdbd
00000160: df8a 93ba 96f5 d73d 4bb6 35bc a40a 35bc
00000170: 4e4a f23d fc7f 8a3d 6262 bc3d 6ae3 433c
00000180: 33f5 3ebc 1735 8a3d 5c9a ec3c e1cf 14bd
00000190: d0b9 1dbe 95f1 c33d 7ef2 373d 0a00 0b3d
000001a0: edb3 cebb 622e c13d 97d3 29bb 2098 783d
000001b0: 9f29 523d 95ef 9e3d b9e2 593d d283 72bc
000001c0: 6d90 93bc 2a45 9e3d 1fe0 883d 0ba9 403b
000001d0: b5cf f23d 553a 29bc d89d 383d 667a f3bd
000001e0: b109 97bd d85e 6a3d 002c 0f3d 1e6a 39bc
000001f0: f1c5 233d b1d3 be3d 893e dfbd cd05 c4bd

action_model._continuous_distribution.mu.bias f4 [2]
-0.027493635 0.0031524238
00000000: 553a e1bc e598 4e3b

action_model._discrete_distribution.branches.0.weight f4 [3, 64]
-0.018911669 0.063972555 0.060328346 -0.120314024 -0.010907343 0.047208026 -0.053590488 0.02066289
-0.04925007 0.17025155 0.16076398 -0.119802274 -0.13706098 0.0065047326 -0.011666772 0.12559444
0.06439755 -0.039392505 0.0010089377 0.048347864 0.010850689 0.026821287 -0.025830634 -0.055712707
0.03956518 -0.06002514 0.021938616 0.019128393 0.061305255 -0.08846535 0.023007121 -0.03306231
-0.041110244 -0.06002232 -0.059841037 -0.018678768 0.046281908 -0.114410944 -0.04847491 0.03047467
0.06590268 -0.027141893 -0.119890235 0.09519048 0.048520762 0.07765317 0.036002357 -0.020147977
-0.06062211 -0.025452446 0.027731372 0.10226435 -0.0628686 0.05557523 -0.040483322 -0.04926766
0.0072662476 -0.07155462 -0.027785655 -0.16639921 0.015187487 0.024762064 0.01843835 -0.044592742
0.012978841 -0.04016156 -0.12049652 0.094748154 0.027559096 -0.06126466 0.12014659 -0.1110074
0.055282347 -0.22822848 0.0074558477 0.064831376 0.045258835 0.0093399305 0.030756356 -0.09763513
-0.037535474 0.035220042 -0.23071338 -0.11783908 0.0137098115 -0.06706031 0.102526456 -0.14671597
-0.07209987 0.025043296 -0.022191 0.07934713 0.033747546 0.213596 0.0030096048 -0.090697035
0.064492136 0.17045055 0.17516318 -0.055120256 0.042616084 0.15615277 -0.021273704 -0.07923152
-0.12352757 0.0772672 -0.0718842 -0.07075514 0.052089423 -0.03715068 -0.0788099 -0.046554644
0.031729914 0.043866005 -0.029156754 -0.13466877 -0.027058572 0.011326123 -0.057919845 -0.086663716
0.016125152 0.17650367 -0.030494807 0.055214833 0.10167931 0.040436435 0.06727925 -0.1578235
0.03432131 0.015465849 0.05251774 0.03650923 -0.039166786 0.04697288 -0.1362777 0.097192526
0.008016658 0.024943862 -0.20737167 0.066493504 0.15171708 0.003960684 -0.086209886 -0.10614971
-0.050490405 0.008682092 0.20027496 0.040940985 -0.028158017 -0.012989069 -0.06572882 0.16126253
0.06709809 0.018178545 -0.020082349 -0.104532816 -0.13835342 -0.19102558 0.001733595 0.16760294
-0.023572082 -0.17813139 -0.11906782 0.066589504 -0.106062576 -0.037727274 0.0752683 0.061080948
0.035199802 -0.046860885 0.18664321 -0.035288546 -0.11540376 -0.06563056 0.06369778 0.09105029
0.040804192 -0.07139763 -0.042251926 -0.036214843 0.10583967 -0.08088354 0.068391465 0.14540009
-0.03926903 -0.14627266 0.09166515 0.08777174 -0.13799381 -0.08523129 -0.13031848 0.17616177
00000000: a5ec 9abc 0b04 833d db1a 773d 3367 f6bd
00000010: b6b4 32bc 345d 413d b381 5bbd 3945 a93c
00000020: 71ba 49bd 6c56 2e3e 509f 243e e55a f5bd
00000030: b759 0cbe a725 d53b fd25 3fbc d49b 003e
00000040: dde2 833d 095a 21bd 553e 843a 6908 463d
00000050: 17c7 313c 51b8 db3c c49a d3bc 0233 64bd
00000060: 190f 223d ecdc 75bd 9db8 b33c 26b3 9c3c
00000070: 381b 7b3d 522d b5bd 6e79 bc3c 586c 07bd
00000080: 3763 28bd f7d9 75bd e01b 75bd 3704 99bc
00000090: 1992 3d3d 4950 eabd a18d 46bd 04a6 f93c
000000a0: fcf7 863d ad58 debc 0389 f5bd 3af3 c23d
000000b0: b5bd 463d a008 9f3d 3577 133d 5f0d a5bc
000000c0: e44e 78bd a681 d0bc e72c e33c f96f d13d
000000d0: 41c1 80bd daa2 633d d7d1 25bd e3cc 49bd
000000e0: b419 ee3b 3b8b 92bd be9e e3bc 8e64 2abe
000000f0: f0d4 783c d0d9 ca3c 060c 973c e1a6 36bd
00000100: 34a5 543c 7380 24bd e1c6 f6bd 520b c23d
00000110: 9dc3 e13c a7f0 7abd 6a0f f63d d957 e3bd
00000120: be6f 623d bab4 69be 2f50 f43b 50c6 843d
00000130: 5461 393d 8206 193c c1f4 fb3c edf4 c7bd
00000140: ccbe 19bd e442 103d 2140 6cbe 9e55 f1bd
00000150: 1e9f 603c ea56 89bd 64f9 d13d b63c 16be
00000160: 19a9 93bd 9927 cd3c e6c9 b5bc c080 a23d
00000170: de3a 0a3d e9b8 5a3e ca3c 453b 5ebf b9bd
00000180: 7414 843d 978a 2e3e fa5d 333e c7c5 61bd
00000190: 348e 2e3d 83e6 1f3e 3146 aebc 2344 a2bd
000001a0: 06fc fcbd 443e 9e3d 0638 93bd 12e8 90bd
000001b0: b85b 553d 502b 18bd 1667 a1bd 15b0 3ebd
000001c0: 3af7 013d d7ac 333d 25da eebc 9ce6 09be
000001d0: f0a9 ddbc 3491 393c 5c3d 6dbd bf7c b1bd
000001e0: e518 843c 61bd 343e 3fd0 f9bc f328 623d
000001f0: 3e3d d03d ada0 253d b4c9 893d 7c9c 21be
00000200: 8194 0c3d 7964 7d3c d71c 573d b48a 153d
00000210: 5a6d 20bd a266 403d 628c 0bbe e00c c73d
00000220: 4d58 033c 1257 cc3c 3d59 54be bf2d 883d
00000230: b95b 1b3e a0c8 813b cf8e b0bd 0565 d9bd
00000240: 07cf 4ebd 553f 0e3c e114 4d3e bcb1 273d
00000250: a4ab e6bc 1bd0 54bc d59c 86bd 0122 253e
00000260: b96a 893d 2ceb 943c bd83 a4bc 4d15 d6bd
00000270: 85ac 0dbe 369c 43be cc39 e33a 1ba0 2b3e
00000280: 3d1a c1bc 1368 36be d4d9 f3bd 1460 883d
00000290: 5637 d9bd ea87 1abd 4426 9a3d 0430 7a3d
000002a0: ab2d 103d 33f1 3fbd 661f 3f3e b98a 10bd
000002b0: ce58 ecbd 5169 86bd fb73 823d 9378 ba3d
000002c0: 4c22 273d ec38 92bd 5b10 2dbd 0456 14bd
000002d0: 78c2 d83d 45a6 a5bd d310 8c3d c3e3 143e
000002e0: 90d8 20bd 80c8 15be f0ba bb3d acc1 b33d
000002f0: 404e 0dbe be8d aebd 3572 05be c063 343e

action_model._discrete_distribution.branches.0.bias f4 [3]
0.046647813 -0.021426111 -0.032895166
00000000: c711 3f3d d085 afbc 15bd 06bd

action_model._discrete_distribution.branches.1.weight f4 [3, 64]
-0.046879306 -0.07697201 0.03685018 0.049141925 0.022285052 -0.020129135 0.041111954 0.07409238
-0.018899217 0.045880873 0.041994452 -0.0043427483 -0.016051566 0.050038002 0.050511107 0.007942222
-0.018006599 0.012141584 -0.0062369206 0.04049843 0.047205575 -0.047356077 -0.060079884 0.05899114
0.041310407 -0.001331106 -0.002677342 0.061607737 0.07723346 0.016745368 -0.010540636 0.048073716
0.023604143 0.07260151 -0.010721199 0.029929584 -0.03849717 -0.06916922 0.04746882 -0.013156643
0.036461912 0.10390915 0.06012509 -0.023748996 0.07361703 -0.05169494 0.071502805 0.06227359
-0.058294583 0.040413838 -0.024135461 0.058014855 0.06797367 -0.094043754 -0.028137889 -0.03507013
-0.06836916 0.057109654 0.025966223 -0.02620035 0.009055622 -0.08310834 0.07337188 0.025020532
0.1395367 0.15998507 -0.0599631 -0.024317566 -0.023871094 -0.041023314 0.042344302 -0.06322323
0.04483425 0.0715668 -0.10284388 0.07881235 -0.020346476 0.006308744 -0.0119683705 -0.010576687
-0.032131072 -0.0063973563 -0.18570623 -0.105663866 0.0747336 0.07149288 -0.025554346 -0.10187638
-0.07379401 0.05985586 -0.0066017956 -0.058943454 0.014947289 -0.20844202 -0.0647515 -0.16729796
-0.07572346 -0.20319736 0.06720683 0.008539978 0.019868247 -0.12212851 -0.015070998 -0.00085533183
-0.00044579935 -0.0552313 -0.035636984 0.021351526 0.075773045 -0.024455724 0.022374686 -0.016020497
0.0149773965 0.012907442 0.060266424 -0.03792351 0.071917236 0.097614184 0.0632881 0.16243924
0.08165582 -0.08643254 -0.08839074 0.05860181 0.12352323 -0.21506089 -0.025356086 0.07981043
-0.03881703 -0.07081674 -0.010535395 -0.03296437 0.016737403 0.05577456 -0.10915371 -0.040275607
0.020708807 -0.17239614 0.03595842 -0.048434205 0.07351274 -0.045049645 -0.04151061 -0.00034148977
0.045934953 0.017040428 0.11774569 0.04043552 -0.15556031 -0.010430575 0.10424336 0.019563917
-0.010458235 -0.03521129 0.055477824 -0.0030043088 -0.12582053 0.13176227 0.07077709 0.06229065
0.07107607 0.076206125 -0.048588097 -0.02396248 -0.004631899 0.14651813 -0.06240638 0.056218438
-0.044877283 -0.04165886 -0.021333024 0.0044907564 -0.15525536 0.041724622 -0.116236195 -0.037705366
0.027609818 -0.14612094 -0.021514978 -0.032159477 -0.10089498 0.029705636 -0.003544423 -0.2234126
-0.020077407 0.044342894 0.038221475 -0.040348496 -0.2150572 0.18909709 -0.026912132 -0.09145376
00000000: 8404 40bd 80a3 9dbd 37f0 163d 0b49 493d
00000010: 248f b63c dbe5 a4bc 0265 283d bfbd 973d
00000020: 88d2 9abc 95ed 3b3d 6002 2c3d 9d4d 8ebb
00000030: 937e 83bc a6f4 4c3d bce4 4e3d 1820 023c
00000040: 9382 93bc 7fed 463c 155f ccbb afe1 253d
00000050: a25a 413d 72f8 41bd 5316 76bd b2a0 713d
00000060: 1a35 293d 8178 aeba 5876 2fbb 6558 7c3d
00000070: 942c 9e3d 952d 893c a2b2 2cbc f2e8 443d
00000080: 7a5d c13c 1ab0 943d f8a7 2fbc e32e f53c
00000090: 35af 1dbd 98a8 8dbd aa6e 423d f68e 57bc
000000a0: 1659 153d 52ce d43d ba45 763d 418d c2bc
000000b0: 87c4 963d 13be 53bd 1070 923d 9812 7f3d
000000c0: 4dc6 6ebd fb88 253d bbb7 c5bc fca0 6d3d
000000d0: c835 8b3d 039a c0bd 6e81 e6bc b2a5 0fbd
000000e0: 2105 8cbd d0eb 693d 1eb7 d43c 1ea2 d6bc
000000f0: 085e 143c b534 aabd ff43 963d dcf7 cc3c
00000100: b5e2 0e3e 20d3 233e de9b 75bd a235 c7bc
00000110: 508d c3bc 1008 28bd 3871 2d3d 2e7b 81bd
00000120: 1ea4 373d 9d91 923d d09f d2bd 5f68 a13d
00000130: a7ad a6bc 95b9 ce3b fc16 44bc d749 2dbc
00000140: df9b 03bd eaa0 d1bb c629 3ebe 4c66 d8bd
00000150: ee0d 993d dc6a 923d 5957 d1bc 90a4 d0bd
00000160: 5021 97bd 6b2b 753d e053 d8bb b16e 71bd
00000170: 79e5 743c d371 55be 6f9c 84bd 2850 2bbe
00000180: e714 9bbd f812 50be bca3 893d 44eb 0b3c
00000190: bcc2 a23c 831e fabd 59ec 76bc 5938 60ba
000001a0: 2dba e9b9 373a 62bd 16f8 11bd 65e9 ae3c
000001b0: e62e 9b3d 5f57 c8bc 1e4b b73c 6b3d 83bc
000001c0: c163 753c bc79 533c edd9 763d af55 1bbd
000001d0: 5849 933d f2e9 c73d 319d 813d 7956 263e
000001e0: 2b3b a73d 8b03 b1bd 3406 b5bd 7408 703d
000001f0: bff9 fc3d ec38 5cbe 91b7 cfbc a773 a33d
00000200: 9bfe 1ebd 5e08 91bd a69c 2cbc a605 07bd
00000210: e11c 893c dd73 643d fb8b dfbd 09f8 24bd
00000220: 84a5 a93c 9d88 30be 2349 133d f262 46bd
00000230: d98d 963d fa85 38bd 0807 2abd fb09 b3b9
00000240: 4a26 3c3d 5e98 8b3c a724 f13d b79f 253d
00000250: 344b 1fbe 01e5 2abc 8b7d d53d 8244 a03c
00000260: 0459 2bbc b739 10bd b73c 633d f0e3 44bb
00000270: 19d7 00be b0ec 063e 94f3 903d 7b24 7f3d
00000280: 5590 913d f511 9c3d 5004 47bd f64c c4bc
00000290: 2fc7 97bb d908 163e d59d 7fbd 4e45 663d
000002a0: 3ed1 37bd 7ba2 2abd 98c2 aebc 3227 933b
000002b0: 43fb 1ebe 70e7 2a3d 3e0d eebd f170 1abd
000002c0: fc2d e23c baa0 15be 2e40 b0bc a8b9 03bd
000002d0: 07a2 cebd 3c59 f33c 8d49 68bb 46c6 64be
000002e0: 6079 a4bc e5a0 353d 1f8e 1c3d 7744 25bd
000002f0: f437 5cbe aba2 413e d576 dcbc 1c4c bbbd

action_model._discrete_distribution.branches.1.bias f4 [3]
0.03975679 -0.017848516 -0.03610854
00000000: 04d8 223d 0d37 92bc 8ce6 13bd
