results/MLHades_main_10_grid48x48cellsize0_75x0_75/MLHades/MLHades-1999970.onnx (onnx, 256426 bytes, 22 tensors)

discrete_action_output_shape f4 [1, 4]
00000000: 0000 4040 0000 4040 0000 4040 0000 0040
3.0 3.0 3.0 2.0

network_body.observation_encoder.processors.1.conv_layers.0.weight f4 [16, 7, 8, 8]
00000000: cc20 213e c9c5 bd3d f053 b93d fed0 4b3c
00000010: 3a8c ad3c f3df 463d bded 59bd 9f0d aabd
00000020: dd23 f93d a522 c53c 7cbc 1e3d 8668 30bd
00000030: 4ba3 c9bc 9c58 4b3b 0b41 d4bc 5e0e 31bd
00000040: 8b16 2b3d 5f9e 9a3d 4677 8f3d b263 d13b
00000050: 0ec3 e73d 2acd 243d 2510 883d b791 75bd
00000060: 38b4 e73d 44b7 a03d 6a55 573d 0971 3a3c
00000070: 2b10 433c 35ca da3b f146 d03c 1341 0abd
00000080: e594 303e c348 833d 63b4 9c3d aff8 25bc
00000090: d91b 823d 2b15 a73d 4cf0 403d dc8b 1ebd
000000a0: 8621 d33d e784 923d 4a85 c13d 9309 813c
000000b0: 4443 9d3d 215b d3ba 4259 e1bb 2961 a83c
000000c0: 220d 843d f192 99bc d818 3d3d 8276 50bd
000000d0: 4792 a43a c64a ecbc 8ce0 dc3b 752c a1bd
000000e0: 895e af3c ae46 e43c baac ba3d 72dd 8c3d
000000f0: 960a df3d e80a c33d 4eed 953d 5327 013d
00000100: 6eea ed3d 9220 c63c 7110 063e b116 b03d
00000110: 7ac8 333e 45fc 1c3e 1d73 db3c 79c6 bd3d
00000120: 6753 a23d 123a 3d3e e440 9b3d f6eb d43d
00000130: 0504 f23c 122b 04bd a47c 913d 6a6d 163e
00000140: dc9a f33d 0d2d 213e af00 333d 581e 413c
00000150: 0d72 80bd 1f53 96bd 6987 2e3e d91f ec3d
00000160: d6e7 a6bc fb80 6dbd 4551 b1bc e24d 0abe
00000170: 552f e33c 34e6 2abd 2d06 e53d d934 193c
00000180: 1862 92bd 9eb2 d1bd e018 1bbe c35d 11bd
00000190: 1062 ad3d 6baf fc3d 73e7 febc 09ee 7f3d
000001a0: 306e bdbd b178 2a3d 8211 aebc 2fa0 e3bb
000001b0: a9cf 863d 3bed 2f3d 9b59 5c3c 19ae ab3b
000001c0: 09ad 5dbd 9298 9ebd 64f2 9439 53f7 b73d
000001d0: 3fdb 063d 2a60 57bc 5682 bd3d 885e 083e
000001e0: 108b 51bd 439d c3bb c959 86bd 42a9 2dbd
000001f0: 079c c73d ee1f 78ba d21f 1e3d c2fb e23d
00000200: b573 1abc 6d4e a8bb f098 893d e53b cd3d
00000210: 03c9 d23d 4f76 4fbc a81c 2fbd e5fb 733d
00000220: 6b58 983d 5abb 2a3d aea0 e73d 99b7 353e
00000230: ea9e 253e 2b70 c23d e2cc c1bc 14c9 b13d
00000240: 6d41 8d3d 4164 703d f519 6e3d 976d b23d
00000250: 2dec 263e 8852 0e3e a66a 483e 6a02 0a3e
00000260: ae01 49bd 144e e73c a955 b7bd c309 633c
00000270: d773 853c dd28 22bd 9370 993d a60b 243a
00000280: 5a8a 62bd f102 eabb 180b 5e3d bc71 2fbd
00000290: 3996 993d a679 cebc 02a4 083d 3b87 a33d
000002a0: 1612 02bd 37a3 c2bc c110 97bd 122d 94bd
000002b0: 73e1 8b3d ebcc 823c e688 903d 7eba 993d
000002c0: b29b fe3c 6db5 ef3b 8374 5bbd adfc de3c
000002d0: c60a 383d 4163 8f3d c838 903d ecdf c53d
000002e0: b3a9 98bd 7670 87bd 4672 5fbd 44ec d2bd
000002f0: 0ac4 24bd 2fde 15bd 6d82 f8bc 52e7 323d
00000300: 2a5d b4bd 6338 adbd 4cc3 00be 19ec 4cbd
00000310: 3a81 aa3d 80b0 9dbb a1bf efbc 8534 a6bc
00000320: 0f78 043d 125f c5bd d13c 37be 0993 f3bd
00000330: d02d e7bd b0ac 9bbd a3c0 22be 504e fdbd
00000340: 2cfa bc3c c2c5 1ebc 77f2 95bc 5a30 1f3c
00000350: 5628 bb3b d1dc 2c3c ba44 12be 5ce4 f9bd
00000360: bd85 9f3d fa37 ef3c c42d 853d 5921 d63d
00000370: 7b8b 1c3d c75f c03d bcc0 053d aa19 9a3d
00000380: fd8f d53d c682 6b3d 6662 693c adf1 a83d
00000390: ac74 b63d 9341 f03d 95cf 003d c5d6 de3d
000003a0: 57b6 a63d c1d9 003c cb37 fabc 18fc c83d
000003b0: f7b6 c83d aa26 b03d 401a b13d ad2d 013e
000003c0: a48c 093d 0d43 bd3d ff99 afbc 415a a33c
000003d0: a426 223d ae7c c73d 3094 33bd 01b8 9e3d
000003e0: bbf6 e6bd e1ee 17be c406 02be 4ff7 7b3a
000003f0: cbe9 4a3c 54f3 72bd f15b 91bc 5eaa 733c
0.15735167 0.0926624 0.09049213 0.012439964 0.02118503 0.04855342 -0.05320524 -0.08303379
0.121650435 0.024064371 0.03875397 -0.04306843 -0.024613997 0.0031028157 -0.025909921 -0.043226592
0.041769546 0.07549738 0.070051715 0.0063900584 0.113165006 0.040234722 0.06643704 -0.059953418
0.11313671 0.07847455 0.05257169 0.011379489 0.01190571 0.006676937 0.025424452 -0.033753466
0.17244299 0.064103626 0.076515935 -0.010130092 0.06352968 0.08158334 0.047104165 -0.0387076
0.103091285 0.07154255 0.09449251 0.015751636 0.076788455 -0.0016125181 -0.0068770954 0.020554142
0.064478174 -0.018746825 0.04616627 -0.050894268 0.0012555801 -0.028844249 0.0067406353 -0.07869808
0.021407383 0.027865734 0.09114976 0.06878175 0.10890691 0.095235646 0.07320653 0.031531643
0.116169795 0.024185453 0.1309221 0.08598078 0.17556944 0.15330608 0.026788289 0.09266371
0.07926064 0.18479183 0.07580736 0.103965685 0.029542932 -0.032267638 0.071038514 0.14690176
0.118947715 0.15739842 0.043701824 0.01178702 -0.062717535 -0.07340073 0.17043842 0.11529512
-0.02037422 -0.057984333 -0.021645198 -0.13506272 0.02773253 -0.041723445 0.111828186 0.009350979
-0.07147616 -0.10239147 -0.15146208 -0.03548981 0.084659696 0.12338146 -0.031116223 0.062482867
-0.09249532 0.041619007 -0.021248583 -0.0069465856 0.06582577 0.04295085 0.013449098 0.00523926
-0.054120097 -0.07743944 0.00028409355 0.0898272 0.032923933 -0.013145486 0.09253375 0.13317311
-0.05115801 -0.005969675 -0.06560094 -0.042397745 0.09746557 -0.0009465207 0.038604565 0.11083175
-0.009427001 -0.005136302 0.06718624 0.100211896 0.10292246 -0.012662484 -0.042751938 0.059566397
0.074387394 0.04168258 0.11309944 0.17745818 0.16173902 0.094940506 -0.023657266 0.08680931
0.068972446 0.05868936 0.058130223 0.08712309 0.16301031 0.1389867 0.19571933 0.13477483
-0.049073867 0.028235473 -0.08951885 0.013857308 0.016290588 -0.03958975 0.07492175 0.0006257839
-0.055307724 -0.007141464 0.0542098 -0.042833075 0.07499356 -0.02520449 0.033359535 0.079847775
-0.03175553 -0.023759468 -0.073762424 -0.07235159 0.068301104 0.015966853 0.07057361 0.07506274
0.0310801 0.007315329 -0.05357791 0.027220095 0.04493215 0.07001353 0.0704208 0.0966185
-0.074542426 -0.06613247 -0.05455234 -0.1029897 -0.04022602 -0.036588844 -0.03033563 0.043677635
-0.08806832 -0.084580205 -0.125745 -0.050029848 0.08325429 -0.0048123 -0.02926618 -0.020288715
0.03234106 -0.09637274 -0.17894293 -0.11893279 -0.11288035 -0.07601297 -0.15893798 -0.123684525
0.02306851 -0.009690704 -0.018304093 0.009716118 0.0057115955 0.010550694 -0.1428403 -0.12201759
0.077891804 0.029201496 0.0650287 0.10455579 0.038218956 0.09393268 0.03265451 0.07524426
0.10427854 0.057497762 0.014244651 0.08249221 0.08908972 0.11731257 0.031447966 0.10880808
0.08140247 0.007864417 -0.030544182 0.09813708 0.09800523 0.086011246 0.08647585 0.1261508
0.03358139 0.092413045 -0.021435736 0.019940497 0.03958763 0.09740578 -0.043842494 0.0774994
-0.11277529 -0.14837219 -0.12697893 0.0009611742 0.012384842 -0.059314087 -0.017744036 0.014872162

network_body.observation_encoder.processors.1.conv_layers.0.bias f4 [16]
00000000: 1c2c 7f3c 88db 37bc cda7 15b9 e8a7 03bc
00000010: 2dcb 113c f9e2 83b9 112f a1bd e872 02bc
00000020: 3b72 4d3c 8060 08bc 3bdb b0bb 81fa afbb
00000030: 9ea3 abbc 7cb8 193d 803e 183c 62cd 413d
0.015574481 -0.011221774 -0.00014272258 -0.008035637 0.008898539 -0.00025155375 -0.07870305 -0.007961966
0.012539442 -0.008323789 -0.005397228 -0.0053704386 -0.020952042 0.037529454 0.009292245 0.04731501

network_body.observation_encoder.processors.1.conv_layers.2.weight f4 [32, 16, 4, 4]
00000000: 35ba 913d eac4 88bd d12e c0bd 9380 ec3d
00000010: d386 19bc 0b8a a1bd 5b44 133d 4384 bdbc
00000020: d51f 52bd bfac bdbc 669b 50bd fe73 ccbc
00000030: e4d0 3ebd 69d5 10bd a740 dbbd b365 acbd
00000040: 6409 b63b 1d22 0abd e1f5 58bd fc94 ffbc
00000050: 8dbd e23c 9c19 8dbd eceb d0bc dc8c ccba
00000060: 3620 9b3d f8c6 14be b9bd f03d f015 043d
00000070: 55ba 2bbd c048 5f3c 3c5e bd3d dad9 023e
00000080: eab2 023e eff5 f73d 1824 de3d 5b83 b03d
00000090: a4af c1bd 28b9 983d c50c b63d a5e7 1d3d
000000a0: a86a 833b 3326 8f3c 220c 9d3d 6319 2f3e
000000b0: 896a dc3d aed2 663e 234a 783d ac24 e13d
000000c0: b429 adbc 5fee 813b c31e 393d 6d15 033e
000000d0: 5d9b 85bc cfb5 78bd e465 653d 710f 413e
000000e0: 3aba 623d acb5 94bc 72a4 dd3c 3d66 dc3d
000000f0: 5031 473e 187e 023e c971 753e af3d 293e
00000100: 90db 153d 8356 15bb bb24 4bbd 9003 88bc
00000110: 5ab0 a63d 2063 2cbd b752 8a3c 4fd9 df3c
00000120: f87f 273d 12f5 24be 0092 81bd 3442 cabc
00000130: b78a 48bc d145 ecbc bde1 213e a1c5 213e
00000140: db5c 123e 9dc4 86bb c5e7 113d 0c2a c53d
00000150: b6eb 8f3c aeb5 9abd 7cb2 543d c13f c73d
00000160: 7fad 643d 3464 3ebd d135 c83d 3737 ff3d
00000170: 6328 963c bb7f 0c3e 65ba 3e3e 825c a43d
00000180: c585 40bd 22a4 0dbe c06e 84bd c331 09be
00000190: ff37 83bd fa8a be3c 257b f0bc 363d e1bd
000001a0: 9a1c 013c f32f 5f3d c38a 9f3a bb0f 91bd
000001b0: c65d 10bd 547d dfbd 9dcb f9bd 7ea2 9dbd
000001c0: 286f b63d 15db c03b 0e12 ccbd e0a8 fc3d
000001d0: 85bc fc3d 1025 fa3d ec08 42bc ad17 fdbd
000001e0: db0a 273d 6dc8 1e3d d668 633d 9862 d53d
000001f0: 74a2 003e afc6 57bd e8a6 f1bc b89f 48bd
00000200: e2ac d2bd b2d3 b23c 5bdc 993c 949f 05be
00000210: cd24 be3d 71dc 133d b73b d73d e1f9 823c
00000220: 374e 55bd 258b 52be 122c 88bd d74f 77bc
00000230: 7609 22bd 288f 023d 2b47 cdbc a08a 253d
00000240: 8055 c13d 3ff5 2dbd 097e e3bd cc61 4b3c
00000250: ff88 e33c 2514 91bb 9062 88bd 6e1d a53d
00000260: e936 043c 2526 153d 66e7 c9bc bfea 253d
00000270: 21cd c13d 8d90 383d 87d8 693c 54d4 f43c
00000280: 4f3b 5d3c 2fe0 823d 5c06 583d dfec 3e3e
00000290: 8d9e 4fbd 6f91 87bb ea70 153d aa4f 973c
000002a0: 1eac 083e 134b 683b 7ffb c23d 4fef 0a3e
000002b0: d1a7 3c3e 27ad 023e 4b7b 273e 0c65 de3c
000002c0: b37a 513e e7a8 b43d 7722 37bd c70a 193e
000002d0: 91fd 783d 2b35 1e3d dbad ea3d 95a7 243e
000002e0: def8 e53b 68af a7bd 20f9 a53c fcce 013d
000002f0: cd61 603c a83f f03c fa92 933d c6ee c7bc
00000300: 06b7 88bd eecd 3fbd 0bfe d03c 1ea6 803c
00000310: 3385 6b3d 5b3c 143b fe0e 923c 9ec6 abbc
00000320: 73d5 b83b 2469 0b3c 40a5 1d3b d728 d73c
00000330: 3c70 a83d f2ac cabd 3670 59bd 2bcd 5c3d
00000340: a52a 9f3b b6ae 40bd cea2 99bd e58f cdbd
00000350: 644e be3c 48a1 8abd d38e f1bc eb96 6cbc
00000360: df92 a93d 15d4 19be 5cb5 8bbd 9562 84bd
00000370: 57df a03d 1c05 583b 5edd da3d 84b2 b2bd
00000380: a4f6 683d bb86 603e 7e76 b23d 2fb1 983c
00000390: ddea d6bc ca5f 18bd 848d 6abd 4bfa 5839
000003a0: 3e05 47ba 8af8 1bbd d720 4abb cb3e bebb
000003b0: 4e53 ef3d 46a1 d53c 7c57 e13d 7af7 283d
000003c0: 2f99 69bd 245f a93d 9ce1 9e3c 74e5 0dbd
000003d0: 067d c03d 48aa 153d 92eb 88bd f29e 2c3d
000003e0: 6bc1 2fbd 7e7a ce3c 04f0 cabd e189 f2bc
000003f0: dcf7 81bd c9fd 81be 38be 71bd ac30 e1bc
0.07115594 -0.066781834 -0.093839295 0.11547961 -0.0093705235 -0.07887658 0.03595386 -0.023134356
-0.05129989 -0.02315366 -0.05092945 -0.024957653 -0.046585932 -0.035359774 -0.10705691 -0.08417835
0.0055553187 -0.03372394 -0.052968863 -0.031198971 0.027678275 -0.0688965 -0.025503121 -0.0015605944
0.07574503 -0.14529026 0.11754937 0.032247484 -0.041925747 0.013628185 0.092464894 0.12778416
0.12763563 0.12107455 0.10846728 0.08618804 -0.09457329 0.07457191 0.08889154 0.03855099
0.004010517 0.01747427 0.0766833 0.17099528 0.107625075 0.22541305 0.060617577 0.10993323
-0.02113805 0.0039651836 0.045195352 0.12801142 -0.016309435 -0.06072026 0.056005374 0.18853547
0.05535338 -0.018153034 0.027055953 0.10761688 0.19452405 0.12743413 0.23969187 0.16527437
0.036586344 -0.002278716 -0.049595576 -0.016603261 0.08139105 -0.04208672 0.016885145 0.0273253
0.040893525 -0.16109112 -0.063266754 -0.024689771 -0.012240103 -0.028841885 0.15808769 0.15798046
0.14293234 -0.0041127936 0.035621423 0.096271604 0.01756845 -0.07554184 0.05192803 0.09728957
0.05582952 -0.04648228 0.0977589 0.12461703 0.018329805 0.137206 0.18625791 0.08025457
-0.047002573 -0.13832143 -0.064664364 -0.13397889 -0.06407165 0.023259629 -0.029355595 -0.10998003
0.007880354 0.054489087 0.0012172092 -0.070830785 -0.03524568 -0.10912576 -0.12197039 -0.076970086
0.0890792 0.0058854916 -0.09964381 0.12336898 0.12340645 0.122141 -0.011842947 -0.123580314
0.040781837 0.03876536 0.0555199 0.10419196 0.12561971 -0.052679714 -0.029498532 -0.048980445
-0.10286881 0.02182946 0.018781831 -0.13049155 0.09284363 0.0360989 0.105094366 0.015988292
-0.052076545 -0.20560892 -0.06649031 -0.015094719 -0.039559804 0.031874806 -0.02505835 0.040415406
0.09440136 -0.042470213 -0.11108024 0.012413453 0.027775286 -0.0044274502 -0.06659424 0.08062254
0.008069732 0.03641333 -0.024646472 0.040507074 0.09462953 0.04505973 0.014272816 0.029886402
0.01350291 0.06390416 0.05274044 0.18645047 -0.050688315 -0.00413721 0.036484636 0.018470604
0.13346907 0.0035445138 0.09520625 0.13567851 0.18423392 0.12761365 0.16355626 0.027147792
0.20456962 0.08821278 -0.044710603 0.14945517 0.060788695 0.038624924 0.114589415 0.16079552
0.0070181927 -0.08187753 0.020260394 0.031691536 0.0136951925 0.029327229 0.07205768 -0.024405848
-0.06675534 -0.04682725 0.025511762 0.01570421 0.057500076 0.0022618982 0.017829414 -0.020968731
0.0056406795 0.008508954 0.0024054796 0.026264591 0.08224532 -0.09896268 -0.05308553 0.0539066
0.0048573785 -0.047041617 -0.07501756 -0.10037211 0.023230739 -0.06769043 -0.02948705 -0.0144402785
0.082799666 -0.15022309 -0.06821701 -0.064641155 0.07855099 0.003296203 0.10686754 -0.087254554
0.05687584 0.21926396 0.08714007 0.018639175 -0.026235038 -0.037200727 -0.057263866 0.00020692607
-0.00075920287 -0.038078822 -0.0030842328 -0.0058058253 0.11685811 0.026077878 0.110030144 0.041251637
-0.057030853 0.082701 0.019394688 -0.03464265 0.09398846 0.036539346 -0.066855565 0.04214377
-0.042909067 0.025204893 -0.099090606 -0.029606761 -0.063461035 -0.25388935 -0.059019297 -0.027489029

network_body.observation_encoder.processors.1.conv_layers.2.bias f4 [32]
00000000: efc5 8bbd 0920 3d3c c390 243d 3112 d0bc
00000010: 12a2 103c 345e 9639 5209 1dbd 7c5c 2bbd
00000020: 70b5 99bd 1ac6 ae3c e282 d13c 308a ac3c
00000030: cc1e 2bbc 2c8c 4abd e9be 203d ac01 2fbd
00000040: 0fe8 22bd 7eaa 88bc 2ca3 d93c f714 3ebc
00000050: b1ec c93c 4fe7 29bd 377b efbd 9b28 17bd
00000060: 2e15 9b3d 4894 bdbd 21c5 a7bc 8cd9 75bd
00000070: 7b40 a0bd b15d a5bd 79e4 5ebd 0e23 d3bc
-0.06824862 0.011543282 0.040177118 -0.0253993 0.008827703 0.00028680416 -0.038338967 -0.041836247
-0.075053096 0.021334697 0.025575105 0.021061987 -0.010444354 -0.049450085 0.039244566 -0.042726204
-0.03977209 -0.01668286 0.026567064 -0.011601678 0.024648996 -0.04148036 -0.11693423 -0.03690396
0.07572399 -0.09256798 -0.02047974 -0.060021922 -0.07824799 -0.08074511 -0.054417107 -0.025773551

network_body.observation_encoder.processors.1.dense.0.weight f4 [64, 512]
00000000: 6cb1 21bd 8779 f23b c34d ce3d e2bc 6a3c
00000010: df63 8a3d 0a0a e73b bf31 c5bd 26ae 90bc
00000020: 6a71 423d 5837 83bc d261 013d c545 8bbe
00000030: 3368 afbd b307 32bc 7039 42bd 2c7d 95bd
00000040: 63ab bbbd a3d6 13be 15b1 2c3d e9a2 90bd
00000050: 1e2c 2a3d 6e90 41bd e876 a3bb 2e99 b4bd
00000060: 48ea 863d c3a7 22be 226e da3c 1015 8ebd
00000070: 46b4 76bc d3d9 1d3e c73d 27bc 6457 06bd
00000080: 33bf d639 0055 db3d ce5f 193d 2a86 313d
00000090: 8936 ee39 b9d1 ac3d c4e0 ac3d b06a f63d
000000a0: 3352 3a3d 117a 653d 65b3 00bc 573d b23d
000000b0: cf3f 073e 624a 48ba ac3b 9d3d 6aa0 d5bb
000000c0: 5bd6 6d3d 1313 313d f7f1 8c3d fef0 c43c
000000d0: 788b 24be b55f eebc 0502 803d 964a 68bd
000000e0: 870e 81bc cb7e 253d 17ea 6dbd af6b 91bd
000000f0: 8cfa bebc cafe 2bbc 4838 c13c 47a1 853d
00000100: 9460 24be a67a 27bd 849b 41bd d988 0dbc
00000110: f9d2 8fbc dcf5 44bb 583f 1bbd 62d4 a63d
00000120: 5643 d93c 2637 9ebd 3a32 dcbc e0fa 263d
00000130: 7412 783d e3f7 4dbd 102e 843c c19c 29be
00000140: 9a81 fe3c e506 223d 6d68 c93c 0417 973d
00000150: 9389 00bd b550 e0bd 11b9 b53c ab65 f0bc
00000160: 4088 043d cfdd adbd 73aa 29bd 8d3d b4bd
00000170: 03eb 603d d130 263d 5c6d 87bd cafb 10be
00000180: 942c c1bc c3bd 5f3d f920 cd3d 5470 04be
00000190: b51c 3cbc cb0a 00bd 3900 6b3b 938c be3d
000001a0: 261a a5bc 5f11 133d 06ab 18bd 4188 583d
000001b0: 5575 823d 6833 ff3d d7ad 86bd 14c2 4bbd
000001c0: 8a74 2b3d a1c3 8f3d a797 d53d 6e7c 8bbb
000001d0: 0a7f 1dbe 195a 58bd 4965 b8bc c89c 1f3d
000001e0: 8ecb 233e ac43 47bd b577 da3c 28fc 61bd
000001f0: f1a0 ad3d 606f d83c e200 85bd 0758 ca3c
00000200: 19e6 243d bb27 293c 48e7 8b3e 16a7 a13d
00000210: 4291 003d bceb 833d d987 2abd 8170 eb3c
00000220: d2a8 293d 1d6a 67bd 09a0 26bd dc60 3dbd
00000230: 2b14 6a3d a21a 60bd 2f76 56bd ec3f 11be
00000240: a6ce e53d fa92 ed3d 8b93 583d 5168 883d
00000250: 5711 b03a 37d7 f23b cd34 1abd e27b 283d
00000260: 1ea2 32bc 0d1d 5cbd 2b1c 30bd 4c2f 2ebc
00000270: f501 03bc dab4 a73d 8bee 8ebc a31f ca39
00000280: 8c20 273d 4f06 bb3b 8fe3 8d3c 3d73 8ebd
00000290: 3ee8 733d ac22 5d3d 5cf8 4cbd 9817 9cbd
000002a0: f77f e5bd e89e 803d fd73 9fbb 0749 6ebb
000002b0: 317e b83d a9db 57bd 7981 bbbd 3314 efbc
000002c0: 8ae5 bebc 92ca fc3d 6a3d 1b3e 2f62 2c3c
000002d0: b346 20bc 8b4e 5bbd 35fd eabd 3b0f 4ebd
000002e0: 82be 18bd b8c3 643c 1136 503d ca37 c93d
000002f0: bbd0 853d 76ba 1a3e 28fc a93d c205 ddbb
00000300: b7cc 3c3d 6e5e 6b3d b27b ff3d a2ba 1d3d
00000310: 52ec 88bc 2f3e d3bd 252e 3bbd 9fb3 92bd
00000320: 5f24 dcbb b33d 9ebd 483c 43bd 161d 14bd
00000330: 6b64 26bd 4114 abbd a6ed 54be 8130 813c
00000340: f2d4 fe3c 1777 22bc 58fe 0fbd 5060 b03c
00000350: 5e09 063e abd7 a4bd 37e1 95bd 0b1b 8ebd
00000360: 36c2 fc3d c1be 2dbc 86d8 f83b be7e 32bd
00000370: 6d57 8ebd b6cc bf3d 7d52 b8bd e461 bfbc
00000380: c348 273a 1d1f 78bd 1d47 babd f588 d63c
00000390: 45b8 883d d968 67bd fbc6 fa3d bc38 0b3e
000003a0: e956 823e a17c afbd c691 7ebb 3b56 a23d
000003b0: 65a8 063e dbad 8f3d fddc 103e 7912 853e
000003c0: c955 bdbc 36a9 6dbe 38f9 91bb 0395 55bc
000003d0: 4183 fb3d dea3 63bc 9176 48bd 3f34 82bd
000003e0: 325c 2ebd b205 9b3d 50ee 07be 9454 3c3e
000003f0: fed0 90bd d746 a33d 9568 08be b338 0d3e
-0.039475843 0.007399741 0.100734256 0.01432726 0.0675733 0.0070507573 -0.09628629 -0.017661165
0.04747144 -0.0160176 0.03158743 -0.27201667 -0.08564796 -0.010866093 -0.047418058 -0.07299265
-0.09163549 -0.14437346 0.042161066 -0.07062323 0.04154598 -0.04725688 -0.00498854 -0.08818279
0.06587654 -0.15884309 0.026663844 -0.06937611 -0.015057629 0.15415125 -0.0102076 -0.032798186
0.00040959715 0.10709572 0.037444882 0.04334084 0.0004543553 0.08438439 0.08441308 0.12032068
0.045488548 0.056024615 -0.007855271 0.08703106 0.13207935 -0.00076404784 0.07677397 -0.006519367
0.058065753 0.04323108 0.06882089 0.024040695 -0.16068828 -0.029098371 0.06250385 -0.056711756
-0.015753997 0.040404122 -0.058084574 -0.07100617 -0.02331283 -0.010497758 0.023586407 0.06524902
-0.16052467 -0.04088845 -0.047267452 -0.008638584 -0.017556654 -0.003005377 -0.037902206 0.081459776
0.026521366 -0.077253625 -0.026879419 0.040766597 0.060564473 -0.05028523 0.016135246 -0.16563703
0.031067658 0.039557356 0.024585927 0.07377437 -0.0313812 -0.10952894 0.022182973 -0.029345354
0.0323565 -0.08489572 -0.04142232 -0.088008024 0.054911625 0.0405739 -0.066126555 -0.1415855
-0.023580827 0.05462433 0.10016055 -0.12933475 -0.011481454 -0.031260293 0.0035858287 0.09304156
-0.02015407 0.03590524 -0.037272476 0.052864317 0.063700356 0.12460977 -0.06576126 -0.049745634
0.041859187 0.07019735 0.10429316 -0.0042567765 -0.15380493 -0.0528203 -0.022509234 0.038967878
0.15995619 -0.04864852 0.026668409 -0.055172116 0.08477963 0.026420295 -0.06494309 0.024700178
0.0402585 0.010324414 0.2732489 0.07893197 0.03138853 0.06441447 -0.04163346 0.02874017
0.041420765 -0.056497682 -0.040679965 -0.04623495 0.05714814 -0.0547129 -0.052358802 -0.1418454
0.11221056 0.11600299 0.052875083 0.06660522 0.0013432902 0.0074109095 -0.03764801 0.04113377
-0.01090291 -0.053738642 -0.042995613 -0.010631394 -0.007996072 0.081887916 -0.01744773 0.00038552014
0.040802523 0.005707539 0.017320422 -0.06955574 0.059547655 0.053988144 -0.05004154 -0.07621688
-0.11206048 0.06280309 -0.004866122 -0.0036359446 0.09008444 -0.05269972 -0.09155554 -0.029184436
-0.023302812 0.12343325 0.15160146 0.010521456 -0.009782481 -0.0535417 -0.11474077 -0.050307494
-0.037291057 0.013962679 0.05083281 0.09825094 0.06533953 0.15110192 0.08300048 -0.006745071
0.04609367 0.057463102 0.12474765 0.038508065 -0.016714249 -0.10314595 -0.045698304 -0.07163166
-0.006718203 -0.07726612 -0.04766491 -0.03616055 -0.04062311 -0.083534725 -0.2079378 0.015770199
0.0311074 -0.009916089 -0.03515467 0.0215303 0.13089511 -0.08048948 -0.07318347 -0.06938752
0.1234173 -0.010604561 0.007594171 -0.043577902 -0.06950269 0.093652174 -0.090001084 -0.023362108
0.0006381387 -0.060576547 -0.09095595 0.026188353 0.066757716 -0.056496475 0.12244984 0.13595861
0.25456932 -0.08568693 -0.0038844212 0.079266034 0.13150175 0.07015582 0.141468 0.25990656
-0.023112195 -0.2320908 -0.004454758 -0.013036015 0.12280894 -0.013894049 -0.0489412 -0.063576214
-0.042568393 0.07569446 -0.13274503 0.18391639 -0.07071112 0.07972496 -0.13321145 0.1379116

network_body.observation_encoder.processors.1.dense.0.bias f4 [64]
00000000: f105 c43d aff8 313d 72a4 3a3d 71f5 2b3d
00000010: 2120 323c cb3e dbbb f767 1f3c f46b 643d
00000020: 4c99 5c3c 804c 003d fd2f f6ba f3cf 2c3c
00000030: 74ec 133c a41d 5a3d 7f2d 913d feb4 b53c
00000040: 4223 8d3d aa67 123d ee14 563d d3bd 8c3d
00000050: 53e6 2b3c 820e 133d 0d71 18bd dbfc 253c
00000060: 2b75 213d 2afc f73c 0ba0 7e3c c65d 513d
00000070: 4a10 543d 07e7 9c3c 08f4 e83c 0311 db3c
00000080: 9214 043d 4182 97bc 5f6d 333d bd7f 5f3d
00000090: 101d 2e3d f4d6 1f3b 7855 9f3d 657d 8d3d
000000a0: 4410 933c 5b9e c63c 5f4b 913c 2796 5fbc
000000b0: 0ed4 b23c 3e61 673d 3822 1d3c caf9 ab3c
000000c0: e48f d63a d113 eb3c f24f fd3c 6f07 643d
000000d0: 2623 26bc f563 de3b 5be1 323d 7b75 bebc
000000e0: 0632 873c 5205 a43c 6735 f03c 852a 003d
000000f0: b0fa 083d 1a49 243d 4a9b 5f3c 2d71 133c
0.09571446 0.043450054 0.045566984 0.041982118 0.010871918 -0.006690835 0.009729377 0.055767015
0.013464283 0.031322956 -0.0018782612 0.010547626 0.009028543 0.053250924 0.07088756 0.02218103
0.068914905 0.035743393 0.052266054 0.068721436 0.010491925 0.035902508 -0.03721719 0.010131086
0.03941838 0.030271608 0.015541087 0.05111482 0.051773347 0.019153131 0.028436676 0.02674151
0.03224618 -0.018494727 0.043805476 0.05456518 0.042508185 0.0024389597 0.07779974 0.06908683
0.017952092 0.024245432 0.017736135 -0.013646639 0.021829631 0.05648922 0.009590678 0.020993132
0.0016369787 0.028695973 0.03092191 0.05567115 -0.010140216 0.006786818 0.043671947 -0.023249378
0.016503345 0.020022068 0.02932234 0.03129055 0.0334422 0.040108778 0.013647864 0.008999151

network_body._body_endoder.seq_layers.0.weight f4 [64, 142]
00000000: 62a9 49be 4e15 83be 44bf 8c3d 8748 86bd
00000010: 18b1 b33d a3ed f83d 3bbc 093e f137 01bd
00000020: dafe 173e af23 8c3d eaa9 08bc 2c59 d8bc
00000030: 4037 6a3c bba9 a7bd e1be 4e3d b829 83ba
00000040: 56f4 a3bd b23a 4abd 7ad5 503e 46f1 a4bd
00000050: d355 51bc 2239 04bc 9e6e a8bc 8d0b f93c
00000060: bf41 143d 0400 913b 65be 973c 810a e43d
00000070: ad6a 43bd 2c6a b33c 84ed 853d 1d3a 033e
00000080: 5545 b1bb 796b adbd d27b 973d 93c1 a4bd
00000090: 0ea7 5f3d 7197 1d3d ca57 fc3c ee88 85bd
000000a0: f8cf adbd 82c2 65bd 057d f73d a056 d03d
000000b0: 23a2 e93d c0e9 6dbd 8eb4 853d 8093 82bd
000000c0: 8f9d b53d affc 073e 2554 5e3d 6e7b 1b3e
000000d0: f5c4 64bd b966 95bd a008 babc c249 0ebd
000000e0: c6fd 263e 8ab7 8a3d 4ff3 4f3c 7e01 f2bc
000000f0: 18db a83c b8d6 19bd 9712 f1bc ae3b ba3d
00000100: 5d0f 33be 61eb c93d f8fa 80bd 7c22 2abd
00000110: 811b 8b3d f173 dabc 5344 41be cf1f 55be
00000120: ff6c 103e 9fb9 17bd 35b0 15bc b9b8 693d
00000130: bb8b aebd 5761 723d 0614 3fbc 39fe 1cbe
00000140: 7a77 403e 3d49 52bd 0787 a7bd c1f8 60be
00000150: 8919 9bbd 09cf c1bd 43a0 e4bc 58ab 713d
00000160: 7751 5f3e 3257 33bc f5a7 b33d e65a 003e
00000170: 3e88 223d 81f5 643c 4c84 8ebb 3ea0 6f3d
00000180: d7e3 01be 9d45 fbbd c677 753d 5246 8cbd
00000190: 10b7 0b3d 4055 f53c 7eaa 35be f093 163d
000001a0: b647 6abe 7f6b a7bc 9030 91be a9af 00bd
000001b0: da0c 473d e4f5 3dbe 0ee1 133e 6908 0a3e
000001c0: cf63 de3d 0ccb 8fbc 66b9 5a3b ae1b 033e
000001d0: ca89 33bb f890 b53d ba8a 2dbe ded1 ce3c
000001e0: 52e0 a83d a26e 0d3d 69d5 773d 58ee 44bd
000001f0: 7eae d83c 64c8 a3bd e1a4 44bd cff3 d4bc
00000200: 7c08 843d 79dd 81bd 678d 08bd dc47 77bd
00000210: 3c1b bdbd 9ffc fbbd 1bd7 39be edf5 853d
00000220: 4eba 023d 03fb 42bc d75e a1bc 0286 5b3e
00000230: 4a7f b63d 3e2c 68be 1eef 6dbc 5157 50bd
00000240: 88c5 8e3d f9a7 063e 1fe4 5dbe 153c 3d3e
00000250: e511 353d bd71 d8bb d574 bdbd 6167 3d3d
00000260: 7420 c6bd a38f 7f3d 39cc b53d 5c03 843d
00000270: 3f1d 1bbd fbd6 c1bd 284d 063d f155 be3c
00000280: 94fa 89bd 17a1 823b 7666 003e a529 8c3d
00000290: 76d1 f83d a860 94bd fd4c 173e 1418 353c
000002a0: ea66 80bc 3d86 cf3d 5b3a 52bd cc39 113d
000002b0: 3f9d 793d db87 623e 3af4 b83c 6e41 37bd
000002c0: 1bf6 4ebd 1815 03be 129c a5bd c56d 433d
000002d0: 73ec 16bd 0054 01bc 8dae 6e3c 3204 ca3d
000002e0: 0cc8 753d a5f7 95bd c37f 7dbd 5b2c e33c
000002f0: 1c8e 213d 6e1a af3d cd9e 8bbe c85f e4bc
00000300: 3769 013e 6b25 d73d e25a 393d 63ef 9f3c
00000310: bf3b e43c ab83 aa3c 9bc4 7bbd b0f9 9cbc
00000320: 1de2 c23c 1c10 913d 7656 9fbd 694f a13d
00000330: 6b6e 173d 1fbb f03d c83b 9a3d 4348 683d
00000340: 0bb3 afbd 44ba 6ebd cb3f 343d c9fe 723e
00000350: a346 b3bc 0038 1e3d 94bd 7c3e bc5e 17be
00000360: ef8a d4bc 08fb cdbc 1070 65bc 26ed 033e
00000370: ee1f 413e 5a6e 213e 42a0 633d 3655 fd3a
00000380: cb58 69bd eb28 87bd 1b9f 7e3c d3c6 983e
00000390: eec3 b3ba 8ec4 e7bc 5716 303d 89db 38bd
000003a0: daa8 0cbe e623 21be f1e1 6cbb 768f 0cbe
000003b0: 0dd1 153e c722 debd ccd0 dabd fe67 74bd
000003c0: 8f66 7f3c b79b 1bbe c0e8 88be 60fb b73c
000003d0: 190d 5e3d 84d1 b3bd b028 293e 7a4a 04bc
000003e0: 7a01 853c 3371 9bbd cd84 1dbe 7fe5 093e
000003f0: 9a38 293d 360d 38be 2fab 3bbe c15d 4bbd
-0.1969352 -0.25602192 0.068724185 -0.06556802 0.08774012 0.121547006 0.1345071 -0.03154749
0.14843312 0.068427436 -0.008341292 -0.026409708 0.014295399 -0.081866704 0.050475005 -0.001000694
-0.08005588 -0.049372382 0.20393935 -0.08053832 -0.01277681 -0.008070262 -0.020560559 0.030401016
0.036195513 0.0044250507 0.018523404 0.11134816 -0.047709156 0.021901213 0.06539443 0.12815137
-0.0054098764 -0.084677644 0.07396664 -0.08044734 0.054602675 0.038474504 0.03080358 -0.06520258
-0.084869325 -0.0560937 0.120843925 0.101727724 0.11407878 -0.05808425 0.06528579 -0.0637579
0.088679425 0.13279985 0.054279465 0.15183803 -0.055851895 -0.072949834 -0.02270919 -0.03473831
0.16307744 0.067732885 0.012692287 -0.029541727 0.020612285 -0.037558287 -0.02942781 0.09093414
-0.1748633 0.09859348 -0.062978685 -0.041536793 0.06792355 -0.026666613 -0.1887372 -0.20812915
0.14104079 -0.037042256 -0.009136249 0.05706093 -0.08522745 0.05917486 -0.011662489 -0.15331353
0.18795577 -0.051339377 -0.08180051 -0.21969892 -0.0757323 -0.09463317 -0.02790845 0.059001297
0.2180842 -0.010946082 0.0877227 0.12534675 0.039680712 0.013974548 -0.004349267 0.05850243
-0.1268457 -0.12269137 0.059928678 -0.0684935 0.03411013 0.029947877 -0.17740819 0.036762178
-0.22878918 -0.020437 -0.28357363 -0.031417523 0.04859624 -0.18550831 0.1444132 0.1347977
0.10858881 -0.017552875 0.0033374666 0.12803528 -0.002739536 0.08865541 -0.16947451 0.025246557
0.08245911 0.034529336 0.06050626 -0.048078865 0.026450392 -0.07997206 -0.048008803 -0.025995163
0.06446931 -0.06341071 -0.033337977 -0.060371265 -0.0923371 -0.12304043 -0.18148462 0.06541047
0.031915955 -0.011900666 -0.019698543 0.21437839 0.08910997 -0.22673127 -0.014522342 -0.05086452
0.0697127 0.13150014 -0.21669053 0.1847995 0.04420652 -0.0066053555 -0.092507996 0.046241168
-0.09674159 0.062392842 0.08876843 0.06445953 -0.037869688 -0.094648324 0.032788426 0.02323434
-0.06737247 0.0039864886 0.12539086 0.068438806 0.121493265 -0.07244998 0.14775462 0.011053104
-0.015674073 0.10133026 -0.051325183 0.03545551 0.060940977 0.22122137 0.022577394 -0.044740133
-0.050527673 -0.12801015 -0.08086409 0.047712106 -0.03684659 -0.007893562 0.014567983 0.098640814
0.060005233 -0.07322625 -0.06188942 0.027731111 0.039442167 0.08549963 -0.27269593 -0.027877703
0.12637793 0.10505184 0.04525269 0.019523328 0.02786052 0.020814737 -0.061466794 -0.019162029
0.02378946 0.07083151 -0.07780163 0.078764744 0.036970537 0.117544405 0.075309336 0.05670954
-0.085790716 -0.058283105 0.04400615 0.23730005 -0.021884268 0.038627625 0.24681693 -0.14782232
-0.025945155 -0.025144115 -0.014003769 0.12883434 0.18859836 0.15764752 0.055572756 0.0019327763
-0.056969445 -0.06599601 0.015540863 0.2983919 -0.0013715008 -0.028291967 0.042990055 -0.04513124
-0.13736287 -0.1573635 -0.0036145414 -0.13726601 0.14630528 -0.10846477 -0.10684356 -0.059669487
0.015588417 -0.15196119 -0.26740074 0.022458732 0.05421171 -0.08780196 0.16519427 -0.008074397
0.016236056 -0.075899504 -0.1538269 0.13466452 0.041313745 -0.1797379 -0.1832702 -0.049649958

network_body._body_endoder.seq_layers.0.bias f4 [64]
00000000: 0951 e33c 947b de3b 144c c93c ffb2 d83c
00000010: c14d 893d 4a46 80bc 8535 6d3d 1e71 753d
00000020: f582 313c 3e88 463c 36b7 30bc 44a2 183d
00000030: 48fa 5ebc b43f df3c d296 073b 4d8d ed3c
00000040: 53a4 3b3d f99b 8f3c a964 363c d99b 283d
00000050: 10a9 a43c c344 b5bb 78bc 823c efc8 f23c
00000060: 5665 193c e9e3 463d 3275 abbc b5dd 193d
00000070: 3a30 1dbc 4b86 3b3d ebf1 9cbc b036 943c
00000080: 580d f43c 9384 473d 1039 5fbc 47a2 893b
00000090: 435e f73b aec5 0a3d 2767 b23c b529 e23a
000000a0: 6554 2a3d 4eb7 993d da8c 763c 9ebc f93c
000000b0: a481 623d 9217 0b3c efae 523d bb3e edba
000000c0: 5e5e 66ba c666 c2bc b142 ac3d 674d 9fbc
000000d0: df35 613b ee70 ae3c b439 933c b587 b43c
000000e0: 2fe9 643c 8e60 8ebd 421f 093d 446f 7d3d
000000f0: 2a46 d53c 9f6b bf3c ae0c 673d 57c2 3f3d
0.027748602 0.006789634 0.02457241 0.02645254 0.067042835 -0.015658516 0.05791237 0.05992233
0.010834445 0.012117444 -0.010785868 0.037264124 -0.013609476 0.027252056 0.002068926 0.028998042
0.04581101 0.017530428 0.011132398 0.041164253 0.020100147 -0.0055318787 0.01595901 0.029636828
0.009362539 0.048557196 -0.020929907 0.037564952 -0.009594018 0.04578237 -0.019158324 0.018092483
0.029791519 0.048710417 -0.013624445 0.004200253 0.0075490787 0.03387993 0.021777702 0.0017254861
0.04158439 0.07505666 0.01504823 0.030485447 0.055299416 0.008489506 0.05143636 -0.001810036
-0.00087878655 -0.023730647 0.08411158 -0.019446088 0.0034364385 0.021294083 0.017971851 0.022037366
0.013971611 -0.0695201 0.033477075 0.06187369 0.026034433 0.023366747 0.056408577 0.046816196

network_body._body_endoder.seq_layers.2.weight f4 [64, 64]
00000000: 7019 fb3d 26eb 6ebd c7fc 9ebd 291e 4fbe
00000010: eb9a debd 936e 0abe 2446 913e 5568 f9bd
00000020: 83e1 06be d447 a2bd 991f 3abe fd3f 333e
00000030: 21d5 3dbe 712b 443d 1295 d5bd 977e 913d
00000040: 213d 133e 0a29 4ebe b570 f1bd 5368 7cbe
00000050: 187c 443e 227f d13d 6383 b6be b975 713d
00000060: d1cf 5cbc ec73 cebc 77c2 383d 1a43 8f3d
00000070: dbe8 b93d 9c8d 22bc 1c38 893e 55ef 743e
00000080: 328d 753d 1ca3 e23d 98cb f33d fce7 82be
00000090: d3ab cf3d 66e8 db3d 1654 c93d 58e8 11be
000000a0: f543 943d ed0c d53d 1f60 d9bd 6ef5 ee3d
000000b0: ccae 97bc dbef 33bc 81ed 673e d8ba 54be
000000c0: b78b b5be 4ec3 57bd 2580 0c3e a186 88bd
000000d0: d1ec bc3d 6da3 3c3d aa9f c3bd 6d6a 82be
000000e0: bd57 c73d 25ba 53be 81ae d4bd e603 48bc
000000f0: e9c9 623e 64d5 0bbe eae8 3f3e 0ea8 a2bc
00000100: 748f 2fbe 9984 b93d 220c 06be 8a2d a1bc
00000110: a55d 1d3e 9683 af3e 5341 e33d dd34 6d3c
00000120: 4e5c a33e 83ce 46be a6f8 a2bd 0e16 383d
00000130: 4481 88bc 8d1e 96ba 5d4c 7dbd 86de 04be
00000140: 8d5c 0a3d c1b2 5cbe fc51 a93d 0df6 1e3d
00000150: 0ce7 713d ba90 96be fa2e aa3e 17cd 9dbd
00000160: e646 b0bc b02c 853b 570e ec3d b242 9a3d
00000170: 6374 50bd 436e d83d 2811 96be e6de 6fbe
00000180: 1521 c93d ab3e 0d3c 2ef3 2e3e 1621 273d
00000190: bbc5 373e 8826 973d b5a3 27be eb3a a5be
000001a0: 8813 78be ec91 7cbc 5a79 b13d b2ed 76be
000001b0: 0a10 92be c0d3 9dbc f3de b43d a5f2 80bc
000001c0: d0f8 75bd e5fe 52be 89ba 5b3c 2598 cfbd
000001d0: 7c7a 03be 8f7c 843e 42d0 24be d58f a2bc
000001e0: 6472 87be 398a 823d c39d 40be 958c 7a3e
000001f0: d66f 8d3e 5ede ec3d a392 e1bd e80b 383e
00000200: bdcf 0bbe c8a2 78bd 4911 5e3d 162a 23be
00000210: 493f 7cbd a48a 30be e318 f73d b199 963d
00000220: 7219 fdbd 5567 9b3d 2cbf f6bd 1db5 f63d
00000230: 9e33 25be cd38 81be 0ba2 0cbe 4331 713e
00000240: b195 df3c 789b 4dbe 7c9d aebd 3b0d 9fbe
00000250: 543e 13bd 6e6e 1bbd 127b 593d de84 0e3e
00000260: 1356 c43d 4762 9ebe a02b 923c 9e08 e1bd
00000270: 4eaa 063e c80c c23d 3c4d d23d c38e 4cbd
00000280: e0ed 2f3e b9a3 8a3d b97d 2d3e e418 943d
00000290: 7b05 57be 658a cc3d 6639 283d c2d2 dd3d
000002a0: d1e3 a83e 8669 14be 9c27 1abe 89cf febc
000002b0: 4562 cf3d 7591 263e 483f 663b 52b0 263d
000002c0: 61dc 47bd 08a5 b43e 2f09 11be c91b 8a3e
000002d0: d3ca 013e a6e1 933d f516 e43c 2ee6 3c3e
000002e0: 4b0d 223d e9e7 a33e 8c71 77be 0561 d7bc
000002f0: c215 b23e 76e2 08be a802 e4bd 7872 c23d
00000300: 51d6 523e e045 3cbc e5c6 d33d fb3c cbbe
00000310: 1328 df3d cf2d a2bd 360d 4cbd 7c60 443d
00000320: 3a80 863d f91e 94bd 1201 9abd e0f3 5e3d
00000330: 2908 d3bd fa7c eebd 6208 06bd bd75 39be
00000340: ded6 dfbd ba3d 5dbd 1944 493e 3663 aabd
00000350: 3898 ac3c 7b69 4ebd c274 393d 706b 89bc
00000360: fcc6 fc3d c5e1 543d ce2d d23b 6322 2f3d
00000370: 7c79 573d 7bf5 2cbc a09b 42bd ed18 de3d
00000380: 7ef8 153c 39d3 783d 2fe5 3d3e 05f5 843b
00000390: 98a0 713d fdc8 32be 3ef6 85be 6b83 56be
000003a0: 0c49 083e 3d92 213d f9e1 5abc 6c9e 583e
000003b0: e052 4abe 596e 043e c607 77be aa3a 9dbd
000003c0: c0a3 92be d0d5 b0bd e093 cbbd d615 203e
000003d0: cdf5 d1ba 46e8 a8bc 805f 11bc 7154 10bd
000003e0: f014 d8bd 38c7 cdbd c73f 183d b55b 08be
000003f0: b3b9 d6b9 9081 05be 2cc4 07be 4504 7e3e
0.12260711 -0.058329724 -0.07763057 -0.20226349 -0.10869392 -0.13518743 0.28373826 -0.12178103
-0.13171963 -0.079238564 -0.18176116 0.17504878 -0.18538333 0.04789299 -0.104288235 0.07104223
0.14378788 -0.20132843 -0.11789075 -0.24649172 0.19187963 0.10229327 -0.35647115 0.05895016
-0.013477282 -0.02520176 0.04510733 0.069952205 0.09077617 -0.009921458 0.2680062 0.23919423
0.059949107 0.11066267 0.11904067 -0.25567615 0.10140195 0.10737686 0.09830491 -0.14248788
0.07239524 0.10402856 -0.10614037 0.11667906 -0.018515967 -0.010982479 0.22649194 -0.207744
-0.35458156 -0.05267649 0.13720758 -0.066663034 0.09224857 0.046054292 -0.09551938 -0.2547182
0.097335316 -0.20676477 -0.103848465 -0.012207961 0.22147335 -0.13655621 0.18741193 -0.019855525
-0.17144567 0.09058494 -0.13090566 -0.019675035 0.15367754 0.3428008 0.11096444 0.014477936
0.3190636 -0.19414715 -0.07957582 0.044942908 -0.016663201 -0.0011453197 -0.061840404 -0.12975511
0.03377967 -0.21552564 0.082675904 0.03880887 0.059058234 -0.29407293 0.33238965 -0.077051334
-0.021518182 0.004064165 0.115261726 0.07532252 -0.050892245 0.10567906 -0.29309964 -0.23424873
0.09820763 0.008620898 0.17084953 0.040803038 0.17946522 0.07380396 -0.16371043 -0.32271513
-0.242262 -0.01541565 0.08665724 -0.24114111 -0.28527862 -0.01926601 0.08831587 -0.015740702
-0.06005174 -0.20605047 0.013411173 -0.10136441 -0.12839693 0.2587628 -0.16095069 -0.019843975
-0.2645446 0.0637402 -0.18810181 0.2446769 0.27624387 0.11565851 -0.11014297 0.17973292
-0.13653465 -0.060702115 0.054215703 -0.15934023 -0.06158379 -0.17240387 0.12065294 0.07353533
-0.12358369 0.075880684 -0.12048182 0.12046263 -0.16132972 -0.25238648 -0.1373369 0.23553948
0.027293058 -0.20078838 -0.085261315 -0.31064782 -0.035948113 -0.03794711 0.053095885 0.13917872
0.0958673 -0.30934355 0.017843068 -0.10987972 0.13150904 0.09475094 0.102686375 -0.049940836
0.17180586 0.06769509 0.1694249 0.0723131 -0.20998184 0.09987334 0.041070364 0.108312145
0.3298631 -0.14493379 -0.15054172 -0.03110482 0.10126165 0.16266425 0.0035132933 0.040695496
-0.048794154 0.3528216 -0.1416366 0.26974323 0.12675028 0.072207734 0.027842978 0.18447182
0.03956346 0.3201287 -0.24164408 -0.02629138 0.34782225 -0.13367638 -0.11133319 0.094944894
0.20589568 -0.011491269 0.103406705 -0.39694962 0.108963154 -0.079188935 -0.049817286 0.047943577
0.06567426 -0.0723247 -0.075197354 0.054431796 -0.10304291 -0.11644931 -0.03272284 -0.1811132
-0.109296545 -0.054013945 0.19654883 -0.08319704 0.021068677 -0.050393563 0.045277365 -0.016774863
0.12342641 0.051973123 0.0064141518 0.042757403 0.05260609 -0.010556574 -0.047511697 0.10844598
0.009153483 0.060748313 0.18544458 0.004057529 0.058991045 -0.17459483 -0.2616443 -0.2094857
0.13309115 0.039446104 -0.01335954 0.21154183 -0.19758177 0.1293272 -0.24124059 -0.07677205
-0.28640556 -0.086345315 -0.09940314 0.1563333 -0.0016018689 -0.02061857 -0.008872867 -0.03523678
-0.105508685 -0.100477636 0.037170198 -0.13316233 -0.00040955617 -0.13037705 -0.13258427 0.24806316

network_body._body_endoder.seq_layers.2.bias f4 [64]
00000000: 3bea aa3d de9e 133d 3536 1a3d d902 02bb
00000010: 7345 cc3c baa6 8c3d 80dc 0c3d 0151 ad3b
00000020: b582 62bd 270b 693d 76a7 da3c fe44 4bbd
00000030: 5472 8c3d b1a9 dc39 c76d 1e3c 8990 8a3c
00000040: dc03 643d 9f4f 973c 240a 073d 16e1 7f3c
00000050: 69b5 943d 3109 a83c 6a76 2c3d bf3d 8b3c
00000060: 22ea e5bc 2f1f ed3d fec3 1e3d 7d9c 5a3d
00000070: 2ce6 713d d46e 423d 2ece 903d 8658 1bbc
00000080: ddc6 f4bc 80c6 873d 96d4 ac3c 3cf1 a13b
00000090: 918b 8c3d 3c4b e43c 6be2 4ebc 593d 0f3c
000000a0: 809d c63c 8db6 a43c ae8e dfbb 555c 4f3d
000000b0: 0f6d 853d ece3 6f3d 3c60 663d dd66 883c
000000c0: e1c5 e2bd 8390 d53c 4d0b ac3c e251 e23c
000000d0: 8d5f f23d fe49 913d 4c3d e03c 4791 2d3d
000000e0: c5fa 493d 3dd3 7a3c 216e 12bd 938b 393c
000000f0: 95d3 6c3d 55f2 dc3c 1249 5b3c 5b01 373b
0.08345457 0.03604018 0.037649352 -0.0019838123 0.02493546 0.06867738 0.034389973 0.0052891974
-0.055300433 0.0568954 0.02669118 -0.049626343 0.06857744 0.000420881 0.009669728 0.016914623
0.055667743 0.018470583 0.032968655 0.0156176295 0.07261164 0.020512195 0.042105116 0.016997216
-0.028065745 0.115782134 0.03876113 0.053371895 0.0590574 0.047468975 0.07070576 -0.009481555
-0.029879982 0.06629658 0.021097463 0.0049420875 0.06862558 0.027867906 -0.012627224 0.008742654
0.024245024 0.020106578 -0.0068224287 0.050625164 0.06514942 0.058566973 0.05624412 0.016650612
-0.11072899 0.026069885 0.021001482 0.027626935 0.11834631 0.07094191 0.027372979 0.042374875
0.049311418 0.015309152 -0.03574956 0.011324781 0.057818968 0.026971022 0.013384121 0.0027924392

action_model._continuous_distribution.log_sigma f4 [1, 2]
00000000: 3777 773e fe27 fa3d
0.2416657 0.12214659

action_model._continuous_distribution.mu.weight f4 [2, 64]
00000000: 9257 21be a000 913d fc08 13bd 71fa 9f3d
00000010: 03ea 8f3d 6937 f0bd 35ad 01bd a581 53bd
00000020: 818f 113d c821 b03d 4064 97bd 79dd 1f3c
00000030: dbe5 14bb def4 133d ff8d 883d 7603 0c3d
00000040: f87b f43d d005 1b3a 5d4f dcbc dbe8 0dbd
00000050: ca93 033d c86c 4c3d 15a4 1dbd 1ced bdbc
00000060: 2b83 293d e77a e4bd b4a9 be3d 9c26 d4bd
00000070: 0737 eb3c 133b 93b9 48e0 d1bd b6da b2ba
00000080: 65be bdbc 9e8a 16bc e79e 2d3d 826d 553d
00000090: d62a ae3d cac1 3dbc be13 323c f3f3 c63d
000000a0: bd5b 5a3d f6e8 1d3d a1c7 863d 5c15 e3bd
000000b0: 0400 c33c 2b6e d6bd de18 fcbb 4ab8 b7bd
000000c0: aa4a 0b3d 2618 0a3d 004c 1ebd 47aa 023d
000000d0: 6cad 5bbd b82a cb3d 9e91 0a3d 942c b63d
000000e0: 0836 d7bd 7434 193c e5ff ce3a 9bc7 10bc
000000f0: 7849 993d 1936 96bc 63e0 b13d 5b52 e73c
00000100: ed19 1abd 2fa4 123d 37d7 60bd aa7e e93b
00000110: 4fc6 1ebe 42a7 203d 9588 bd3d 8315 00be
00000120: 5d6f 4fbd e3f2 a03d 8e57 0b3d 66a3 a1bd
00000130: fd97 c43d 545f 973d db59 983c 9fe7 0e3d
00000140: a659 dcbd 7200 c6bc 5406 a13c fcce 4f3d
00000150: 74a1 603d 7824 b0bd 8b01 b7bd 943c c5bd
00000160: 4295 953b 0b74 d33d ce2e c9bb 5dbc 82bc
00000170: 32ce f33d 5d18 773d 28ca c43d ddb2 dd3a
00000180: 1eb8 1fbc 1103 703d 66c8 c73c f80b f5bc
00000190: b43f 1fbe 7745 c63d f9fb 4e3d 9021 ee3c
000001a0: 7544 d5ba 7b7a bc3d c4bc b0ba a49f 5d3d
000001b0: 3f3e 6b3d 02f5 943d 695f 6b3d 2f05 a8bc
000001c0: 4222 a6bc 5ec4 af3d 83bd 4e3d bf12 933b
000001d0: 961c f53d b50e 23bc 5c94 233d acd4 efbd
000001e0: e3c1 a6bd 904c 2b3d 733b 283d 482f 9cbc
000001f0: 1ca6 253d 6858 be3d 2d4e e9bd ccbf cabd
-0.15756062 0.07080197 -0.03589724 0.0781144 0.07027056 -0.11729319 -0.031659324 -0.05163731
0.035537247 0.08600193 -0.07392168 0.009757393 -0.0022720012 0.036122195 0.066677086 0.034182988
0.11937708 0.0005913647 -0.026893312 -0.034645896 0.032123365 0.04990843 -0.03848656 -0.023184352
0.041384857 -0.11156254 0.09309712 -0.10358927 0.028712763 -0.0002808204 -0.102478564 -0.0013645503
-0.023162076 -0.009188322 0.04238787 0.052106388 0.08504264 -0.011581847 0.010868965 0.09714498
0.053310145 0.038552247 0.06581045 -0.11088058 0.023803718 -0.104702316 -0.007693394 -0.08970697
0.034006752 0.033714436 -0.038646698 0.03190067 -0.053632185 0.09920257 0.033830278 0.08895221
-0.105083525 0.009350885 0.0015792815 -0.008836652 0.07484716 -0.018336343 0.086853765 0.028237512
-0.03762238 0.03580111 -0.054892745 0.0071256952 -0.15505336 0.03922201 0.092545666 -0.12508206
-0.050643314 0.07858827 0.034019046 -0.07892494 0.09599302 0.07391229 0.018597534 0.03488886
-0.107592866 -0.024170134 0.019656338 0.050734505 0.054841474 -0.08600706 -0.08935841 -0.09630695
0.004564912 0.10324868 -0.0061396128 -0.01595896 0.11904563 0.06032597 0.09608871 0.0016914267
-0.009748487 0.058596674 0.02438755 -0.029912934 -0.15551645 0.09681218 0.05053327 0.029068738
-0.0016271012 0.09203049 -0.0013483991 0.054107323 0.05743241 0.07273294 0.057464037 -0.020510284
-0.020280007 0.08582376 0.0504737 0.0044883187 0.11968343 -0.009952237 0.03993641 -0.11710486
-0.0814245 0.041821063 0.04107232 -0.019065514 0.040441617 0.09294206 -0.11391864 -0.098998636

action_model._continuous_distribution.mu.bias f4 [2]
00000000: 2b1c eabc f38f 363b
-0.028577885 0.0027856797

action_model._discrete_distribution.branches.0.weight f4 [3, 64]
00000000: 4d73 4dbb 47d6 2d3d d83d 963d 5ca9 f6bd
00000010: 2ef4 b1bc 0f50 6d3d e723 48bd 6065 283d
00000020: 00b4 60bd 6875 233e faaf 1c3e eca0 01be
00000030: e243 09be d3c9 2a3c 8fea 08bc f4b3 ec3d
00000040: 7204 653d 7ee7 0ebd ecf7 ec3b 135e 403d
00000050: f43f 853c 0645 b53c 535e 79bc 0d52 55bd
00000060: 441c 313d 46e5 37bd 149c d33b 0d2a e03c
00000070: 0ca4 a03d ef10 c0bd ff72 f93c b425 42bd
00000080: 6800 02bd a6a8 89bd 941b 8ebd 5cb3 2bbc
00000090: fc51 083d 372b 03be f1d3 5abd b5e0 e63c
000000a0: 39d8 703d 9c91 adbc b011 fabd 3668 ba3d
000000b0: 754e 5d3d f7a3 9c3d 6923 233d ef7a ad3b
000000c0: 30ba 6abd 2934 acbb a1e6 2b3d 4309 c93d
000000d0: eff8 66bd 17a7 d13c 2615 32bd 6997 94bd
000000e0: ddc8 a33c 663c bebd cb1e 15bd 7818 30be
000000f0: f94f 3fba b0ba d73c 3591 5b3b 3189 5abd
00000100: c8ca 8f3b 20ea 16bd 117e 08be f59d b03d
00000110: 3832 233d 74f0 8dbd b244 e53d 0344 f9bd
00000120: 4484 6f3d 4a19 6ebe 4e0e 893c da2f 8c3d
00000130: 455e e03c dd4c 5c3b eb94 823c 58d3 ccbd
00000140: 54e7 cfbc 657b 0b3d 95a7 78be 43e0 f7bd
00000150: 78d9 133c 1d9e 8ebd af72 e43d 1cc0 0dbe
00000160: e09a b3bd 8e33 803c 3486 c7bc b148 a13d
00000170: ddf3 c33c f8f5 5b3e 3b12 bfbb 00ea adbd
00000180: 7896 843d 9db7 2f3e f8de 3d3e dc1c 71bd
00000190: 71e9 733d 2fca 2a3e a2d4 8dbc b857 bdbd
000001a0: 6c86 f4bd 911c 893d 7b4a 96bd e4ba a0bd
000001b0: ec10 3d3d 76c8 17bd 69ba b6bd 16d1 8fbd
000001c0: 13f5 003d 7c7d ae3c 184a 3ebd 04a6 1abe
000001d0: 9b18 1abd c13e d63c f2cd aabd 5d44 80bd
000001e0: 1e3a 803c e6c4 453e e5fe b9bc a8a4 8e3d
000001f0: 22a9 df3d c64d 173d b023 a93d cd2d 1abe
00000200: 610e ba3c cbf3 183d 3a11 3b3d 39bf 293d
00000210: a1a4 13bd 1079 293d b951 03be 80a4 a63d
00000220: 2a73 3f3c 2f75 233d c728 53be c804 933d
00000230: bab3 2d3e d726 b53b ec48 85bd 8fc0 bbbd
00000240: aa27 4dbd b9f5 493b afc6 4c3e ee62 393d
00000250: f710 f4bc 2a56 b7bb d2a1 aebd 6b95 1c3e
00000260: c0f8 9f3d acb0 0c3c bb60 8a3a 5a31 ebbd
00000270: ec82 1ebe 583e 3abe 08b5 4b3a da46 383e
00000280: 9de2 0fbd cffa 28be ba23 f2bd a527 7a3d
00000290: b4eb d7bd c5ea fdbc e7b0 9e3d 1562 a03d
000002a0: d7da 2a3d 418f 0abd 1166 443e 988e b6bc
000002b0: 9d99 ecbd f7fe 81bd f7ba 8d3d f11f a33d
000002c0: 8881 163d f6d1 8dbd 317d 38bd c7ec c2bc
000002d0: cebb dc3d 84cc 6fbd 5ef9 ad3d 35df 1c3e
000002e0: 8324 5dbd e37e 09be 549a c33d 7b53 a63d
000002f0: cd2a fcbd 332d aabd 4498 00be a56c 3a3e
-0.0031349242 0.04244068 0.073360145 -0.120440215 -0.02172288 0.057937678 -0.048862364 0.041112304
-0.05485916 0.15962756 0.15301505 -0.12659043 -0.13404801 0.010424095 -0.008356704 0.11557761
0.055912443 -0.034888737 0.007231703 0.046964716 0.016265847 0.02212764 -0.015220243 -0.052080203
0.043239847 -0.044896387 0.006457815 0.027363801 0.078437895 -0.0937823 0.030450342 -0.047399238
-0.03173867 -0.0672162 -0.06938854 -0.010479774 0.03328131 -0.12809454 -0.05342478 0.02818332
0.058799956 -0.021187596 -0.12210405 0.09101908 0.0540299 0.07648461 0.03982869 0.005294196
-0.05730647 -0.0052552414 0.04196799 0.0981622 -0.056389745 0.02559237 -0.0434772 -0.07255442
0.01999324 -0.09288864 -0.03640632 -0.17196834 -0.00072979886 0.026334137 0.0033503298 -0.053353492
0.004388187 -0.036844373 -0.1332934 0.08623878 0.039842814 -0.069306284 0.11194743 -0.12171175
0.058475748 -0.23251835 0.016730454 0.068450645 0.027388701 0.003361515 0.01594015 -0.10001248
-0.02537886 0.034053225 -0.24282677 -0.121033214 0.009024017 -0.069637515 0.11154687 -0.13842815
-0.087697744 0.015649583 -0.024355985 0.07875193 0.023919994 0.21480548 -0.0058310307 -0.084918976
0.06474012 0.17159887 0.18542087 -0.058865413 0.0595488 0.1667869 -0.017313305 -0.09245247
-0.119397014 0.06694902 -0.07338425 -0.078481466 0.046158716 -0.03705641 -0.08922274 -0.07022302
0.03148372 0.02130007 -0.04645738 -0.15102392 -0.03762112 0.02615297 -0.08340062 -0.06263039
0.015652712 0.19313392 -0.022704551 0.069649994 0.109209314 0.036939405 0.0825876 -0.15056534
0.022711935 0.037341874 0.045670725 0.04144213 -0.036045674 0.04137522 -0.12824143 0.08136845
0.011685172 0.039906677 -0.20621024 0.07178646 0.16963091 0.0055283117 -0.06508049 -0.09167587
-0.050086655 0.0030816628 0.19997667 0.045260362 -0.029793246 -0.0055949884 -0.085269585 0.15291373
0.07811117 0.008587044 0.0010557392 -0.114840224 -0.1547963 -0.18187845 0.0007770811 0.17995778
-0.035128225 -0.16501926 -0.118232206 0.061072964 -0.10543004 -0.030995736 0.07748585 0.07831208
0.04171261 -0.033828024 0.1917956 -0.02228479 -0.11552737 -0.06347459 0.06920426 0.07965077
0.036744624 -0.069248125 -0.045041267 -0.023794545 0.107780084 -0.05854465 0.08494829 0.15319522
-0.0539899 -0.1342731 0.0955092 0.081213914 -0.12312851 -0.08309402 -0.12558085 0.18205507

action_model._discrete_distribution.branches.0.bias f4 [3]
00000000: 9981 523d 6c1b cdbc 3c36 10bd
0.051393125 -0.02503749 -0.035207972

action_model._discrete_distribution.branches.1.weight f4 [3, 64]
00000000: f3df 78bd 7b66 bbbd 0fe4 ef3c 4aca 813d
00000010: 3eb8 5b3c 01be abbc 9acd 213d e063 943d
00000020: 98fc cfbc 7036 2a3d d6b4 3c3d 94f6 90ba
00000030: 57c5 08bd 941e 323d 2898 953d c014 e53b
00000040: 827b 03bd f44c ad3b 1b25 9eba 6809 2c3d
00000050: 4046 273d ca6b 8ebd e287 97bd 303b 5e3d
00000060: c213 193d 73e0 c3bb 583a c5bc c9c8 703d
00000070: 2630 933d 0279 ec3c 49bb 81bc b8f7 af3c
00000080: 8efb 0d3d 9601 be3d 0b40 25bc 6114 3c3d
00000090: a777 58bd 52d4 81bd 2103 5b3d be9a bebc
000000a0: bbb6 d03c 133a e83d 9084 6a3d 1552 c4bc
000000b0: a841 7b3d 3665 3fbd d763 753d 5a71 8a3d
000000c0: f420 95bd aec6 223d ebfa d1bc 7fb7 7c3d
000000d0: e025 723d bc84 10be a852 2bbc 9a8d 1dbd
000000e0: e7ca b3bd 411b 9d3d e2ee e83c c405 28bd
000000f0: af8b 9abb 01e0 b1bd fd88 823d 518e bf3c
00000100: f217 1c3e 228d 393e 8b02 44bd 8723 26bd
00000110: f1b4 a6bc 3e54 40bd 9bb2 573d 36ab 76bd
00000120: 9e54 2f3d 2232 a23d 93f3 c8bd e739 873d
00000130: ae3b 62bb c0bb 4e3c 6988 b5bc 06cd e7bb
00000140: d186 cdbc bc0f 2c3c f62a 4abe 96b1 eebd
00000150: 14c2 b03d 6437 c73d cb5a 6fbc 2db1 d6bd
00000160: 763f 88bd faaa 923d c6e1 ec3b 5896 6abd
00000170: adac f33c 4561 65be 3251 6cbd 155f 2bbe
00000180: 91de b0bd 32f7 72be 9605 963d 3b53 233c
00000190: 8bd1 d23c 5f63 16be e877 99bc b7a8 2d3c
000001a0: 54c6 9f3b 287a 57bd e90d 0bbd 880b b53c
000001b0: 8cf8 c33d 5459 06bd b70b 033d fab3 03bd
000001c0: f02d 8b3c a10a 943c af73 8d3d 2d8a 0cbd
000001d0: f684 b23d cf09 0d3e ec01 903d d327 263e
000001e0: 546b d03d 6c18 d8bd a35a edbd 9953 c23d
000001f0: 2dba 123e 8918 6cbe 6f33 d3bc 9bbf a73d
00000200: 4f8e 09bd 67ef acbd 07c4 3cbc d730 05bd
00000210: 4d8d d73c b090 783d 4582 fabd 3d1f 1abd
00000220: ed70 f33c f78f 35be 6d50 ff3c eff6 48bd
00000230: 5efd 963d cd72 33bd a237 86bd c9d6 1bba
00000240: 3f07 613d 9a93 bd3b d4d9 f23d e120 313d
00000250: f142 39be d20f 80bc 08c0 e33d ee8a e73c
00000260: 3301 80bc d7bc 1ebd 5cf9 883d f4f2 02ba
00000270: 09ad 12be fbd1 023e 0530 953d 2268 bb3d
00000280: ead3 8f3d e5c2 903d 1204 70bd 3412 4ebd
00000290: 70ee f93b 4d8a 183e 280d 89bd 6028 5a3d
000002a0: 6776 02bd 7a2d 89bd 0d6a 88bc 9ec9 bd3b
000002b0: b4ec 42be 5278 2e3d d97e e3bd 55a7 f4bc
000002c0: e8ce 2f3d 28b4 23be 2aef debc 1fa1 34bd
000002d0: dc8a d2bd 1865 1b3d c84e f6bc a3cc 5cbe
000002e0: 15c5 81bc e89d 143d fe9c 503d 5b71 6fbd
000002f0: 0675 72be d0e5 493e 3d27 27bc 5d29 b7bd
-0.06076045 -0.09150406 0.029283551 0.06337412 0.013410626 -0.020964624 0.039502718 0.07245612
-0.025389 0.041555822 0.046070896 -0.0011059814 -0.033391323 0.043486193 0.07304412 0.006990999
-0.032100208 0.0052887145 -0.0012065502 0.042001158 0.04083848 -0.06954153 -0.073989645 0.054255664
0.03737236 -0.005977684 -0.024075672 0.058785234 0.07186918 0.028866295 -0.015836375 0.021480426
0.03466373 0.09277646 -0.01008607 0.045917872 -0.052848484 -0.06339325 0.05346978 -0.023267146
0.025477758 0.11339202 0.057255328 -0.023964921 0.06134191 -0.04672738 0.059909668 0.06759901
-0.07281676 0.039740257 -0.025632342 0.061698433 0.05911815 -0.14113134 -0.0104567185 -0.03846512
-0.08778935 0.07671214 0.02843422 -0.041021124 -0.0047163586 -0.086853035 0.06373785 0.023383291
0.1524351 0.18120244 -0.047853988 -0.040561225 -0.020349951 -0.04695534 0.052660566 -0.060221873
0.042805307 0.07919718 -0.09812083 0.06602841 -0.0034520435 0.012618005 -0.022159772 -0.0070740012
-0.0250887 0.010501798 -0.19742951 -0.116549656 0.086307675 0.09727362 -0.014609049 -0.10483012
-0.06652729 0.071615174 0.0072290627 -0.057272285 0.029745424 -0.22400387 -0.05769462 -0.1673549
-0.08636201 -0.2372711 0.07325284 0.009968574 0.025734683 -0.14686345 -0.018733934 0.010599307
0.0048759375 -0.05260673 -0.033948813 0.022100225 0.09568891 -0.032800034 0.031993594 -0.03215406
0.016989678 0.018071475 0.069068305 -0.034311462 0.087167665 0.13773273 0.070316166 0.16226129
0.10176721 -0.10551533 -0.11589553 0.09488601 0.14328833 -0.23056234 -0.025781361 0.08190843
-0.03358298 -0.084441 -0.011521346 -0.03251728 0.026312495 0.06068486 -0.12231878 -0.037627447
0.029716933 -0.177307 0.03116628 -0.04906362 0.07372545 -0.043810654 -0.0655358 -0.0005944786
0.05493855 0.0057854177 0.11857954 0.043244246 -0.18091942 -0.015632544 0.111206114 0.028264489
-0.015625572 -0.03875431 0.066881865 -0.0004995309 -0.1432382 0.12775414 0.072845496 0.09150721
0.07022841 0.07068423 -0.05859763 -0.05031033 0.007627301 0.14896508 -0.066919625 0.05326116
-0.0318512 -0.06698127 -0.016652131 0.005791857 -0.19035608 0.042595215 -0.11108179 -0.029864946
0.04292193 -0.15986693 -0.027213652 -0.04409897 -0.102803916 0.037938207 -0.030066863 -0.21562438
-0.015841046 0.036283404 0.05093097 -0.058457714 -0.23677453 0.19716573 -0.010202226 -0.08943436

action_model._discrete_distribution.branches.1.bias f4 [3]
00000000: 4373 2f3d b2ad 33bc 524c 3ebd
0.04283453 -0.010966705 -0.046459503
