results/MLHades_main_9_coinsareparticles/MLHades/MLHades-2499978.onnx (onnx, 420266 bytes, 22 tensors)

discrete_action_output_shape f4 [1, 4]
3.0 3.0 3.0 2.0
00000000: 0000 4040 0000 4040 0000 4040 0000 0040

network_body.observation_encoder.processors.1.conv_layers.0.weight f4 [16, 7, 8, 8]
0.06187089 -0.072821334 0.008675816 0.0041481364 -0.028969085 0.041189805 0.03906837 -0.04668059
0.049320944 -0.056365553 0.039597988 -0.0016528288 0.032714896 -0.023080232 0.03471921 -0.030374007
0.090746395 -0.01313541 -0.012905232 0.03364741 -0.0036995786 -0.0053585125 -0.013676178 0.010519288
0.03181416 -0.070951395 0.02416684 -0.029660266 0.0054178997 -0.017626267 0.026424378 -0.017382892
0.07767288 -0.030862646 -0.035045434 -0.067663066 0.03104058 0.012306065 -0.019047387 0.015325194
0.061525512 -0.028191298 -0.06843344 -0.012816526 0.028470695 0.013537765 0.006922602 -0.057637434
-0.0032864104 0.018126786 -0.03528525 -0.041140728 0.009880139 -0.015880583 0.00065208157 0.017883807
0.0473011 -0.09303606 -0.027868701 -0.07642505 -0.05116182 0.06699279 0.013818895 -0.06465607
0.09259017 0.2092349 0.1897423 0.16941297 0.15605745 0.21916766 0.18579678 0.13567756
0.11733121 0.19446424 0.1860724 0.16674598 0.1512208 0.14186154 0.18587632 0.14680344
0.08527648 0.18289691 0.2534772 0.10692027 0.060070165 0.15011406 0.2616026 0.17916349
0.20175533 0.20092177 0.2521021 0.3369054 0.17363992 0.19053705 0.1725133 0.15520868
0.1748567 0.16097188 0.29519206 0.3096565 0.25499922 0.15439828 0.06987212 0.16165057
0.17667048 0.24063376 0.2897203 0.28742906 0.24613726 0.22910842 0.12947781 0.14047667
0.02179659 0.19297267 0.21617347 0.25662538 0.20619273 0.18680258 0.24287306 0.16926052
0.26844943 0.24793176 0.2825857 0.29311654 0.35478315 0.2295889 0.27797174 0.29011858
0.015420898 -0.07401345 -0.019491263 -0.071610846 -0.018007165 -0.08333868 0.03180835 0.017059218
-0.0534775 -0.071263626 -0.05604144 -0.007201394 -0.17655039 -0.017265785 -0.025833007 -0.010112628
-0.057096675 0.033873685 -0.011689711 0.002694248 -0.07323113 0.006630558 0.033091944 -9.663991e-05
-0.08479519 -0.0025784494 0.018671421 0.009857573 -0.012557475 0.054572906 0.07464972 0.14918642
0.025910428 -0.03204373 -0.019887019 0.0061410936 0.06611091 -0.034795426 0.08375884 0.086387254
-0.11076684 0.009649426 -0.05102568 -0.102330826 -0.14998122 -0.039804537 0.07352826 -0.0051069027
-0.10898285 -0.08295936 -0.14822562 -0.05955374 -0.10037236 -0.06361105 0.024824617 0.02358159
-0.17898512 -0.10113072 -0.11372731 -0.057751358 -0.07488325 -0.06176983 -0.012730554 0.0054599596
0.0261561 0.04900687 -0.04535928 0.039262027 0.0701671 0.10132881 0.0521445 -0.0031229218
-0.074675225 -0.0034429922 -0.06809266 -0.054150593 -0.014581987 0.026726928 0.03856316 0.0006506324
-0.06303654 0.06187952 0.022354968 -0.0241817 0.061042998 0.040245816 0.09147339 0.05441089
-0.006717912 0.058307596 0.099224165 -0.03095769 0.09185842 0.06976985 -0.008381001 -0.080712765
-0.03625287 0.014001224 -0.023491863 -0.0041770525 0.0026913225 0.073258154 -0.037382443 -0.10582192
-0.043861654 0.035470348 -0.0008244972 -0.087745264 0.014247144 0.030895557 -0.012470758 -0.11001131
0.005485266 -0.029625103 -0.056285333 -9.755512e-05 0.02100835 -0.043283805 -0.10484384 -0.019420175
0.022770261 0.045691006 0.035100292 0.014431444 0.071433134 -0.010741695 0.028473072 -0.069878556
00000000: 556c 7d3d 5a23 95bd 0225 0e3c 17ed 873b
00000010: 9350 edbc a4b6 283d 2806 203d 2534 3fbd
00000020: c204 4a3d 91df 66bd 8031 223d bba3 d8ba
00000030: 0e00 063d c112 bdbc bb35 0e3d e9d2 f8bc
00000040: 3fd9 b93d e735 57bc 7770 53bc ded1 093d
00000050: a174 72bb 7696 afbb 0c12 60bc 1759 2c3c
00000060: 914f 023d f74e 91bd 89f9 c53c 16fa f2bc
00000070: a388 b13b f664 90bc f077 d83c 9166 8ebc
00000080: f512 9f3d a9d3 fcbc cd8b 0fbd ef92 8abd
00000090: d048 fe3c 619f 493c 4409 9cbc 8616 7b3c
000000a0: 2d02 7c3d 70f1 e6bc d526 8cbd 68fc 51bc
000000b0: 603b e93c 80cd 5d3c ffd6 e23b 3b15 6cbd
000000c0: d160 57bb a07e 943c 4487 10bd 2e83 28bd
000000d0: 4ee0 213c ff17 82bc 74f0 2a3a 1081 923c
000000e0: ccbe 413d b189 bebd e74c e4bc bd84 9cbd
000000f0: 0e8f 51bd 8433 893d a668 623c 676a 84bd
00000100: ea9f bd3d ac41 563e ce4b 423e 987a 2d3e
00000110: 86cd 1f3e 7d6d 603e 8341 3e3e 0fef 0a3e
00000120: 584b f03d a221 473e c389 3e3e 75bf 2a3e
00000130: a0d9 1a3e 2744 113e 5d56 3e3e a453 163e
00000140: 6fa5 ae3d 5449 3b3e c3c7 813e 04f9 da3d
00000150: 220c 763d 80b7 193e c7f0 853e a276 373e
00000160: f398 4e3e 70be 4d3e 8713 813e dd7e ac3e
00000170: aace 313e 251c 433e 54a7 303e 06ef 1e3e
00000180: a20d 333e d0d5 243e 6a23 973e 4c8b 9e3e
00000190: 428f 823e 951a 1e3e 1d19 8f3d ba87 253e
000001a0: 1be9 343e b268 763e 3856 943e e729 933e
000001b0: 680b 7c3e 669b 6a3e d595 043e 1ed9 0f3e
000001c0: c38e b23c a19a 453e 945c 5d3e 6764 833e
000001d0: 3024 533e 2d49 3f3e b7b3 783e a152 2d3e
000001e0: 3472 893e d3e1 7d3e 13af 903e 5f13 963e
000001f0: 23a6 b53e 5a19 6b3e 5052 8e3e 6c8a 943e
00000200: efa7 7c3c 5d94 97bd 24ac 9fbc b5a8 92bd
00000210: c383 93bc 78ad aabd 7949 023d c6bf 8b3c
00000220: 390b 5bbd aaf2 91bd b68b 65bd acf9 ebbb
00000230: a0c9 34be fa70 8dbc be9f d3bc 70af 25bc
00000240: 34de 69bd 22bf 0a3d 3486 3fbc fb91 303b
00000250: 34fa 95bd 2745 d93b 6b8b 073d 28ab cab8
00000260: 1aa9 adbd 34fb 28bb cff4 983c a881 213c
00000270: debd 4dbc d787 5f3d f4e1 983d 53c4 183e
00000280: 1b42 d43c 4940 03bd 1aea a2bc 3a3b c93b
00000290: 2865 873d a685 0ebd c189 ab3d cdeb b03d
000002a0: bad9 e2bd a018 1e3c 4e00 51bd d392 d1bd
000002b0: ad94 19be 150a 23bd fc95 963d ce57 a7bb
000002c0: 6732 dfbd 99e6 a9bd 75c8 17be 9fee 73bd
000002d0: 0690 cdbd 8346 82bd ff5c cb3c 2e2e c13c
000002e0: e047 37be 9f1d cfbd dde9 e8bd b08c 6cbd
000002f0: 645c 99bd 5c02 7dbd d093 50bc 76e9 b23b
00000300: 5145 d63c 6dbb 483d a7ca 39bd 38d1 203d
00000310: c5b3 8f3d 7b85 cf3d 7995 553d efa9 4cbb
00000320: 53ef 98bd d3a3 61bb 2a74 8bbd 03cd 5dbd
00000330: 49e9 6ebc 6ef2 da3c 67f4 1d3d 348f 2a3a
00000340: 4d19 81bd 6175 7d3d c421 b73c b318 c6bc
00000350: 3908 7a3d ccd8 243d 6756 bb3d f4dd 5e3d
00000360: ee21 dcbb f2d3 6e3d 0a36 cb3d fb9a fdbc
00000370: 4420 bc3d 7fe3 8e3d 7750 09bc bc4c a5bd
00000380: e47d 14bd 6465 653c 0272 c0bc a8df 88bb
00000390: e660 303b 5f08 963d 551e 19bd 2ab9 d8bd
000003a0: 47a8 33bd 5b49 113d 1223 58ba cab3 b3bd
000003b0: da6c 693c ae18 fd3c 2652 4cbc 9c4d e1bd
000003c0: bfbd b33b 58b0 f2bc 738b 66bd 8296 ccb8
000003d0: b419 ac3c 5c4a 31bd 5eb8 d6bd 0f17 9fbc
000003e0: b388 ba3c 7e26 3b3d 53c5 0f3d dd71 6c3c
000003f0: 894b 923d effd 2fbc 5c40 e93c 7d1c 8fbd

network_body.observation_encoder.processors.1.conv_layers.0.bias f4 [16]
-0.0015263109 -0.0021581168 -0.0015958338 -0.00908788 0.011181082 -0.0052418658 0.013060409 -0.010474807
-0.045832105 -0.031190895 -0.013460522 -0.0011565714 -0.054866336 -0.009862888 0.001543774 0.002364298
00000000: 7f0e c8ba 316f 0dbb 4c2b d1ba 55e5 14bc
00000010: db30 373c f5c3 abbb 53fb 553c 869e 2bbc
00000020: 72ba 3bbd 0c84 ffbc 8589 5cbc 1998 97ba
00000030: 86bb 60bd f397 21bc 7658 ca3a 57f2 1a3b

network_body.observation_encoder.processors.1.conv_layers.2.weight f4 [32, 16, 4, 4]
0.012348923 0.063977 0.10379243 0.030879302 0.06623799 0.035435494 -0.027972171 -0.061807133
0.025928548 0.046947163 0.01675962 0.051257703 0.10463046 -0.04004878 0.00403958 0.05283617
-0.07454975 0.025979992 0.030954719 -0.050750013 0.0022690378 0.05507679 -0.010090188 -0.06893004
0.08600366 -0.003647253 -0.09402944 -0.09721311 0.10689125 -0.06356538 -0.025943315 0.05298639
0.039663367 0.005039851 0.030658677 -0.05575796 -0.016978202 0.04032908 0.0056356597 -0.11510534
-0.004130708 0.04678011 -0.009647165 0.036824707 -0.043759044 -0.06777444 0.028862575 0.0057585565
-0.049598254 0.0135299135 0.022744 -0.0015425428 0.14171654 0.038680006 -0.0882115 -0.0018201631
0.021354912 -0.015438617 0.005567718 0.056351967 -0.031044776 0.00073723344 0.10606311 -0.010404714
-0.06557716 0.009933813 0.048374396 -0.04136356 -0.013958998 0.0095863985 -0.009330689 0.031929854
0.12120598 0.019916203 -0.08330679 -0.003835289 -0.0149735 -0.055919655 -0.05455158 -0.08758008
-0.064899355 0.13833356 0.031967707 0.006904406 0.10431908 0.14954501 0.021324707 -0.06278592
0.09297205 0.10231737 -0.04418477 0.10265836 -0.02269882 0.04755 0.13455284 0.048374202
-0.02038998 -0.06642138 -0.0547191 -0.14215995 0.08832392 0.02355864 -0.015284022 -0.13507336
0.15557654 -0.014427257 -0.03186058 0.0016925716 -0.0022318987 0.02251926 0.06358775 0.0072261323
-0.10337472 -0.12546979 -0.016264638 -0.0498677 -0.055442657 0.017652636 -0.033366952 -0.045237172
0.09190335 -0.03939273 -0.074807405 0.03992404 0.0113002565 -0.051571168 0.0024236022 -0.05991291
-0.0430429 -0.066192776 -0.11445231 -0.12230457 0.023830088 -0.03334042 -0.058228932 -0.035546783
0.09255767 -0.14719215 -0.091668315 -0.109961204 0.044064626 0.0020364868 -0.01914976 -0.0029936114
-0.056890298 -0.05293198 -0.118442416 -0.18143941 -0.063738 -0.15580243 -0.05921911 -0.19791244
0.009906571 -0.08927894 -0.09073203 -0.019401819 -0.040813413 -0.09580887 -0.04081178 -0.16811416
0.041839786 -0.024168367 -0.1720348 -0.022530736 -0.007812991 -0.03481631 -0.12315061 -0.050305896
0.03303118 -0.04072102 -0.097518876 -0.060806908 0.03569977 -0.041905582 -0.03266929 -0.08795292
-0.04294024 -0.05031189 -0.03052485 -0.04998754 -0.04110746 0.0033735412 -0.060405802 0.019204145
-0.0034226566 0.02127251 -0.093997315 0.0369773 0.07696781 0.04797467 -0.007865359 0.066305645
-0.058939796 -0.014462724 -0.08664649 0.00496228 0.11377343 0.037544824 -0.14290619 -0.0660856
0.11449508 0.06089628 -0.077438675 -0.12731206 -0.05566099 -0.084831566 -0.11770391 0.037352312
0.0199928 -0.109965116 -0.08298867 -0.16510618 -0.11949917 -0.13023227 -0.049234636 -0.06532159
0.10245896 -0.029840218 -0.12045658 0.0011989684 -0.08845473 -0.097299114 0.013408842 -0.1135594
0.06964253 0.10786044 -0.009446854 0.02845166 0.08132004 0.022617897 -0.057933 -0.14193955
0.10198505 -0.003369197 -0.015729409 0.043385357 0.06819428 -0.06225773 0.027922392 0.04413718
-0.02995707 0.09084518 0.08709632 -0.01737616 0.043302264 0.068028994 -0.12908709 -0.1277839
0.097376935 0.033955175 0.04813573 -0.021308297 -0.064755216 0.05703317 -0.015681652 0.016470809
00000000: 2353 4a3c 6006 833d 2091 d43d 97f6 fc3c
00000010: c9a7 873d cf24 113d e525 e5bc 7a29 7dbd
00000020: 1b68 d43c ab4b 403d 784b 893c 99f3 513d
00000030: 7f48 d63d 310a 24bd 745e 843b bd6a 583d
00000040: 8aad 98bd fed3 d43c c094 fd3c 3fdf 4fbd
00000050: 23b4 143b 3398 613d 5151 25bc 312b 8dbd
00000060: b022 b03d c006 6fbb 8292 c0bd ab17 c7bd
00000070: cde9 da3d 912e 82bd 1387 d4bc 4208 593d
00000080: 0e76 223d 5625 a53b e827 fb3c 7562 64bd
00000090: df15 8bbc 1b30 253d 57ab b83b 59bc ebbd
000000a0: e45a 87bb 809c 3f3d 250f 1ebc 81d5 163d
000000b0: af3c 33bd 53cd 8abd 3571 ec3c 46b2 bc3b
000000c0: 8a27 4bbd 92ac 5d3c a051 ba3c 262f caba
000000d0: 241e 113e ed6e 1e3d 3ba8 b4bd 8a92 eeba
000000e0: 7ff0 ae3c 41f2 7cbc 6771 b63b 52d1 663d
000000f0: 9d51 febc e642 413a 9e37 d93d 8978 2abc
00000100: 514d 86bd 6ec1 223c 3b24 463d d66c 29bd
00000110: 48b4 64bc 4510 1d3c bfdf 18bc e1c8 023d
00000120: d73a f83d 4e27 a33c c09c aabd 7959 7bbb
00000130: 6953 75bc 020c 65bd 7a71 5fbd 2f5d b3bd
00000140: f4e9 84bd 50a7 0d3e 92f0 023d 5b3e e23b
00000150: 3ea5 d53d 5422 193e 27b1 ae3c e895 80bd
00000160: 2168 be3d c58b d13d 17fb 34bd 8c3e d23d
00000170: e0f2 b9bc cac3 423d 38c8 093e 0724 463d
00000180: e308 a7bc ef07 88bd 2321 60bd 6192 11be
00000190: 2ce3 b43d 0dfe c03c d669 7abc ac50 0abe
000001a0: 754f 1f3e 4d60 6cbc 3d80 02bd 47d9 dd3a
000001b0: 0c45 12bb 507a b83c 4b3a 823d 31c9 ec3b
000001c0: 20b6 d3bd 277b 00be 6b3d 85bc 1342 4cbd
000001d0: d717 63bd 439c 903c c9ab 08bd 9d4a 39bd
000001e0: d337 bc3d 455a 21bd a034 99bd 6487 233d
000001f0: b624 393c 4a3c 53bd 4cd5 1e3b 3d67 75bd
00000200: c04d 30bd 1490 87bd f965 eabd d27a fabd
00000210: 5137 c33c f78f 08bd 7681 6ebd 8199 11bd
00000220: e08e bd3d 8ab9 16be 99bc bbbd 5733 e1bd
00000230: 1c7d 343d 9476 053b f5df 9cbc 7730 44bb
00000240: cd05 69bd 34cf 58bd f091 f2bd 41cb 39be
00000250: 1289 82bd ac8a 1fbe bd8f 72bd 8fa9 4abe
00000260: 2c4f 223c e0d7 b6bd b7d1 b9bd 90f0 9ebc
00000270: f72b 27bd 7137 c4bd 412a 27bd 1e26 2cbe
00000280: 3260 2b3d bdfc c5bc e429 30be 6192 b8bc
00000290: 0f02 00bc 8c9b 0ebd 6336 fcbd 8e0d 4ebd
000002a0: b44b 073d 16cb 26bd fab7 c7bd aa10 79bd
000002b0: ec39 123d 30a5 2bbd 3cd0 05bd a920 b4bd
000002c0: 1be2 2fbd d713 4ebd 400f fabc bcbf 4cbd
000002d0: 4c60 28bd a116 5d3b 136c 77bd 0352 9d3c
000002e0: a64e 60bb b043 ae3c aa81 c0bd 8275 173d
000002f0: 4da1 9d3d 1681 443d b5dd 00bc 41cb 873d
00000300: db6a 71bd 10f5 6cbc b773 b1bd 9f9a a23b
00000310: 0b02 e93d 9ac8 193d 0056 12be e357 87bd
00000320: 667c ea3d 616e 793d 2b98 9ebd 185e 02be
00000330: c7fc 63bd 2cbc adbd bf0e f1bd bdfe 183d
00000340: f1c7 a33c 6435 e1bd f7f5 a9bd 9811 29be
00000350: fbbb f4bd 9c5b 05be 42aa 49bd 53c7 85bd
00000360: 01d6 d13d 7973 f4bc f0b1 f6bd b426 9d3a
00000370: c127 b5bd c244 c7bd c2b0 5b3c d591 e8bd
00000380: bea0 8e3d efe5 dc3d fac6 1abc 7513 e93c
00000390: 1f8b a63d 2b49 b93c 274b 6dbd 9a58 11be
000003a0: 8add d03d bfcd 5cbb f6da 80bc d8b4 313d
000003b0: 71a9 8b3d f601 7fbd 80bd e43c 30c9 343d
000003c0: 8768 f5bc 0a0d ba3d 8e5f b23d 7358 8ebc
000003d0: b75d 313d c952 8b3d 682f 04be c8d9 02be
000003e0: 8f6d c73d 9514 0b3d f929 453d bd8e aebc
000003f0: 629e 84bd 9d9b 693d cf76 80bc caed 863c

network_body.observation_encoder.processors.1.conv_layers.2.bias f4 [32]
-0.010912227 -0.015368654 -0.01614641 -0.05394507 -0.085114226 -0.04763281 -0.05273479 -0.059112757
0.025933985 0.03577475 -0.021623693 0.044865128 -0.024668798 0.008510636 -0.023626555 -0.015381253
-0.006867289 0.0031656506 -0.0009555523 -0.0038084295 -0.06073362 -0.035511896 -0.06593736 -0.0132520795
0.099899545 0.03814556 -0.040293947 -0.012184287 -0.023883784 0.06976206 -0.02467881 0.042706538
00000000: 33c9 32bc cfcc 7bbc 7a45 84bc 81f5 5cbd
00000010: 5e50 aebd 9f1a 43bd 6f00 58bd 3820 72bd
00000020: 8273 d43c 8b88 123d 2c24 b1bc 7fc4 373d
00000030: 3816 cabc 3270 0b3c 7a8c c1bc a701 7cbc
00000040: ff06 e1bb ce76 4f3b 087e 7aba d896 79bb
00000050: d1c3 78bd ec74 11bd 2b0a 87bd 401f 59bc
00000060: 2298 cc3d 853e 1c3d 440b 25bd 9ba0 47bc
00000070: eda7 c3bc 69df 8e3d 372b cabc 0ded 2e3d

network_body.observation_encoder.processors.1.dense.0.weight f4 [64, 1152]
0.072860226 0.040222395 0.0976412 -0.021436313 0.03252999 0.011881437 0.106720865 0.09338797
-0.05169236 -0.0665466 -0.04589653 0.0016479846 0.04433119 -0.014687788 -0.18051186 -0.005177853
-0.083026625 0.02496963 -0.036138076 0.09554235 -0.0491244 0.025104979 -0.007256399 0.019474473
0.0060720416 0.11134222 -0.059570473 0.10820652 0.058165185 0.012997124 -0.10831795 -0.03273781
-0.005664346 -0.076260135 0.05925521 0.0029660638 -0.037128933 -0.09657904 0.11195292 0.077798665
-0.027827092 0.0042774645 0.047987852 -0.060999487 -0.08286323 -0.05447941 -0.040386222 -0.062162716
0.008642437 -0.06443346 -0.058691576 -0.013257493 0.0345624 -0.008726486 -0.027024975 -0.08461696
-0.09890491 -0.09015778 -0.00025740193 -0.03556616 0.05428597 -0.06515 0.03664283 0.005675533
-0.16262692 0.003147543 -0.09734023 0.07168703 -0.058145627 -0.113197334 -0.1330859 0.07702401
0.07737081 -0.017326798 0.039639097 0.104365535 -0.14153342 0.021846814 0.14916757 -0.09240261
-0.088844486 0.063983664 -0.03805336 0.008526643 0.04880995 -0.09149027 -0.005075249 -0.11690145
-0.035223998 -0.09656766 0.06759183 -0.019707734 -0.038190756 0.07302449 -0.09948635 -0.021652943
0.18424492 -0.106629305 0.16513327 0.09325678 -0.043104917 -0.017149262 -0.08675555 -0.079035625
-0.11514989 -0.13036354 -0.14616628 0.03109306 0.084316716 0.009746335 0.07790542 -0.038256824
-0.11576828 -0.057206564 0.038374018 -0.01689998 -0.008262176 0.056120593 -0.068162106 -0.011570394
0.008426817 -0.04959672 -0.09083364 0.040232398 -0.14120458 -0.023116875 0.0073608384 -0.065646395
0.108522356 0.052457687 0.003822012 -0.012598264 0.12695284 -0.06867937 0.014100301 -0.008054877
-0.020385433 0.047344085 -0.08819722 -0.04504294 0.025011657 -0.04019573 -0.08947396 0.041540306
0.020563679 -0.1162816 0.1050654 0.1381065 -0.10463976 0.053902987 0.081075236 0.018967886
0.08848887 0.012327673 -0.0642558 -0.10060759 0.05472643 0.0529546 0.028885644 -0.07694611
-0.0438508 -0.014647416 0.13798416 0.06832551 -0.10186047 -0.05442128 0.021912545 -0.057946995
-0.027548652 0.022885691 0.035926227 -0.013565408 0.13987644 -0.039214097 0.07843952 -0.06729654
0.037500806 -0.048990343 0.021665527 0.008936557 0.0042053014 0.0011659212 0.0698848 0.041829143
-0.09431769 0.034495752 0.013963804 0.014212656 -0.07315607 -0.024245486 0.001458273 0.07604361
-0.116049916 -0.05754935 -0.089463696 0.08438472 -0.03295666 -0.022235015 0.04380169 -0.05856821
0.05881619 -0.14024292 0.11531889 0.13754138 0.015202618 0.103107184 -0.0742499 0.090773486
0.0060232207 -0.07856565 -0.20000042 0.022710653 -0.07322287 -0.086197995 -0.03853459 0.054550484
-0.00424075 0.0091910865 0.013471199 0.13100404 -0.084058985 -0.11175423 0.055055358 -0.046532854
-0.06654611 -0.021610955 -0.05335544 0.0054077827 0.05748941 -0.037959807 -0.091567345 -0.12263023
-0.0595928 0.016610226 0.12493811 0.13780484 0.03380516 0.121179774 -0.044576008 -0.0051933723
-0.034760684 0.041176923 -0.07934314 0.0072362935 0.051402297 0.004693451 0.017321875 0.012032949
-0.0022894316 -0.06391512 -0.057087634 -0.00034559495 -0.018610677 0.08789709 -0.05852042 0.013123157
00000000: be37 953d 3dc0 243d 1cf8 c73d 359b afbc
00000010: 2b3e 053d 5caa 423c 7890 da3d 3142 bf3d
00000020: 5ebb 53bd 9549 88bd 00fe 3bbd 3001 d83a
00000030: 9f94 353d 0ca5 70bc 1ad8 38be fbaa a9bb
00000040: dd09 aabd 1c8d cc3c 8505 14bd b5ab c33d
00000050: ab36 49bd f5a8 cd3c 16c7 edbb ee88 9f3c
00000060: faf7 c63b 6407 e43d 2b00 74bd 619b dd3d
00000070: 9e3e 6e3d e4f1 543c cdd5 ddbd 1518 06bd
00000080: fa9b b9bb 462e 9cbd 97b5 723d 4b62 423b
00000090: 8214 18bd 3bcb c5bd 9347 e53d e854 9f3d
000000a0: a4f5 e3bc f929 8c3b e98e 443d 99da 79bd
000000b0: 32b4 a9bd cd25 5fbd 066c 25bd 559e 7ebd
000000c0: 0299 0d3c b1f5 83bd 9466 70bd f535 59bc
000000d0: 4e91 0d3d 89f9 0ebc 7b63 ddbc a84b adbd
000000e0: a88e cabd a4a4 b8bd e7f3 86b9 d2ad 11bd
000000f0: f75a 5e3d 5d6d 85bd cb16 163d d2f9 b93b
00000100: ac87 26be 0247 4e3b 515a c7bd a6d0 923d
00000110: 1c2a 6ebd 01d4 e7bd ac47 08be c4be 9d3d
00000120: 9674 9e3d eef0 8dbc 9b5c 223d 99bd d53d
00000130: 23ee 10be 17f8 b23c 62bf 183e 943d bdbd
00000140: 19f4 b5bd de09 833d d7dd 1bbd 55b3 0b3c
00000150: f1ec 473d 405f bbbd 464e a6bb 076a efbd
00000160: 0a47 10bd 44c5 c5bd 966d 8a3d 1d72 a1bc
00000170: e96d 1cbd dd8d 953d 80bf cbbd 8361 b1bc
00000180: b3aa 3c3e 7760 dabd b218 293e 69fd be3d
00000190: c88e 30bd 9c7c 8cbc e5ac b1bd 6edd a1bd
000001a0: b5d3 ebbd 057e 05be 9dac 15be dfb6 fe3c
000001b0: 3eae ac3d 18af 1f3c e08c 9f3d 30b3 1cbd
000001c0: ec17 edbd 6e51 6abd 132e 1d3d d471 8abc
000001d0: 145e 07bc b5de 653d 9398 8bbd c091 3dbc
000001e0: a210 0a3c ee25 4bbd fd06 babd baca 243d
000001f0: ef97 10be 9a5f bdbc 3033 f13b 9e71 86bd
00000200: f840 de3d dfdd 563d b97a 7a3b f368 4ebc
00000210: edff 013e c5a7 8cbd f304 673c 9af8 03bc
00000220: 5aff a6bc dfeb 413d bea0 b4bd f27e 38bd
00000230: 3fe5 cc3c 47a4 24bd 203e b7bd 2b26 2a3d
00000240: 2975 a83c 0c25 eebd 872c d73d ca6b 0d3e
00000250: 5f4d d6bd 61c9 5c3d c60a a63d 8a62 9b3c
00000260: a739 b53d 02fa 493c 8b98 83bd 5a0b cebd
00000270: d228 603d ece6 583d 96a1 ec3c ec95 9dbd
00000280: e59c 33bd b7fb 6fbc b84b 0d3e 3fee 8b3d
00000290: 399c d0bd d9e8 5ebd f081 b33c d459 6dbd
000002a0: b6ad e1bc c67a bb3c 6127 133d 7241 5ebc
000002b0: c53b 0f3e f69e 20bd e6a4 a03d c5d2 89bd
000002c0: 729a 193d 19aa 48bd e77b b13c a36a 123c
000002d0: a0cc 893b d3d1 983a c31f 8f3d 0955 2b3d
000002e0: a229 c1bd 6b4b 0d3d 70c8 643c 33dc 683c
000002f0: dad2 95bd 789e c6bc 8623 bf3a c1bc 9b3d
00000300: 94ab edbd deb8 6bbd be38 b7bd e5d1 ac3d
00000310: 90fd 06bd 3526 b6bc 6769 333d 38e5 6fbd
00000320: 3fe9 703d d79b 0fbe 4f2c ec3d a6d7 0c3e
00000330: 6714 793c dc29 d33d 5510 98bd 73e7 b93d
00000340: 705e c53b 07e7 a0bd e9cc 4cbe b10b ba3c
00000350: dff5 95bd 9388 b0bd 72d6 1dbd 5470 5f3d
00000360: fdf5 8abb 3696 163c 4eb6 5c3c ec25 063e
00000370: 1e27 acbd 67df e4bd ba81 613d 3c99 3ebd
00000380: 5449 88bd 7509 b1bc 3c8b 5abd c533 b13b
00000390: 047a 6b3d be7b 1bbd a987 bbbd 8f25 fbbd
000003a0: 9417 74bd 2b12 883c 8ddf ff3d b61c 0d3e
000003b0: 4877 0a3d 1a2d f83d 5595 36bd 2a2d aabb
000003c0: 3861 0ebd 22a9 283d a87e a2bd 6e1e ed3b
000003d0: 378b 523d 85cb 993b 9be6 8d3c d925 453c
000003e0: 4a0a 16bb eee5 82bd b9d4 69bd f830 b5b9
000003f0: 6b75 98bc 6403 b43d 1cb3 6fbd 8302 573c

network_body.observation_encoder.processors.1.dense.0.bias f4 [64]
0.03773175 0.07169776 0.0143595785 0.023050146 0.079225294 -0.053599574 0.016311249 0.026766505
0.012398619 0.04266779 0.019724816 0.037976135 0.0509465 0.07427551 0.04388417 0.047562778
0.0054738084 -0.0070482707 -0.01146336 0.00016113845 -0.0020951168 -0.002864508 0.01779336 0.047283795
0.033986416 -0.011363816 0.03804854 0.016367622 0.020471996 0.024508325 0.036481164 0.02465025
0.058732998 -0.010126029 0.0574993 0.03561828 0.020064102 0.016656905 0.06399275 0.017020449
0.01094544 0.016961396 -0.0016307187 -0.0059981295 0.005328471 0.042208828 0.013145326 0.0019719314
0.039125133 0.032804478 0.0213716 0.019413112 0.018578887 0.038315184 0.03741855 0.029342212
0.029836707 -0.005057485 0.034647834 0.013414044 0.0719218 0.022310315 0.04082905 0.010166952
00000000: 9c8c 1a3d 46d6 923d 7044 6b3c a9d3 bc3c
00000010: df40 a23d 3a8b 5bbd 2b9f 853c 6e45 db3c
00000020: 9423 4b3c 6cc4 2e3d f095 a13c dd8c 1b3d
00000030: 47ad 503d c21d 983d e3bf 333d 30d1 423d
00000040: a25d b33b 2ef5 e6bb d1d0 3bbc 46f7 2839
00000050: 3a4e 09bb 78ba 3bbb 61c3 913c a7ac 413d
00000060: 5735 0b3d 4d2f 3abc c9d8 1b3d 6415 863c
00000070: e3b4 a73c afc5 c83c 466d 153d 52ef c93c
00000080: 0392 703d a5e7 25bc 6384 6b3d 79e4 113d
00000090: 795d a43c 1074 883c a20e 833d 786e 8b3c
000000a0: 8154 333c a0f2 8a3c d7bd d5ba f58b c4bb
000000b0: 749a ae3b 2ae3 2c3d 7e5f 573c 853b 013b
000000c0: ad41 203d fd5d 063d 7e13 af3c 3f08 9f3c
000000d0: c032 983c 62f0 1c3d 3244 193d 145f f03c
000000e0: 1c6c f43c 42b9 a5bb e3ea 0d3d 94c6 5b3c
000000f0: bd4b 933d 1fc4 b63c 5d3c 273d 4a93 263c

network_body._body_endoder.seq_layers.0.weight f4 [64, 142]
-0.03448338 0.1505155 0.15831451 0.09925958 0.0039659175 0.09051167 0.053556368 0.027579129
-0.09728655 0.35497138 0.081073165 0.060557995 0.032799896 -0.023212206 0.08312294 0.31262508
0.044041276 0.026678164 -0.09539006 0.09040249 -0.10681893 0.39488494 0.02685158 -0.0021535368
-0.079822995 0.1216897 0.10371697 0.058569502 -0.09351857 0.06703008 0.106508724 -0.0004538587
-0.092319004 0.07516886 0.111226134 -0.030433603 0.0021853186 -0.035515446 -0.11831757 0.14178033
0.06833926 0.04288392 0.049486477 0.17649208 -0.040568985 0.08268209 0.062278524 -0.18008313
-0.024260227 -0.16387743 -0.053800218 -0.06374955 0.20148927 0.071731545 -0.0044655683 -0.0055249818
-0.05264496 0.06934305 0.009593124 0.022783527 -0.009055847 -0.043283295 -0.04440652 0.14760982
0.031351395 0.15637806 -0.09148579 0.18291761 -0.04044114 0.12562504 -0.006306803 0.17487615
0.01607035 0.03709675 0.10902506 -0.11758954 0.0088546015 -0.14334345 0.20220348 -0.020685378
-0.045922652 0.025262102 -0.048851393 -0.045960978 0.11890002 -0.058846023 -0.036461107 -0.06910074
0.056555443 -0.012939445 -0.0070320675 -0.040541437 -0.060579848 -0.03199996 -0.15248074 -0.11586841
-0.23178461 -0.14594315 0.006087309 0.14354482 0.04857286 0.0021944975 0.042736936 0.07040642
-0.13502903 -0.18819237 0.030497927 0.19003223 0.09597356 0.008752861 0.08449912 -0.12914161
-0.025984826 0.034509376 -0.11830641 0.07731357 -0.29237798 0.11545515 0.09263408 0.08121939
-0.02488992 -0.14531428 -0.094091155 -0.09369444 0.024784084 -0.120646566 0.05493129 -0.05106169
0.066873334 -0.14039104 -0.0032104354 0.07696582 -0.02282108 0.027421689 0.22200291 0.056976005
0.059587806 -0.11266021 -0.20030066 -0.13503547 0.05006761 -0.090771794 0.0014140719 -0.13184105
-0.104711965 -0.09076346 -0.039012916 -0.06846517 -0.02397828 0.037255444 -0.09152896 -0.16483828
-0.15543157 0.069780216 0.013787716 -0.046860106 -0.030028293 -0.17828102 -0.23183429 -0.15265964
-0.08201257 0.025294513 -0.0004620149 0.0249956 -0.11839497 -0.05496787 0.017708054 -0.055189654
0.02267527 -0.15709768 0.08025696 -0.012707875 0.14293315 -0.11772557 -0.0028024414 0.071010366
0.06439542 -0.06273542 0.23552799 0.042457957 0.020338075 -0.06294021 -0.08534235 -0.12706779
0.11444202 0.038007755 0.015457606 0.03656536 0.009534846 0.088447705 0.055222813 0.20441438
0.09190956 0.12027926 0.03084297 0.09102752 0.13479863 0.13042468 -0.07650051 -0.05533231
-0.06800394 0.056039 0.1635552 -0.22038314 0.071494296 0.14499415 -0.033551693 0.1487879
0.13840939 -0.11051454 -0.11163304 0.06701731 0.13413711 -0.078388266 0.14341529 -0.015098549
0.05773301 -0.101595014 0.06972732 0.17711413 0.076489896 0.10409152 -0.07586281 0.033968005
-0.1693922 0.056627408 0.07479764 -0.033719063 -0.07560563 -0.12558863 0.095737584 -0.0024260287
-0.027546687 -0.016818214 -0.10300807 -0.102072366 -0.102511905 -0.10498606 0.042910483 0.062844105
0.15464385 -0.028463496 0.11000038 0.094393335 0.1268059 -0.11487007 0.2488202 -0.038736902
-0.060296454 -0.09516315 0.10849166 -0.14430118 -0.05451349 0.13373023 -0.06792812 -0.21114795
00000000: 723e 0dbd bc20 1a3e 331d 223e 9b48 cb3d
00000010: 87f4 813b 2f5e b93d ec5d 5b3d a0ed e13c
00000020: 2c3e c7bd cfbe b53e b009 a63d a90b 783d
00000030: 2f59 063d 8627 bebc 5c3c aa3d 6510 a03e
00000040: a064 343d 2a8c da3c dd5b c3bd f124 b93d
00000050: e2c3 dabd 5c2e ca3e d8f7 db3c 5a22 0dbb
00000060: 3d7a a3bd 7338 f93d 9069 d43d 93e6 6f3d
00000070: aa86 bfbd 1147 893d 3f21 da3d e2f3 edb9
00000080: bf11 bdbd 22f2 993d 87ca e33d e44f f9bc
00000090: 9037 0f3b a578 11bd 7b50 f2bd dd2e 113e
000000a0: 74f5 8b3d 0da7 2f3d 55b2 4a3d 57ba 343e
000000b0: aa2b 26bd 3a55 a93d c417 7f3d b667 38be
000000c0: 62bd c6bc 7ccf 27be 9e5d 5cbd 208f 82bd
000000d0: 3453 4e3e fde7 923d e753 92bb e80a b5bb
000000e0: 3ea2 57bd bb03 8e3d 7a2c 1d3c 85a4 ba3c
000000f0: fa5e 14bc d349 31bd 9ce3 35bd 0727 173e
00000100: 526a 003d 9221 203e e75c bbbd c14e 3b3e
00000110: 9ca5 25bd daa3 003e 4ca9 cebb bc12 333e
00000120: f7a5 833c c3f2 173d 8848 df3d c9d2 f0bd
00000130: e412 113c a0c8 12be 6e0e 4f3e 6274 a9bc
00000140: 6419 3cbd 78f2 ce3c 6618 48bd 9441 3cbd
00000150: db81 f33d 8708 71bd 3e58 15bd b084 8dbd
00000160: aea6 673d f7ff 53bc 426d e6bb c70e 26bd
00000170: 9322 78bd 6412 03bd e923 1cbe 6b4c edbd
00000180: f258 6dbe 1f72 15be 0d78 c73b 6afd 123e
00000190: 56f4 463d 8fd1 0f3b ed0c 2f3d 3e31 903d
000001a0: 0d45 0abe 80b5 40be cad6 f93c cf97 423e
000001b0: c98d c43d 2968 0f3c e00d ad3d b33d 04be
000001c0: 21de d4bc b459 0d3d a24a f2bd 9456 9e3d
000001d0: 91b2 95be c073 ec3d f0b6 bd3d 5a56 a63d
000001e0: f2e5 cbbc 44cd 14be ddb2 c0bd dfe2 bfbd
000001f0: fe07 cb3c 8c15 f7bd a2ff 603d 1026 51bd
00000200: e3f4 883d abc2 0fbe 2b66 52bb 41a0 9d3d
00000210: 46f3 babc 73a3 e03c bb54 633e ac5f 693d
00000220: 5812 743d 65ba e6bd 9e1b 4dbe bd46 0abe
00000230: b213 4d3d 90e6 b9bd 6158 b93a 5701 07be
00000240: 3a73 d6bd 31e2 b9bd 02cc 1fbd 7837 8cbd
00000250: 196e c4bc 2a99 183d 8973 bbbd 5ecb 28be
00000260: 7429 1fbe eee8 8e3d dfe5 613c 62f0 3fbd
00000270: e5fd f5bc 4d8f 36be f865 6dbe cf52 1cbe
00000280: 35f6 a7bd 7036 cf3c 973a f2b9 93c3 cc3c
00000290: 1079 f2bd fd25 61bd 7b10 913c 8c0e 62bd
000002a0: 7dc1 b93c 37de 20be c35d a43d b134 50bc
000002b0: 115d 123e 1b1a f1bd 2aa9 37bb e26d 913d
000002c0: bfe1 833d 6e7b 80bd 402e 713e 65e8 2d3d
000002d0: 099c a63c cce6 80bd f8c7 aebd 0f1e 02be
000002e0: 9460 ea3d 05ae 1b3d e641 7d3c 8fc5 153d
000002f0: 0b38 1c3c 1224 b53d 5131 623d 0152 513e
00000300: 143b bc3d f954 f63d 65aa fc3c a36c ba3d
00000310: a708 0a3e 0c8e 053e 4dac 9cbd 22a4 62bd
00000320: a645 8bbd 2789 653d 047b 273e 1eac 61be
00000330: 9a6b 923d 5979 143e 806d 09bd db5b 183e
00000340: 31bb 0d3e 7255 e2bd dd9f e4bd 5f40 893d
00000350: 3d5b 093e 078a a0bd 75db 123e e85f 77bc
00000360: 7379 6c3d 0c11 d0bd 32cd 8e3d 685d 353e
00000370: bca6 9c3d ef2d d53d f65d 9bbd 0922 0b3d
00000380: 2675 2dbe 24f2 673d 812f 993d 001d 0abd
00000390: 20d7 9abd 4e9a 00be 1112 c43d 02fe 1ebb
000003a0: 97a9 e1bc 5ac6 89bc e5f5 d2bd 510b d1bd
000003b0: c3f1 d1bd ee02 d7bd e7c2 2f3d 69b4 803d
000003c0: f55a 1e3e 472c e9bc e147 e13d 4b51 c13d
000003d0: 68d9 013e 0041 ebbd b9ca 7e3e 96aa 1ebd
000003e0: 6af9 76bd e6e4 c2bd e030 de3d b0c3 13be
000003f0: 8a49 5fbd 94f0 083e e61d 8bbd 2b37 58be

network_body._body_endoder.seq_layers.0.bias f4 [64]
0.030173259 -0.026947012 0.016786395 0.0046249568 0.009291773 -0.06366206 -0.015151522 0.061410543
0.060749136 0.056230873 0.031524844 0.045295093 -0.0059874407 0.06761137 0.025609868 0.0065785814
0.043647677 0.06976516 0.044109676 0.0041620885 0.017531523 0.038277727 0.076159015 0.03863949
-0.040788855 -0.0013521279 0.0086324 -0.026781771 0.06574546 0.014567214 0.057999514 0.02459686
-0.0040594433 0.020882659 -0.01808309 0.03134155 0.048716377 0.019022586 -0.05856534 0.016064286
0.05981348 0.055693697 -0.041830752 -0.018867569 0.03899797 0.009965091 0.012399213 0.09613665
0.058113102 -0.018711224 -0.013584902 0.03682147 -0.03363322 0.011179627 -0.023893908 0.027591273
0.022087932 0.014228514 0.06298538 0.058227666 0.07417288 0.0022972987 0.08837684 0.08077539
00000000: e92d f73c fbbf dcbc 9f83 893c f38c 973b
00000010: 853c 183c 4161 82bd 173e 78bc 9f89 7b3d
00000020: 16d4 783d 5852 663d 3220 013d 5987 393d
00000030: 4b32 c4bb d477 8a3d c9cb d13c 2491 d73b
00000040: e8c7 323d 09e1 8e3d 59ac 343d 2162 883b
00000050: 459e 8f3c 1bc9 1c3d 42f9 9b3d 7144 1e3d
00000060: 3712 27bd e239 b1ba e96e 0d3c 7265 dbbc
00000070: 8ea5 863d 53ab 6e3c e690 6d3d 5b7f c93c
00000080: 1405 85bb 1c12 ab3c fd22 94bc ff5f 003d
00000090: d38a 473d 41d5 9b3c 36e2 6fbd 4099 833c
000000a0: fbfe 743d 131f 643d b956 2bbd 2990 9abc
000000b0: 56bc 1f3d 9f44 233c 1226 4b3c 4be3 c43d
000000c0: 0108 6e3d 4848 99bc 3593 5ebc 1cd2 163d
000000d0: fdc2 09bd c12a 373c 28bd c3bc 1807 e23c
000000e0: c0f1 b43c b71e 693c 7bfe 803d 2280 6e3d
000000f0: f3e7 973d 478e 163b ebfe b43d 916d a53d

network_body._body_endoder.seq_layers.2.weight f4 [64, 64]
0.040555373 -0.17532347 0.13578114 0.11563511 -0.19755824 0.0028887975 -0.15557101 -0.17490658
0.04484628 0.16965924 -0.013364701 0.23549344 -0.10290877 0.096457794 0.21328299 -0.025563426
-0.0023769112 0.056982733 -0.32595348 0.120397456 0.0027908583 0.0730235 -0.014082793 0.14416265
0.0034802842 -0.18243793 -0.0014764576 0.034096614 0.07311779 0.062357727 -0.118463874 -0.2780142
0.1916519 0.014276827 -0.076954134 -0.12383164 -0.12719923 0.2598214 -0.04394234 -0.13519517
0.22918269 -0.035119038 -0.06862222 0.03774429 0.008030381 0.18632169 -0.18728311 -0.057855308
0.10337192 0.11014756 -0.09528905 0.271723 -0.12805806 -0.07333736 0.03693571 -0.14249061
0.11826367 0.03290035 0.093948185 -0.10298924 0.13596411 0.023807386 0.15027933 0.09922755
-0.06796879 -0.07497778 0.0993247 0.03228119 -0.16319351 -0.12940067 -0.122895405 -0.12334679
-0.028901579 0.0015475877 0.19997303 -0.03680152 -0.08499433 -0.028925134 0.107002385 0.0038939
-0.066249035 0.06710382 -0.31034613 0.12349395 0.102582715 0.22001441 -0.09742535 -0.27005595
-0.23337439 0.087196514 -0.047522087 -0.014370236 0.122067414 -0.19880505 0.11496755 0.04990175
0.1307714 -0.1598385 -0.1324444 -0.14784752 -0.32618743 0.27508014 -0.022800453 0.09748123
0.24382995 0.047365006 -0.011174188 -0.08551905 0.10372613 0.06075864 -0.1912758 0.0702917
-0.07027022 -0.067200504 0.19737703 0.05578668 -0.43014094 -0.112653494 -0.06498109 0.12375429
0.10841704 -0.073156305 0.28052938 -0.12870929 -0.11034257 -0.15121467 0.2165706 0.30630186
-0.296599 0.12608851 -0.024801398 -0.22307429 -0.34522286 -0.13227509 -0.06107059 0.22101556
-0.01753574 0.01450835 -0.3361376 0.0055068783 0.061969243 0.1536971 0.12447264 -0.123683445
0.013191769 0.09706145 0.1033814 -0.030010425 0.07175977 0.13075891 -0.035582505 0.1435355
5.7734633e-05 -0.21675667 -0.029190496 -0.20444383 0.2538674 0.04946803 0.026032057 -0.10331336
-0.013207428 -0.13160193 0.28046325 -0.1743195 0.015563492 -0.01745416 0.07444026 -0.053956613
0.08038504 0.29074934 -0.26029423 0.032672234 -0.17618696 -0.2780396 0.043329347 -0.16652374
0.032056104 -0.24409078 0.059234593 -0.03400852 -0.20487194 -0.28181604 -0.13926 -0.09590284
-0.24698007 0.029343558 0.004800683 0.16278057 0.17647752 0.04355141 -0.16244082 -0.08224599
-0.27709344 0.10208657 -0.03669654 -0.031102037 0.009770341 -0.1115233 0.074421875 0.41162074
0.059506375 0.08672881 -0.034526467 -0.2135615 0.024743004 -0.12921494 -0.029160392 0.16872469
0.25885537 0.0076891147 0.022651186 0.009542494 -0.056882378 0.25271142 -0.04359561 -0.18129556
-0.12369948 0.067560464 -0.13543668 0.16464326 -0.019784981 0.12528883 -0.23669447 0.21453205
-0.09127822 0.066770814 -0.059557583 -0.2798035 -0.007774648 0.13970657 0.2625342 -0.08905655
0.23457892 -0.036094934 -0.08455851 0.005142223 -0.055258747 0.08168355 -0.4456078 0.17338675
-0.0042850417 0.20306979 0.110387065 0.22487286 0.16314068 -0.14442302 -0.17498204 -0.02491803
0.07378638 -0.12658557 -0.020193718 0.2170057 0.08440873 0.16198826 -0.15638936 0.012844607
00000000: 641d 263d ff87 33be 360a 0b3e 1ad2 ec3d
00000010: b54c 4abe fb51 3d3b 024e 1fbe b61a 33be
00000020: bcb0 373d 27bb 2d3e 9ef7 5abc 3125 713e
00000030: d5c1 d2bd aa8b c53d db66 5a3e 646a d1bc
00000040: f4c5 1bbb ba66 693d 60e3 a6be f192 f63d
00000050: d5e6 363b 588d 953d 84bb 66bc 609f 133e
00000060: 7b15 643b 02d1 3abe b285 c1ba e4a8 0b3d
00000070: c8be 953d d16a 7f3d 309d f2bd e157 8ebe
00000080: 6540 443e 5ae9 693c 219a 9dbd 719b fdbd
00000090: 8440 02be 4f07 853e e2fc 33bd 9a70 0abe
000000a0: deae 6a3e fbd8 0fbd ce89 8cbd c299 1a3d
000000b0: dc91 033c 1dcb 3e3e 25c7 3fbe b0f9 6cbd
000000c0: a8b4 d33d 0b95 e13d e826 c3bd 471f 8b3e
000000d0: a721 03be e631 96bd e649 173d 0fe9 11be
000000e0: 3934 f23d 84c2 063d e867 c03d 06ec d2bd
000000f0: 2d3a 0b3e b507 c33c d3e2 193e d037 cb3d
00000100: 3933 8bbd f38d 99bd c06a cb3d 4839 043d
00000110: 331c 27be 9c81 04be 96b0 fbbd 3e9d fcbd
00000120: 01c3 ecbc 6dd8 ca3a bbc5 4c3e 31bd 16bd
00000130: 8211 aebd 67f4 ecbc 1124 db3d cd30 7f3b
00000140: 93ad 87bd ba6d 893d b0e5 9ebe 65ea fc3d
00000150: e316 d23d 754b 613e f186 c7bd c644 8abe
00000160: b2f9 6ebe 1694 b23d 85a6 42bd 2371 6bbc
00000170: 7bfe f93d 8d93 4bbe 1b74 eb3d c765 4c3d
00000180: f0e8 053e b4ac 23be 819f 07be 5765 17be
00000190: 0a02 a7be 4ed7 8c3e 04c8 babc 3da4 c73d
000001a0: 8fae 793e cf01 423d f113 37bc 9d24 afbd
000001b0: 5e6e d43d 0dde 783d cedd 43be 18f5 8f3d
000001c0: d5e9 8fbd 6ba0 89bd 341d 4a3e 9380 643d
000001d0: 6f3b dcbe e0b6 e6bd ce14 85bd e472 fd3d
000001e0: c109 de3d f9d2 95bd 8ca1 8f3e 5ecc 03be
000001f0: 49fb e1bd 05d8 1abe afc4 5d3e 99d3 9c3e
00000200: d3db 97be 591d 013e 4d2c cbbc 966d 64be
00000210: 0dc1 b0be 1f73 07be 2825 7abd e751 623e
00000220: 1da7 8fbc 6eb4 6d3c 3a1a acbe 0b73 b43b
00000230: 76d3 7d3d c662 1d3e 83eb fe3d bf4d fdbd
00000240: 4a22 583c 27c8 c63d a1b9 d33d 6cd8 f5bc
00000250: c9f6 923d aae5 053e f6be 11bd f8fa 123e
00000260: 1728 7238 76f5 5dbe e820 efbc b959 51be
00000270: e8fa 813e fd9e 4a3d 2e41 d53c f495 d3bd
00000280: f863 58bc a8c2 06be e198 8f3e d080 32be
00000290: 04fe 7e3c 07fc 8ebc 2374 983d 9c01 5dbd
000002a0: e9a0 a43d 19dd 943e 4945 85be 52d3 053d
000002b0: 5b6a 34be 355b 8ebe 1d7a 313d 3385 2abe
000002c0: 434d 033d eff2 79be f99f 723d 854c 0bbd
000002d0: f3c9 51be 314a 90be 2c9a 0ebe b568 c4bd
000002e0: 58e8 7cbe e761 f03c 0c4f 9d3b f3af 263e
000002f0: 86b6 343e f762 323d e356 26be 9670 a8bd
00000300: 31df 8dbe c312 d13d 1c4f 16bd b3c9 febc
00000310: c813 203c 5466 e4bd 7f6a 983d f4bf d23e
00000320: f5bc 733d e09e b13d a06b 0dbd deaf 5abe
00000330: d7b1 ca3c ec50 04be c6e1 eebc 2ac6 2c3e
00000340: b188 843e f8f4 fb3b fb8e b93c 1f58 1c3c
00000350: 7ffd 68bd 6463 813e 4f91 32bd 8ba5 39be
00000360: 2756 fdbd 245d 8a3d eaaf 0abe 3e98 283e
00000370: 1d14 a2bc b74b 003e 0960 72be 4aae 5b3e
00000380: 13f0 babd 23bf 883d a7f2 73bd 6842 8fbe
00000390: 79c2 febb 3d0f 0f3e e26a 863e 4863 b6bd
000003a0: 7535 703e 48d8 13bd 032d adbd 1880 a83b
000003b0: ff56 62bd b449 a73d b526 e4be 4c8c 313e
000003c0: 8969 8cbb 87f1 4f3e 9d12 e23d 1245 663e
000003d0: 5a0e 273e a1e3 13be 7e2e 33be e520 ccbc
000003e0: 501d 973d a69f 01be 4c6d a5bc be36 5e3e
000003f0: 7cde ac3d 40e0 253e 8824 20be 3072 523c

network_body._body_endoder.seq_layers.2.bias f4 [64]
-0.016814671 0.08732712 0.085066676 0.0441986 -0.028148802 -0.020248547 0.019936156 0.06451898
0.07178709 0.04823907 0.04505905 0.059218723 0.112583995 0.08508745 -0.018283578 0.042604562
0.09138105 0.06986683 0.038786545 -0.017018788 0.07431856 0.05109072 0.06100777 -0.00042152667
-0.021648316 0.05721129 -0.0028034667 0.044380967 0.0067360676 0.060034085 0.06865969 -0.0075058914
-0.0005800422 0.027693752 0.030533414 -0.06300121 0.022760943 0.005475551 0.063377686 0.11243328
0.08651527 0.04266681 0.061145052 0.06891107 0.0693351 0.057414826 0.019290702 0.03192155
0.019329796 0.020441692 0.053579222 0.06916083 -0.010334664 0.075537674 0.054692615 0.033969574
0.013153781 0.04024012 0.024101315 0.08412368 -0.09735352 -0.066801876 0.027642298 0.027380548
00000000: ecbe 89bc 90d8 b23d 7037 ae3d 9709 353d
00000010: 5198 e6bc 48e0 a5bc 2651 a33c 8722 843d
00000020: 1c05 933d 5596 453d d78f 383d 558f 723d
00000030: 7092 e63d 5442 ae3d 71c7 95bc 1f82 2e3d
00000040: fd25 bb3d 5716 8f3d a4de 1e3d fc6a 8bbc
00000050: 5434 983d 8144 513d 49e3 793d 5a00 ddb9
00000060: cf57 b1bc 6356 6a3d 5eba 37bb d1c8 353d
00000070: 3bba dc3b 4de6 753d 749d 8c3d fbf3 f5bb
00000080: f90d 18ba 02de e23c 3621 fa3c c706 81bd
00000090: 2875 ba3c 406c b33b 29cc 813d 6b43 e63d
000000a0: eb2e b13d 65c3 2e3d 3c73 7a3d 3f21 8d3d
000000b0: 90ff 8d3d cf2b 6b3d 8907 9e3c 2cc0 023d
000000c0: 8559 9e3c 5675 a73c e375 5b3d 31a4 8d3d
000000d0: b952 29bc 7fb3 9a3d 5d05 603d ae23 0b3d
000000e0: f582 573c d3d2 243d 1f70 c53c 0949 ac3d
000000f0: 4861 c7bd 6ccf 88bd 1a72 e23c 2c4d e03c

action_model._continuous_distribution.log_sigma f4 [1, 2]
-0.06724538 -0.06327206
00000000: f2b7 89bd c894 81bd

action_model._continuous_distribution.mu.weight f4 [2, 64]
-0.045340393 -0.10869602 0.029357 0.08125382 0.035038635 -0.043686677 -0.027767688 -0.06262531
0.13690764 0.03388588 0.032708723 -0.017040243 -0.030733531 -0.09225004 -0.04955193 -0.051184695
0.10998021 -0.005526213 0.04526414 0.029020447 0.17292409 0.07405939 -0.029151624 0.011241394
0.03189675 0.021585185 0.0054458897 0.09750796 0.067711204 -0.07993179 0.13434362 0.04532069
-0.030044455 -0.036542896 0.06567083 -0.027651452 0.005086382 -0.0247546 0.032269105 -0.058288198
0.10469712 -0.13087104 -0.069855556 -0.10676235 -0.07126709 -0.12203095 -0.040714744 0.021678356
-0.03309594 -0.00021455942 -0.01230883 0.09596743 -0.008921572 -0.06188682 -0.081563145 -0.061129536
-0.03391725 0.023748763 0.061576746 0.14394441 0.065035716 -0.028817177 -0.026227001 -0.08037588
-0.01828756 0.017801486 -0.09139781 0.11926018 0.07055303 -0.061180543 -0.09563768 0.07526118
-0.010445768 -0.042716883 -0.10319363 0.11039643 -0.14373094 -0.04332565 -0.015967758 -0.0067141675
0.017430631 0.15301864 -0.053234797 0.025967676 0.0036436946 -0.060570244 0.10128002 -0.027524676
0.021331934 -0.07302376 0.04318345 0.034355283 0.022332896 -0.025888875 0.04360294 0.028508758
0.005286088 0.035163622 -0.045225296 0.03350449 -0.10415343 0.012681471 -0.019137919 0.17249508
-0.030484883 -0.049045984 -0.020324456 0.08959444 0.0737156 -0.029908614 -0.090210736 -0.056931395
0.046205305 -0.061052073 -0.17333199 0.050187383 0.015497459 0.14884023 0.014610285 -0.038434178
0.10257354 0.11694176 -0.054002766 0.10691277 -0.08673716 -0.010704637 -0.033068206 -0.0377658
00000000: d9b6 39bd 059c debd 177e f03c 6768 a63d
00000010: ac84 0f3d cdf0 32bd 1079 e3bc b341 80bd
00000020: 8431 0c3e eccb 0a3d 95f9 053d fb97 8bbc
00000030: e3c4 fbbc 97ed bcbd f7f6 4abd 0ba7 51bd
00000040: 4e3d e13d 3c15 b5bb e466 393d 4abc ed3c
00000050: 0313 313e 73ac 973d 63cf eebc d32d 383c
00000060: 2ba6 023d 6ad3 b03c 6f73 b23b 41b2 c73d
00000070: 2cac 8a3d 47b3 a3bd 6091 093e 30a2 393d
00000080: ca1f f6bc 01ae 15bd 6e7e 863d 4c85 e2bc
00000090: aaab a63b 29ca cabc 9c2c 043d 9bbf 6ebd
000000a0: 726b d63d 0f03 06be 6e10 8fbd 38a6 dabd
000000b0: 7bf4 91bd 5deb f9bd 81c4 26bd cf96 b13c
000000c0: 9c8f 07bd 5bfb 60b9 faaa 49bc 928a c43d
000000d0: c92b 12bc 097d 7dbd 940a a7bd f762 7abd
000000e0: d0ec 0abd c48c c23c e637 7c3d 2a66 133e
000000f0: 7231 853d 0012 ecbc 02da d6bc 1c9c a4bd
00000100: cbcf 95bc 6cd4 913c c62e bbbd ae3e f43d
00000110: 1b7e 903d 7398 7abd b0dd c3bd 8922 9a3d
00000120: ba24 2bbc e6f7 2ebd 2f57 d3bd 8617 e23d
00000130: 342e 13be 3d76 31bd d1ce 82bc 8502 dcbb
00000140: afca 8e3c ebb0 1c3e bb0c 5abd 2aba d43c
00000150: 0dcb 6e3b 8118 78bd e66b cf3d 6e7b e1bc
00000160: 4fc0 ae3c 7b8d 95bd 21e1 303d 20b8 0c3d
00000170: 7af3 b63c e814 d4bc ff98 323d 338b e93c
00000180: ec36 ad3b bb07 103d 293e 39bd 013c 093d
00000190: 654e d5bd f2c5 4f3c 20c7 9cbc 8da2 303e
000001a0: 6fbb f9bc 71e4 48bd 797f a6bc 4a7d b73d
000001b0: 34f8 963d e902 f5bc 68c0 b8bd e530 69bd
000001c0: c641 3d3d bd11 7abd f17d 31be 4991 4d3d
000001d0: 0ee9 7d3c 9369 183e fa5f 6f3c 286d 1dbd
000001e0: 1312 d23d 297f ef3d 0132 5dbd 15f5 da3d
000001f0: 41a3 b1bd 8062 2fbc 8772 07bd 50b0 1abd

action_model._continuous_distribution.mu.bias f4 [2]
0.007879682 -0.0059914454
00000000: c819 013c e353 c4bb

action_model._discrete_distribution.branches.0.weight f4 [3, 64]
0.0007937459 0.04057638 -0.060209602 -0.013870577 -0.06133884 -0.058581743 0.09108637 0.0009325757
0.051579848 -0.0635962 0.019326638 -0.015733099 0.0026946233 -0.0525531 -0.026777409 -0.038809754
0.038296655 -0.049636483 0.043964956 0.018765206 -0.07182084 -0.05096155 0.16627868 -0.06396213
-0.04425457 0.0034054392 0.026117258 -0.06659964 -0.05593227 0.02157862 0.070341945 -0.009299916
0.060964555 0.031820968 0.047897626 0.025036536 0.011128041 -0.05234551 -0.090551905 -0.08366118
0.010085716 0.04963689 -0.023278795 -0.005830163 0.00245974 0.05759407 -0.058555555 0.013332268
0.009370431 0.039461516 0.011104505 0.005034874 0.012243188 -0.060343765 -0.017329162 -0.053679515
-0.061534535 -0.056010813 0.0007732028 0.0043498115 -0.0025476469 -0.028957559 -0.05475157 0.039589856
-0.042562477 -0.03202117 0.1694358 5.1240036e-06 0.037939977 -0.04998359 -0.098418556 -0.029053403
-0.07331521 0.087974995 -0.0073512467 0.030709347 0.11670636 0.081692964 0.05554448 -0.008345383
0.024547612 0.08141858 -0.153523 -0.012208827 0.0030346196 0.16091274 -0.14509758 0.041965004
0.09147384 0.12008709 0.012241921 0.13936107 0.06273314 -0.0326395 0.004933013 -0.03650125
-0.039070267 -0.12707627 -0.03738591 -0.0056109424 -0.22465132 0.060874622 0.09129146 0.03853955
0.032137807 -0.11830358 0.016274048 -0.032869816 0.062644884 0.17150144 0.03194982 0.011338378
-0.06489167 -0.017828947 0.06959224 0.08387104 -0.0155217005 -0.02565386 -0.041940328 0.09081137
0.19628374 0.06288772 -0.04793727 0.020703753 0.010556897 0.051893562 0.023073887 0.0032339555
0.036012612 -0.027391583 -0.05093598 0.032641016 0.045817774 0.08434399 -0.024938533 0.03524762
-0.01159723 -0.013487733 0.025023315 0.004689938 -0.041620817 -0.025252 0.0021441 0.048801985
-0.08920133 -0.050622027 0.092236966 0.005250222 0.09139374 -0.059387732 -0.030807888 0.00379809
-0.048448123 -0.08937163 -0.040391896 -0.0682537 -0.008155179 -0.015042367 -0.06494918 0.031117432
-0.026816078 0.06874756 -0.009530988 0.004261312 0.19494338 -0.0030161317 0.028628463 0.056546718
-0.016580174 0.09512918 -0.001414004 0.090006776 -0.066677995 -0.23149021 0.06755787 0.003231644
0.0194221 -0.020871028 -0.07868098 -0.09487314 0.0034837078 0.110245496 0.05425756 0.009928349
-0.1509956 -0.016822647 0.048482712 0.011768028 0.027051097 0.022728864 0.032107282 -0.012005365
00000000: 6313 503a 6b33 263d 589e 76bd 6b41 63bc
00000010: 6f3e 7bbd 69f3 6fbd 7e8b ba3d 1978 743a
00000020: 6445 533d b93e 82bd e652 9e3c b3e2 80bc
00000030: 4798 303b eb41 57bd 4c5c dbbc faf6 1ebd
00000040: f4dc 1c3d a04f 4bbd 9914 343d 7db9 993c
00000050: ce16 93bd 0fbd 50bd f544 2a3e 94fe 82bd
00000060: 4844 35bd ca2d 5f3b dcf3 d53c 6465 88bd
00000070: 3c19 65bd a5c5 b03c 700f 903d ad5e 18bc
00000080: f8b5 793d b456 023d 4d30 443d 6c19 cd3c
00000090: 6352 363c 3f68 56bd 4773 b9bd 8e56 abbd
000000a0: 8f3e 253c 0d50 4b3d 2cb3 bebc f40a bfbb
000000b0: 9733 213b c2e7 6b3d f3d7 6fbd 966f 5a3c
000000c0: 7086 193c 66a2 213d abef 353c 96fb a43b
000000d0: a797 483c 062b 77bd e3f5 8dbc 0ddf 5bbd
000000e0: a30b 7cbd 986b 65bd c3b0 4a3a dd88 8e3b
000000f0: 6cf6 26bb 6738 edbc 2f43 60bd f928 223d
00000100: fe55 2ebd a128 03bd 9480 2d3e dbee ab36
00000110: f366 1b3d 98bb 4cbd ab8f c9bd 6701 eebc
00000120: 4926 96bd 3c2c b43d bae2 f0bb 2b92 fb3c
00000130: be03 ef3d a44e a73d 9c82 633d 13bb 08bc
00000140: 1318 c93c c9be a63d 2235 1dbe 8807 48bc
00000150: 78e0 463b 4fc6 243e 7694 14be 7fe3 2b3d
00000160: a356 bb3d 38f0 f53d 5792 483c abb4 0e3e
00000170: 3c7a 803d ffb0 05bd 1da5 a13b 5682 15bd
00000180: 2508 20bd 4820 02be f821 19bd ffdb b7bb
00000190: ff0a 66be ab57 793d 04f7 ba3d a6db 1d3d
000001a0: efa2 033d 2649 f2bd 2751 853c 80a2 06bd
000001b0: f64b 803d 139e 2f3e d1dd 023d 9bc4 393c
000001c0: ede5 84bd 030e 92bc 6086 8e3d 94c4 ab3d
000001d0: bb4e 7ebc 0b28 d2bc 9fc9 2bbd 50fb b93d
000001e0: 9bfe 483e 47cb 803d df59 44bd eb9a a93c
000001f0: d6f6 2c3c 588e 543d 7305 bd3c c5f0 533b
00000200: f681 133d 5064 e0bc 3fa2 50bd 96b2 053d
00000210: 6bab 3b3d 8bbc ac3d e54b ccbc cf5f 103d
00000220: 4f02 3ebc a7fb 5cbc b2fd cc3c 0dae 993b
00000230: 977a 2abd 48dd cebc 0784 0c3b 97e4 473d
00000240: 30af b6bd 0b59 4fbd bce6 bc3d 0e0a ac3b
00000250: a42c bb3d 8d40 73bd d360 fcbc 60e9 783b
00000260: 8a71 46bd 7908 b7bd f971 25bd 99c8 8bbd
00000270: 4d9d 05bc 4374 76bc 1304 85bd fce9 fe3c
00000280: 64ad dbbc 85cb 8c3d dc27 1cbc 7aa2 8b3b
00000290: 3d9f 473e 4baa 45bb 3d86 ea3c 889d 673d
000002a0: 25d3 87bc 16d3 c23d 1a56 b9ba 7955 b83d
000002b0: 798e 88bd c50b 6dbe c85b 8a3d fdc9 533b
000002c0: 191b 9f3c b8f9 aabc 7e23 a1bd d94c c2bd
000002d0: eb4e 643b 64c8 e13d 2d3d 5e3d 84aa 223c
000002e0: 979e 1abe a6cf 89bc cf95 463d b0ce 403c
000002f0: 439a dd3c e231 ba3c ed82 033d 27b2 44bc

action_model._discrete_distribution.branches.0.bias f4 [3]
0.03964188 -0.00437081 -0.04725726
00000000: 865f 223d 0339 8fbb d490 41bd
