results/MLHades_main_9_coinsareparticles/MLHades/MLHades-1999962.onnx (onnx, 420266 bytes, 22 tensors)

discrete_action_output_shape f4 [1, 4]
000000 00 00 40 40 00 00 40 40 00 00 40 40 00 00 00 40
       3.0 3.0 3.0 2.0

network_body.observation_encoder.processors.1.conv_layers.0.weight f4 [16, 7, 8, 8]
000000 75 dd 6f 3d 33 20 97 bd 1f e0 0f 3c 9f 95 ad b8
       0.058560807 -0.073791884 0.008781462 -8.277152e-05
000010 ac 3c b3 bc 49 2d 2d 3d f5 7a 1b 3d 2f 44 63 bd
       -0.021879517 0.042279515 0.037959058 -0.055484947
000020 b7 d3 3e 3d f6 a5 69 bd 35 f2 19 3d 71 f9 c6 bb
       0.046588626 -0.05704304 0.037584502 -0.006072216
000030 22 84 1a 3d 49 21 af bc 87 fa 04 3d 52 c0 1d bd
       0.037723668 -0.021378176 0.032465484 -0.03851349
000040 5c f7 b7 3d a9 c8 46 bc be 08 8f bc 7a 51 e7 3c
       0.08982727 -0.012132802 -0.017460223 0.028237093
000050 eb 37 22 b9 5a cd 9a bb 2d cf 90 bc ae 36 a9 3a
       -0.00015470355 -0.004724187 -0.017676914 0.0012909973
000060 ee ec ff 3c 25 26 8d bd 09 19 93 3c 18 10 13 bd
       0.031240907 -0.06892041 0.017956274 -0.03590402
000070 f9 05 19 3c 62 12 85 bc bc 7b bc 3c ed db ca bc
       0.009339803 -0.016244117 0.02300822 -0.024763072
000080 d4 54 9b 3d 2b c4 de bc 58 d6 2d bd ca b7 9e bd
       0.07584539 -0.02719315 -0.042440742 -0.07749899
000090 27 c0 11 3d 3f 48 63 3c 12 db c0 bc f0 d3 3a 3c
       0.03558364 0.013872205 -0.02354196 0.011403069
0000a0 62 25 86 3d e0 60 87 bc e2 da 8a bd 4d 17 7b bc
       0.06550099 -0.016525686 -0.0678003 -0.01532538
0000b0 5e d0 12 3d b7 09 a0 3c db 67 ce 3b 74 7d 53 bd
       0.035843246 0.019535882 0.0062990016 -0.051633313
0000c0 bb 77 27 3a 64 39 f2 3c b0 d7 12 bd 6b 8e 2f bd
       0.00063883857 0.029568382 -0.035850227 -0.04286043
0000d0 1a ef 81 3c 49 06 23 bc 0e 65 84 3a 94 8d f2 3c
       0.015861083 -0.009950229 0.0010100917 0.029608525
0000e0 5c df 5b 3d d6 3f a2 bd 9f f0 a9 bc 10 d7 87 bd
       0.05367981 -0.07922332 -0.02074462 -0.06632817
0000f0 40 21 2e bd 36 a4 9a 3d 14 d6 97 3c 8c 37 4d bd
       -0.04251218 0.07550852 0.018534698 -0.0501018
000100 3d af ba 3d 72 a2 4d 3e 6c 11 2b 3e 89 d8 25 3e
       0.09115455 0.20081499 0.16705865 0.16195883
000110 51 78 1a 3e 1e 06 5e 3e 16 3d 29 3e 31 83 fa 3d
       0.1508496 0.21682021 0.16527209 0.12232054
000120 78 d9 eb 3d 0e bb 44 3e 04 03 41 3e d7 88 2c 3e
       0.11516088 0.1921198 0.18848807 0.16849075
000130 6a 6f 1e 3e 3b b6 16 3e ca 13 38 3e 1e d7 14 3e
       0.15472189 0.14717953 0.17976299 0.14535186
000140 4a b3 9e 3d 6d ec 32 3e f6 98 83 3e c9 d8 e5 3d
       0.077490404 0.17473002 0.25702637 0.11222989
000150 27 87 9d 3d 92 a6 12 3e ae 97 88 3e 63 51 36 3e
       0.07691794 0.14321354 0.26678222 0.17804484
000160 32 69 36 3e d3 73 3a 3e 4a 83 76 3e 01 8d a3 3e
       0.17813566 0.18208246 0.2407352 0.31943515
000170 56 fe 2a 3e a9 e4 2d 3e fc 83 26 3e cc 05 14 3e
       0.16698584 0.16981758 0.16261286 0.14455336
000180 4c bc 25 3e 06 d2 18 3e b7 c2 8e 3e f2 7f 97 3e
       0.16185111 0.14923868 0.2788293 0.29589802
000190 84 bf 77 3e 47 24 11 3e b7 2b 43 3d dd bb 1b 3e
       0.24194151 0.14173995 0.04764911 0.15208383
0001a0 2e a7 2d 3e c0 e6 77 3e e3 36 97 3e 1a 9e 93 3e
       0.16958305 0.24209118 0.29534063 0.2883156
0001b0 b5 1b 79 3e ba ab 6c 3e 8a 3d f9 3d 72 a5 11 3e
       0.24326976 0.23112383 0.12169941 0.14223269
0001c0 8c f4 55 3c 10 f2 46 3e e9 ae 66 3e 78 9b 87 3e
       0.013058793 0.19428277 0.2252766 0.264858
0001d0 83 8f 55 3e db d9 3b 3e b4 5c 80 3e 8a 57 37 3e
       0.20855527 0.18344824 0.25070727 0.17904487
0001e0 9c a8 7b 3e 0d 85 73 3e 5d 68 8b 3e 80 ad 8f 3e
       0.24576038 0.23781224 0.2722806 0.28062057
0001f0 59 b3 ac 3e 88 74 5c 3e 5e 3c 8a 3e 2a b2 93 3e
       0.3373058 0.21528828 0.26999182 0.28846866
000200 6b eb 6f 3c aa a6 87 bd bd 7e 87 bc 39 c1 74 bd
       0.01464353 -0.066235855 -0.016539926 -0.059754584
000210 c9 d2 d7 3a b6 2b 92 bd 69 97 a6 3c 9f 56 8c 3b
       0.0016466017 -0.071372434 0.02033587 0.004282787
000220 2d f9 41 bd 11 68 59 bd 1a 2e 33 bd 07 1f df 3b
       -0.047356773 -0.05307776 -0.043745138 0.0068091187
000230 6c d4 1e be ce 68 64 bb 41 69 f3 bc a4 68 48 bc
       -0.1551072 -0.0034852508 -0.029713275 -0.0122319795
000240 93 5a 7f bd e1 85 1b 3d 62 91 3b bc b1 63 81 3c
       -0.062342238 0.037969474 -0.011448236 0.015794607
000250 89 e8 6f bd 5d 56 53 3c 85 af b2 3c 68 f6 03 bb
       -0.058571372 0.012899009 0.02181221 -0.0020135883
000260 16 90 b0 bd 76 80 5d 3a fc 96 3d 3c 65 57 f6 3b
       -0.08621232 0.0008449623 0.011571642 0.0075177425
000270 ec f3 66 bc c8 a4 6c 3d e1 34 7c 3d ef 66 11 3e
       -0.014096241 0.057774335 0.061573867 0.14199422
000280 a1 57 9b 3c ca bc 28 bd 18 b9 04 bd d6 ed f2 ba
       0.018962683 -0.04119567 -0.03240308 -0.0018534015
000290 4b 71 9a 3d 1b fa 06 bd fd a7 8a 3d f8 e2 a3 3d
       0.0754114 -0.032953363 0.067703225 0.08002275
0002a0 67 db f8 bd c8 57 c6 3b 4a 8c 80 bd 48 20 cb bd
       -0.12151223 0.006052945 -0.06276758 -0.099182665
0002b0 05 ae 01 be ef 3c df bc 56 f0 9f 3d 07 3d aa 3b
       -0.1266404 -0.027250735 0.07809512 0.0051952633
0002c0 46 22 f2 bd 61 f7 bc bd c9 29 1d be fd b3 57 bd
       -0.118229434 -0.09226871 -0.15347971 -0.052661885
0002d0 cb f9 a3 bd ec 45 52 bd 16 bb b0 3c b5 47 02 3d
       -0.080066286 -0.051336214 0.021573585 0.031806666
0002e0 71 e5 31 be 6c 43 bf bd 0b e9 cc bd be 92 0b bd
       -0.17372681 -0.093390316 -0.10005387 -0.03407549
0002f0 f4 c8 63 bd 62 7f 45 bd 05 4b 48 bc 1c a5 6d 3c
       -0.055611566 -0.048217185 -0.012224917 0.014504697
000300 ec 7f b8 3c 2f 3c 52 3d 75 37 1d bd 55 06 3e 3d
       0.022521935 0.051326927 -0.038382966 0.046392757
000310 f4 e4 95 3d 4d 7b d7 3d 97 8b 7e 3d aa aa 09 3c
       0.0731906 0.10521565 0.062144842 0.008402506
000320 42 9c 95 bd 1a 9c 9e 3b d9 ba 65 bd a9 82 3c bd
       -0.073051944 0.004840386 -0.056086395 -0.046023045
000330 25 ca 63 bc cf 2d d2 3c 87 d1 3f 3d ab 8f 00 3c
       -0.0139031755 0.025656609 0.04683068 0.007846753
000340 28 b8 91 bd 53 17 71 3d 8a e6 ce 3c e0 86 cc bc
       -0.07115203 0.058860134 0.025256414 -0.024966657
000350 ee 7a 66 3d 92 df 03 3d 26 49 b8 3d b6 69 5a 3d
       0.05626958 0.032195635 0.08998327 0.05332347
000360 4d f6 80 bc b8 02 60 3d 68 5b ca 3d 88 b7 ff bc
       -0.015742445 0.054690093 0.098807156 -0.031215444
000370 94 1e b4 3d d9 6f 7f 3d b0 5c 10 bc 49 8b ab bd
       0.08794895 0.062362526 -0.008811161 -0.08376176
000380 5c e5 10 bd 1e 1b 51 3c 97 32 a9 bc ab 05 5d 3b
       -0.035374984 0.012762813 -0.020654006 0.0033725302
000390 4c 11 03 3c e2 d8 81 3d 25 51 2b bd b4 3f e6 bd
       0.007999729 0.06340195 -0.041825432 -0.11242619
0003a0 78 a2 28 bd ae 04 22 3d 7a 68 d8 3b ff d5 99 bd
       -0.041170567 0.039555244 0.0066042515 -0.0751152
0003b0 2c f0 a3 3c 82 2b af 3c 15 38 64 bc f7 dc f3 bd
       0.020011984 0.02138305 -0.013929387 -0.1190738
0003c0 47 f6 9d 3a 1c c2 04 bd 61 6e 6e bd 45 63 fb 3a
       0.0012051546 -0.03241168 -0.058210734 0.0019179365
0003d0 6e ef aa 3c 54 85 52 bd 08 11 db bd a2 9b ab bc
       0.020866122 -0.051396683 -0.10696608 -0.020948235
0003e0 6d c4 a8 3c e9 f6 34 3d b5 12 07 3d 53 c9 72 3c
       0.020601476 0.044180784 0.032976825 0.014818507
0003f0 49 6b 8e 3d 9a c3 84 bc 07 df de 3c aa 08 99 bd
       0.06954057 -0.016206551 0.027205957 -0.07472356

network_body.observation_encoder.processors.1.conv_layers.0.bias f4 [16]
000000 e0 2a 3b 39 c5 e2 7b 3c 4d 71 41 3a b7 ff d4 bc
       0.00017849682 0.01537389 0.0007379249 -0.02600084
000010 20 c8 3c 3c 37 c7 b0 ba af 58 2e 3c 69 03 39 bc
       0.011522323 -0.0013487105 0.010641261 -0.011292317
000020 a1 46 51 bd ed 9b 0d bd 85 5a 36 bc aa 8c 80 bb
       -0.051092748 -0.03457253 -0.01112998 -0.0039230185
000030 25 f1 49 bd 45 59 07 bc 93 d9 ee ba 32 2e b3 bb
       -0.04930224 -0.00826103 -0.0018222801 -0.0054681534

network_body.observation_encoder.processors.1.conv_layers.2.weight f4 [32, 16, 4, 4]
000000 83 3e 23 b8 74 6f 73 3d 75 34 c8 3d 27 e1 03 3d
       -3.8920447e-05 0.05943246 0.097756304 0.032197144
000010 ea ed 58 3d 87 f5 c9 3c b1 0e 1a bd 3c 03 44 bd
       0.052961268 0.02465321 -0.037611667 -0.047854647
000020 7a e9 cc 3c 56 75 70 3d 07 cf b0 3c 68 84 4a 3d
       0.025013674 0.05870565 0.021583093 0.04944268
000030 00 40 e5 3d e9 b7 d4 bc 39 ab ae 3b 79 23 40 3d
       0.11193848 -0.025966601 0.00533047 0.04690883
000040 96 c2 a8 bd 3c b8 49 3c 4f 02 6a 3c 4e 83 73 bd
       -0.08240239 0.012311991 0.014282777 -0.059451394
000050 bf 91 2d 3b a4 d8 5f 3d 7a d6 d7 3b 6b 08 85 bd
       0.0026484577 0.054649964 0.006586847 -0.06495746
000060 4b f1 b9 3d 85 72 16 3c 10 6f c0 bd ae 5b e5 bd
       0.09079226 0.009182577 -0.093961835 -0.11199127
000070 6f eb e1 3d 9e 52 6f bd 54 0e 03 bd 36 62 1c 3d
       0.110312335 -0.0584284 -0.031996086 0.0381796
000080 d0 13 50 3d 6e c2 8f 3b 18 4e 03 3d 8a 36 31 bd
       0.050800145 0.0043871915 0.032056898 -0.043264903
000090 b7 b3 65 bc 64 6f 0b 3d 82 9e 6f 3b 33 48 d9 bd
       -0.014019898 0.034041777 0.0036562984 -0.10609474
0000a0 9c 45 20 3a a8 80 7a 3d 6f de d5 3b ac 29 80 3d
       0.0006113888 0.061157852 0.0065267603 0.06257948
0000b0 9b 9d 18 bd df 2b 67 bd 77 d6 44 3d 93 4d a7 3c
       -0.03725968 -0.056438323 0.048056092 0.020422732
0000c0 e6 0f 59 bd df 83 91 3b 4a 21 85 3c 5c 4c 81 3b
       -0.052993678 0.004440769 0.016251225 0.0039458703
0000d0 af 54 0d 3e 38 a3 13 3d 52 07 b0 bd e1 e0 12 3c
       0.13801835 0.03604433 -0.08595146 0.008964748
0000e0 6f 63 00 3d 9f d9 2b 3a fd 7c f5 ba e1 3d 4d 3d
       0.031344827 0.00065555604 -0.0018729266 0.05010784
0000f0 b7 5c 39 bc 57 3c 18 3c 19 8d df 3d 52 1d 11 bc
       -0.011313609 0.00929173 0.10915584 -0.008857088
000100 83 b3 9b bd 17 6d 24 3b ee 04 e5 3c aa 27 1d bd
       -0.076025985 0.0025089437 0.027956452 -0.038367905
000110 39 37 58 bc 0e 0b 49 3c 56 f8 81 bc 43 b9 ff 3c
       -0.01319676 0.012270702 -0.015865486 0.03121627
000120 cf 0c 00 3e 60 78 bd 3c ef 98 bd bd 80 d3 68 bc
       0.12504886 0.023128688 -0.092576854 -0.014210582
000130 60 34 6c bc 5a 0a 3b bd 43 65 4d bd 38 e7 bc bd
       -0.014416784 -0.04566417 -0.0501454 -0.09223789
000140 ad 0e 93 bd 09 fc 08 3e 55 7b ab 3c ce 31 18 3b
       -0.071805336 0.13377394 0.020932833 0.0023223045
000150 53 d0 c5 3d 8c b4 0e 3e 83 9c d4 3b d3 d9 61 bd
       0.09658875 0.1393606 0.006488384 -0.055139374
000160 b4 8c c5 3d 1b 10 d4 3d 3d fb 67 bd df e2 bb 3d
       0.096459776 0.103546344 -0.056636084 0.091741316
000170 9e 37 b9 bc cf 0b 51 3d a2 63 03 3e 43 7e 17 3d
       -0.022609528 0.051036652 0.12830976 0.036985647
000180 9a 2d b8 bc 98 56 8e bd 86 a0 4a bd f8 a4 0d be
       -0.022482682 -0.0695011 -0.049469493 -0.13832462
000190 eb 95 ac 3d 6c 6f 23 3d db b8 5c 3a f7 9c 04 be
       0.08427032 0.039901182 0.00084198796 -0.12950502
0001a0 45 a4 15 3e 6f 94 7a bb 9b 9a 18 bc 84 08 bf bb
       0.14613445 -0.0038235446 -0.009314205 -0.0058298726
0001b0 20 34 be 3b 88 e7 fc 3c 21 00 9b 3d 87 69 e9 3b
       0.0058045536 0.030872121 0.07568384 0.0071231755
0001c0 12 98 d9 bd 08 fc 09 be c6 f5 ca bc f0 d4 3e bd
       -0.10624708 -0.13475049 -0.024775397 -0.04658979
0001d0 bb d0 4e bd 5c 7a 10 3d 09 90 5d bc 0f 31 fe bc
       -0.05049203 0.03527294 -0.01352311 -0.031029252
0001e0 bb 72 d3 3d a2 4c bd bc 4e 74 7c bd 6b 18 ca 3c
       0.103246175 -0.02310783 -0.061634354 0.024669847
0001f0 71 88 d7 3c 28 d6 46 bd 5f 7e fe ba 0f 2f 73 bd
       0.026310178 -0.04854408 -0.0019416324 -0.05937105
000200 b0 b4 57 bd f0 68 a1 bd c7 33 f0 bd 5f 66 03 be
       -0.05266255 -0.07881343 -0.11728626 -0.1283202
000210 7d b8 a6 3c 5b 8a 45 bd cd 9b 85 bd 00 18 0a bd
       0.020351643 -0.04822765 -0.06523857 -0.033714294
000220 ec fc cd 3d 7e 42 0e be c4 0a be bd 9f d6 e6 bd
       0.10058007 -0.13892552 -0.09279397 -0.112714045
000230 92 ac 34 3d 50 4b 84 3c 9a 78 68 bc 73 4a 11 bb
       0.04410989 0.016149193 -0.01418891 -0.002216962
000240 cd 52 3c bd 6b 24 11 bd 3b a1 f4 bd b2 b8 36 be
       -0.045977402 -0.03543512 -0.11944815 -0.17843893
000250 38 26 87 bd 17 00 14 be e7 e6 4e bd bc 81 4a be
       -0.065990865 -0.1445316 -0.050513174 -0.19776052
000260 60 91 9e 3b 1e c7 8f bd 4e b9 b2 bd 5f da 21 bc
       0.0048391074 -0.070204005 -0.0872675 -0.009878724
000270 09 ef 44 bd d3 cc a4 bd b5 5f d9 bc 90 66 18 be
       -0.048079524 -0.080468796 -0.026534894 -0.14882874
000280 44 53 f4 3c 66 a2 62 bc 27 f6 22 be 16 57 8c bc
       0.02982486 -0.013832664 -0.15914212 -0.01713137
000290 3d a7 3c bc 01 df 20 bd 3b fc f9 bd a3 56 65 bd
       -0.011514482 -0.039275173 -0.12206312 -0.055990826
0002a0 d5 ae 18 3d e8 76 02 bd 16 6a ab bd 79 76 4f bd
       0.037276108 -0.03185168 -0.08369844 -0.050650094
0002b0 d5 d0 07 3d 18 89 48 bd 04 92 4d bd 51 05 e6 bd
       0.033158142 -0.048958868 -0.05018808 -0.11231483
0002c0 fe 09 46 bd 3e 3c 74 bd a2 54 20 bd 15 51 66 bd
       -0.048349373 -0.059627764 -0.039143212 -0.05622967
0002d0 49 e6 34 bd 1e 40 91 bb 70 85 8b bd 37 e2 ac 3c
       -0.04416493 -0.004432692 -0.068125606 0.021103961
0002e0 b7 44 86 ba d7 47 f8 3c 37 b2 bb bd d5 28 bd 3c
       -0.0010243867 0.030307693 -0.09164851 0.02309076
0002f0 34 7b 9e 3d 61 20 53 3d 10 c7 54 bc 59 ea 58 3d
       0.07738343 0.05154455 -0.012986913 0.052957866
000300 e0 7d 58 bd 24 c1 5d 3c 82 4e a9 bd dd 7a 06 bb
       -0.05285442 0.013534818 -0.08266927 -0.002052001
000310 46 d6 db 3d 5f 09 57 3d 50 15 ee bd 3d 54 91 bd
       0.10734229 0.05249917 -0.11625159 -0.07096145
000320 36 38 e4 3d 5c a7 96 3d c9 bc 61 bd 7e b9 ee bd
       0.11143534 0.0735614 -0.05511168 -0.116564736
000330 87 fa 6a bd 85 b4 a9 bd df a8 f1 bd 6c 33 17 3d
       -0.057367828 -0.082863845 -0.11799788 0.036914274
000340 a0 ff e1 3c c4 78 d7 bd 93 58 92 bd 5b 0d 23 be
       0.027587712 -0.10521081 -0.071458004 -0.15923063
000350 6a 35 f5 bd 5d fb ea bd e7 b5 29 bd 57 33 99 bd
       -0.119730785 -0.11473725 -0.04143324 -0.074804954
000360 27 f5 d2 3d 6b a5 03 bc a5 94 bf bd fa c7 b4 3c
       0.10300665 -0.008035044 -0.093545236 0.022068013
000370 11 eb a4 bd 6b 43 ac bd 82 53 97 3c c1 a2 d0 bd
       -0.08052648 -0.084112965 0.018472437 -0.10187293
000380 9d db 73 3d db 42 d4 3d 9f 95 3d bc 05 84 1e 3d
       0.05953561 0.10364314 -0.011571317 0.038700122
000390 44 25 87 3d 00 50 8b 3c a6 6f 59 bd bd 41 08 be
       0.06598905 0.01700592 -0.053084992 -0.13306327
0003a0 06 bc cf 3d af 44 3b 3c fd bb 9c bb bf 00 3d 3d
       0.101432845 0.01142995 -0.004783152 0.04614329
0003b0 6a d9 8f 3d cd 9c 30 bd 58 52 1f 3d ff e6 57 3d
       0.0702389 -0.043118287 0.03889689 0.05271053
0003c0 ae b4 df bc 18 da c3 3d 33 df a8 3d 30 62 39 bc
       -0.027307834 0.095630825 0.08245697 -0.011314914
0003d0 7a 9e 36 3d 53 e0 7c 3d c1 cf 01 be 1f 96 00 be
       0.04458473 0.06173737 -0.12676908 -0.12557267
0003e0 4e 44 cf 3d 3c 0e 0c 3d e3 f2 24 3d b4 c4 8e bc
       0.1012045 0.034193262 0.040270697 -0.01742778
0003f0 22 1b 75 bd c5 b8 6c 3d c0 81 ab bc cb ba c9 3c
       -0.05984033 0.057793397 -0.020935893 0.024625203

network_body.observation_encoder.processors.1.conv_layers.2.bias f4 [32]
000000 44 e0 4b bc 99 6c 58 bc c1 70 5f bc fc 38 7e bd
       -0.012443606 -0.013209485 -0.0136377225 -0.062066063
000010 d9 cf b8 bd bd d1 23 bd b8 98 27 bd 6a 62 8f bd
       -0.09024019 -0.039994944 -0.04091713 -0.07001193
000020 01 a5 b1 3c 91 87 24 3d e5 71 0f bd c3 37 64 3d
       0.021685125 0.04016835 -0.035020728 0.05571724
000030 fe 31 df bc 92 a5 58 3c e0 ed c9 bc be 5c 0e bd
       -0.027245518 0.013223069 -0.02464956 -0.034756415
000040 11 13 c6 bb 66 98 25 3b a2 f8 bd bb 93 bf 48 3b
       -0.0060447534 0.0025267839 -0.0057974616 0.0030631765
000050 60 12 57 bd 95 f1 17 bd 15 fe 8e bd 40 2e 7d bc
       -0.05250776 -0.037095625 -0.06982056 -0.015452921
000060 5e 69 c4 3d e2 f3 22 3d e2 de 1a bd 99 f0 f1 bb
       0.0959041 0.039783366 -0.037810214 -0.007383418
000070 27 51 a2 bc 00 d5 97 3d 50 6a 0e bd ed e9 3a 3d
       -0.019814087 0.074136734 -0.034769356 0.045633245

network_body.observation_encoder.processors.1.dense.0.weight f4 [64, 1152]
000000 47 a0 65 3d f3 6b 1c 3d c9 27 a7 3d 9f 5b 28 bd
       0.056061056 0.038188886 0.08161885 -0.041103
000010 84 cf cf 3c 8c a6 4a 3b 3b 7d d4 3d 5a 10 b6 3d
       0.025367506 0.0030922024 0.10375448 0.088898376
000020 b9 3a 83 bd f8 95 a9 bd b5 49 1c bd 23 94 58 bc
       -0.06407685 -0.082805574 -0.03815623 -0.013218912
000030 c8 c7 30 3d 4f d2 21 bc bb 5c 2d be 09 4b 57 ba
       0.043159276 -0.009876802 -0.16929905 -0.000821278
000040 aa 12 8d bd 6f 53 1f 3d d3 f8 fb bc 33 d9 c7 3d
       -0.068883255 0.038897928 -0.030758297 0.09758224
000050 2b d2 52 bd bd 73 3e 3c 34 50 d8 3b a2 b3 b0 ba
       -0.051469963 0.011624274 0.006601358 -0.0013481269
000060 70 c0 b7 3b 92 55 d4 3d 9e e7 56 bd 14 52 e4 3d
       0.005607657 0.10367884 -0.05246698 0.11148468
000070 bd 8d 94 3d f8 79 e3 3c 8b 94 c2 bd d6 de 26 bd
       0.07253597 0.02776812 -0.095009886 -0.040739857
000080 83 48 95 bc 4a 92 9c bd b7 7a 96 3d 3b 44 b7 b9
       -0.018223053 -0.0764509 0.07347625 -0.00034955316
000090 23 81 4c bd 25 39 ba bd 65 64 c7 3d 89 62 ba 3d
       -0.049927842 -0.09092931 0.097359456 0.09100825
0000a0 44 29 d3 bc 86 32 94 3c ff 40 23 3d 0f 1d 81 bd
       -0.025776513 0.018090498 0.039856907 -0.063043706
0000b0 ad 75 d6 bd 36 96 93 bd f9 5a 8c bc 03 3a 5f bd
       -0.104716636 -0.07206385 -0.017133223 -0.054498684
0000c0 3a 2a 47 bc f0 b7 5b bd 63 a6 67 bd cf 21 21 bc
       -0.012156064 -0.053642213 -0.056555163 -0.009834721
0000d0 4f 26 57 3d 74 ed a5 3b 55 71 1d bd 77 98 b3 bd
       0.05252677 0.005063707 -0.03843816 -0.08769315
0000e0 4c b6 b6 bd 7b ce b7 bd 6d 53 b7 b9 0e 72 87 bc
       -0.08921489 -0.0897493 -0.00034966637 -0.016533878
0000f0 db 2d 39 3d 21 f2 89 bd b9 01 f2 3c b5 08 21 3b
       0.045209747 -0.067356355 0.029541837 0.002457184
000100 f7 3b 31 be 56 20 d8 3a d5 d3 eb bd 13 78 7d 3d
       -0.17308031 0.0016489129 -0.11515013 0.06188209
000110 72 e9 51 bd 35 b9 c5 bd 48 4b f7 bd 87 f8 b9 3d
       -0.05124802 -0.09654466 -0.12074906 0.09080606
000120 83 09 8d 3d 2f 29 a5 bb bd 39 f8 3c 63 77 d4 3d
       0.0688658 -0.00504031 0.03030097 0.10374334
000130 8c 25 d7 bd 4b 27 89 3c 3e ab 0c 3e e6 bf b6 bd
       -0.105052084 0.01674237 0.13737199 -0.089233205
000140 bb 92 c3 bd b5 5b 87 3d e3 69 d0 bc a1 8b 10 3d
       -0.09549471 0.066092886 -0.025441116 0.03528941
000150 71 5e 23 3d 39 68 c1 bd 09 f4 1e 3c f4 e0 02 be
       0.03988499 -0.09443707 0.009701737 -0.12781125
000160 6b cd eb bc 0b 62 b6 bd 42 fe 53 3d 7d 4f e3 bb
       -0.028784474 -0.08905419 0.05175615 -0.006936966
000170 fa 5c 50 bd ba f7 8b 3d 9e 25 dd bd 0a a5 cb bc
       -0.05086992 0.068343595 -0.107981905 -0.02485897
000180 bb be 3e 3e 55 a4 c6 bd 20 5f 28 3e 21 03 d8 3d
       0.18627445 -0.096993126 0.16442537 0.10547472
000190 ba ec 3a bd 81 6a a3 bc f4 cf 98 bd 6d 7f 72 bd
       -0.045635916 -0.019948246 -0.07461539 -0.059203554
0001a0 36 4c d3 bd 78 f8 af bd 72 40 0e be 35 fa a6 3c
       -0.103172705 -0.085923135 -0.13891771 0.02038298
0001b0 fd bb aa 3d ad aa 05 3c ee 35 87 3d 5e 1d ac bc
       0.08336637 0.008158368 0.06602083 -0.021010097
0001c0 35 dd db bd 6e 84 86 bd df 98 1f 3d 81 42 3c bc
       -0.10735551 -0.06568228 0.03896415 -0.011490465
0001d0 1f 26 e1 bc 84 f7 67 3d b4 5a 59 bd e1 b3 62 bb
       -0.027483998 0.056632534 -0.053065017 -0.003459208
0001e0 96 4a 36 bb 71 7a 20 bd a0 03 cd bd 0e 10 b1 3c
       -0.0027815453 -0.03917927 -0.10010457 0.0216141
0001f0 ab b5 da bd e2 8e f9 bb d7 87 3f 3a 6d 4e 77 bd
       -0.10679182 -0.00761591 0.00073063135 -0.060377527
000200 e3 02 ca 3d 60 0c da 3c 5b a6 06 3c c2 ac b0 3b
       0.09863832 0.026617229 0.008218373 0.005391688
000210 7d 4f fd 3d 97 ed 68 bd 74 ce 99 3b cf b6 96 bc
       0.12368677 -0.05686721 0.0046938006 -0.018397717
000220 94 a9 61 bc 67 1e 32 3d c1 af 8b bd 54 e3 07 bd
       -0.013773341 0.043486025 -0.06820632 -0.03317578
000230 34 1e d3 3c 03 2f d2 bc 19 a1 c5 bd 3b 86 1c 3d
       0.025771238 -0.025657183 -0.096498676 0.03821395
000240 61 0c 09 3b 51 03 b1 bd c5 83 b9 3d e3 b6 08 3e
       0.002091192 -0.08643211 0.09058336 0.13351016
000250 7a 8d c3 bd 39 db 2b 3d 21 6d 41 3d 47 56 56 3c
       -0.09548469 0.041957114 0.047223214 0.013082094
000260 aa 8b b4 3d 6b 94 78 3c 3e d9 82 bd 0a c3 b5 bd
       0.08815701 0.015172104 -0.06389092 -0.088750914
000270 34 22 14 3d 36 fe 8a 3d fa 06 06 3d 87 16 9a bd
       0.03616543 0.06786768 0.032721497 -0.07523828
000280 31 4a 3e bd 93 84 7d bb 46 a5 01 3e e2 5e 98 3d
       -0.046457473 -0.0038683757 0.12660703 0.074399725
000290 9c 61 c4 bd e2 61 83 bd ea f2 ad 3c 62 34 4e bd
       -0.0958893 -0.06415154 0.021233995 -0.050342925
0002a0 99 a4 0c bd 4d 98 df 3c 58 83 c3 3c 63 ff ae bc
       -0.03433666 0.027294302 0.02386634 -0.021362012
0002b0 30 e1 fc 3d 13 0a 0d bd c8 c4 8f 3d 8c a6 42 bd
       0.123476386 -0.034433436 0.07019955 -0.047522113
0002c0 54 30 37 3d 55 57 65 bd da 77 71 3c 78 02 d7 3c
       0.044723824 -0.05599149 0.0147380475 0.026246294
0002d0 58 16 5f 3b d7 4a 0b 3c bd d7 65 3d 4d 6e 69 3d
       0.0034040418 0.00850173 0.056113947 0.056989957
0002e0 e9 ae bd bd 20 df 23 3d c3 b3 e6 3b 39 54 c3 3c
       -0.09261877 0.04000771 0.0070404722 0.023843871
0002f0 a4 2d ae bd e5 18 da bc 0b 25 e4 ba 6e c4 a6 3d
       -0.08504799 -0.026623199 -0.0017406059 0.08142935
000300 36 1b 05 be b2 8f 3e bd 02 24 b7 bd e4 2a 8e 3d
       -0.12998661 -0.046523757 -0.08942415 0.069417745
000310 91 bb 0e bd 1c 71 f0 bb 9c 87 34 3d 2b e9 68 bd
       -0.034846846 -0.0073377024 0.04407464 -0.05686299
000320 c5 a6 72 3d 30 13 1b be 74 13 d1 3d d7 9d 18 3e
       0.059241075 -0.15144038 0.102087885 0.14903961
000330 88 ec b4 3c 25 94 cf 3d 61 6c af bd 8b a7 af 3d
       0.022085443 0.10135678 -0.085655935 0.08576878
000340 ea 65 c9 3a 41 16 bf bd 30 15 4c be c7 bf 89 3c
       0.0015365456 -0.093304165 -0.19929957 0.01681508
000350 8b 72 a3 bd 09 ed aa bd 82 7b 08 bd 7c 24 82 3d
       -0.07980832 -0.08345992 -0.03332091 0.06354615
000360 c7 d6 c4 ba fe 84 31 3c fa 6b 9a bb d7 8d ea 3d
       -0.0015017622 0.01083493 -0.004712579 0.11452835
000370 f9 8f 98 bd 33 d8 da bd bd 6f 5d 3d 74 81 3a bd
       -0.074493356 -0.10685768 0.05406164 -0.045533612
000380 eb c2 90 bd 08 be 01 bd 46 62 47 bd 4c 9f 06 3c
       -0.07068428 -0.03167537 -0.048677705 0.00821669
000390 a1 19 55 3d 41 82 2c bd 61 df b8 bd 7f 2c 04 be
       0.052026395 -0.042116407 -0.09026981 -0.12907599
0003a0 6d 59 95 bd ad c0 02 3c 49 4e 03 3e ba 00 0e 3e
       -0.07292447 0.007980508 0.12822832 0.13867465
0003b0 ef a1 93 3c e5 c4 e9 3d 9f 40 53 bd 66 39 d4 bc
       0.018021552 0.11414508 -0.0515753 -0.025906276
0003c0 2c 93 9c bc c5 ab 3a 3d 83 f0 a7 bd cd 7c 16 3c
       -0.019113146 0.04557397 -0.08200171 0.009185028
0003d0 ac d3 55 3d ca 7a d3 3b 3b a3 c4 3c 90 4e ec 3c
       0.05220382 0.0064538466 0.024003616 0.028846055
0003e0 f5 39 b0 3c 36 e4 39 bd da 5f 16 bd 11 39 0c 3c
       0.021512011 -0.045383655 -0.036712505 0.008558528
0003f0 fc 25 4a bc 63 c9 a1 3d 2d d4 8a bd 39 ab aa 3c
       -0.012338158 0.078997396 -0.067787506 0.020833598

network_body.observation_encoder.processors.1.dense.0.bias f4 [64]
000000 26 a1 0d 3d b4 f7 96 3d 7d 63 c4 3b 5b dd 80 3c
       0.03457751 0.07371464 0.0059933052 0.01573055
000010 59 04 9d 3d 69 8c 5d bd 5b 60 f4 3b 31 1b 95 3c
       0.07666845 -0.054088984 0.0074577755 0.018201442
000020 8d 65 6a 3c 1a 51 25 3d ae 60 8a 3c 23 77 3c 3d
       0.014306438 0.040360548 0.016891804 0.046012055
000030 91 99 2d 3d d9 9d 94 3d aa 23 35 3d 1d 1b 2a 3d
       0.04238278 0.072566696 0.044223465 0.041529763
000040 43 7c 3c 3b e2 b4 72 bc 07 be 85 bc cd f1 7b bb
       0.002876059 -0.014813634 -0.016325964 -0.0038443685
000050 e4 9f b1 ba 12 75 be 3b 5f 46 85 3c a5 c6 50 3d
       -0.001355168 0.0058122957 0.016268907 0.050970692
000060 55 cb c6 3c b7 d5 fd bb 5c b2 1d 3d f8 2a 94 3c
       0.024266878 -0.007746424 0.038500175 0.018086895
000070 68 fc 76 3c ed 2c bb 3c 41 6a 46 3d d0 2d 02 3d
       0.015074827 0.02284857 0.048441175 0.03178197
000080 07 01 63 3d 75 5a a4 bc b5 d1 54 3d e9 66 1e 3d
       0.0554209 -0.020062665 0.051957805 0.03867236
000090 6e fd c9 3c 07 88 a1 3c b3 a0 77 3d df 88 c4 3c
       0.024656978 0.019718183 0.06045599 0.023991046
0000a0 01 7a f9 39 e9 64 96 3c b1 d5 f0 3b 39 50 14 bc
       0.0004758388 0.018358665 0.0073496928 -0.00905233
0000b0 02 f4 6d 3a 1b be f6 3c 8a a4 7c 3c 95 96 4d 3c
       0.00090771925 0.030119946 0.015420089 0.012548109
0000c0 fd dd 20 3d 92 59 26 3d b1 25 97 3c fe ce 7c 3c
       0.039274205 0.040612765 0.01845059 0.01543021
0000d0 6e fa ad 3c 82 39 22 3d 8c 2f 27 3d 6d 2e ed 3c
       0.021237578 0.039605625 0.04081683 0.028952802
0000e0 da 90 89 3c dd e9 e6 3a 50 f4 05 3d 19 6c 66 3c
       0.016792703 0.0017617304 0.032703698 0.014063858
0000f0 0e 98 70 3d 66 a5 ad 3c 62 0a 20 3d 53 ae 2e 3c
       0.05873876 0.021197032 0.0390724 0.010661679

network_body._body_endoder.seq_layers.0.weight f4 [64, 142]
000000 a2 73 1c bd a8 8b 1f 3e b1 95 25 3e 9c f7 bf 3d
       -0.038196214 0.15580618 0.16170384 0.093733996
000010 89 f8 2f 3c 73 0e c3 3d 28 3a 32 3d a2 91 0d 3d
       0.010740408 0.0952424 0.043512493 0.034562714
000020 03 d8 bd bd 51 81 af 3e fb 4b ae 3d 83 89 79 3d
       -0.092697166 0.34278348 0.08510586 0.060922157
000030 af e8 b8 3c f9 fb 94 bc c2 3b b3 3d 3b a1 a1 3e
       0.02257189 -0.018186556 0.08751632 0.31568322
000040 b3 98 24 3d 5c a1 c9 3c c3 71 d1 bd 6b 3f ba 3d
       0.040184688 0.024613075 -0.102267765 0.09094127
000050 83 45 d4 bd fa 7d c8 3e e9 de 97 3c 0e c6 8a bb
       -0.10364821 0.39158612 0.018538909 -0.0042350357
000060 aa 66 bb bd d9 c5 fb 3d 95 fd dc 3d 00 5a 36 3d
       -0.09150441 0.12293596 0.107905544 0.044519424
000070 49 ea c6 bd 97 ab 8a 3d ae 33 bb 3d 53 18 29 ba
       -0.09712655 0.067710094 0.091407165 -0.0006450463
000080 70 14 b7 bd f3 36 93 3d e3 02 e2 3d c6 03 eb bc
       -0.08939445 0.07188215 0.11035707 -0.028688323
000090 a8 4b 32 bc 09 71 fc bc ad e0 e9 bd ab 68 02 3e
       -0.010882296 -0.030815618 -0.11419807 0.1273524
0000a0 9b 29 95 3d ce 3f 41 3d 93 90 27 3d 0b da 34 3e
       0.07283326 0.04717999 0.04090936 0.17661302
0000b0 50 11 20 bd 9d 19 8e 3d 02 11 7a 3d 71 27 37 be
       -0.03907901 0.06938479 0.061051376 -0.1788614
0000c0 c0 01 a1 bc 6f 93 2a be ef 8d 5b bd 2e 55 80 bd
       -0.019654155 -0.16657804 -0.053602155 -0.06266247
0000d0 7d 47 54 3e 49 73 97 3d 69 d8 43 3c 17 f0 22 bc
       0.20730396 0.07395036 0.011953452 -0.009944937
0000e0 c1 69 65 bd fb 49 92 3d cc 5c 85 3c 60 90 d2 3c
       -0.056009058 0.07143017 0.0162796 0.025703609
0000f0 69 bf d1 3b f5 ce 63 bd ea 30 42 bd 3f da 16 3e
       0.0064009917 -0.05561729 -0.04740993 0.14731692
000100 71 46 17 3d db 04 22 3e 35 2b a9 bd 35 fb 34 3e
       0.036932413 0.15822165 -0.08260194 0.17673953
000110 43 89 27 bd 3a 0c fc 3d 62 98 4f bb 3d 25 35 3e
       -0.040902387 0.123070195 -0.003167652 0.17689987
000120 f3 8a 5a 3c b6 00 25 3d b0 8e e3 3d f5 ae cb bd
       0.013338792 0.04028388 0.111112 -0.0994548
000130 a1 67 a7 3c eb a8 0e be 31 69 56 3e 9e 40 94 bc
       0.020435156 -0.13931625 0.20938565 -0.018097218
000140 1d ec 2e bd 4c 5c 0a 3d 7a d6 41 bd e4 82 1b bd
       -0.042705644 0.033779427 -0.04732368 -0.037966624
000150 18 e6 c5 3d cf 87 82 bd 92 73 04 bd 06 52 8f bd
       0.096630275 -0.0637356 -0.03233678 -0.069980666
000160 bc 1e 89 3d 13 f0 f8 bb 7b f4 12 3b 43 b5 22 bd
       0.06695315 -0.0075969785 0.0022423554 -0.039723646
000170 3a 04 64 bd 74 9c 06 bd 3a 0e 17 be af 17 01 be
       -0.055668093 -0.03286405 -0.14751521 -0.12606691
000180 88 f8 52 be 10 6e 13 be 3e b0 92 3c 91 8b 0e 3e
       -0.2060262 -0.14397454 0.017906304 0.13920428
000190 6d 15 64 3d cd 5e 15 3c 8f 4b 39 3d f5 56 89 3d
       0.055684496 0.009116841 0.045238074 0.06706039
0001a0 5e 34 fd bd a7 f5 33 be bc f2 00 3d 23 cd 49 3e
       -0.12363504 -0.17574178 0.03148149 0.1970716
0001b0 ca dc a1 3d 4c ce e8 3b 89 39 a2 3d 9e 9e f5 bd
       0.0790344 0.0071046706 0.0792113 -0.119931445
0001c0 d9 7e a4 bc 30 e6 4b 3d ef 56 f8 bd 2d d1 a5 3d
       -0.020080017 0.04978007 -0.12125956 0.08096538
0001d0 a9 07 89 be 44 61 01 3e b5 b1 bd 3d 52 8f a3 3d
       -0.26763657 0.1263476 0.092624106 0.079863206
0001e0 1a 5b ee bc d7 a8 08 be 1b eb b9 bd 13 f5 c6 bd
       -0.029096175 -0.13345657 -0.09078046 -0.09714713
0001f0 b2 a0 b0 3c 1e 29 d9 bd d5 a5 62 3d 85 ce 66 bd
       0.021561 -0.106035456 0.05533393 -0.056349296
000200 93 11 8f 3d 57 8d 0b be 94 40 af bb c2 5d 9b 3d
       0.06985774 -0.13628136 -0.0053482745 0.07586242
000210 01 86 64 bc 1a 3c f7 3c f3 af 5a 3e 0a 40 6c 3d
       -0.013947965 0.030180026 0.21356182 0.05767826
000220 be 76 6a 3d a4 8c ca bd 34 9a 45 be ba fb 0e be
       0.057242148 -0.09890106 -0.19297105 -0.13963214
000230 b2 13 4d 3d bc ce b5 bd 8a bd 5e 3c 3b cf 01 be
       0.05006761 -0.08877322 0.013594994 -0.12676708
000240 b0 17 cf bd 0a 46 9c bd 34 15 29 bd c1 4e 8d bd
       -0.1011194 -0.076305464 -0.041279987 -0.06899787
000250 bf 51 ec bb 6e 2d 1d 3d 7c 74 ba bd e8 19 23 be
       -0.0072118933 0.038373403 -0.09104249 -0.15927851
000260 ce 9e 22 be f0 45 8e 3d 8d 86 04 3d 20 6f 3c bd
       -0.15880892 0.06946933 0.03235488 -0.046004415
000270 d6 39 e4 bc f9 20 33 be ab 99 70 be 8c ca 1c be
       -0.02785961 -0.17493047 -0.2349612 -0.1531164
000280 a5 00 6f bd d8 2c d8 3c 14 81 49 3b 73 e0 0f 3d
       -0.058350224 0.02638857 0.0030747103 0.03512616
000290 75 70 ff bd c4 84 62 bd fd e7 fd 3c 55 de 46 bd
       -0.12472621 -0.055302396 0.03099441 -0.048551876
0002a0 15 1b e9 3c 7e 63 10 be 01 58 98 3d 81 a4 59 bc
       0.028455297 -0.14100453 0.074386604 -0.01328385
0002b0 d1 e2 0e 3e 14 85 db bd e9 7b d8 3b e1 38 ae 3d
       0.13953711 -0.10718742 0.006606568 0.085069425
0002c0 fe 24 76 3d 73 fd 79 bd e2 c7 69 3e 80 6e 6b 3d
       0.060093872 -0.061032724 0.22830155 0.057478428
0002d0 8f 8c 05 3d ad 0c 6b bd 44 49 b8 bd cd 5a 01 be
       0.03260475 -0.057385135 -0.08998349 -0.12632294
0002e0 48 f0 c7 3d 7e d6 61 3d 01 ff e5 3c 9f 50 1e 3d
       0.09762627 0.055136196 0.028075697 0.038651105
0002f0 d7 d4 1a 3c ac 9a b9 3d f6 a6 22 3d 33 5b 61 3e
       0.009450159 0.090627044 0.039710008 0.22007446
000300 bd ef d5 3d bf 6a ff 3d bc 40 1d 3d 7f 3a c5 3d
       0.10446117 0.12471532 0.038391814 0.09630298
000310 41 2c 02 3e 9c b8 17 3e ec bf 82 bd 35 58 34 bd
       0.12712194 0.14816517 -0.063842624 -0.044029433
000320 c8 d4 8c bd 12 d5 79 3d 69 ac 23 3e c0 10 4b be
       -0.06876522 0.060994215 0.15983738 -0.19830608
000330 56 5c ac 3d 6e d5 1a 3e 3e 07 02 bd e4 ad 1c 3e
       0.08416049 0.1512048 -0.031745188 0.15300709
000340 80 36 0f 3e 00 a9 c3 bd e2 12 ce bd e1 63 81 3d
       0.13985634 -0.095537186 -0.10062195 0.063178785
000350 0c d2 12 3e 07 bd 90 bd 57 78 0f 3e 92 46 c9 bb
       0.14337939 -0.07067304 0.1401075 -0.006142446
000360 7a 86 85 3d 27 ef bd bd 18 6e 85 3d 07 c4 39 3e
       0.0651979 -0.0927413 0.06515139 0.18141185
000370 9f d5 8b 3d a0 b8 d8 3d 83 20 23 bd 24 a9 08 3d
       0.06827854 0.105820894 -0.039825927 0.03336443
000380 39 68 26 be 80 e8 59 3d ef 8f b7 3d 7a 83 e1 bc
       -0.16250695 0.053200245 0.08963 -0.027528513
000390 d9 25 93 bd 34 96 d6 bd 44 57 b5 3d d6 e2 50 bc
       -0.07184953 -0.10477868 0.08854535 -0.012749394
0003a0 1c a2 03 bd a1 1d a4 bb 7c fe b4 bd 41 04 af bd
       -0.03213702 -0.005008415 -0.088376015 -0.08545733
0003b0 d7 b3 d5 bd d6 22 be bd 58 d8 02 3d dd a9 80 3d
       -0.10434692 -0.09283988 0.031944603 0.06282399
0003c0 83 9d 0f 3e ed 29 f7 bc ba 8a d9 3d 3b 9b c8 3d
       0.1402493 -0.030171359 0.10622163 0.09795233
0003d0 7e ab 01 3e 61 b5 c4 bd 22 a7 7d 3e c5 20 1b bd
       0.12663075 -0.09604908 0.24770787 -0.03787305
0003e0 37 18 8d bd f7 ca b6 bd b1 1a 00 3e ad bd 17 be
       -0.06889384 -0.08925431 0.12510182 -0.1481845
0003f0 07 27 44 bd cb 76 fe 3d 8b a6 a5 bd b7 b6 47 be
       -0.047888782 0.12425002 -0.08088406 -0.19503294

network_body._body_endoder.seq_layers.0.bias f4 [64]
000000 2b f1 00 3d 03 fd 98 bc e5 10 3a 3c 89 dc ae 3b
       0.031479996 -0.018675333 0.011356567 0.0053363484
000010 e4 de 85 3c fb 5b 90 bd 1d 0c 75 bc 18 58 70 3d
       0.016341634 -0.07048794 -0.014956501 0.058677763
000020 14 05 7e 3d 35 52 5b 3d 61 aa 12 3d b6 4b 29 3d
       0.06201656 0.053545196 0.035807017 0.04133197
000030 51 67 0c bc a9 df 4d 3d 1f 85 bd 3c 08 39 bd 3b
       -0.008569554 0.050262127 0.023134766 0.005774621
000040 71 d4 2a 3d f8 c7 80 3d 33 98 30 3d ec 68 78 3a
       0.041706506 0.06288141 0.0431139 0.0009476084
000050 77 2d 8f 3c 69 0f 23 3d c2 0c 85 3d e6 53 02 3d
       0.017477734 0.03980962 0.06496574 0.031818293
000060 86 86 1b bd 7a 99 05 bb a3 38 06 3a 3a 16 e1 bc
       -0.03797009 -0.0020385669 0.0005120134 -0.027476419
000070 50 43 72 3d 06 5f 9d 3c cb 1a 64 3d 37 a7 e6 3c
       0.059146225 0.01921035 0.055689614 0.028155906
000080 e4 a8 1b 3c 2f e8 86 3c cf 5b 51 bc 3e f8 ff 3c
       0.009500716 0.016468136 -0.0127782365 0.0312463
000090 19 30 48 3d 5d 70 85 3c 81 46 84 bd 46 48 65 3c
       0.048873994 0.01628893 -0.0645876 0.013994282
0000a0 a1 02 17 3d ad 5d 30 3d 5d a0 1c bd 16 5e ba bc
       0.03686774 0.043058086 -0.03823887 -0.022749942
0000b0 82 5d 09 3d b4 b8 33 3c 4a 0f 51 3c 2d 82 c1 3d
       0.03353644 0.01096933 0.012759993 0.09448657
0000c0 fa 7f 81 3d a5 ca 5a bc 86 f6 f6 ba 88 ed 09 3d
       0.06323238 -0.013353978 -0.001884178 0.033673793
0000d0 a7 fe 62 bc e2 2d 19 3c 3c 53 a2 bc 0f 34 f7 3c
       -0.013854659 0.009349318 -0.01981508 0.03017619
0000e0 d9 de b1 3c 4d bb 2e 3c 72 06 6d 3d e9 0c 62 3d
       0.021712707 0.010664773 0.057867475 0.055188093
0000f0 50 cc 8d 3d 74 65 62 3b 48 f9 97 3d 2b 7e 9a 3d
       0.06923735 0.0034545334 0.074205935 0.07543596

network_body._body_endoder.seq_layers.2.weight f4 [64, 64]
000000 f8 a0 0e 3d a5 e9 23 be ec 22 0b 3e 1f 00 f4 3d
       0.03482148 -0.16007097 0.1358754 0.119140856
000010 49 1a 3d be 82 f7 76 3c 95 3d 1d be 86 e5 29 be
       -0.18467058 0.015073659 -0.15355523 -0.16591462
000020 e1 c5 55 3d b2 a9 35 3e 3e dc c6 bb e1 5b 75 3e
       0.052190665 0.17740515 -0.0060687354 0.2396083
000030 45 25 aa bd 83 b1 cd 3d f4 7b 60 3e 2d 53 b8 bc
       -0.0830789 0.10043623 0.21922284 -0.022500599
000040 92 81 46 ba d8 63 7e 3d 76 0f a5 be 60 4d f7 3d
       -0.0007572408 0.062106937 -0.32238358 0.12075305
000050 01 81 0f 3b 5c 34 a1 3d c5 4b 54 bc 78 4e 16 3e
       0.002189696 0.07871315 -0.012957518 0.14678371
000060 c6 3e 80 bb 9d 04 35 be a5 cf e4 3a 8a cf 11 3d
       -0.003913733 -0.17677541 0.0017456902 0.035598315
000070 3d 99 9c 3d fc e6 91 3d cf 0c ea bd 47 29 88 be
       0.076464154 0.07124135 -0.11428224 -0.26593992
000080 62 36 45 3e 8d 44 d0 3b 0e e6 91 bd f2 9f e6 bd
       0.19259027 0.006355828 -0.071239576 -0.11260976
000090 ef a9 00 be d4 66 81 3e 66 b4 25 bd c9 73 0a be
       -0.12564825 0.25273764 -0.040455244 -0.13520731
0000a0 1d 91 6e 3e 7b f0 37 bd 83 03 79 bd 67 9c 24 3d
       0.23297544 -0.044907074 -0.060794365 0.04018822
0000b0 42 86 f3 3c ff 6f 48 3e 16 c0 42 be 40 e5 65 bd
       0.029727105 0.19573973 -0.19018587 -0.056126833
0000c0 4a c5 d4 3d a7 f8 ed 3d 7a f3 a3 bd cb 08 8a 3e
       0.103891924 0.11619692 -0.08005424 0.26959834
0000d0 fc 09 e1 bd 15 26 8a bd ad 84 19 3d ca 26 09 be
       -0.109882325 -0.06745545 0.037480045 -0.13393703
0000e0 f3 53 ec 3d d8 4d bd 3c 40 f5 c2 3d fa a3 c1 bd
       0.115394495 0.023108408 0.09519434 -0.09455104
0000f0 71 10 10 3e 0a 80 26 3d 55 c9 15 3e c2 34 d4 3d
       0.14068772 0.04064945 0.14627583 0.10361625
000100 23 fc 84 bd c1 b2 a5 bd f3 06 da 3d 9a ff 03 3d
       -0.06493404 -0.08090735 0.10645857 0.032226183
000110 9f 43 25 be 40 30 e8 bd 1a d9 f5 bd 63 d3 f9 bd
       -0.16139077 -0.11337328 -0.120042995 -0.12198522
000120 65 42 d5 bc de cd d7 3b a2 5d 4a 3e 9d c5 1f bd
       -0.026032636 0.0065858206 0.1976228 -0.039006818
000130 6d 7b aa bd bc ed d0 bc b1 8f cd 3d 75 ca f2 3c
       -0.08324323 -0.025503986 0.100371726 0.029637555
000140 cf 92 87 bd 35 9d 84 3d e7 5e 9f be 99 8b 01 3e
       -0.066197984 0.06475297 -0.31127092 0.12650909
000150 84 da d9 3d df f6 5f 3e be cf ba bd 9e 88 8a be
       0.10637382 0.21871518 -0.09121655 -0.27057356
000160 0f 01 63 be 6f 27 9f 3d e3 19 45 bd c0 03 2d bc
       -0.22168373 0.07771193 -0.04812039 -0.010559976
000170 56 e6 ef 3d 17 c1 43 be b8 a1 cb 3d 45 42 4d 3d
       0.11713855 -0.19116627 0.09942955 0.050112028
000180 7b 1c fb 3d ad c1 18 be c2 7f fd bd 3c 83 18 be
       0.122612916 -0.14917631 -0.123778835 -0.14893812
000190 d7 4b 9e be 63 7b 8f 3e b6 9b 56 bc 2c 30 c1 3d
       -0.30917236 0.28023824 -0.013098648 0.09433016
0001a0 11 d5 7b 3e f4 70 14 3d fe da cc bb a0 f0 b3 bd
       0.24592997 0.036240533 -0.006251692 -0.0878613
0001b0 89 30 d7 3d c1 e3 6e 3d c0 ff 43 be f0 33 83 3d
       0.10507304 0.05832267 -0.1914053 0.06406391
0001c0 17 8c 8c bd 28 31 85 bd 59 20 4b 3e 63 df 63 3d
       -0.068626575 -0.065035164 0.19836558 0.05563296
0001d0 59 0d dc be 60 7c ee bd b6 94 73 bd 81 11 01 3e
       -0.42978933 -0.116448164 -0.059467994 0.12604333
0001e0 23 7f d6 3d 71 05 94 bd 07 70 8e 3e ac 8b 01 be
       0.10473468 -0.072276 0.27819845 -0.12650937
0001f0 60 83 e8 bd c4 97 05 be 05 58 58 3e b4 85 9a 3e
       -0.11353183 -0.13046175 0.21127327 0.30180132
000200 98 db 9b be 8f 35 14 3e bc 85 10 bd 78 b6 60 be
       -0.30440974 0.14473556 -0.03528379 -0.21944606
000210 48 cf a9 be 2e 95 cc bd a4 e6 9a bd 73 68 63 3e
       -0.33165956 -0.09989391 -0.075635225 0.22207813
000220 96 0b ea bc 0d 27 6c 3c bd 70 ad be 80 ea d8 bb
       -0.028569978 0.014413607 -0.33875075 -0.0066197515
000230 6e a4 73 3d ac e6 0c 3e bd 45 fe 3d 15 8a 0c be
       0.059482984 0.1375987 0.12415645 -0.13724549
000240 ca 4b 9f 3b d5 6c a9 3d 16 11 c1 3d c0 67 ce bc
       0.0048613297 0.08272711 0.09427087 -0.025195956
000250 10 16 92 3d e2 df 0a 3e 65 80 45 bd ba 9b 12 3e
       0.07133114 0.13561967 -0.04821815 0.14317217
000260 11 4b 01 b9 db 29 50 be 34 f4 d9 bc 64 e6 4f be
       -0.00012330363 -0.20328467 -0.026605703 -0.20302731
000270 83 1b 7a 3e 0f dd 57 3d 4e ec a5 3c d8 4b d4 bd
       0.24424557 0.052701052 0.02025428 -0.103660285
000280 34 89 27 bc 86 c6 12 be 2c 7b 8c 3e df e2 2e be
       -0.010225583 -0.14333543 0.27437723 -0.17078732
000290 93 c1 41 3b 72 93 3a bc db 53 de 3d 24 af 7e bd
       0.0029564842 -0.011387693 0.10855838 -0.062178746
0002a0 8e ec 9c 3d a1 c5 8f 3e 25 e1 68 be 57 d6 23 3d
       0.07662307 0.28080466 -0.22742136 0.039999332
0002b0 56 ec 3e be b3 d8 80 be de 97 21 3d e4 e7 3c be
       -0.18644843 -0.25165328 0.039451472 -0.18447834
0002c0 94 b3 d4 3c b2 5f 77 be fb a6 7e 3d 08 9e 45 bd
       0.025964536 -0.24157599 0.062170964 -0.048246413
0002d0 2d 06 3c be b3 dd 89 be 54 95 05 be 61 1c c7 bd
       -0.18361731 -0.26926956 -0.13045245 -0.0972221
0002e0 19 94 7b be b7 44 ee 3c dc f0 cd bb da e7 1e 3e
       -0.24568214 0.0290855 -0.006284816 0.15518132
0002f0 fa 37 2c 3e 89 28 53 3d 78 74 2c be a8 e7 ac bd
       0.16818228 0.05155233 -0.16841304 -0.084426224
000300 26 45 8f be 86 a1 d3 3d 0f 18 03 bd a8 80 f6 bc
       -0.27982444 0.103335425 -0.032005366 -0.030090645
000310 84 91 1a 3c 0e 63 d3 bd 1f c4 a4 3d db bd ca 3e
       0.009434108 -0.103216276 0.0804522 0.39597973
000320 08 3e 72 3d 7e 9d 9e 3d bf e9 15 bd 06 c1 4e be
       0.05914119 0.07744883 -0.03659987 -0.2019082
000330 ed da 22 3d f6 4f 00 be 7d 63 bd bc 4b 4a 34 3e
       0.039759565 -0.12530503 -0.023118729 0.17606466
000340 b7 5e 86 3e 09 e5 21 bb b4 51 d1 3c 17 af 4c 3c
       0.26244137 -0.0024703166 0.025551654 0.012492917
000350 26 f1 4e bd 1d 8c 7f 3e f0 97 18 bd b3 1d 34 be
       -0.050522946 0.24955793 -0.037254274 -0.17589454
000360 26 3e 05 be 7d 8c 90 3d 4a 63 03 be 48 dc 27 3e
       -0.13011989 0.07058046 -0.12830845 0.16392624
000370 1e 31 77 bc e2 18 10 3e 29 07 79 be 45 21 55 3e
       -0.015087394 0.14071992 -0.24319138 0.20813473
000380 8e 4d a3 bd 0b e1 7e 3d fb b0 95 bd de 94 8b be
       -0.07973777 0.062226336 -0.07309147 -0.27262014
000390 2e 64 13 ba cf 7c 17 3e 5e 9e 86 3e 61 ed 9d bd
       -0.0005622533 0.14793704 0.262927 -0.07711292
0003a0 48 3a 6c 3e 20 eb 3a bd 75 c8 bd bd 0e f6 ac 3a
       0.23069108 -0.04563439 -0.0926675 0.0013195889
0003b0 fe 2f 69 bd b6 89 9c 3d da 49 e0 be e0 c7 2e 3e
       -0.056930535 0.07643454 -0.43806344 0.17068434
0003c0 d4 1c 4a 39 e9 92 57 3e 09 9e ed 3d 99 50 5d 3e
       0.0001927496 0.21052136 0.116024084 0.21612777
0003d0 53 8e 23 3e 4e d5 18 be 22 3d 22 be 54 bf 86 bc
       0.15972261 -0.1492512 -0.15843633 -0.016448654
0003e0 1f e7 9e 3d be be 01 be 08 45 b5 bc 4e cb 61 3e
       0.077589266 -0.12670419 -0.022127643 0.22050211
0003f0 a7 fa aa 3d 62 1b 21 3e c4 d5 1a be 6f 01 8e 3b
       0.083485894 0.15733102 -0.15120608 0.004333667

network_body._body_endoder.seq_layers.2.bias f4 [64]
000000 72 2f 9d bc 4a ca a4 3d 21 3b 85 3d 4f 48 45 3d
       -0.019187663 0.08046396 0.065054186 0.048164662
000010 05 d5 06 bd da be 9e bc 1c 36 80 3c 1f 9c 6a 3d
       -0.032917995 -0.019378114 0.015650801 0.057277795
000020 a3 a2 82 3d 5f 06 3a 3d 75 4e 21 3d fd 98 6e 3d
       0.06378677 0.045416232 0.039381463 0.05825137
000030 65 a8 d8 3d f1 fd ac 3d 14 3b 4b bc eb 32 0d 3d
       0.10578994 0.08446873 -0.012404222 0.034472387
000040 c2 36 b0 3d 64 28 96 3d 36 c2 14 3d 6b ba e5 bc
       0.08604194 0.07331923 0.036318026 -0.028042993
000050 30 24 99 3d e6 64 21 3d 6e be 6a 3d 5b f6 4c bc
       0.07477605 0.039402865 0.057310514 -0.012509908
000060 55 ff 97 bc d7 cc 4d 3d be 7b 39 3b c2 d0 3f 3d
       -0.018554369 0.05024418 0.0028302516 0.046829946
000070 c6 ab 25 3c a6 c5 58 3d 5c 56 6a 3d e0 35 31 3c
       0.010111755 0.052922867 0.057211265 0.010816067
000080 a4 6b 85 3c 19 c5 ab 3c c6 1a 06 3d 4f 7e 60 bd
       0.016286679 0.020968007 0.032740377 -0.054807957
000090 29 61 5d 3c 09 c0 b7 3c f1 2a 93 3d 45 29 de 3d
       0.013511934 0.022430437 0.07185925 0.10847715
0000a0 24 00 94 3d f5 13 10 3d fb 33 57 3d f2 ca 78 3d
       0.07226589 0.035175283 0.052539807 0.06074042
0000b0 cd 70 8b 3d 6a 47 78 3d cc 5a 48 3c d2 d8 0d 3d
       0.068086244 0.06061498 0.012228679 0.034630604
0000c0 f7 b4 0f 3d a0 9a cd 3c 12 26 2a 3d 06 a0 8f 3d
       0.03508469 0.025098145 0.041540213 0.07012944
0000d0 1c 37 68 3b a8 39 9e 3d e0 47 3f 3d f5 f5 8a 3c
       0.0035433238 0.07725841 0.046699405 0.016962985
0000e0 e4 47 63 3c ff 9f 09 3d b5 ef 95 3c 2c 40 a8 3d
       0.0138721205 0.03359985 0.018302778 0.08215365
0000f0 b4 91 d2 bd 5f a6 80 bd b9 4e 8c 3c 19 01 d8 3c
       -0.10281697 -0.06281733 0.017127382 0.02636771

action_model._continuous_distribution.log_sigma f4 [1, 2]
000000 e4 a3 40 3d 46 63 21 3c
       0.0470313 0.009850329

action_model._continuous_distribution.mu.weight f4 [2, 64]
000000 d1 de 31 bd a0 df da bd 7a e5 e2 3c 87 4f 96 3d
       -0.043425385 -0.10687184 0.027697314 0.073393874
000010 67 6a b5 3c 4f 72 22 bd 8d 5b a6 bc c6 c7 81 bd
       0.022145463 -0.039659794 -0.020307327 -0.06336932
000020 15 8c 0a 3e 67 80 09 3d 6f e8 13 3d bc 90 bb bc
       0.1353 0.03356972 0.036110338 -0.022896163
000030 50 f4 f6 bc 05 29 b7 bd 97 9d 3b bd 24 c7 4b bd
       -0.030145794 -0.08943371 -0.045804586 -0.049750462
000040 e3 42 dc 3d 02 7b 9b bc 18 2d 44 3d b4 05 9c 3c
       0.10754945 -0.018979553 0.047894567 0.019045688
000050 29 60 32 3e 4f e3 85 3d d5 1d 32 bd 98 57 4b bb
       0.17419495 0.06537496 -0.04348548 -0.0031027552
000060 51 84 f4 3c 30 f4 b7 3c 64 75 1b 3b 31 b6 ac 3d
       0.02984825 0.022455305 0.0023721093 0.08433188
000070 4f 1c 8e 3d 82 ba 9b bd fa 62 fa 3d b2 9d 2f 3d
       0.06938993 -0.07603933 0.122259095 0.042875
000080 2d 4e 25 bd ac 0e 34 bd 3c ab 89 3d b7 a3 06 bd
       -0.040357757 -0.043959305 0.067221135 -0.032870974
000090 59 fb 1e 3c a8 dc a5 bc 6d f5 f4 3c 6e 32 8b bd
       0.009703481 -0.020246819 0.029902184 -0.06796728
0000a0 3e 9a d3 3d 52 44 fd bd 24 68 85 bd f2 dc df bd
       0.10332154 -0.12366547 -0.06514004 -0.10930814
0000b0 55 7f 97 bd 1d ca ed bd 46 44 2e bd ed b5 d0 3c
       -0.073973335 -0.11610816 -0.04254558 0.025477374
0000c0 1a 10 18 bd 66 93 9f 3b c9 47 89 bc 5b 2b c0 3d
       -0.03712473 0.004869866 -0.016757863 0.093832694
0000d0 32 95 b6 bc 7e ea 8e bd f2 fc a8 bd da 06 5d bd
       -0.022287939 -0.069783196 -0.082513705 -0.053961612
0000e0 3c a2 13 bd 8e 9e 75 3c 86 9f 82 3d b5 a3 0c 3e
       -0.03604339 0.014991416 0.06378083 0.13734324
0000f0 2c f4 76 3d 9d ab cd bc e7 bf 85 bc 15 0b a4 bd
       0.060291454 -0.025106246 -0.016326858 -0.08009926
000100 2f f8 81 bc e0 04 b1 3c 81 c7 ae bd 55 86 ef 3d
       -0.015865413 0.02160877 -0.08534146 0.11695544
000110 09 01 84 3d a7 66 6f bd 38 d1 bb bd 1c a8 94 3d
       0.0644551 -0.058447506 -0.09170765 0.07258627
000120 3c 95 f9 bb 53 f7 32 bd e5 e1 c8 bd 02 37 d9 3d
       -0.007616667 -0.043692898 -0.09808711 0.10606195
000130 02 d9 0a be a1 18 3e bd 89 2b b3 bc 27 b4 f7 ba
       -0.13559344 -0.046410207 -0.021871345 -0.0018898294
000140 a0 da da 3c 22 2a 18 3e dd 88 3b bd 5e b8 b4 3c
       0.026715577 0.14859822 -0.04578482 0.02206057
000150 73 e2 e0 3b 92 82 39 bd 31 84 c9 3d 82 b2 b9 bc
       0.0068629324 -0.045290537 0.09839667 -0.022668127
000160 21 08 92 3c e7 2a 94 bd ba 8f 1e 3d 31 37 1e 3d
       0.017826142 -0.072347455 0.038711287 0.038626853
000170 6a 23 96 3c 6a d6 db bc ee 68 40 3d b7 7b 83 3c
       0.018327434 -0.026835639 0.04697507 0.016050203
000180 5c 4c c1 3b 5c 64 0c 3d b5 5e 21 bd 43 e3 08 3d
       0.0058989953 0.034275398 -0.03939696 0.03341986
000190 21 f3 c1 bd bf 4a cd 3b 1c 92 b4 bc b9 96 29 3e
       -0.09470201 0.006265014 -0.022042327 0.16561402
0001a0 74 4f da bc a9 ad 4c bd c8 16 94 bc dd 38 af 3d
       -0.026649214 -0.049970303 -0.01807727 0.08555768
0001b0 7a 7a 94 3d b3 66 20 bd f9 fd bb bd 5c e6 44 bd
       0.07249923 -0.03916044 -0.09179301 -0.04807125
0001c0 ec 37 2f 3d 03 d5 76 bd cd 7d 19 be 55 e2 47 3d
       0.04277794 -0.060261738 -0.14989395 0.04879983
0001d0 b9 39 a4 3c ae ef 16 3e 0a 7f b4 3c 62 2c 2e bd
       0.020047056 0.14739868 0.022033233 -0.042522795
0001e0 1d 13 ca 3d 7f ef e6 3d ae 73 57 bd 77 95 e1 3d
       0.09866927 0.11276149 -0.052600555 0.11014836
0001f0 c0 f2 c5 bd 0c ad 88 bc 0f 97 f3 bc a6 4d 16 bd
       -0.096654415 -0.016684078 -0.029735116 -0.036695145

action_model._continuous_distribution.mu.bias f4 [2]
000000 79 3a 25 3c 86 16 c5 ba
       0.010084742 -0.001503662
