results/MLHades_main_9_coinsareparticles/MLHades/MLHades-3000068.onnx (onnx, 420266 bytes, 22 tensors)

discrete_action_output_shape f4 [1, 4]
000000 00 00 40 40 00 00 40 40 00 00 40 40 00 00 00 40
       3.0 3.0 3.0 2.0

network_body.observation_encoder.processors.1.conv_layers.0.weight f4 [16, 7, 8, 8]
000000 f7 1a 80 3d 11 d4 97 bd c3 b7 30 3c 43 ea 99 3b
       0.06255143 -0.07413495 0.010786 0.0046971156
000010 ad aa ec bc 45 df 1d 3d 9c f1 25 3d 5c e5 3e bd
       -0.028889978 0.038543005 0.04051362 -0.046605453
000020 f0 6f 4d 3d b5 18 68 bd b5 28 2e 3d e3 5b 61 3a
       0.05015558 -0.056664187 0.04251929 0.0008596761
000030 22 21 0a 3d a3 42 bf bc 8f 30 1b 3d 78 67 eb bc
       0.033723004 -0.023347205 0.037888106 -0.028735861
000040 11 a2 bd 3d 53 7b 40 bc 73 40 15 bc 40 c0 18 3d
       0.09259427 -0.011748153 -0.009109604 0.03729272
000050 a6 23 90 ba e7 b1 3f bb 12 8f ff bb cc c2 6a 3c
       -0.0010996952 -0.0029250325 -0.0077990377 0.01432867
000060 16 64 00 3d d9 f3 94 bd cc 56 c5 3c ca 93 f1 bc
       0.03134545 -0.07273073 0.02408924 -0.029489417
000070 8f db 7f 3b fa 03 9f bc bf 6e e1 3c 60 87 8f bc
       0.003904078 -0.019411076 0.027518628 -0.017520607
000080 d9 e6 9a 3d b1 24 0c bd f3 59 0e bd b3 f2 8e bd
       0.07563562 -0.03421468 -0.03475375 -0.06979885
000090 f4 8a ef 3c 6a b9 26 3c ae b8 87 bc 51 44 7f 3c
       0.029241063 0.010176042 -0.016567554 0.015580253
0000a0 32 57 73 3d 34 7b fd bc 3a 85 85 bd 92 7f 43 bc
       0.059409328 -0.030942537 -0.065195516 -0.011932271
0000b0 78 87 ef 3c 92 f4 5b 3c ba ae 25 3c d1 33 6a bd
       0.029239401 0.013425009 0.010112459 -0.057178322
0000c0 e5 68 aa bb 5c dc 7e 3c b1 10 01 bd 05 50 23 bd
       -0.0052004927 0.015555467 -0.03151006 -0.039871234
0000d0 5d 0a 33 3c cf a9 81 bc 1c b7 5d 3b f9 d8 90 3c
       0.010927764 -0.015828041 0.0033831066 0.017681586
0000e0 8e c4 35 3d e3 cb c7 bd 34 6f f2 bc d3 97 a3 bd
       0.044376902 -0.09755685 -0.029594041 -0.079879425
0000f0 f7 50 5a bd 08 36 83 3d 2d 6d 61 3c df f9 87 bd
       -0.05329987 0.0640679 0.01375894 -0.06639456
000100 b0 15 b1 3d 86 2a 55 3e 8a f3 3d 3e ec 8d 26 3e
       0.08646715 0.20817003 0.18549934 0.16265076
000110 bb e0 1c 3e 6a 91 64 3e 43 bd 42 3e 8c a9 0c 3e
       0.15320103 0.22321096 0.1901751 0.13736552
000120 ad 40 e9 3d 51 ae 45 3e ce 3c 39 3e fe 96 25 3e
       0.11389289 0.19304778 0.18089601 0.1617088
000130 db 4f 1c 3e 6a 19 18 3e 62 d6 40 3e d7 73 16 3e
       0.15264837 0.14853445 0.1883178 0.14692627
000140 63 0c a7 3d 57 d7 37 3e 5e 5a 7e 3e 84 d0 c9 3d
       0.081566595 0.1795324 0.2483916 0.09854224
000150 e5 ae 56 3d 22 7b 17 3e fb 1b 86 3e 6c 6a 33 3e
       0.052412886 0.14793065 0.26193222 0.17521065
000160 77 2d 49 3e e6 c3 4a 3e 64 ce 7b 3e e2 46 a9 3e
       0.1964625 0.19801292 0.2459045 0.33061892
000170 c0 8b 2e 3e 37 f4 3e 3e f6 08 2c 3e 13 4d 1d 3e
       0.17045498 0.18647848 0.16800293 0.15361433
000180 13 33 2e 3e a7 74 25 3e e7 80 97 3e 3d 7e 9d 3e
       0.17011671 0.1615778 0.29590532 0.30760375
000190 86 27 81 3e d0 b1 1f 3e aa 42 98 3d 9c a3 28 3e
       0.25225466 0.15595174 0.0743459 0.16468662
0001a0 dd 50 32 3e e5 cf 77 3e ed 91 91 3e 85 11 93 3e
       0.1741366 0.24200399 0.28431645 0.28724304
0001b0 99 a9 7f 3e 3a 09 72 3e 09 fd 03 3e 60 bf 15 3e
       0.2496704 0.23636332 0.12889494 0.14623785
0001c0 0d af 96 3c 2b 7e 46 3e a3 82 5c 3e da 50 80 3e
       0.018394018 0.19384067 0.21534209 0.25061685
0001d0 33 aa 4b 3e 39 53 3f 3e 64 fa 79 3e 15 24 2b 3e
       0.19889145 0.1868409 0.24411923 0.16712983
0001e0 a6 1a 87 3e 10 b2 7d 3e 5a 82 8e 3e 44 94 93 3e
       0.2638752 0.24774957 0.27833825 0.28824055
0001f0 66 ce b4 3e 56 a4 6b 3e 05 b9 8c 3e 21 78 94 3e
       0.3531372 0.23011908 0.2748491 0.289979
000200 f9 70 d0 3b 08 60 9f bd 5c 1a 7d bc 7a 7f 93 bd
       0.0063611236 -0.077819884 -0.015448179 -0.072020486
000210 11 0b 8c bc 91 80 a4 bd 05 9b 13 3d ea b0 7a 3c
       -0.01709512 -0.080323346 0.03603651 0.015300969
000220 74 66 77 bd da f3 93 bd ad eb 72 bd 73 6e f6 bb
       -0.06040044 -0.07224245 -0.05930679 -0.007520491
000230 48 3c 35 be e4 d2 4b bc e2 99 b1 bc 48 16 20 bc
       -0.17698777 -0.012440417 -0.021679822 -0.009770937
000240 0d 90 6b bd ee 9c 0c 3d b5 21 27 bc d1 5c 7e 3b
       -0.057510424 0.034329347 -0.0102009075 0.0038812647
000250 8d ee 8e bd 51 94 47 3c 2e 62 23 3d f8 5a 3a 3b
       -0.06979094 0.0121813575 0.039888553 0.002843557
000260 17 00 ad bd 3e 63 28 3a a6 47 a6 3c cb 96 3c 3c
       -0.08447283 0.00064234796 0.020297837 0.011510561
000270 60 47 3a bc 8e 66 71 3d dd f1 a0 3d 51 51 18 3e
       -0.011369556 0.058935694 0.07858632 0.1487477
000280 96 06 de 3c ab 6e ea bc cd b4 84 bc 76 2d d3 3b
       0.02710275 -0.028617224 -0.016199494 0.0064446284
000290 15 b7 88 3d 50 a5 ea bc af ce b8 3d 94 6b b5 3d
       0.06675545 -0.02864328 0.09023797 0.088584095
0002a0 d9 37 eb bd c6 26 1c 3c c0 1d 66 bd 49 e2 df bd
       -0.114852615 0.009530729 -0.056180716 -0.10931832
0002b0 71 93 1d be e8 71 10 bd cd c9 a1 3d 2c af 86 bb
       -0.15388276 -0.03526488 0.078998186 -0.0041102376
0002c0 70 61 e2 bd a2 80 a3 bd 6a 6d 1d be 4c d3 85 bd
       -0.11053741 -0.07983519 -0.1537377 -0.06534442
0002d0 07 18 ca bd 55 cc 71 bd 4e 16 f6 3c fa 39 c8 3c
       -0.09867864 -0.059032757 0.030039933 0.024441708
0002e0 4b a2 33 be 34 36 ce bd e4 5a ea bd 49 54 75 bd
       -0.17542379 -0.10068932 -0.11443117 -0.059894834
0002f0 18 25 93 bd da fd 70 bd 19 f8 0c bc 28 df a8 3b
       -0.071848094 -0.05883584 -0.008604073 0.0051535554
000300 80 b2 da 3c 8d 22 5c 3d f6 4f 38 bd 4f ec 1a 3d
       0.026696444 0.053743888 -0.04499813 0.037823018
000310 6a 66 93 3d 47 62 d8 3d 78 89 5f 3d ed b8 f2 b9
       0.07197268 0.1056562 0.05457446 -0.00046295617
000320 56 f9 97 bd 30 06 81 3a 74 f4 86 bd 57 60 59 bd
       -0.07420604 0.0009843763 -0.065895945 -0.053070392
000330 ba 1a 4c bc 00 21 f5 3c e0 00 27 3d a6 6e 86 3b
       -0.012457544 0.029922962 0.04077232 0.004102546
000340 1e 9a 79 bd e5 c4 84 3d 48 15 ca 3c 46 ae b4 bc
       -0.060937993 0.06482867 0.02466835 -0.022055756
000350 5c 47 81 3d 45 14 31 3d 18 2c c0 3d 3a 2a 72 3d
       0.06312439 0.04323222 0.0938341 0.0591223
000360 f5 81 c3 bb b0 6c 76 3d 08 c9 ce 3d 73 47 02 bd
       -0.00596642 0.060162246 0.100969374 -0.03180642
000370 23 7c bd 3d 2b 1e 93 3d 74 1d d4 bb 61 8b a3 bd
       0.09252193 0.071834885 -0.0064732376 -0.07985569
000380 9c 89 09 bd 27 ca 84 3c eb 17 b9 bc 5d fb e3 bb
       -0.0335785 0.016209675 -0.022594413 -0.006957455
000390 8d c3 59 3b f3 a4 97 3d 86 88 1c bd 90 89 dd bd
       0.003322813 0.074045084 -0.038216136 -0.108172536
0003a0 8b a6 39 bd d5 f7 0f 3d 18 ba b0 b9 6c 3a b5 bd
       -0.045324843 0.03514846 -0.00033707987 -0.08849034
0003b0 0a 87 5a 3c d8 72 ec 3c 53 b8 78 bc 18 b3 e7 bd
       0.01333786 0.028863356 -0.015180665 -0.11313456
0003c0 86 6d b6 3b bd 20 f4 bc b4 45 63 bd 06 91 b1 39
       0.0055672554 -0.029800767 -0.055486396 0.00033868122
0003d0 c4 1d a4 3c 5c 45 3c bd 32 7d df bd 9f 94 cb bc
       0.020033725 -0.045964584 -0.10912551 -0.024851141
0003e0 42 25 c8 3c 52 7d 40 3d db 5b 1a 3d 28 27 83 3c
       0.024431828 0.046994515 0.037685256 0.016009882
0003f0 52 a1 98 3d 21 76 f6 bb a2 91 05 3d 62 9a 89 bd
       0.074526444 -0.0075214063 0.03260959 -0.06718899

network_body.observation_encoder.processors.1.conv_layers.0.bias f4 [16]
000000 55 86 81 ba 44 b4 b6 ba 84 b2 a1 ba a9 13 4c bb
       -0.0009881953 -0.0013939221 -0.0012336527 -0.0031139648
000010 38 82 5e 3c bd cc 63 bb 26 b6 6f 3c be 1a fe bb
       0.013580851 -0.0034759485 0.01463083 -0.0077546528
000020 d2 f0 29 bd ee 6c 01 bd 15 31 54 bc b1 ab 36 ba
       -0.04148943 -0.031598024 -0.012951155 -0.0006968333
000030 88 4e 61 bd 69 4b 47 bc 7b a0 95 3a 28 87 bc 3a
       -0.055006534 -0.012163975 0.0011415625 0.0014383541

network_body.observation_encoder.processors.1.conv_layers.2.weight f4 [32, 16, 4, 4]
000000 38 0b 72 3c e9 b3 78 3d 6e 20 d0 3d 21 b1 0e 3d
       0.014773183 0.06071845 0.101624355 0.034836892
000010 4e e4 8b 3d ce 2a 16 3d 28 68 c8 bc 2a 32 75 bd
       0.06830655 0.036661915 -0.024463728 -0.059862293
000020 9f 65 fa 3c 83 42 56 3d 9a 6f 9a 3c e8 6f 41 3d
       0.030566035 0.052309524 0.018852044 0.047225863
000030 b1 43 ea 3d 09 de 2b bd 60 26 b6 bb a2 5d 32 3d
       0.11438692 -0.041959796 -0.005558774 0.043546326
000040 85 6e 93 bd e9 7e d8 3c 5e 69 13 3d 41 51 34 bd
       -0.07198814 0.026427703 0.035989158 -0.044022802
000050 ba 46 00 3b c5 10 67 3d 7e a7 cb bb d7 ac 87 bd
       0.0019573406 0.056412477 -0.006215035 -0.066247635
000060 f7 5e ae 3d 60 87 04 b8 6c 5e c2 bd a8 4a d6 bd
       0.08514207 -3.159733e-05 -0.09490666 -0.10463458
000070 de 8d ea 3d 02 1a 80 bd eb 7c 03 bd 7b 31 36 3d
       0.1145284 -0.062549606 -0.032101553 0.044480782
000080 de 9a 1a 3d e8 f1 d4 ba ab 58 d1 3c f0 f1 67 bd
       0.03774535 -0.001624641 0.025554975 -0.056627214
000090 5e d5 9e bc 4e e7 25 3d 6f e4 3d 3c 30 95 e8 bd
       -0.01938885 0.040503792 0.011590107 -0.1135658
0000a0 99 b0 4d bb 39 b0 3a 3d 1d 63 82 bb b7 bf 07 3d
       -0.0031385778 0.045578215 -0.0039791004 0.033141818
0000b0 d1 12 29 bd 78 d3 99 bd 46 74 f7 3c e5 72 ae 3a
       -0.04127771 -0.075110376 0.03020681 0.0013309388
0000c0 23 72 51 bd 8b 6f 08 3c 15 2d b8 3c d4 42 9e 3a
       -0.05113424 0.008327375 0.022482434 0.001207436
0000d0 b2 37 11 3e a3 4c 1f 3d 29 d0 a8 bd d3 62 04 3b
       0.14181402 0.038891446 -0.082428284 0.0020200505
0000e0 89 4e d1 3c ad 49 2e bc fb 94 a7 3b 73 8d 58 3d
       0.025550144 -0.010637683 0.0051141954 0.05286927
0000f0 d5 5c da bc 85 52 a2 bb 54 27 c1 3d 85 43 bf bc
       -0.026655594 -0.0049536848 0.09431329 -0.023347626
000100 61 7e 86 bd c7 af cc 3b 77 60 48 3d 7a dd 24 bd
       -0.065670736 0.00624654 0.04892012 -0.04025028
000110 f6 28 9a bc a4 cd 75 3c fe 7b 32 bb 11 f4 f3 3c
       -0.01881836 0.015002642 -0.002723455 0.029779466
000120 3a dd f1 3d c5 c1 d7 3c f6 06 9f bd fa 4e e5 bb
       0.11809774 0.026337514 -0.077649996 -0.00699794
000130 a1 f0 8e bc 22 35 66 bd 7b de 79 bd 65 d6 c0 bd
       -0.017448725 -0.056203015 -0.06100319 -0.094158925
000140 17 b1 86 bd 03 81 09 3e ef f9 fe 3c 77 8f d6 3b
       -0.06576746 0.1342812 0.031125037 0.006547864
000150 24 ea d3 3d a7 60 19 3e 77 94 c9 3c 9a 10 84 bd
       0.10347393 0.14978276 0.024606926 -0.06448479
000160 c3 6f c0 3d 3f 93 d9 3d 4e c3 3b bd 38 86 c0 3d
       0.09396317 0.10623788 -0.045840554 0.094006
000170 de a2 ad bc e6 b2 33 3d b6 41 fb 3d b2 10 12 3d
       -0.021195825 0.043871783 0.12268393 0.035660453
000180 3b de b6 bc 23 10 87 bd b2 53 5b bd df 74 0e be
       -0.022322765 -0.06594875 -0.053546615 -0.1391177
000190 25 07 b4 3d d7 cb a9 3c d1 70 90 bc fc 56 09 be
       0.08790425 0.020727081 -0.01763192 -0.13412088
0001a0 6f d3 26 3e b4 88 39 bc 65 1d ef bc 21 55 a8 3b
       0.16291593 -0.0113240965 -0.029188821 0.0051371013
0001b0 2e 25 9e 3b 1c 59 c9 3c 25 a2 51 3d d6 bc 45 39
       0.0048262095 0.024578623 0.051180024 0.00018857731
0001c0 00 fe c8 bd eb 1c 01 be 15 fb 3a bc 18 4f 27 bd
       -0.09814072 -0.12608688 -0.011412402 -0.040846914
0001d0 0a 34 65 bd 48 47 61 3c 4d 4e f4 bc 95 38 2e bd
       -0.05595783 0.013749905 -0.029822493 -0.04253443
0001e0 9e e5 c0 3d 2b 26 07 bd 81 0e 95 bd 01 4d 16 3d
       0.09418796 -0.032995384 -0.07278157 0.03669453
0001f0 1b 22 0f 3c cd be 61 bd d3 76 bf bb b4 ab 97 bd
       0.008736159 -0.055113602 -0.0058430224 -0.07405797
000200 05 ad 24 bd cc db 8c bd 6e d1 eb bd da df e4 bd
       -0.040204067 -0.068778604 -0.11514555 -0.11175509
000210 11 ac 93 3c 38 5b 11 bd 7a 97 6a bd 66 f7 11 bd
       0.018026384 -0.035487384 -0.057273366 -0.03563633
000220 e6 da c5 3d 2c 68 12 be e3 73 c2 bd bb 20 dc bd
       0.09660892 -0.14297551 -0.0949476 -0.1074843
000230 38 18 51 3d e6 61 a0 b9 40 30 e5 bc ed 95 28 bc
       0.051048487 -0.00030590518 -0.027977109 -0.010289651
000240 c1 96 3d bd 04 70 2c bd 20 ed e4 bd b5 4d 34 be
       -0.04628635 -0.042099014 -0.111780405 -0.17607768
000250 6f c6 82 bd 71 56 1e be 6f 04 52 bd 68 5f 47 be
       -0.063855045 -0.15462662 -0.05127376 -0.19469988
000260 6c 81 6f 3c 3d 80 b8 bd d7 94 b1 bd 2b ce 88 bc
       0.014618259 -0.090088345 -0.08670967 -0.016699871
000270 51 3a 14 bd bd d9 c6 bd f9 0b 1a bd 44 d7 24 be
       -0.036188427 -0.09709499 -0.037609074 -0.16097742
000280 1c 32 11 3d 4c d6 ce bc 65 30 2e be b6 ef be bc
       0.03544818 -0.02524867 -0.17010649 -0.023307662
000290 c8 77 31 bc d6 17 0a bd 2e f1 f3 bd cf 77 4d bd
       -0.010831781 -0.033714138 -0.11911236 -0.050163087
0002a0 0f f3 ed 3c 66 99 30 bd da 50 cb bd 0d 67 7e bd
       0.029046563 -0.043115042 -0.099275306 -0.062109996
0002b0 ee 2c 12 3d 52 76 2b bd 57 a6 07 bd e1 bd b7 bd
       0.03568738 -0.041860886 -0.03311762 -0.089717634
0002c0 fb e5 32 bd 9f 66 5c bd 2d 11 da bc ea 0a 44 bd
       -0.043676358 -0.053808805 -0.026619518 -0.04786197
0002d0 aa 2a 40 bd 4b f1 e4 39 14 26 6a bd 55 04 b4 3c
       -0.046915688 0.00043667326 -0.05716522 0.021974722
0002e0 f2 99 2e bc a8 9f b1 3c ea f5 b2 bd ca db 12 3d
       -0.010656821 0.021682575 -0.08738311 0.03585414
0002f0 68 3a 96 3d 83 ea 39 3d df 8d 4e bc db 86 6e 3d
       0.07335359 0.045389663 -0.012607067 0.058234077
000300 6f 93 74 bd 2f 47 b4 bb a3 5c 9f bd f5 9f 13 3c
       -0.059710916 -0.00550165 -0.07781341 0.009010305
000310 fb 6d ea 3d 1d 80 1a 3d a2 07 0e be 09 8d 69 bd
       0.11446758 0.037719835 -0.13870099 -0.057019267
000320 13 ff f3 3d bb 69 83 3d 3c 3c 9d bd 8b 4d 03 be
       0.11913886 0.06416651 -0.076775044 -0.12822549
000330 f6 af 63 bd da 61 b3 bd 97 75 00 be aa 00 0b 3d
       -0.05558773 -0.08758898 -0.12544857 0.03393618
000340 e5 a0 8f 3c f1 2b e4 bd 10 2e a5 bd c6 b6 23 be
       0.017532775 -0.11141194 -0.08065426 -0.15987691
000350 8e 96 f3 bd fd f6 05 be 99 0d 24 bd e5 51 7f bd
       -0.118939504 -0.130825 -0.04005203 -0.06233396
000360 62 98 d9 3d c4 82 fa bc 89 b3 ee bd 4c 00 c3 3b
       0.10624768 -0.030579932 -0.11655337 0.005950963
000370 a7 bd ae bd 49 cd c8 bd b2 05 29 3c 4e 31 e3 bd
       -0.08532267 -0.0980478 0.010316299 -0.110933885
000380 ab 08 8e 3d 0c 76 d1 3d 0d c1 55 bc 8c 0d 1c 3d
       0.06935247 0.10227594 -0.013046515 0.038098857
000390 cc 1f b0 3d c0 ae bd 3c 5e ac 64 bd ef f2 09 be
       0.08599815 0.023154616 -0.055828445 -0.13471578
0003a0 ee 12 de 3d 66 66 52 37 8c 92 a1 bc 9a c8 29 3d
       0.10843454 1.2540817e-05 -0.0197232 0.041451074
0003b0 a7 84 a0 3d b3 5f 7d bd 3c 45 97 3c d8 cf 0d 3d
       0.078378014 -0.061858844 0.01846563 0.034622043
0003c0 da b9 f5 bc 99 84 af 3d 10 68 b5 3d a4 c3 4e bc
       -0.029995847 0.08570213 0.08857739 -0.012619887
0003d0 50 a0 2d 3d 9e 00 8f 3d c7 da f7 bd f2 cd f2 bd
       0.042389214 0.069825396 -0.12102275 -0.11855687
0003e0 b7 82 cb 3d d4 95 1c 3d 34 03 56 3d 28 5e cd bc
       0.09937041 0.038228825 0.05224915 -0.025069311
0003f0 24 cd 83 bd 94 19 58 3d b3 9f ba bc f9 14 2a 3c
       -0.06435612 0.05275877 -0.022781229 0.010380977

network_body.observation_encoder.processors.1.conv_layers.2.bias f4 [32]
000000 62 f5 28 bc 6c 08 5a bc 9e 91 86 bc 41 30 62 bd
       -0.01031241 -0.013307672 -0.016426858 -0.0552218
000010 3f e9 a6 bd 0e 7d 3f bd a5 51 5a bd ac 6c 61 bd
       -0.08149957 -0.04675012 -0.05330052 -0.05503528
000020 d0 25 d1 3c 1e 6a 07 3d a4 56 ac bc d6 29 38 3d
       0.025530726 0.033060186 -0.021037407 0.044961773
000030 d7 a4 c5 bc bb 89 27 3c 14 52 cc bc 53 e2 81 bc
       -0.024126453 0.010225709 -0.024941482 -0.01585499
000040 09 e1 f3 bb 5a eb 86 3b 26 0f 59 3b 89 88 b1 bb
       -0.0074425978 0.0041174116 0.0033120601 -0.0054178876
000050 d3 aa 6b bd 52 0d 1b bd c0 f8 88 bd d2 72 21 bc
       -0.057535958 -0.0378545 -0.0668807 -0.009854035
000060 e4 e9 d5 3d 53 04 18 3d 6d df 22 bd 08 03 fd bb
       0.10445002 0.0371135 -0.039763857 -0.0077213086
000070 bd fb da bc 4d 29 90 3d 70 17 cc bc 79 a6 2f 3d
       -0.026731366 0.070391275 -0.02491352 0.04288337

network_body.observation_encoder.processors.1.dense.0.weight f4 [64, 1152]
000000 37 06 93 3d d9 55 19 3d 4f f5 be 3d 09 d3 05 bd
       0.0717892 0.037435386 0.09324133 -0.032671962
000010 8b 14 07 3d 5c 14 50 3c c1 e0 de 3d c5 0d c7 3d
       0.032978576 0.012700167 0.10882712 0.09719423
000020 57 7d 45 bd b9 62 7a bd a8 60 4e bd fc e4 4e 3c
       -0.048215237 -0.061129306 -0.050385147 0.012627836
000030 84 9b 0c 3d 4b 15 81 bc fb 3f 45 be 8b b1 18 bc
       0.034328 -0.015757224 -0.19262688 -0.009319673
000040 39 f1 a3 bd 6a 64 77 3c 8a 6a 22 bd 1d d8 c1 3d
       -0.08004994 0.015099624 -0.039652385 0.094650485
000050 11 78 54 bd f2 7a d9 3c 48 39 7a 3a d0 68 a8 3c
       -0.051872317 0.026547883 0.0009545279 0.020557791
000060 73 a5 4d 3c 55 ca cb 3d 6d be 73 bd f3 b6 ec 3d
       0.012551653 0.09950701 -0.059507776 0.11558332
000070 94 9c 62 3d dc bd 40 3c ad 4a f2 bd e5 f5 24 bd
       0.055325106 0.011764016 -0.118306495 -0.040273566
000080 3c e6 e6 bb 1d 48 9c bd 94 f5 78 3d 20 48 8d bb
       -0.007046489 -0.07630942 0.060781077 -0.0043115765
000090 0e 5a 0f bd 71 bf c2 bd 8b c4 ce 3d a9 b0 a1 3d
       -0.034997992 -0.09509171 0.10096081 0.078950234
0000a0 5e 72 00 bd 76 4a 10 3b e0 85 33 3d 44 06 7f bd
       -0.03135907 0.0022017038 0.043828845 -0.062261835
0000b0 51 13 a8 bd bc 5e 4e bd 9c 6f 24 bd 95 fa 80 bd
       -0.08206809 -0.050383314 -0.0401455 -0.06297795
0000c0 9c 1b 16 3c d7 2f 7e bd 91 0c 48 bd a5 59 5b bc
       0.009161856 -0.062057342 -0.04884011 -0.013388072
0000d0 3e 91 0e 3d e5 82 99 ba 8b 06 b4 bc 71 9a ab bd
       0.034806482 -0.0011711983 -0.021975776 -0.08379067
0000e0 49 18 c7 bd 15 b4 a4 bd 0b 51 9f 3b df 7b ce bc
       -0.09721429 -0.080421604 0.004861956 -0.02520555
0000f0 42 83 58 3d de b4 78 bd 88 6e 36 3d f3 e1 24 3c
       0.052859552 -0.060719363 0.044539005 0.010063636
000100 73 1d 21 be 6a 56 da 3b 3e e9 d0 bd 24 39 a7 3d
       -0.1573389 0.0066631334 -0.102007374 0.081651956
000110 fa 82 68 bd 79 47 f0 bd 50 e6 01 be 26 57 9e 3d
       -0.056765534 -0.11732382 -0.12685513 0.07731466
000120 c4 63 9c 3d 8c 97 ac bc c9 a5 19 3d 4a 28 da 3d
       0.07636216 -0.021068357 0.03751162 0.10652216
000130 67 d8 09 be 4f 1a 85 3c 1e 5d 18 3e 5a ac af bd
       -0.13461457 0.016247896 0.14879271 -0.08577795
000140 f5 b3 a5 bd e8 76 8a 3d e3 56 11 bd c9 74 39 3c
       -0.08090965 0.06760961 -0.035483252 0.011319348
000150 0b e3 47 3d 7f b2 bd bd 28 94 33 3b f4 81 ec bd
       0.04880051 -0.09262561 0.002740154 -0.11548224
000160 cd 25 16 bd c5 6a c6 bd a0 f7 96 3d 7e ca b8 bc
       -0.036657143 -0.096883334 0.073714495 -0.022557493
000170 ca e4 11 bd e1 59 a8 3d 94 f8 c8 bd cd d7 66 bc
       -0.03561858 0.08220268 -0.098130375 -0.014089537
000180 00 84 3c 3e be 5b c8 bd 98 7c 2e 3e 45 47 b5 3d
       0.18409729 -0.097831234 0.17039716 0.08851484
000190 4d 8e 39 bd 4e db 09 bc 30 2d ab bd 1a 1c 99 bd
       -0.045301724 -0.008414103 -0.08358228 -0.07476063
0001a0 0d 88 e2 bd 0c 77 ff bd 53 db 0f be 0f 5e 10 3d
       -0.11061106 -0.12473878 -0.1404851 0.03524595
0001b0 94 33 af 3d 2b 1a 0b 3c 6f 54 93 3d b9 f1 0c bd
       0.085547596 0.008490126 0.07193839 -0.034410212
0001c0 39 86 ee bd 04 6d 81 bd 38 14 14 3d 72 3a 94 bc
       -0.11646695 -0.06319621 0.036152095 -0.018094275
0001d0 85 0a 64 bb f8 7d 68 3d 87 14 88 bd 96 f6 4e bc
       -0.003479631 0.05676076 -0.0664454 -0.012632033
0001e0 cb 6e 3f 3c 53 0a 42 bd 52 e9 ad bd 48 7e 29 3d
       0.01168413 -0.047373127 -0.08491768 0.041380197
0001f0 dc eb 15 be 51 71 ba bc 83 84 cc 3b db fa 80 bd
       -0.14640754 -0.022759112 0.0062413826 -0.06297847
000200 a3 2a e0 3d 1c d3 77 3d 0e 47 85 3b 2e ea 0a bc
       0.10945632 0.060504064 0.0040673083 -0.008478684
000210 0e e3 00 3e 1b bb 92 bd 2b f4 a4 3c 48 08 a5 bb
       0.12586614 -0.07164594 0.02013596 -0.0050363876
000220 40 00 a3 bc 2a 6a 72 3d 5d cc b0 bd 74 27 1a bd
       -0.01989758 0.059183277 -0.08632729 -0.03763528
000230 fc a7 df 3c 90 9f 36 bd e6 88 b8 bd 01 bd 52 3d
       0.02730178 -0.044585764 -0.09010486 0.05144978
000240 87 7e 77 3c c4 aa f3 bd 94 1e cd 3d 71 b9 0c 3e
       0.01510585 -0.11897805 0.10015598 0.13742615
000250 9d 21 e2 bd 12 7e 2f 3d 45 dc ac 3d 4f 13 d7 3c
       -0.110415675 0.04284484 0.084404506 0.026254324
000260 20 44 b5 3d 96 d4 90 3c 23 9e 8a bd e6 e9 d8 bd
       0.088508844 0.017679494 -0.067684434 -0.105914876
000270 92 07 65 3d 5b 1d 8b 3d 31 b4 f2 3c 48 14 92 bd
       0.055915423 0.067927085 0.029626938 -0.071327746
000280 0c 1d 2f bd 4a 10 a2 bc c4 d3 0e 3e d9 63 8a 3d
       -0.04275231 -0.019783158 0.1394797 0.06757326
000290 61 13 ca bd d5 9d 31 bd 1c e6 9f 3c 40 fb 44 bd
       -0.098669775 -0.04336341 0.019518904 -0.048091173
0002a0 63 06 c2 bc b0 d0 0e 3d aa bf 03 3d f7 2e 8c bc
       -0.023684686 0.03486699 0.032165207 -0.017112238
0002b0 7a dd 0c 3e 5f bb 08 bd ff d7 a1 3d bd 29 89 bd
       0.13756362 -0.033381816 0.07902526 -0.06697414
0002c0 4a fc 1b 3d 35 5c 53 bd 16 ae d8 3c 14 2f f4 3b
       0.0380824 -0.051601607 0.026450198 0.007451901
0002d0 f2 a2 ae 3a 37 d9 56 3b 7a cc 82 3d ef cf 2a 3d
       0.0013323708 0.0032783279 0.06386657 0.041702207
0002e0 8d 5c cb bd ae d5 f1 3c 53 a6 6b 3c 44 f3 30 3c
       -0.09929762 0.029520836 0.0143829165 0.010800187
0002f0 ef 46 95 bd 03 6a d5 bc e5 5c 4c bb 2c 28 9d 3d
       -0.0728892 -0.026051527 -0.00311833 0.07673678
000300 d2 68 ef bd ad ad 48 bd 28 96 af bd a2 4f b6 3d
       -0.11689915 -0.048993755 -0.08573562 0.089019075
000310 ab 95 fc bc 89 42 98 bc 6a 9f 17 3d b5 d7 6d bd
       -0.030833086 -0.018586414 0.037017263 -0.058067042
000320 ad 68 81 3d d5 f0 0c be 19 fd fa 3d 59 66 0b 3e
       0.063187934 -0.13763745 0.12255306 0.13613261
000330 02 4b 1f 3c 61 d5 ce 3d d2 40 90 bd 66 9d c1 3d
       0.009722473 0.100992925 -0.070436135 0.094538495
000340 da f4 1c 3c 0a 5f 9c bd 99 cc 57 be 3f 38 e5 3c
       0.009579862 -0.07635315 -0.21074142 0.027980922
000350 fa 6e 93 bd f6 bb b1 bd 35 9d 27 bd 90 fa 67 3d
       -0.071989015 -0.08678429 -0.04092141 0.05663544
000360 16 8d f3 bb 8a fd 9a 3b b3 fa 69 3c ba 91 07 3e
       -0.0074325902 0.0047299312 0.014280963 0.13239184
000370 a8 79 ab bd 68 2c eb bd e8 28 60 3d 46 af 2c bd
       -0.083728135 -0.11483079 0.05472651 -0.04215934
000380 ae 56 7a bd b4 4f 91 bc 59 c6 61 bd 4a cb c5 3b
       -0.06111782 -0.0177382 -0.0551208 0.006036197
000390 b5 c2 4b 3d e5 e0 0f bd a4 93 b1 bd 4f 3a f4 bd
       0.049746234 -0.035126586 -0.08670738 -0.11925184
0003a0 fb bf 5a bd d7 27 8c 3c f8 2f f5 3d 0e ba 08 3e
       -0.053405743 0.01710884 0.1197204 0.13352224
0003b0 eb 0b 30 3d 26 cd 00 3e 2c 9f 25 bd aa 53 e3 3a
       0.042980116 0.12578258 -0.040435 0.001734366
0003c0 a9 99 36 bd 24 02 30 3d 5f 6b a0 bd 7e a6 b1 3b
       -0.044580135 0.04297079 -0.078329794 0.0054214587
0003d0 cc 78 4f 3d d5 2b 35 3c 05 af 01 3c 96 af 65 3c
       0.05065231 0.011057814 0.007915263 0.014018914
0003e0 29 0a fe 3a 65 28 62 bd b6 0f 5c bd bc 60 9e 3a
       0.001938169 -0.055214304 -0.05372592 0.0012083272
0003f0 cd f7 4a bc d7 c0 b9 3d 05 e8 77 bd 55 96 44 3c
       -0.012388182 0.090699844 -0.060524005 0.011998733

network_body.observation_encoder.processors.1.dense.0.bias f4 [64]
000000 a3 36 2d 3d 58 0d 97 3d 20 86 7c 3c 2b 69 be 3c
       0.042288434 0.07375592 0.015412837 0.023243507
000010 86 6c a5 3d 9b 2c 57 bd 25 9d 77 3c 11 83 ef 3c
       0.0807734 -0.052532773 0.01511315 0.029237302
000020 f5 c3 7a 3c 9a 0b 35 3d 1d 6c bc 3c 0b f1 1a 3d
       0.015305509 0.044200517 0.023000771 0.037827533
000030 c4 0b 4c 3d 3d dd a3 3d 6a 0d 40 3d f9 19 55 3d
       0.049815908 0.08001182 0.046887793 0.052026723
000040 07 c5 b0 3a 1f 14 1b bc 28 31 99 bc 7e f4 82 3b
       0.0013486453 -0.009465246 -0.018700197 0.003996431
000050 0e 75 a9 bb d2 b5 f9 bb 9a cc ab 3c 0c 0a 38 3d
       -0.0051714247 -0.0076205516 0.020971585 0.044931456
000060 26 22 0e 3d 39 a5 3d bc 24 90 27 3d ca 5e 75 3c
       0.034700535 -0.011575037 0.040908948 0.014976213
000070 ef 87 85 3c 10 e8 ed 3c cd a3 1b 3d 67 7d ee 3c
       0.01630017 0.02904132 0.03799801 0.02911253
000080 a8 81 6c 3d 87 5f 03 bc 24 3a 6b 3d 07 4e 20 3d
       0.057740837 -0.008018381 0.057428494 0.039136913
000090 80 92 c1 3c 30 52 8b 3c 4d d2 87 3d 6f 9a 95 3c
       0.023629427 0.017006963 0.066319086 0.018262116
0000a0 c6 cf 3a 3c 9a 9f 90 3c 3e 7a 8f 39 ef 47 87 bb
       0.011402076 0.017654229 0.00027366163 -0.004128448
0000b0 04 02 44 3b a0 c2 23 3d 66 5e 91 3c 9d af 9f 3b
       0.0029908428 0.03998053 0.017745208 0.0048732297
0000c0 c8 1c 25 3d 00 95 0c 3d fd bb 9b 3c 5a e3 96 3c
       0.04031065 0.034321785 0.019010538 0.018418957
0000d0 cf b3 a5 3c 7d 2e 19 3d 0b f9 14 3d 50 2d e2 3c
       0.020227341 0.03739785 0.03637032 0.027609497
0000e0 1a 4d ef 3c 47 01 50 bc 14 ca 0e 3d 55 c3 3d 3c
       0.02921157 -0.012695617 0.034860685 0.011582215
0000f0 1b bc 98 3d f3 56 b1 3c 28 7f 44 3d 67 a0 54 3c
       0.07457753 0.021647906 0.04797283 0.012977696

network_body._body_endoder.seq_layers.0.weight f4 [64, 142]
000000 9d 14 22 bd 49 24 17 3e 19 bc 1e 3e c0 26 c9 3d
       -0.03957044 0.14759935 0.15501441 0.09821844
000010 45 38 af 3a 2b 30 b3 3d 71 d7 4a 3d 1d e2 cf 3c
       0.001336821 0.08749422 0.049521867 0.025376374
000020 ad d6 ce bd 7e a3 b6 3e de cf a3 3d 6d 6a 6c 3d
       -0.1009954 0.3567161 0.07998632 0.057718683
000030 e8 24 f2 3c 87 d6 d9 bc 3d 65 a2 3d 0b 13 a1 3e
       0.029558614 -0.026591552 0.07929466 0.3145984
000040 96 7d 31 3d 92 47 c8 3c 07 29 c3 bd 41 d5 b6 3d
       0.04333266 0.02444819 -0.0952931 0.08927394
000050 3c 7e e1 bd 70 1d cb 3e 82 07 d2 3c d6 2f 50 bb
       -0.110104054 0.39670897 0.025638346 -0.0031766794
000060 47 6e a7 bd e2 07 f9 3d a6 34 cf 3d 08 f3 6a 3d
       -0.081753306 0.12159707 0.10117464 0.05736068
000070 ef c7 c1 bd 4e 32 87 3d a8 41 de 3d bf bd ea b8
       -0.094619624 0.06601392 0.10852367 -0.000111933325
000080 3b 37 c1 bd 25 95 9d 3d 65 be e2 3d 72 4c 01 bd
       -0.094343625 0.07694463 0.11071471 -0.031567045
000090 ad 4b 14 3c a3 80 13 bd d7 fa f8 bd 17 db 15 3e
       0.009051246 -0.03601135 -0.12157219 0.14634357
0000a0 b7 72 85 3d 15 3f 25 3d 77 23 65 3d cf 0b 32 3e
       0.06516021 0.040343363 0.055942025 0.17387317
0000b0 ea 05 39 bd 53 7e ad 3d f6 0a 7c 3d e0 90 3a be
       -0.045171656 0.0847136 0.06153389 -0.18219328
0000c0 94 61 90 bc 7d ba 28 be ee 9f 6f bd cf 34 8f bd
       -0.017624654 -0.1647739 -0.05850213 -0.06992494
0000d0 cc 22 4e 3e c1 64 8e 3d 18 fa 99 bb b7 49 16 bc
       0.20130461 0.06952811 -0.004699003 -0.009172848
0000e0 73 ae 6a bd 7c a8 69 3d 32 34 05 3c 93 a8 a8 3c
       -0.057295274 0.057045445 0.00813012 0.020588195
0000f0 e7 bc dc bb 24 2b 41 bd 42 c3 47 bd f5 3d 0e 3e
       -0.006736386 -0.047160283 -0.048770197 0.13890822
000100 70 19 ed 3c e2 c0 1d 3e ed aa b6 bd 71 20 38 3e
       0.028942794 0.1540561 -0.0891932 0.17981125
000110 1d 66 34 bd b4 1c f6 3d 58 e6 07 bc 2f d7 2f 3e
       -0.044042695 0.120171934 -0.008294664 0.1717193
000120 0f 82 2d 3c 28 ea 0f 3d 10 d5 d8 3d 20 9e fc bd
       0.01059009 0.03513542 0.105875134 -0.123348475
000130 ef 5b e2 3b bf 60 12 be e3 99 4c 3e 9b c1 af bc
       0.006907932 -0.14294718 0.19980578 -0.021454623
000140 73 48 42 bd e4 3b c1 3c 64 20 3f bd 0f 3f 44 bd
       -0.047432374 0.023588128 -0.04666175 -0.0479117
000150 10 2f fd 3d 5d 48 75 bd 34 7b 2b bd aa c2 91 bd
       0.12362492 -0.059883464 -0.041865543 -0.07117207
000160 8e 68 5b 3d 91 f2 6d bc e3 7c e4 bb 27 74 1a bd
       0.053566508 -0.014523164 -0.0069728955 -0.037708428
000170 35 af 6f bd 78 59 0e bd 65 18 1c be f2 8f eb bd
       -0.0585167 -0.034753293 -0.15243681 -0.11502065
000180 ce 90 6a be 45 fc 19 be e1 93 05 3c c8 78 11 3e
       -0.22906801 -0.1503764 0.008152933 0.1420623
000190 fc 89 37 3d 09 ad 54 3a 43 98 23 3d d7 9b 90 3d
       0.044809327 0.00081129425 0.03994013 0.07060974
0001a0 07 d1 0b be 0c c0 3c be 5b 10 c5 3c 37 3e 42 3e
       -0.13653956 -0.18432635 0.02405565 0.18969046
0001b0 0e 55 c3 3d 25 91 b6 3b 62 98 b0 3d 8a 79 04 be
       0.09537707 0.005571502 0.08622815 -0.12936988
0001c0 c6 66 da bc bb 3d 02 3d 04 27 fa bd c0 36 98 3d
       -0.026660334 0.031797152 -0.12214473 0.07432318
0001d0 43 14 97 be 88 a2 ed 3d 02 cc b7 3d cf 21 a3 3d
       -0.29507646 0.11603266 0.08974458 0.07965433
0001e0 59 ea cc bc bb d9 12 be e1 d0 c3 bd a6 fa c3 bd
       -0.02501409 -0.1434087 -0.09561325 -0.09569292
0001f0 cb 38 bd 3c 8c 78 ff bd 7a 69 68 3d 56 67 5a bd
       0.02309837 -0.12474164 0.056741215 -0.053321205
000200 a5 83 78 3d 43 72 12 be e0 62 51 bb bb 51 9c 3d
       0.06067242 -0.143014 -0.0031949803 0.07632776
000210 5e 01 b5 bc 6b 7d c8 3c 6a 3d 62 3e e1 e6 61 3d
       -0.022095378 0.024473866 0.2209374 0.055151824
000220 49 0f 68 3d 11 6c f0 bd 49 02 4f be df df 0b be
       0.056655202 -0.11739362 -0.20215715 -0.13659619
000230 b2 13 4d 3d b1 fe be bd 95 4e fb b7 e7 f7 00 be
       0.05006761 -0.09325922 -2.9958124e-05 -0.12594567
000240 d5 9b cb bd b5 1b c2 bd d5 43 09 bd d9 93 80 bd
       -0.09941832 -0.09477941 -0.033511955 -0.062782
000250 49 50 0e bd 8e 5c 2c 3d 04 67 b3 bd fa d2 27 be
       -0.034744535 0.042080455 -0.08759883 -0.16389075
000260 2b 2f 1d be c5 7b 95 3d 5a 20 7e 3c 9d a6 2e bd
       -0.15350024 0.07298998 0.015510643 -0.042639364
000270 f8 31 da bc ca 27 37 be b6 0a 6a be 9c 44 18 be
       -0.026635155 -0.17886272 -0.22855648 -0.14869922
000280 f9 95 ac bd c1 a5 e3 3c 04 72 1e 3b 00 2c b0 3c
       -0.084270425 0.027788999 0.0024176845 0.021505356
000290 27 68 e4 bd a9 d5 50 bd f2 62 51 3c d3 77 55 bd
       -0.11152678 -0.050985012 0.012779938 -0.052116226
0002a0 d2 d7 ce 3c c5 20 26 be 5a 62 af 3d 8e ac 20 bc
       0.025249396 -0.16223438 0.08563681 -0.009806765
0002b0 13 73 0d 3e 1a 26 ed bd 3d 96 79 ba 14 7a 92 3d
       0.13813429 -0.11579533 -0.00095209834 0.07152191
0002c0 bf ae 85 3d 55 45 7e bd 4e 7a 68 3e 8d 2c 36 3d
       0.06527471 -0.06207784 0.22702906 0.04447608
0002d0 38 7f b1 3c b8 ce 84 bd 8c 14 af bd 28 4f 03 be
       0.021667108 -0.06484741 -0.08548841 -0.12823164
0002e0 71 ad e0 3d 66 10 19 3d ab 5b 7a 3c 3e 0f ec 3c
       0.10970581 0.037369154 0.015280644 0.028815862
0002f0 ce 8a 2c 3c 64 27 b4 3d 44 28 52 3d 1e 55 4f 3e
       0.0105311405 0.08796576 0.05130793 0.20247313
000300 47 03 bb 3d 22 82 f2 3d c8 f0 01 3d de 66 ba 3d
       0.091314845 0.11841227 0.031723768 0.091016516
000310 11 9a 0d 3e 3f a7 02 3e 32 58 a0 bd c8 3c 66 bd
       0.13828303 0.12759112 -0.07829322 -0.05621031
000320 89 d9 8a bd b6 a1 63 3d 9b 0b 2b 3e f2 a1 63 be
       -0.06779773 0.05557414 0.16703646 -0.22229746
000330 fe a3 8e 3d c9 b5 19 3e 4d eb 0b bd af 22 18 3e
       0.06964873 0.15010752 -0.034159947 0.1485698
000340 ce 53 11 3e 84 8b e3 bd 46 11 e8 bd a9 88 91 3d
       0.14192125 -0.11110595 -0.1133142 0.07106144
000350 da 6d 09 3e 69 eb a2 bd 7d f7 16 3e e7 1d 76 bc
       0.13420811 -0.07955057 0.14742847 -0.015021778
000360 08 be 67 3d 2f b7 d7 bd d2 0f 8b 3d f0 92 33 3e
       0.056577712 -0.105329864 0.06790127 0.17536521
000370 d6 72 a3 3d 48 7d d4 3d 50 e9 92 bd d3 a6 f9 3c
       0.079808876 0.10375458 -0.07173407 0.030475056
000380 17 99 2f be 36 cf 72 3d 28 ec 91 3d 51 e1 1b bd
       -0.17148243 0.059279643 0.07125121 -0.038056675
000390 30 00 9f bd c7 52 00 be b8 c0 c3 3d a6 07 0c 3b
       -0.07763708 -0.12531577 0.095582426 0.0021366864
0003a0 eb 6e d7 bc 91 c7 87 bc 3d c4 c3 bd 54 f0 d0 bd
       -0.026298007 -0.016574653 -0.09558914 -0.10202089
0003b0 5f ef ce bd cc b5 de bd 4e 99 36 3d c8 c3 81 3d
       -0.1010425 -0.10874519 0.044579796 0.063361704
0003c0 53 c2 18 3e 35 3f e5 bc f1 26 de 3d 85 3b c2 3d
       0.14917879 -0.027984241 0.10847271 0.09484009
0003d0 85 c0 ff 3d a8 52 f3 bd dd df 80 3e 5d 6c 1f bd
       0.12487892 -0.11881 0.25170794 -0.038921703
0003e0 42 7b 76 bd 85 3f be bd 57 17 e5 3d c6 ed 12 be
       -0.06017614 -0.09289459 0.11186092 -0.14348516
0003f0 73 ff 63 bd 26 1c 07 3e 2e 45 8d bd 99 6e 57 be
       -0.055663537 0.13194332 -0.068979606 -0.21038283

network_body._body_endoder.seq_layers.0.bias f4 [64]
000000 b4 43 db 3c fb 08 d5 bc a3 29 4c 3c bb 8b 2c 3b
       0.026765682 -0.026005259 0.012461099 0.0026328403
000010 f6 2a 6d 3c e8 92 83 bd c6 0a 99 bc dc 58 82 3d
       0.014475575 -0.064245045 -0.018681895 0.06364605
000020 6a e6 80 3d 5e 6b 67 3d d2 58 00 3d 22 ef 3d 3d
       0.06293948 0.056498878 0.031334706 0.046370633
000030 97 8b 09 bc 52 6d 87 3d 37 93 dd 3c 5e 0f 0c 3c
       -0.008395097 0.06612648 0.027047737 0.008548586
000040 a5 91 3b 3d ce af 8a 3d b5 cc 41 3d f5 dc 97 3b
       0.045793194 0.06771813 0.047314364 0.0046344944
000050 7d 10 5b 3c 99 e2 10 3d ef 8e a2 3d f2 2f 16 3d
       0.01337063 0.03537235 0.07937419 0.036666818
000060 c4 a8 21 bd bf 7c 1c bc dd 3a eb 3b 2d 53 02 bd
       -0.039467588 -0.009551226 0.007178648 -0.031817604
000070 7b 04 83 3d 24 f9 3b 3c c6 5e 71 3d e0 6b cc 3c
       0.06397339 0.011472974 0.058928274 0.024953783
000080 ce e0 92 bb ab 51 aa 3c cd ea a2 bc b4 b6 ef 3c
       -0.004482365 0.020790895 -0.019887352 0.029261924
000090 03 71 51 3d f1 d6 86 3c 5f 5a 66 bd 85 c9 78 3c
       0.051133167 0.016459914 -0.05623853 0.015184765
0000a0 5b 04 77 3d 5b 69 5c 3d 97 47 33 bd 68 8b c5 bc
       0.060306888 0.053811412 -0.043769445 -0.024114326
0000b0 9a 24 22 3d c9 0f 3f 3c 7e 51 21 3c 7d f3 d1 3d
       0.039585687 0.011661478 0.009846089 0.1025152
0000c0 e4 2c 7f 3d a3 f8 ad bc 2b 4d 61 bc b7 88 0c 3d
       0.06229867 -0.021236723 -0.013751308 0.03431007
0000d0 a5 81 09 bd f7 65 56 3c 79 24 e0 bc 5b 9f eb 3c
       -0.033570904 0.013085834 -0.027361142 0.02876251
0000e0 d6 4d aa 3c ca d8 6f 3c 5f a8 85 3d 9d 57 85 3d
       0.020789068 0.014639089 0.06526255 0.065108515
0000f0 fe d3 a4 3d 5a 1f db 3b a3 93 b1 3d 4e 0b ae 3d
       0.08048247 0.006687087 0.086707376 0.0849825

network_body._body_endoder.seq_layers.2.weight f4 [64, 64]
000000 28 6b 23 3d cd 9a 34 be 68 75 0c 3e 59 74 e4 3d
       0.039897114 -0.17637177 0.13716662 0.11155004
000010 00 cf 52 be 79 aa 94 3a 4b 1e 1f be 74 f0 30 be
       -0.20586777 0.0011342309 -0.155389 -0.17279226
000020 ca 86 34 3d 2f c3 2b 3e 18 9d 7a bc b3 07 72 3e
       0.044073857 0.16773675 -0.015296243 0.2363575
000030 59 fa ce bd 08 05 cb 3d dc 10 5c 3e 87 51 d7 bc
       -0.10106344 0.09913069 0.21490806 -0.026283992
000040 cf 74 0a bc e2 be 60 3d b6 e9 a6 be 02 90 f9 3d
       -0.008450701 0.05486954 -0.32600182 0.121856704
000050 28 62 a7 3b 8c 5d a1 3d 38 c0 84 bc 3d 5f 16 3e
       0.0051081367 0.07879171 -0.016204938 0.14684768
000060 c8 41 96 3a 71 1a 32 be e8 75 2e 3a 49 c5 ef 3c
       0.0011463696 -0.17392899 0.00066551426 0.029268878
000070 7e df 9b 3d e7 06 88 3d 1b 8e f3 bd 04 25 8d be
       0.07610987 0.066419415 -0.11892339 -0.27567303
000080 63 5e 45 3e 7c 99 37 3c 3a 85 9c bd f1 5e f8 bd
       0.19274287 0.011206027 -0.076425985 -0.12127484
000090 4e a1 03 be da 17 85 3e 3a bb 24 bd ff 37 07 be
       -0.12854502 0.2599476 -0.040217616 -0.13204955
0000a0 0e 8d 66 3e a6 9c 1b bd 09 5d 8a bd 3c e4 06 3d
       0.22514746 -0.03799119 -0.06756026 0.032932505
0000b0 1d e1 ef 3b f1 21 3b 3e 82 30 3e be ca d8 76 bd
       0.0073205368 0.18274666 -0.18573192 -0.06026534
0000c0 17 05 d3 3d 6a 8a e2 3d 48 55 c6 bd c8 b7 8a 3e
       0.10303705 0.11061557 -0.09684235 0.2709334
0000d0 46 55 03 be e7 4d 98 bd 52 7d 21 3d ce 10 10 be
       -0.12825498 -0.07436734 0.039426155 -0.1406891
0000e0 3b 61 f5 3d e3 03 09 3d e2 bd c0 3d 60 e5 dd bd
       0.11981436 0.033450972 0.09411217 -0.108347654
0000f0 61 cc 0d 3e 05 2c c6 3c 07 46 1a 3e b9 9b cd 3d
       0.13847496 0.024190912 0.15065776 0.10039467
000100 57 40 9a bd 25 dd 97 bd d2 7b c2 3d 09 33 16 3d
       -0.07531803 -0.07415227 0.09496273 0.036669765
000110 cf 7a 23 be ff 15 01 be 67 27 fa bd dd f2 f6 bd
       -0.15964817 -0.12606047 -0.12214547 -0.12058041
000120 85 fe d1 bc 88 7e 3c 3b c1 67 4d 3e 73 20 19 bd
       -0.02563406 0.0028761942 0.2005911 -0.03738446
000130 dd 40 a7 bd b1 be e6 bc 0f 8b cb 3d 74 7a 35 3b
       -0.081666686 -0.0281671 0.09938633 0.0027691396
000140 0a a7 8a bd c6 9d 85 3d 32 27 a1 be d7 36 00 3e
       -0.067701414 0.065242335 -0.31475216 0.1252092
000150 60 97 cc 3d f8 e1 6a 3e dc 33 e3 bd 7c cd 8d be
       0.0998981 0.22937763 -0.11093876 -0.27695835
000160 20 0f 7a be 92 62 bb 3d 53 1d 41 bd a2 f4 45 bc
       -0.24419832 0.0914966 -0.047147106 -0.012082251
000170 f7 b9 f1 3d 08 6f 49 be 3c 15 e9 3d 12 0b 5e 3d
       0.11803048 -0.19671261 0.11381003 0.054209776
000180 aa 25 0c 3e 7f 9d 2e be fa 16 0d be 4c 6d 1f be
       0.13686243 -0.17052267 -0.13778296 -0.15569037
000190 c9 25 ac be f7 43 8c 3e 1a 23 9f bc 16 11 bc 3d
       -0.33622578 0.27395603 -0.019425917 0.091829464
0001a0 70 09 76 3e b3 15 23 3d ce 8d 8c bb 0b 71 ac bd
       0.24027038 0.039815616 -0.0042893654 -0.08419999
0001b0 bc a1 da 3d b2 fa 70 3d ba a3 46 be 42 ef 90 3d
       0.1067538 0.05883283 -0.19398394 0.07076885
0001c0 67 82 98 bd 11 9a 87 bd 9d 8b 4f 3e c3 da 4d 3d
       -0.07446747 -0.06621183 0.20268102 0.050257456
0001d0 1b dd dc be eb 89 ea bd 2e 3e 76 bd 3d 81 03 3e
       -0.4313744 -0.11452087 -0.060117893 0.12842269
0001e0 5f f6 dc 3d 9d 2b 92 bd 44 77 8e 3e a9 ab 01 be
       0.10789179 -0.07137225 0.27825367 -0.1266314
0001f0 7c 4e dd bd ac 98 1b be df 9e 54 3e ff 8d 9e 3e
       -0.10805985 -0.15194958 0.2076373 0.3096771
000200 5a 8b 96 be 2f 41 07 3e ab 2f a3 bc c3 89 66 be
       -0.29403192 0.1320846 -0.01992019 -0.2251349
000210 30 a9 ad be da 70 0b be aa b6 87 bd 9a 11 68 3e
       -0.33918142 -0.13617268 -0.06626637 0.22662964
000220 be 72 14 bc 37 a2 88 3c 19 3d aa be 10 87 f9 3b
       -0.00906056 0.016678913 -0.3324974 0.0076149777
000230 de f5 72 3d 60 89 20 3e 35 7d fd 3d 0e 06 00 be
       0.05931651 0.15677404 0.12377397 -0.1250231
000240 2c 79 8d 3c 44 15 c5 3d 23 39 da 3d 5b a1 00 bd
       0.017269693 0.09623197 0.10655429 -0.03140388
000250 bf c2 98 3d 54 e2 0c 3e dd fc 02 bd 18 d8 14 3e
       0.0745902 0.13758212 -0.03197943 0.14535558
000260 26 af 2c ba bb a9 62 be 39 3d d8 bc 62 06 51 be
       -0.00065873784 -0.2213506 -0.02639638 -0.20412591
000270 37 3d 83 3e 88 1a 4a 3d cc b1 d3 3c af 65 d6 bd
       0.2563264 0.04934171 0.025841616 -0.10468613
000280 73 4b ab bc 14 ab 09 be 3b 11 8e 3e ff 8b 33 be
       -0.02091 -0.13444167 0.2774752 -0.17533873
000290 14 36 78 3c ec 12 90 bc 36 fd 96 3d 0c 6b 5d bd
       0.015149612 -0.017587148 0.07372515 -0.054057166
0002a0 29 b6 a8 3d 67 35 95 3e e7 b2 88 be 35 d9 11 3d
       0.08237869 0.29142305 -0.26698992 0.035607535
0002b0 ec c1 24 be 6e 56 8e be 97 fa 32 3d f6 f4 22 be
       -0.160896 -0.27800316 0.043696012 -0.15913758
0002c0 9f a2 13 3d 29 17 77 be 49 c1 85 3d 45 33 eb bc
       0.03604376 -0.24129929 0.06531007 -0.02871097
0002d0 c5 29 53 be 33 34 90 be 54 6e 17 be ff 28 bf bd
       -0.20621403 -0.28164825 -0.1478818 -0.09333991
0002e0 ac 6f 7e be 4d f6 a8 3c ac 4a 10 3c 55 b0 2a 3e
       -0.24847287 0.020625258 0.008806866 0.16668828
0002f0 91 d3 39 3e c6 27 25 3d 32 a5 25 be 02 e0 9c bd
       0.18147112 0.040321134 -0.16176298 -0.076599136
000300 82 2d 90 be 63 93 d1 3d 48 25 12 bd bc ce f1 bc
       -0.2815972 0.1023319 -0.035680085 -0.029517524
000310 96 43 49 3c b9 f9 e4 bd 09 40 95 3d 2e c5 d2 3e
       0.01228418 -0.11180443 0.07287604 0.4116606
000320 f9 ac 73 3d f0 bb b5 3d a9 86 04 bd 2b cb 5a be
       0.05949113 0.08873737 -0.032354984 -0.21366565
000330 cf 29 ba 3c f1 57 03 be 01 fc d1 bc 3e 6a 2f 3e
       0.022725014 -0.12826516 -0.02563286 0.17130372
000340 aa 18 86 3e 4e 33 21 3c 5f 92 d8 3c d4 77 a2 3b
       0.26190692 0.009838892 0.026436983 0.0049581323
000350 f7 96 74 bd b3 04 7d 3e 5b d9 2c bd 9e ca 35 be
       -0.059714284 0.24708824 -0.042199474 -0.17753074
000360 3c 9e 02 be 3a ff 8f 3d 2a ca 05 be 54 c2 29 3e
       -0.12755674 0.070311025 -0.130654 0.16578037
000370 49 bd 85 bc c0 59 00 3e 11 c3 71 be df 1f 5a 3e
       -0.01632561 0.12534237 -0.23609568 0.2130122
000380 a1 f5 ba bd a5 c4 88 3d dc 8c 7b bd 09 92 8f be
       -0.09128881 0.06678132 -0.06141363 -0.28041103
000390 ce 54 b5 bb 1a 17 0e 3e cb 0f 85 3e af da b6 bd
       -0.005533791 0.13876 0.25988612 -0.08928429
0003a0 2a 5c 70 3e 57 89 15 bd 11 21 b2 bd 23 6f ba 3b
       0.23472658 -0.03650793 -0.08697713 0.005689518
0003b0 82 4f 66 bd 09 1c a3 3d 8f 9e e3 be 83 c5 32 3e
       -0.05622817 0.07964332 -0.44456908 0.17458157
0003c0 e4 71 1c bb 9b cf 50 3e e5 6f dc 3d 0b 54 68 3e
       -0.0023871595 0.20391695 0.1076353 0.2268831
0003d0 72 9e 29 3e 48 e8 13 be 4e 8d 31 be 69 85 b3 bc
       0.16564348 -0.14444077 -0.1733906 -0.0219142
0003e0 d9 9a 99 3d 26 79 fd bd b7 0b ac bc 0b 68 60 3e
       0.07500238 -0.12376623 -0.02100168 0.21914689
0003f0 45 6e b2 3d ea a7 23 3e 50 85 20 be f1 8f 6e 3c
       0.087124385 0.15982023 -0.15675855 0.0145606855

network_body._body_endoder.seq_layers.2.bias f4 [64]
000000 f3 2f 8c bc ca 4b b0 3d 4a 56 b7 3d b2 ed 43 3d
       -0.017112708 0.086082056 0.08952005 0.047834106
000010 8b 98 0a bd b9 ab c7 bc b5 a7 95 3c 12 94 8c 3d
       -0.033836883 -0.024373876 0.018268446 0.0686418
000020 19 57 91 3d 7d 40 44 3d 3f e6 3e 3d 8b 7b 87 3d
       0.07096691 0.047913063 0.0466063 0.06615361
000030 62 ea e7 3d 08 cd a9 3d 2a 18 c2 bc d0 94 19 3d
       0.11324002 0.0829106 -0.023693163 0.037495434
000040 90 2a c3 3d 9a 74 9a 3d cf b4 2a 3d 18 88 8b bc
       0.095296025 0.07541771 0.04167634 -0.017032668
000050 0f 8f a1 3d 07 26 64 3d fb 6b 7b 3d 63 62 a6 bb
       0.078886144 0.05570033 0.061382275 -0.0050776466
000060 de cd 77 bc 05 77 6d 3d db 81 eb bb a4 c4 53 3d
       -0.015124766 0.057974834 -0.007187111 0.051701203
000070 05 f4 2d 3c e5 67 7a 3d 48 26 95 3d 20 63 26 bc
       0.010617261 0.061134238 0.07282692 -0.010155469
000080 8e a4 25 bb 46 97 cc 3c 3e 82 f0 3c 42 de 6a bd
       -0.0025275084 0.024974477 0.02935898 -0.057340868
000090 f5 8b d9 3c aa c7 66 3b a9 a8 8e 3d 07 a1 e8 3d
       0.026555995 0.0035214224 0.06965763 0.113588385
0000a0 ea 68 b5 3d 25 64 2f 3d 9c 06 7d 3d e8 a9 91 3d
       0.088579014 0.042820115 0.06177388 0.07112485
0000b0 e2 b3 96 3d 9e cd 79 3d 4d dd a1 3c 35 18 fa 3c
       0.07358529 0.060987107 0.019758845 0.030529121
0000c0 9f 70 ca 3c 54 1a ad 3c c3 17 54 3d b6 cd 97 3d
       0.024711905 0.021130718 0.051780473 0.07412283
0000d0 e9 4e 8a bc ff 0b 9e 3d 9b bf 5a 3d 29 1e 11 3d
       -0.01688333 0.07717132 0.053405385 0.035429154
0000e0 8d d2 99 3c 87 f3 33 3d ce 7f d0 3c ba ac b6 3d
       0.018777156 0.043933418 0.025451567 0.08919664
0000f0 2f d0 c6 bd b8 d5 8a bd 02 8c ce 3c 12 78 d5 3c
       -0.097076766 -0.06779045 0.025213245 0.02605823

action_model._continuous_distribution.log_sigma f4 [1, 2]
000000 94 f1 d6 bd bc b8 c6 bd
       -0.10495296 -0.09703204

action_model._continuous_distribution.mu.weight f4 [2, 64]
000000 2d fc 31 bd b8 6b e2 bd 1d ec fc 3c 44 92 a4 3d
       -0.043453384 -0.11055702 0.030874306 0.080357105
000010 3f e5 d0 3c fa 34 38 bd c2 76 d4 bc 81 27 82 bd
       0.025499938 -0.044972397 -0.025935534 -0.06355191
000020 af b5 0c 3e 65 44 13 3d 2a a2 17 3d 45 64 98 bc
       0.13741182 0.035953898 0.037019886 -0.0186025
000030 6d f4 ed bc 2a 46 b6 bd b8 24 53 bd 56 f1 4f bd
       -0.029047215 -0.089001015 -0.05154869 -0.050767265
000040 08 dc e6 3d 4e 5f ee bb 04 0f 3f 3d 3a a9 c0 3c
       0.112724364 -0.007274545 0.04664518 0.023518194
000050 ed c6 2e 3e b7 db 9f 3d 2c c5 00 bd b5 cf 3b 3c
       0.17068072 0.07805579 -0.031438038 0.011463095
000060 e2 86 08 3d 72 b0 bd 3c 32 db 13 3c 6e 8a c6 3d
       0.03333176 0.023155425 0.009024428 0.09694372
000070 42 62 8b 3d 6b a3 a2 bd 9b 3a 0b 3e fa ac 32 3d
       0.068058506 -0.07941326 0.13596575 0.043621995
000080 90 59 0e bd 84 df 1d bd 18 c1 8a 3d 99 c5 f0 bc
       -0.034753382 -0.03854324 0.06775111 -0.029391097
000090 b9 ee 0a 3c c2 35 c7 bc ef da 03 3d 5c d7 77 bd
       0.0084797675 -0.024317626 0.032191213 -0.060508117
0000a0 a1 14 da 3d 6c 5c 06 be 05 d2 8b bd 2b bc df bd
       0.10648466 -0.13121194 -0.068271674 -0.10924562
0000b0 c2 62 95 bd 78 a8 f7 bd f9 dc 25 bd 72 91 b4 3c
       -0.07294227 -0.1209268 -0.04049394 0.02204201
0000c0 75 60 1c bd 0f b9 43 3a 0d cc 1a bc ff 6a c7 3d
       -0.038177926 0.00074662355 -0.009448064 0.09737205
0000d0 2e 06 02 bc 7f 2a 82 bd 22 f9 ab bd 82 7b 7b bd
       -0.007936044 -0.06355762 -0.08397128 -0.061397083
0000e0 df 22 07 bd 43 b9 b7 3c a6 e5 7d 3d 6a 29 13 3e
       -0.03299224 0.022427207 0.061986588 0.14371267
0000f0 18 cd 96 3d ee ae 07 bd d1 7f 9d bc 87 74 9c bd
       0.07363337 -0.03312581 -0.019225987 -0.07639413
000100 f5 ff 98 bc e1 55 87 3c 99 f0 bc bd bd df f6 3d
       -0.018676737 0.016520442 -0.09225578 0.120543934
000110 e0 cb 86 3d 69 55 7b bd 0c 55 c3 bd 76 67 9d 3d
       0.06581855 -0.06136075 -0.09537706 0.07685749
000120 9e 1e 1c bc c9 a7 2c bd 43 63 d0 bd dc 93 e7 3d
       -0.009528784 -0.0421522 -0.10175183 0.11307499
000130 b7 d1 14 be 94 12 33 bd 30 46 1d bc 32 d3 0c bc
       -0.14533125 -0.04371889 -0.009599254 -0.008595275
000140 bf 27 5d 3c 02 c1 21 3e e4 c7 58 bd e5 63 cf 3c
       0.013498246 0.15796283 -0.052925006 0.025316188
000150 21 61 8e 3b ea 94 82 bd 4c 51 d3 3d 48 36 dd bc
       0.0043450748 -0.06376059 0.103182405 -0.027003422
000160 69 42 b9 3c 49 0a 95 bd 46 e3 37 3d 7e a4 12 3d
       0.022614675 -0.07277352 0.04489448 0.035801403
000170 69 4c cc 3c 69 af d3 bc ce a0 3d 3d 8c 8a f9 3c
       0.024938779 -0.025840478 0.046295933 0.030461572
000180 23 fe 4e 3b 4e e1 0d 3d 20 93 3a bd 97 b5 0a 3d
       0.0031584583 0.034638695 -0.045550466 0.033864584
000190 8e 3c cf bd 5b 07 7b 3c 5c 54 8f bc a0 5e 31 3e
       -0.10118972 0.015321578 -0.01749628 0.17321253
0001a0 20 e4 f7 bc 6d f7 42 bd 0f 42 a0 bc 0b 0a b8 3d
       -0.030260146 -0.047599245 -0.01956275 0.089862905
0001b0 81 a9 93 3d 12 f3 ea bc bc ac b8 bd 1e ce 6b bd
       0.07210065 -0.028680358 -0.090173215 -0.057569616
0001c0 4f 0d 46 3d d2 8d 6c bd 2c ea 30 be 65 73 4f 3d
       0.048352536 -0.057752438 -0.1727683 0.05064716
0001d0 f1 15 a8 3c 23 bb 1a 3e f4 ac 8d 3c cb 04 1e bd
       0.020518275 0.1511045 0.017294385 -0.03857879
0001e0 a9 b3 d5 3d 6d de f2 3d 9a 57 55 bd 00 43 df 3d
       0.10434658 0.118588306 -0.052085496 0.10901451
0001f0 52 5d b2 bd aa f1 6f bc 51 ce 01 bd af 80 1a bd
       -0.08709206 -0.01464502 -0.0316909 -0.03772038

action_model._continuous_distribution.mu.bias f4 [2]
000000 2e b7 23 3c 0d 9c 79 bb
       0.009992404 -0.0038087398
