results/MLHades_main_9_coinsareparticles/MLHades/MLHades-1499960.onnx (onnx, 420266 bytes, 22 tensors)

discrete_action_output_shape f4 [1, 4]
3.0 3.0 3.0 2.0
00000000: 0000 4040 0000 4040 0000 4040 0000 0040

network_body.observation_encoder.processors.1.conv_layers.0.weight f4 [16, 7, 8, 8]
0.05579249 -0.06950973 0.0062683383 -0.0015731369 -0.021640776 0.03748851 0.030800035 -0.058219694
0.04056489 -0.06026624 0.03017248 -0.015040626 0.03187197 -0.03258638 0.021861915 -0.042479347
0.08365106 -0.009504704 -0.015913034 0.026997942 -0.0051385355 -0.015098752 -0.026323143 -0.00059884344
0.031817734 -0.058143068 0.025123525 -0.032328263 0.0014977508 -0.029580396 0.012434617 -0.029866444
0.07402033 -0.019471435 -0.04479123 -0.07497381 0.027550947 0.0039946735 -0.032587975 0.016657125
0.060210343 -0.014084405 -0.07264726 -0.02255267 0.020670265 0.004633009 -0.004068062 -0.047204413
-0.002147249 0.041202366 -0.019663906 -0.028449135 0.01541763 -0.0121747805 0.003980193 0.046407603
0.055459842 -0.066981606 -0.006309594 -0.04965313 -0.04581817 0.07230208 0.015790012 -0.045095656
0.06355514 0.18638739 0.17340438 0.15003677 0.114573196 0.18584368 0.15315482 0.12074666
0.10007704 0.18254521 0.20733324 0.16682823 0.12920368 0.13187356 0.18128501 0.13640203
0.074604906 0.18497215 0.2738424 0.115873195 0.06883113 0.14014287 0.26657245 0.17803992
0.15894994 0.19402623 0.26043093 0.3173161 0.15101366 0.1879894 0.17455624 0.16215709
0.13622695 0.13930255 0.27974072 0.29725078 0.21243672 0.116659544 0.038371127 0.16887425
0.14867477 0.2160596 0.30784383 0.2693641 0.21740119 0.20604335 0.12584388 0.13145871
-0.0057898066 0.18703116 0.22100128 0.24955417 0.18074243 0.15754162 0.23509207 0.16328554
0.22473566 0.23126738 0.2670562 0.25863698 0.30950758 0.20377186 0.2395986 0.2643406
0.016315162 -0.07231956 -0.034481015 -0.057098832 -0.00095694844 -0.07265237 0.013988541 0.011546545
-0.03312797 -0.06415416 -0.047204677 0.0063997735 -0.13411148 0.014328062 -0.018646102 0.0014385913
-0.047536507 0.025356958 -0.03716216 0.011897001 -0.05375907 0.019073697 0.02385756 0.013179918
-0.07380258 0.003150519 0.013808835 0.0074086566 -0.00375022 0.072388545 0.076308966 0.1546275
0.022039209 -0.018541398 -0.02743895 0.010241866 0.08113941 -0.025676139 0.07145904 0.08236854
-0.1027678 0.022146042 -0.035017155 -0.07220808 -0.1019884 0.00015029626 0.09231898 0.011580718
-0.093639344 -0.07788919 -0.12070958 -0.025106424 -0.052458018 -0.03201267 0.03872438 0.044539914
-0.1584541 -0.08345043 -0.06613226 -0.024979612 -0.041494153 -0.039983854 0.0063172327 0.022191675
0.04985044 0.06595402 -0.032695528 0.056533698 0.08196605 0.100769706 0.0503525 0.005815147
-0.05134254 0.022016754 -0.049552523 -0.036337253 -0.009727034 0.019912139 0.03077925 -0.0027983396
-0.063353784 0.057200313 0.014786542 -0.0294817 0.05013244 0.016136855 0.06306649 0.03083006
-0.019549528 0.040822927 0.07570931 -0.033698753 0.082301326 0.041209128 -0.034345727 -0.09438219
-0.024416786 0.008655153 -0.037165236 0.008989784 0.017002381 0.056683425 -0.05279703 -0.10857545
-0.048680622 0.024141345 -0.0060880003 -0.06542272 0.026201768 0.028891832 -0.009544066 -0.09375757
-0.024544721 -0.06317281 -0.08839251 -0.03346547 -0.024440607 -0.07846058 -0.12795894 -0.026400412
0.0131945945 0.037597906 0.032912992 0.009313037 0.047098633 -0.028908346 0.021843778 -0.06102813
00000000: aa86 643d 1e5b 8ebd a266 cd3b b731 ceba
00000010: ff47 b1bc 8d8d 193d 5b50 fc3c c677 6ebd
00000020: 5f27 263d bcd9 76bd 472c f73c f56c 76bc
00000030: 2f8c 023d 4c79 05bd c217 b33c d3fe 2dbd
00000040: 3f51 ab3d 9eb9 1bbc 0d5c 82bc ca2a dd3c
00000050: 2961 a8bb c260 77bc a2a3 d7bc b4fb 1cba
00000060: 5053 023d 6d27 6ebd dacf cd3c a46a 04bd
00000070: 2d50 c43a 9652 f2bc 90ba 4b3c 79aa f4bc
00000080: f997 973d 8f82 9fbc 0277 37bd de8b 99bd
00000090: 86b2 e13c c0e5 823b f87a 05bd 8674 883c
000000a0: 1f9f 763d 47c2 66bc 16c8 94bd 61c0 b8bc
000000b0: b054 a93c 7fd0 973b 614d 85bb 6a59 41bd
000000c0: dcb8 0cbb d0c3 283d 3316 a1bc 290e e9bc
000000d0: 3a9a 7c3c bb78 47bc 476c 823b e615 3e3d
000000e0: dc29 633d a72d 89bd b6c0 cebb 1561 4bbd
000000f0: d5ab 3bbd 1d13 943d 0e5a 813c 39b6 38bd
00000100: 3229 823d 56dc 3e3e eb90 313e 3da3 193e
00000110: 5aa5 ea3d ce4d 3e3e 9ed4 1c3e 064a f73d
00000120: 31f5 cc3d 22ed 3a3e 2a4f 543e 05d5 2a3e
00000130: f84d 043e dd09 073e c7a2 393e f9ac 0b3e
00000140: 75ca 983d 5769 3d3e 1235 8c3e ed4e ed3d
00000150: 56f7 8c3d 9d81 0f3e 2f7c 883e 1950 363e
00000160: c6c3 223e d0ae 463e 3457 853e 4177 a23e
00000170: 53a3 1a3e 4b80 403e dfbe 323e 820c 263e
00000180: 147f 0b3e 54a5 0e3e 2d3a 8f3e 4131 983e
00000190: 0389 593e 33eb ee3d 0b2b 1d3d 5fed 2c3e
000001a0: 333e 183e ba3e 5d3e b59d 9d3e 17ea 893e
000001b0: 6b9e 5e3e 07fd 523e 38dd 003e 1d9d 063e
000001c0: 6bb8 bdbb 1985 3f3e 294e 623e 218b 7f3e
000001d0: 8b14 393e 9752 213e fabb 703e 5334 273e
000001e0: 1b21 663e 5bd1 6c3e 97bb 883e 116c 843e
000001f0: c777 9e3e 92a9 503e 5659 753e a757 873e
00000200: 60a7 853c 471c 94bd f73b 0dbd 77e0 69bd
00000210: b9db 7aba c4ca 94bd 3230 653c b82d 3d3c
00000220: 32b1 07bd 4263 83bd b159 41bd 31b5 d13b
00000230: 8554 09be 3fc0 6a3c b6bf 98bc 1d8f bc3a
00000240: a4b5 42bd 65b9 cf3c 5937 18bd a4eb 423c
00000250: 7832 5cbd 7140 9c3c ee70 c33c 95f0 573c
00000260: cf25 97bd f078 4e3b 743e 623c 51c4 f23b
00000270: 40c6 75bb 7240 943d e047 9c3d ac56 1e3e
00000280: 928b b43c 21e4 97bc a6c7 e0bc 80cd 273c
00000290: 6b2c a63d c456 d2bc 1e59 923d d6b0 a83d
000002a0: ed77 d2bd 9e6b b53c 266e 0fbd d4e1 93bd
000002b0: 4bdf d0bd d898 1d39 bc11 bd3d 0dbd 3d3c
000002c0: fcc5 bfbd 5e84 9fbd 9636 f7bd fdab cdbc
000002d0: 38de 56bd b81f 03bd 759d 1e3d 7c6f 363d
000002e0: cb41 22be 0fe8 aabd 5a70 87bd 0ba2 ccbc
000002f0: c6f5 29bd 1cc6 23bd ca00 cf3b 51cb b53c
00000300: fa2f 4c3d e712 873d bfeb 05bd e18f 673d
00000310: d1dd a73d 5960 ce3d 6c3e 4e3d fd8c be3b
00000320: 8e4c 52bd 7b5c b43c 96f7 4abd 5fd6 14bd
00000330: 235e 1fbc c81e a33c c424 fc3c 5964 37bb
00000340: a1bf 81bd e04a 6a3d 4143 723c 9b83 f1bc
00000350: ac57 4d3d 7031 843c 0129 813d 528f fc3c
00000360: 5526 a0bc f135 273d 7c0d 9b3d b407 0abd
00000370: 998d a83d e7ca 283d 1bae 0cbd 734b c1bd
00000380: b605 c8bc 58ce 0d3c 933a 18bd e349 133c
00000390: 9448 8b3c e12c 683d b341 58bd ce5c debd
000003a0: 5565 47bd 12c4 c53c d97d c7bb 59fc 85bd
000003b0: 17a5 d63c 90ae ec3c b75e 1cbc f803 c0bd
000003c0: 0312 c9bc bf60 81bd 2207 b5bd 1713 09bd
000003d0: ab37 c8bc f1af a0bd ab07 03be ad45 d8bc
000003e0: 242e 583c 4300 1a3d c6cf 063d b595 183c
000003f0: 7fea 403d 32d1 ecbc b9f1 b23c a2f8 79bd

network_body.observation_encoder.processors.1.conv_layers.0.bias f4 [16]
-0.000610328 0.010757143 0.0115445545 -0.017206123 0.018471774 0.005613757 0.0070937863 -0.004447378
-0.036112893 -0.012057551 -0.012407004 -0.008271243 -0.04604231 -0.006751377 0.001604495 -0.0025373087
00000000: 6bfe 1fba ba3e 303c 5f25 3d3c dbf3 8cbc
00000010: 1e52 973c 9bf3 b73b fe72 e83b 50bb 91bb
00000020: 1deb 13bd 098d 45bc bf46 4bbc 1c84 07bc
00000030: dc96 3cbd a83a ddbb eb4d d23a fa48 26bb

network_body.observation_encoder.processors.1.conv_layers.2.weight f4 [32, 16, 4, 4]
0.006509513 0.058039024 0.10869817 0.030230213 0.05504533 0.019920027 -0.030825023 -0.03345346
0.026805697 0.039933186 0.0063221306 0.03459819 0.106104195 -0.044350874 -0.0035038635 0.04700916
-0.046502955 0.028280988 0.035044316 -0.03818154 0.040077806 0.07330847 0.029495707 -0.04556449
0.101301886 -0.004853332 -0.112952024 -0.12651536 0.11268032 -0.031356517 -0.0050426545 0.06781654
0.055563074 -0.0018330109 0.031907994 -0.07099038 -0.00089584664 0.042321883 -0.008673307 -0.121670224
0.033442676 0.088734984 0.01773668 0.08358666 -0.04164325 -0.066592485 0.034543622 0.0078883935
-0.05474466 0.02554661 0.02556148 -0.02502889 0.14806212 0.03332135 -0.07226604 0.02263464
0.021555692 -0.005004427 -0.002833239 0.022903213 -0.013698357 -0.0053914497 0.10899968 -0.011747211
-0.06955163 0.008617499 0.04362134 -0.043398354 0.0013459587 0.017751513 -0.0064296466 0.030114077
0.12313173 0.013392503 -0.11642551 -0.034586046 -0.002900981 -0.014974836 -0.04356843 -0.0724459
-0.05680298 0.13953967 0.026329383 -0.027706616 0.113760985 0.13807765 0.033644054 -0.030364204
0.11123614 0.09262832 -0.059504 0.076917194 -0.0025238676 0.045832608 0.12236385 0.04194223
-0.021540537 -0.06496894 -0.026882974 -0.10918342 0.068641916 0.028462702 0.0019770067 -0.10666166
0.12080228 -0.024933247 0.00091059355 0.0064544617 0.02089281 0.035654485 0.08710789 0.015425708
-0.12268445 -0.1161518 0.0127881495 -0.029841708 -0.05591635 0.03268312 0.019621864 -0.012701653
0.0726909 -0.037661966 -0.053273473 0.028641695 0.04282394 -0.016233008 0.018133013 -0.058455836
-0.02241642 -0.06405215 -0.112428874 -0.120772466 0.049680587 -0.045880083 -0.037783004 -0.038260687
0.111200586 -0.1390019 -0.0982649 -0.12963599 0.051167607 0.007337985 0.006306553 0.008716766
-0.026290499 -0.036157 -0.119051725 -0.17368254 -0.06136933 -0.1516893 -0.031018576 -0.20160592
-0.0089159 -0.08142431 -0.09120529 -0.02547135 -0.04204104 -0.0714366 -0.010330586 -0.14559776
0.051258314 -0.0071569653 -0.13420925 -0.011171536 0.024216983 -0.020239392 -0.11262747 -0.067438595
0.07122124 0.0065507283 -0.051168304 -0.032988783 0.03531507 -0.016991673 -0.017654609 -0.087550364
-0.036019675 -0.051542047 -0.030794268 -0.07372259 -0.024684453 0.0007309809 -0.04108097 0.03392348
0.01680201 0.026734188 -0.07449349 0.0049343402 0.07978631 0.054982763 -0.0035141066 0.05815638
-0.05137825 0.019716905 -0.075002804 0.014970449 0.10082009 0.046196643 -0.12173966 -0.058588494
0.09744241 0.07023458 -0.045552403 -0.08187021 -0.042241905 -0.042206474 -0.110906675 0.017883416
0.053298723 -0.090504594 -0.061299626 -0.16280583 -0.110337436 -0.11518075 -0.058358442 -0.10750922
0.08999574 -0.0073108114 -0.07587058 0.023089113 -0.0822386 -0.07029268 0.0345208 -0.08971659
0.06060914 0.105072975 -0.0009509916 0.030546492 0.06691204 0.0009957245 -0.03108809 -0.113036275
0.1049481 -0.004024169 0.00065581116 0.037365526 0.039062254 -0.07070697 0.03930605 0.06866123
-0.031207073 0.11452769 0.09209717 -0.01414075 0.044015877 0.065030314 -0.102018684 -0.11022076
0.10007151 0.03111399 0.03034811 -0.03550116 -0.058959056 0.06240238 -0.019652482 0.024769157
00000000: c14d d53b 54ba 6d3d 259d de3d 5aa5 f73c
00000010: 3677 613d 532f a33c c284 fcbc 7f06 09bd
00000020: 9f97 db3c fb90 233d e029 cf3b d5b6 0d3d
00000030: 284d d93d 43a9 35bd 13a1 65bb ad8c 403d
00000040: e279 3ebd 88ad e73c a18a 0f3d 3f64 1cbd
00000050: a028 243d c022 963d fba0 f13c d5a1 3abd
00000060: 5d77 cf3d b308 9fbb 6453 e7bd 3e8d 01be
00000070: f1c4 e63d b16f 00bd da3c a5bb 66e3 8a3d
00000080: 1b96 633d a441 f0ba f5b1 023d 6863 91bd
00000090: 40d7 6aba b659 2d3d 7c1a 0ebc 3d2e f9bd
000000a0: 30fb 083d b0ba b53d 844c 913c 7c2f ab3d
000000b0: 1d92 2abd a461 88bd 9d7d 0d3d 523e 013c
000000c0: f03b 60bd 2047 d13c 4f66 d13c 6309 cdbc
000000d0: 999d 173e f87b 083d 3800 94bd 486c b93c
000000e0: 9095 b03c 2dfc a3bb ddad 39bb 859f bb3c
000000f0: 136f 60bc c2aa b0bb 393b df3d 6077 40bc
00000100: 1671 8ebd 6930 0d3c 4aac 323d 79c2 31bd
00000110: e16a b03a 9f6b 913c c9af d2bb ccb1 f63c
00000120: 7d2c fc3d 3b6c 5b3c 7f70 eebd 19aa 0dbd
00000130: 631e 3ebb 0459 75bc cf74 32bd 845e 94bd
00000140: 3eaa 68bd 7de3 0e3e b8b0 d73c fcf8 e2bc
00000150: 85fb e83d 3a64 0d3e 59ce 093d 5abe f8bc
00000160: c6cf e33d ebb3 bd3d 77ba 73bd c386 9d3d
00000170: 7967 25bb f9ba 3b3d e699 fa3d 9ecb 2b3d
00000180: c875 b0bc 700e 85bd af39 dcbc 8f9b dfbd
00000190: 2294 8c3d 9d2a e93c ab90 013b 6e71 dabd
000001a0: 3067 f73d cf40 ccbc e6b4 6e3a f37f d33b
000001b0: 6627 ab3c 700a 123d 9f65 b23d 1cbc 7c3c
000001c0: fc41 fbbd ffe0 edbd 6385 513c 9976 f4bc
000001d0: 8b08 65bd bcde 053d 08be a03c 981a 50bc
000001e0: f7de 943d 6f43 1abd 4935 5abd fda1 ea3c
000001f0: 2868 2f3d 16fb 84bc af8b 943c 636f 6fbd
00000200: a4a2 b7bc c62d 83bd 1c41 e6bd 8e57 f7bd
00000210: df7d 4b3d c1ec 3bbd 5ac2 1abd 3db7 1cbd
00000220: 22bd e33d 8456 0ebe 1c3f c9bd 4cbf 04be
00000230: 2095 513d 7b73 f03b 33a7 ce3b c4d0 0e3c
00000240: 2c5f d7bc 5d19 14bd 64d1 f3bd d6d9 31be
00000250: 685e 7bbd 7154 1bbe ab1a febc c871 4ebe
00000260: ff13 12bc cac1 a6bd d7c9 babd 4ba9 d0bc
00000270: 3a33 2cbd 5a4d 92bd 9e41 29bc 9417 15be
00000280: 3df4 513d fa84 eabb 266e 09be d108 37bc
00000290: b262 c63c 15cd a5bc 3ba9 e6bd 3f1d 8abd
000002a0: 71dc 913d 7ea7 d63b db95 51bd 3f1f 07bd
000002b0: 89a6 103d 1f32 8bbc 66a0 90bc 9b4d b3bd
000002c0: 5e89 13bd c11d 53bd 4344 fcbc dffb 96bd
000002d0: 0d37 cabc 4c9f 3f3a 8544 28bd 59f3 0a3d
000002e0: 5ea4 893c a801 db3c 0b90 98bd 3fb0 a13b
000002f0: 0167 a33d 9b35 613d ed4c 66bb 6235 6e3d
00000300: 0072 52bd 5985 a13c 129b 99bd 9d46 753c
00000310: c37a ce3d b138 3d3d a552 f9bd 7dfa 6fbd
00000320: e38f c73d 26d7 8f3d 2895 3abd 92ab a7bd
00000330: d905 2dbd b2e0 2cbd 0a23 e3bd 3e80 923c
00000340: c34f 5a3d 795a b9bd 5115 7bbd 92b6 26be
00000350: 98f8 e1bd e3e3 ebbd 4309 6fbd cb2d dcbd
00000360: b04f b83d 888f efbb 0962 9bbd 6125 bd3c
00000370: b66c a8bd 9cf5 8fbd af65 0d3d 55bd b7bd
00000380: 4a41 783d 8030 d73d f74b 79ba a33c fa3c
00000390: 2e09 893d f882 823a 73ac febc 907f e7bd
000003a0: 08ef d63d 2ddd 83bb beea 2b3a 980c 193d
000003b0: beff 1f3d d1ce 90bd 61ff 203d 429e 8c3d
000003c0: faa5 ffbc 7e8d ea3d 719d bc3d 9bae 67bc
000003d0: fe49 343d 9d2e 853d 2cef d0bd 6cbb e1bd
000003e0: 4bf2 cc3d c4e2 fe3c 999c f83c aa69 11bd
000003f0: 0d7f 71bd a399 7f3d 3efe a0bc b0e8 ca3c

network_body.observation_encoder.processors.1.conv_layers.2.bias f4 [32]
0.00481761 -0.0050507854 -0.012646272 -0.05189066 -0.07320549 -0.03918413 -0.022153236 -0.06619377
0.026875269 0.041653384 -0.023736903 0.034008745 -0.010847428 -0.00012300636 -0.025830954 -0.025679503
-0.0070959143 0.01406661 -0.007904514 -0.0024542278 -0.05295938 -0.034397237 -0.07878412 -0.021611167
0.09737168 0.026814336 -0.03991495 -0.005778727 -0.013021065 0.06974729 -0.034257352 0.04765828
00000000: 0bdd 9d3b 0f81 a5bb 4f32 4fbc 4d8b 54bd
00000010: c3ec 95bd 8a7f 20bd b47a b5bc 9990 87bd
00000020: 8629 dc3c bd9c 2a3d e573 c2bc c14c 0b3d
00000030: 69b9 31bc 45fb 00b9 709b d3bc d25d d2bc
00000040: d884 e8bb a377 663c ef81 01bc 1cd7 20bb
00000050: efeb 58bd 1ee4 0cbd 9259 a1bd e709 b1bc
00000060: ce6a c73d bda9 db3c dc7d 23bd 7a5b bdbb
00000070: 4e56 55bc abd7 8e3d 7051 0cbd 5435 433d

network_body.observation_encoder.processors.1.dense.0.weight f4 [64, 1152]
0.054142524 0.04221012 0.098037265 -0.035195224 0.0033072575 0.010957284 0.08863456 0.08671532
-0.039765913 -0.06438812 -0.0120408395 0.01292819 0.020990929 -0.0008450144 -0.15726358 0.009415163
-0.070884295 0.035050698 -0.03835907 0.087321185 -0.04904362 -0.008668655 0.0012427359 -0.03368874
0.0176409 0.099969 -0.074766666 0.12432045 0.059295435 0.03158757 -0.10717144 -0.010022857
-0.0236167 -0.0715841 0.094684854 -0.011730042 -0.04422762 -0.10327931 0.07181965 0.07516642
-0.029829409 0.021330789 0.03316568 -0.04534021 -0.0749325 -0.09299693 -0.02313353 -0.06800594
-0.009461622 -0.043886743 -0.069819055 0.0009320654 0.050039236 -0.009935569 -0.032930505 -0.085304104
-0.103811584 -0.09259861 -0.007984589 -0.031463638 0.030624049 -0.07603998 0.009673795 -0.016907804
-0.19991209 -0.013693992 -0.09009859 0.040444594 -0.073843166 -0.11795924 -0.14116125 0.0554286
0.07178476 -4.386967e-05 0.023416223 0.06954953 -0.106364824 0.009819642 0.13292821 -0.07628744
-0.081622116 0.06610812 -0.01085087 0.047486685 0.06417172 -0.1029492 0.0047454685 -0.1296652
-0.022654952 -0.07790622 0.053901 -0.017835556 -0.066468686 0.04896751 -0.11206308 -0.014746144
0.19031896 -0.13596873 0.14333417 0.093108304 -0.085664645 -0.015426854 -0.057134423 -0.060305405
-0.10473611 -0.06400576 -0.15613167 0.014308829 0.08330577 -0.011740599 0.044915993 -0.027612677
-0.12579161 -0.070162974 0.044690423 0.0016030817 -0.008011921 0.043144047 -0.038028862 0.00068617513
-0.009471341 -0.039634738 -0.092669144 0.03924808 -0.088856325 -0.0017306953 0.025932735 -0.031825617
0.0842062 0.04054186 0.009622761 0.017619472 0.12957998 -0.05952649 -0.0029189682 -0.029648378
-0.024626726 0.040632572 -0.06654575 -0.0612771 0.034371838 -0.029621856 -0.09468509 0.03740255
-0.0006594335 -0.086904764 0.08900841 0.12572207 -0.113095 0.040141765 0.04542102 0.013812427
0.092107505 0.01584673 -0.056862105 -0.088832915 0.030449787 0.045361 0.013877809 -0.08517365
-0.027983364 0.015667055 0.13743722 0.06545549 -0.10071037 -0.07497857 0.025602316 -0.028548842
-0.013650338 0.004961102 0.024407513 -0.03128606 0.13400112 -0.01936931 0.08631171 -0.046789233
0.014302981 -0.045622744 -0.0112761855 0.025435748 -0.003590241 0.0069649075 0.04290476 0.04889796
-0.114279315 0.01386223 -0.0017428485 0.027606023 -0.059639934 -0.019894684 0.0069155125 0.084729776
-0.13956386 -0.043923132 -0.078336656 0.09251688 -0.011216056 -0.0014934122 0.037378684 -0.055157345
0.049844425 -0.1558845 0.09980068 0.15678461 0.024429 0.10231338 -0.08885248 0.056424685
0.012112924 -0.11283069 -0.20700708 -0.024017423 -0.06027129 -0.108272046 -0.04008176 0.07160398
0.0013777696 0.020007513 0.0043362863 0.09944518 -0.087648295 -0.088441454 0.04848178 -0.023706144
-0.05031085 -0.017559282 -0.030639337 0.016699823 0.05323121 -0.026403604 -0.10319336 -0.12229237
-0.055209644 0.027324095 0.1261082 0.13826323 -0.00053195923 0.087840505 -0.067259066 -0.0058663003
-0.019650145 0.02254029 -0.083870605 0.003381199 0.03183608 0.010413307 0.041842055 0.010419308
0.028151296 -0.059257805 -0.053997207 -0.002625688 -0.009102651 0.08698436 -0.081979156 0.00753833
00000000: 8dc4 5d3d 85e4 2c3d c3c7 c83d de28 10bd
00000010: 93be 583b 2e86 333c 0986 b53d cd97 b13d
00000020: 95e1 22bd ebdd 83bd f146 45bc c2d0 533c
00000030: 2bf5 ab3c f583 5dba b409 21be 0e42 1a3c
00000040: c92b 91bd 5291 0f3d 661e 1dbd 73d5 b23d
00000050: f6e1 48bd f906 0ebc 4ce3 a23a 34fd 09bd
00000060: a683 903c 8cbc cc3d 441f 99bd b89b fe3d
00000070: c5df 723d f861 013d b37c dbbd e936 24bc
00000080: cf77 c1bc af9a 92bd 22ea c13d 5d2f 40bc
00000090: 0528 35bd 1a84 d3bd 2e16 933d daf0 993d
000000a0: ce5c f4bc e8bd ae3c bcd8 073d a8b6 39bd
000000b0: 3676 99bd 2d75 bebd 8782 bdbc b346 8bbd
000000c0: eb04 1bbc 96c2 33bd 4bfd 8ebd da55 743a
000000d0: f1f5 4c3d ccc8 22bc 23e2 06bd ebb3 aebd
000000e0: 2b9b d4bd 57a4 bdbd cbd1 02bc 04e0 00bd
000000f0: 49df fa3c d9ba 9bbd d67e 1e3c 3c82 8abc
00000100: c1b5 4cbe c45c 60bc 9c85 b8bd 3ba9 253d
00000110: 163b 97bd 9d94 f1bd 938c 10be 1a09 633d
00000120: e303 933d b300 38b8 61d3 bf3c fc6f 8e3d
00000130: cdd5 d9bd 90e2 203c 551e 083e 973c 9cbd
00000140: 7f29 a7bd b263 873d d9c7 31bc 6681 423d
00000150: 766c 833d 08d7 d2bd e07f 9b3b f4c6 04be
00000160: e196 b9bc 4c8d 9fbd 4cc7 5c3d df1b 92bc
00000170: bc20 88bd 2892 483d 5481 e5bd d099 71bc
00000180: f9e2 423e 633b 0bbe 31c6 123e 91af be3d
00000190: f270 afbd eac0 7cbc c905 6abd cd02 77bd
000001a0: e37f d6bd 7415 83bd fbe0 1fbe 946f 6a3c
000001b0: 379c aa3d a45b 40bc d5f9 373d fb33 e2bc
000001c0: 84cf 00be 9bb1 8fbd 4e0d 373d 7f1e d23a
000001d0: 6f44 03bc d0b7 303d 27c4 1bbd 6fe0 333a
000001e0: af2d 1bbc 0958 22bd 52c9 bdbd 98c2 203d
000001f0: 4efa b5bd 7fd8 e2ba e370 d43c 945b 02bd
00000200: 4d74 ac3d 390f 263d c9a8 1d3c b656 903c
00000210: 9db0 043e 0cd2 73bd 294c 3fbb 28e1 f2bc
00000220: fdbd c9bc 576e 263d 2349 88bd b2fd 7abd
00000230: 7cc9 0c3d 89a9 f2bc 42ea c1bd 6b33 193d
00000240: d5dd 2cba 20fb b1bd 0b4a b63d 49bd 003e
00000250: 5a9e e7bd b16b 243d 640b 3a3d 854d 623c
00000260: dca2 bc3d 00d1 813c 3de8 68bd 08ee b5bd
00000270: d571 f93c 75cc 393d c05f 633c 866f aebd
00000280: 5e3d e5bc 3258 803c 58bc 0c3e 870d 863d
00000290: 3d41 cebd 5d8e 99bd f3bb d13c 43df e9bc
000002a0: aba5 5fbc bd90 a23b 44f2 c73c d025 00bd
000002b0: 9737 093e 63ac 9ebc 32c4 b03d 11a6 3fbd
000002c0: 0d57 6a3c eade 3abd c0bf 38bc a15e d03c
000002d0: 404a 6bbb e139 e43b e7bc 2f3d 3a49 483d
000002e0: 460b eabd 681e 633c 4b70 e4ba 0726 e23c
000002f0: 0149 74bd 2dfa a2bc 869b e23b ce86 ad3d
00000300: d4e9 0ebe bee8 33bd f86e a0bd 7d79 bd3d
00000310: 8cc3 37bc 99be c3ba 641a 193d abec 61bd
00000320: ab29 4c3d 30a0 1fbe 4d64 cc3d 258c 203e
00000330: 541f c83c ad89 d13d 4af8 b5bd 921d 673d
00000340: 4975 463c c713 e7bd aaf9 53be 30c0 c4bc
00000350: 07df 76bd bcbd ddbd c62c 24bd 1ca5 923d
00000360: 4796 b43a cce6 a33c 6817 8e3b eaa9 cb3d
00000370: f380 b3bd cb20 b5bd d594 463d 6333 c2bc
00000380: c012 4ebd 7cd8 8fbc 59ff fabc 11ce 883c
00000390: f808 5a3d 5f4c d8bc 0a57 d3bd 6c74 fabd
000003a0: 8223 62bd c8d6 df3c 8222 013e e094 0d3e
000003b0: 2e73 0bba b9e5 b33d 1fbf 89bd 183a c0bb
000003c0: 57f9 a0bc 6aa6 b83c 5ac4 abbd 1b97 5d3b
000003d0: 8d66 023d 939c 2a3c 9362 2b3d bfb5 2a3c
000003e0: 8c9d e63c 50b8 72bd 2d2c 5dbd bc13 2cbb
000003f0: 4923 15bc db24 b23d b0e4 a7bd 1804 f73b

network_body.observation_encoder.processors.1.dense.0.bias f4 [64]
0.030105693 0.089871265 0.008061947 0.012677431 0.066380866 -0.045501817 0.020154892 0.013282537
0.012672901 0.022471929 0.024983054 0.040067222 0.035451893 0.065715104 0.048482426 0.041377634
-0.0030512083 -0.016246572 -0.001368728 -0.001984691 0.00205022 0.02202048 0.019525688 0.05466056
0.024389291 -0.008445865 0.032875113 0.01563875 0.023716431 0.02135648 0.041245174 0.041990373
0.038895532 -0.014654049 0.050031945 0.030685162 0.028717803 0.035032414 0.057363242 0.02625035
0.0028590928 0.033635207 0.013876906 8.921888e-05 0.016158728 0.03356039 0.022852898 0.026447276
0.043863256 0.03512236 0.006735504 0.00755718 0.023585428 0.025778243 0.020833973 0.021415902
0.016416917 0.006987878 0.028939808 0.00982083 0.059105463 0.027414933 0.056463066 0.013056721
00000000: 37a0 f63c 6d0e b83d 4216 043c 00b5 4f3c
00000010: b1f2 873d 1d60 3abd df1b a53c 009f 593c
00000020: 00a2 4f3c 0d17 b83c 43a9 cc3c 871d 243d
00000030: 0136 113d a495 863d 8295 463d 987b 293d
00000040: c8f6 47bb 8817 85bc e466 b3ba 9711 02bb
00000050: fc5c 063b 4b64 b43c 56f4 9f3c c0e3 5f3d
00000060: 0dcc c73c 8660 0abc 0ea8 063d d61c 803c
00000070: f648 c23c c9f3 ae3c b3f0 283d 19fe 2b3d
00000080: ec50 1f3d 8917 70bc 4cee 4c3d 735f fb3c
00000090: 9941 eb3c 267e 0f3d b8f5 6a3d f90a d73c
000000a0: 9e5f 3b3b 12c5 093d f65b 633c 051b bb38
000000b0: 4f5f 843c 9f76 093d 0036 bb3c f5a7 d83c
000000c0: f5a9 333d 77dc 0f3d 81b5 dc3b 38a2 f73b
000000d0: 3a36 c13c e52c d33c 02ac aa3c 6770 af3c
000000e0: c57c 863c 92fa e43b 2d13 ed3c 8ce7 203c
000000f0: 9218 723d 4895 e03c d145 673d dbeb 553c

network_body._body_endoder.seq_layers.0.weight f4 [64, 142]
-0.02412167 0.13704546 0.1451874 0.053380955 -0.009556846 0.078639604 0.06335494 0.017310804
-0.10731478 0.3226632 0.06660155 0.0428295 0.040584262 -0.040270787 0.06975486 0.27988365
0.028169505 0.010506017 -0.089177065 0.07596882 -0.12000162 0.36529848 0.0061219074 -0.018169032
-0.073952556 0.095875315 0.09214025 0.016372586 -0.11424514 0.05732968 0.096690044 -0.018003564
-0.10190959 0.038888004 0.095651075 -0.04101232 0.0205433 -0.04616659 -0.12763497 0.12993604
0.06880483 0.03815207 0.07049804 0.16860665 -0.046063516 0.061145164 0.052023783 -0.18722482
-0.011141247 -0.1858886 -0.060361486 -0.05578181 0.19681118 0.067049436 0.02366492 -0.020752829
-0.061454114 0.073686935 0.0115962 0.019204797 0.012564137 -0.064636394 -0.053742148 0.16100244
0.025981933 0.14924197 -0.08184136 0.17398421 -0.045776587 0.12967601 -0.012511393 0.16923039
0.020151285 0.03101914 0.10347776 -0.109274626 0.015943114 -0.12699404 0.21606272 -0.021618782
-0.09147243 0.025084274 -0.046303306 -0.041553006 0.06174747 -0.08751161 -0.024117474 -0.08145683
0.061728783 0.0040081535 0.0007967643 -0.04771611 -0.054759208 -0.044722654 -0.16457017 -0.117721
-0.2135408 -0.1586793 0.0046133604 0.12811118 0.0589685 0.008645568 0.036833297 0.055203162
-0.13127296 -0.16400473 0.027479785 0.17283739 0.051401485 0.0074941204 0.056416214 -0.12873249
-0.0010612116 0.063727334 -0.10843904 0.08565491 -0.24859682 0.10668693 0.078387745 0.057592176
-0.041090835 -0.14595993 -0.106601186 -0.08700845 0.016669588 -0.08672693 0.045242056 -0.06235267
0.07952393 -0.1408051 -0.006513839 0.07829663 -0.014637551 0.022320544 0.19224472 0.047053028
0.031167055 -0.08339817 -0.19948044 -0.15312827 0.05006761 -0.11353061 0.0109994095 -0.11452067
-0.09451833 -0.042919748 -0.027273456 -0.064022705 -0.009825903 0.039430946 -0.09184279 -0.12604246
-0.14152756 0.07550327 0.060163967 -0.042901706 -0.027748713 -0.17157342 -0.20683987 -0.14283948
-0.029589228 0.026425736 0.00077020255 0.03183632 -0.09476905 -0.042960215 0.051291235 -0.049330276
0.024282435 -0.14881189 0.09873965 -0.0073476215 0.15059039 -0.11849323 -0.002583955 0.05995808
0.07728636 -0.05441031 0.24578248 0.038345598 0.017960293 -0.04712757 -0.096364334 -0.12710337
0.07916678 0.03277858 0.010511541 0.053684946 0.0023038147 0.085613705 0.025667591 0.20769884
0.09320264 0.12803084 0.029511176 0.08704199 0.11388314 0.14347129 -0.07384279 -0.05750889
-0.0782037 0.054149956 0.14472334 -0.21017839 0.07476582 0.14575568 -0.051785976 0.14246431
0.10588614 -0.10829714 -0.10748877 0.056766767 0.1345335 -0.075485736 0.1339334 -0.015145159
0.060336653 -0.07119342 0.08898484 0.19396631 0.06253992 0.11201043 -0.018036801 0.038393255
-0.15804991 0.059877105 0.10648479 -0.021859135 -0.06740457 -0.09239613 0.10240271 0.0017836085
-0.021860465 -0.0042890636 -0.11133599 -0.09510315 -0.10480913 -0.104168825 0.034308534 0.06750711
0.16314743 -0.028747704 0.11784749 0.08824102 0.11859997 -0.097404346 0.2396453 -0.023311123
-0.06099636 -0.07485374 0.11866156 -0.16210222 -0.039907992 0.14212398 -0.08094236 -0.19817165
00000000: cf9a c5bc a555 0c3e 01ac 143e fda5 5a3d
00000010: 5194 1cbc cd0d a13d 3cc0 813d 63cf 8d3c
00000020: dac7 dbbd 1c34 a53e 6566 883d fc6d 2f3d
00000030: af3b 263d fbf2 24bd a3db 8e3d e94c 8f3e
00000040: bcc3 e63c 6e21 2c3c 77a2 b6bd 8a95 9b3d
00000050: 69c3 f5bd 6708 bb3e 489a c83b 39d7 94bc
00000060: 7074 97bd 475a c43d 07b4 bc3d cd1f 863c
00000070: 5bf9 e9bd 87d2 6a3d 6e05 c63d 367c 93bc
00000080: fab5 d0bd 0749 1f3d b6e4 c33d 89fc 27bd
00000090: 6c4a a83c 2e19 3dbd beb2 02be f40d 053e
000000a0: 8ce9 8c3d 5845 1c3d 4761 903d 39a7 2c3e
000000b0: 19ad 3cbd 5a73 7a3d e416 553d ddb7 3fbe
000000c0: c789 36bc 9559 3ebe 9b3d 77bd 787b 64bd
000000d0: df88 493e 3751 893d efdc c13c d601 aabc
000000e0: 4fb7 7bbd 2de9 963d fdfd 3d3c 6153 9d3c
000000f0: cfd9 4d3c 1660 84bd ba20 5cbd d3dd 243e
00000100: 10d8 d43c e3d2 183e 719c a7bd eb28 323e
00000110: 3b80 3bbd cac9 043e 96fc 4cbc bb4a 2d3e
00000120: 4f14 a53c da1b fe3c 26ec d33d 60cb dfbd
00000130: 229b 823c ba0a 02be 8c3f 5d3e df19 b1bc
00000140: e655 bbbd 897d cd3c 89a8 3dbd 7c33 2abd
00000150: eaea 7c3d 4939 b3bd 0292 c5bc d7d2 a6bd
00000160: 52d7 7c3d d456 833b f2dd 503a f871 43bd
00000170: 314b 60bd 1a2f 37bd 1585 28be b517 f1bd
00000180: 71aa 5abe d47c 22be ac2b 973b 942f 033e
00000190: f488 713d 24a6 0d3c 83de 163d b61c 623d
000001a0: 6b6c 06be dbf0 27be 491d e13c 49fc 303e
000001b0: 5d8a 523d 3d91 f53b b014 673d 73d2 03be
000001c0: 5a18 8bba 7a83 823d 4a15 debd d76b af3d
000001d0: 2a90 7ebe ad7e da3d c189 a03d c6e5 6b3d
000001e0: dd4e 28bd 8576 15be b951 dabd 7c31 b2bd
000001f0: a98e 883c e49d b1bd bc4f 393d 8365 7fbd
00000200: 71dd a23d 362f 10be 0b72 d5bb fc59 a03d
00000210: 57d2 6fbc 93d9 b63c cddb 443e adba 403d
00000220: 0d52 ff3c a9cc aabd 9a44 4cbe a8cd 1cbe
00000230: b213 4d3d bd82 e8bd de36 343c d089 eabd
00000240: d492 c1bd 9ecc 2fbd 956c dfbc 561e 83bd
00000250: d3fc 20bc 5882 213d 1318 bcbd 4611 01be
00000260: 9aec 10be 75a1 9a3d 7e6e 763d b3b9 2fbd
00000270: 4551 e3bc f1b0 2fbe d5cd 53be 8344 12be
00000280: 1c65 f2bc c97a d83c 6be7 493a cd66 023d
00000290: 4716 c2bd 0df7 2fbd c216 523d 8b0e 4abd
000002a0: f5eb c63c 2562 18be 0338 ca3d 51c4 f0bb
000002b0: 5e34 1a3e 94ac f2bd 9257 29bb 9b96 753d
000002c0: 5048 9e3d 58dd 5ebd 67ae 7b3e 4610 1d3d
000002d0: 7721 933c d708 41bd aa5a c5bd 6327 02be
000002e0: 3122 a23d d542 063d 9938 2c3c bfe4 5b3d
000002f0: 99fb 163b 3d56 af3d d744 d23c 01af 543e
00000300: 07e1 be3d 841a 033e 6cc1 f13c 1243 b23d
00000310: 903b e93d 23ea 123e e43a 97bd 718e 6bbd
00000320: 4329 a0bd 58cc 5d3d 5b32 143e 0139 57be
00000330: d21e 993d fa40 153e 881d 54bd 2ae2 113e
00000340: d5da d83d e4ca ddbd 1223 dcbd 4584 683d
00000350: 26c3 093e 4498 9abd d625 093e 6723 78bc
00000360: 9123 773d dbcd 91bd af3d b63d 1b9f 463e
00000370: ee14 803d b965 e53d eac1 93bc 3f42 1d3d
00000380: d6d7 21be b241 753d b314 da3d ee11 b3bc
00000390: 680b 8abd 2f3a bdbd 83b8 d13d f8c7 e93a
000003a0: b814 b3bc 468b 8cbb 2004 e4bd 71c5 c2bd
000003b0: 2ba6 d6bd 7756 d5bd 1b87 0c3d 2b41 8a3d
000003c0: 1f10 273e 4e80 ebbc 065a f13d b5b7 b43d
000003d0: 8be4 f23d ee7b c7bd 9465 753e f8f6 bebc
000003e0: 52d7 79bd eb4c 99bd d504 f33d 20fe 25be
000003f0: 9076 23bd f388 113e 1cc5 a5bd 82ed 4abe

network_body._body_endoder.seq_layers.0.bias f4 [64]
0.018411372 -0.021433463 0.0046182857 0.008935424 0.015481347 -0.0685435 -0.015987722 0.05623708
0.050720062 0.038889557 0.027238294 0.040612947 -0.0125403395 0.052971438 0.018717863 0.0056773466
0.03898546 0.055793 0.03186664 -0.0074097216 0.02146353 0.03630184 0.06165428 0.01590737
-0.035980493 -0.013095853 0.0013753824 -0.024481194 0.061447006 0.02544542 0.05834138 0.0307286
0.0043375283 0.017559571 -0.016387625 0.0362883 0.04119755 0.010513323 -0.05099592 0.010528556
0.039894167 0.042002518 -0.040595707 -0.0084872665 0.029078461 0.014034345 0.008568197 0.08698851
0.046363115 -0.013166813 0.00033977185 0.0236285 -0.008607825 -6.9748996e-05 -0.027458942 0.021530865
0.027101746 0.020012688 0.05048103 0.06283704 0.06341545 0.010769066 0.070401765 0.0676035
00000000: 72d3 963c 3b95 afbc fd54 973b e265 123c
00000010: 7aa5 7d3c 8960 8cbd aff8 82bc da58 663d
00000020: d7bf 4f3d a84a 1f3d d822 df3c c359 263d
00000030: ff75 4dbc 94f8 583d 3456 993c 0909 ba3b
00000040: 38af 1f3d 3387 643d 9886 023d 40cd f2bb
00000050: 49d4 af3c 3db1 143d 3389 7c3d 2c50 823c
00000060: 4860 13bd fd8f 56bc 2d46 b43a c98c c8bc
00000070: dbaf 7b3d ea72 d03c 5ff7 6e3d 8cba fb3c
00000080: d321 8e3b 17d9 8f3c 573f 86bc 0aa3 143d
00000090: c3be 283d 1340 2c3c 19e1 50bd f77f 2c3c
000000a0: 1168 233d d50a 2c3d af47 26bd 2d0e 0bbc
000000b0: f435 ee3c 4ff0 653c 9f61 0c3c 0827 b23d
000000c0: 40e7 3d3d 9eb9 57bc 6823 b239 8e90 c13c
000000d0: d607 0dbc 3546 92b8 93f1 e0bc 7f61 b03c
000000e0: 7b04 de3c a6f1 a33c 32c5 4e3d b5b0 803d
000000f0: f6df 813d bd70 303c cd2e 903d b473 8a3d

network_body._body_endoder.seq_layers.2.weight f4 [64, 64]
0.025828047 -0.12717137 0.14821336 0.110273406 -0.17402035 0.0445991 -0.14210309 -0.12623893
0.06413271 0.17607911 -0.017448703 0.2343154 -0.0603343 0.09993118 0.24928492 -0.016564138
0.014013935 0.05203141 -0.30391142 0.1084396 0.0017733817 0.10383261 -0.0061606257 0.14649585
-0.00443567 -0.1770616 -0.012292252 0.025141304 0.076694645 0.07835533 -0.1313185 -0.28538045
0.18039165 -0.00149645 -0.05237848 -0.103914134 -0.11783997 0.25197536 -0.03169104 -0.121156044
0.23769526 -0.05197273 -0.06868914 0.04138141 0.021339834 0.18682277 -0.1940721 -0.061983027
0.1127446 0.106576376 -0.08108902 0.27727103 -0.10239188 -0.08548859 0.030399801 -0.13276172
0.1059245 0.03146214 0.091263935 -0.08213645 0.13960695 0.04761733 0.16173196 0.10573716
-0.08853204 -0.07761227 0.09829697 0.026462816 -0.1567566 -0.11553621 -0.11870613 -0.115152694
-0.031999875 0.004674309 0.19313246 -0.058199912 -0.07914422 -0.035432097 0.10579194 0.03844139
-0.057103336 0.065243885 -0.3254175 0.10428416 0.09524659 0.21324296 -0.09238479 -0.28728992
-0.24694134 0.0890239 -0.07716666 -0.012731771 0.104298286 -0.20813723 0.098452926 0.03767646
0.11817273 -0.1742946 -0.11766625 -0.15037468 -0.30338174 0.257654 -0.00549799 0.09049077
0.24950616 0.038859308 -0.01243632 -0.08831711 0.09533454 0.050635297 -0.2234399 0.064076565
-0.07913613 -0.07686231 0.20120934 0.058030136 -0.41572607 -0.13324358 -0.07049287 0.11823213
0.095077865 -0.074298866 0.26586887 -0.11763893 -0.11979864 -0.12992744 0.21341386 0.30554286
-0.30459857 0.14046927 -0.018964808 -0.22741666 -0.3410539 -0.09269998 -0.05620865 0.20878159
-0.025319224 0.016408632 -0.34631604 0.0023812675 0.046532776 0.1511104 0.13436025 -0.12355247
-0.001972505 0.0745952 0.095049314 -0.010031475 0.07737965 0.122235164 -0.0531974 0.15707183
0.010385631 -0.18694842 -0.029923104 -0.21554796 0.2494271 0.054085426 0.018877966 -0.12555128
0.0020423701 -0.13196005 0.27515554 -0.16536242 0.005099137 0.0050324514 0.10268353 -0.057937287
0.07435695 0.29600212 -0.22211081 0.038507227 -0.20638756 -0.2617917 0.04800511 -0.19971974
0.030161582 -0.22410016 0.03924911 -0.040001918 -0.17671034 -0.27039045 -0.11255026 -0.095077574
-0.23814139 0.05019676 0.008388079 0.14030391 0.15874608 0.03906868 -0.15991642 -0.09305473
-0.2590247 0.097591594 -0.03190398 -0.037037935 0.010834415 -0.10042354 0.077491805 0.39358932
0.058487564 0.08499985 -0.037721373 -0.18535328 0.04440334 -0.11324453 -0.023801986 0.18954018
0.25834683 -0.00091390597 0.0311426 0.020715011 -0.04968469 0.23981819 -0.037856534 -0.17965262
-0.15399697 0.08468241 -0.10259221 0.18188438 -0.016206693 0.15048952 -0.2337507 0.22007143
-0.062358446 0.079205535 -0.08913978 -0.2750745 0.011993504 0.1426753 0.27204672 -0.071657725
0.21726243 -0.05229947 -0.089702085 0.015073596 -0.04701382 0.086915515 -0.41307297 0.17314231
-0.0008867107 0.21829084 0.11102266 0.19025378 0.15143453 -0.14495315 -0.1342838 -0.010881556
0.09117996 -0.14688528 -0.020155443 0.21743359 0.09040577 0.1715443 -0.14399564 0.014326039
00000000: 5795 d33c 3639 02be 3ec5 173e 06d7 e13d
00000010: 6432 32be 8cad 363d 7983 11be c744 01be
00000020: 0358 833d 154e 343e 95f0 8ebc 60f0 6f3e
00000030: 1921 77bd b8a8 cc3d 8c44 7f3e 84b1 87bc
00000040: b49a 653c e31e 553d 479a 9bbe 9515 de3d
00000050: d170 e83a 31a6 d43d 13df c9bb 0203 163e
00000060: 1959 91bb a34f 35be 7165 49bc 23f5 cd3c
00000070: 1512 9d3d c278 a03d 5b78 06be 631d 92be
00000080: 97b8 383e 8824 c4ba d18a 56bd efd0 d4bd
00000090: 1556 f1bd ea02 813e 77ce 01bd a920 f8bd
000000a0: 6366 733e 5be1 54bd e4ac 8cbd 8e7f 293d
000000b0: e0d0 ae3c 784e 3f3e d6ba 46be eae1 7dbd
000000c0: a4e6 e63d b744 da3d 0012 a6bd 78f6 8d3e
000000d0: d5b2 d1bd a414 afbd 0109 f93c b0f2 07be
000000e0: f2ee d83d 72de 003d 96e8 ba3d 2837 a8bd
000000f0: 20f5 0e3e 640a 433d 109d 253e b98c d83d
00000100: 4950 b5bd 2ff3 9ebd ec4f c93d 8cc8 d83c
00000110: cd84 20be 409e ecbd 331c f3bd 2dd5 ebbd
00000120: 4d12 03bd f22a 993b 84c4 453e 0863 6ebd
00000130: 5d16 a2bd 3f21 11bd 72a9 d83d b874 1d3d
00000140: 30e5 69bd 969e 853d 1f9d a6be ef92 d53d
00000150: a510 c33d 5d5c 5a3e 3d34 bdbd aa17 93be
00000160: 31de 7cbe 2a52 b63d 8e09 9ebd eb98 50bc
00000170: 579a d53d ed21 55be b0a1 c93d a252 1a3d
00000180: 8b04 f23d 497a 32be 01fb f0bd d2fb 19be
00000190: da54 9bbe 3aeb 833e 7c28 b4bb 3a53 b93d
000001a0: 8b7e 7f3e f02a 1f3d b5c1 4bbc 9adf b4bd
000001b0: c13e c33d f566 4f3d 6ecd 64be 933a 833d
000001c0: 2012 a2bd fd69 9dbd d209 4e3e 02b1 6d3d
000001d0: 0cda d4be 0171 08be 915e 90bd b023 f23d
000001e0: 2fb8 c23d 012a 98bd f71f 883e aeec f0bd
000001f0: fd58 f5bd b30b 05be 2a89 5a3e 1d70 9c3e
00000200: 58f4 9bbe 2dd7 0f3e 165c 9bbc eadf 68be
00000210: 9e9e aebe 7dd9 bdbd 0b3b 66bd d7ca 553e
00000220: 436a cfbc 656b 863c 5650 b1be 0a0f 1c3b
00000230: 2799 3e3d afbc 1a3e bc95 093e 1409 fdbd
00000240: 2445 01bb 5ec5 983d 37a9 c23d 0e5b 24bc
00000250: 3979 9e3d 6e56 fa3d 84e5 59bd 70d7 203e
00000260: 7e28 2a3c 686f 3fbe 4c21 f5bc 9bb8 5cbe
00000270: d169 7f3e ae88 5d3d f7a5 9a3c 8490 00be
00000280: 49d9 053b 8920 07be 30e1 8c3e c454 29be
00000290: a916 a73b 43e7 a43b be4b d23d a64f 6dbd
000002a0: 7548 983d 978d 973e 0471 63be c1b9 1d3d
000002b0: 4357 53be 9009 86be 02a1 443d 5583 4cbe
000002c0: 6c15 f73c 837a 65be adc3 203d 0dd9 23bd
000002d0: 8ef3 34be 9e70 8abe c080 e6bd 08b8 c2bd
000002e0: 56db 73be 1e9b 4d3d 276e 093c d4ab 0f3e
000002f0: 558e 223e 7b06 203d 21c1 23be 7a93 bebd
00000300: e39e 84be 1ade c73d bfad 02bd 17b5 17bd
00000310: d582 313c dbaa cdbd 06b4 9e3d 8a84 c93e
00000320: a890 6f3d 6714 ae3d ba81 1abd 40cd 3dbe
00000330: 47e0 353d c0ec e7bd 62fc c2bc d216 423e
00000340: 0946 843e 3193 6fba c41e ff3c 87b2 a93c
00000350: 2c82 4bbd e692 753e 740f 1bbd dbf6 37be
00000360: 62b1 1dbe f96d ad3d dd1b d2bd e63f 3a3e
00000370: e6c3 84bc ed19 1a3e 585c 6fbe 685a 613e
00000380: 926b 7fbd 8336 a23d eb8e b6bd 91d6 8cbe
00000390: 6780 443c 7919 123e b549 8b3e 49c1 92bd
000003a0: 0b7a 5e3e f837 56bd bab5 b7bd 3ef7 763c
000003b0: 9091 40bd c300 b23d 4d7e d3be 384c 313e
000003c0: 2672 68ba a287 5f3e d95f e33d e3d1 423e
000003d0: a711 1b3e 996e 14be b181 09be 8e48 32bc
000003e0: 8fbc ba3d 1869 16be 071d a5bc e9a6 5e3e
000003f0: a926 b93d 4fa9 2f3e 9873 13be c3b7 6a3c

network_body._body_endoder.seq_layers.2.bias f4 [64]
-0.025750557 0.07091183 0.06231331 0.04729445 -0.026090117 -0.031916026 0.006620567 0.047626007
0.056951914 0.038618665 0.029119385 0.039010238 0.10060433 0.0783536 -0.018212136 0.034461077
0.0805265 0.070466034 0.03926544 -0.009964389 0.069000274 0.048256673 0.03412328 -0.0060649514
-0.029016515 0.052136946 0.0122943185 0.046759184 0.010254424 0.042673647 0.06516784 0.0017319914
0.01088997 0.031840738 0.026027046 -0.06849169 0.012437317 0.017079908 0.063530415 0.09799337
0.07411202 0.03153553 0.030385401 0.038545005 0.066952474 0.06514138 0.0108088385 0.031867467
0.027145194 0.022241315 0.04524333 0.06777167 0.01065668 0.060848482 0.045887344 0.009091095
0.003142133 0.034130085 0.019959522 0.08212255 -0.086343065 -0.07078294 0.025103757 0.016339002
00000000: d5f2 d2bc 393a 913d 3e3c 7f3d d3b7 413d
00000010: f1ba d5bc 61ba 02bd 57f1 d83b 7d13 433d
00000020: 6946 693d 9b2e 1e3d c78b ee3c 33c9 1f3d
00000030: a509 ce3d da77 a03d 9e31 95bc 0f27 0d3d
00000040: 14eb a43d 7f50 903d ccd4 203d ad41 23bc
00000050: 0450 8d3d caa8 453d dac4 0b3d 80bc c6bb
00000060: 0bb4 edbc 8d8d 553d 1c6e 493c 8f86 3f3d
00000070: 2c02 283c 90ca 2e3d b776 853d fd03 e33a
00000080: d86b 323c 6f6b 023d ac36 d53c 5f45 8cbd
00000090: e3c5 4b3c 2aeb 8b3c 3c1c 823d bfb0 c83d
000000a0: 0bc8 973d 662b 013d ceea f83c 5ee1 1d3d
000000b0: 611e 893d d868 853d 8e17 313c 7687 023d
000000c0: 995f de3c 6b33 b63c 1251 393d e0cb 8a3d
000000d0: 5b99 2e3c 423c 793d 5ef4 3b3d d1f2 143c
000000e0: 3eec 4d3b fdcb 0b3d 2782 a33c de2f a83d
000000f0: a2d4 b0bd a5f6 90bd 65a6 cd3c 5fd9 853c

action_model._continuous_distribution.log_sigma f4 [1, 2]
0.10688017 0.09436022
00000000: fee3 da3d ee3f c13d

action_model._continuous_distribution.mu.weight f4 [2, 64]
-0.038796593 -0.097671025 0.011590999 0.077008024 0.0017885814 -0.0170396 -0.012494382 -0.054969355
0.13564488 0.039287258 0.044093043 -0.017093726 -0.027921543 -0.065249085 -0.03297989 -0.04548762
0.11291868 -0.0036440757 0.059167605 0.020482134 0.16821975 0.059176616 -0.056692246 -0.004342489
0.028730921 0.022256274 0.016244581 0.08447765 0.08131993 -0.07501836 0.12300606 0.050522476
-0.026160482 -0.04347292 0.067846045 -0.02895353 0.016090663 -0.011863298 0.03499151 -0.07134874
0.10242876 -0.11330287 -0.053951178 -0.09708719 -0.061412547 -0.10132428 -0.03713749 0.021537876
-0.0302393 0.015096025 -0.01265375 0.09257103 -0.003436863 -0.062002793 -0.067248814 -0.04972551
-0.034272857 0.020957457 0.0718972 0.13765258 0.056757145 -0.029443456 -0.024219109 -0.074472085
-0.02610573 0.0126509685 -0.0961489 0.10880974 0.03715022 -0.04626868 -0.07629395 0.07244244
-0.008426266 -0.04354301 -0.09100519 0.10348835 -0.13124958 -0.03410271 -0.01997297 0.004059826
0.035987258 0.12666048 -0.035811573 0.020858424 0.0037344953 -0.063569024 0.09777368 -0.033824954
0.025147386 -0.0730077 0.04194118 0.046356663 0.024765795 -0.023628289 0.049575415 0.01167142
-0.0037580265 0.039541904 -0.0397686 0.03850883 -0.0864528 0.0062477784 -0.023557207 0.1397996
-0.027239557 -0.045078292 -0.016267858 0.08356607 0.068410024 -0.03906241 -0.08246645 -0.05314862
0.039237715 -0.05947355 -0.120290466 0.05258865 0.03611921 0.13899006 0.025894731 -0.044472326
0.09460818 0.0997219 -0.0499822 0.10752664 -0.08697664 -0.015738452 -0.022950917 -0.03657278
00000000: 2de9 1ebd bf07 c8bd 2ce8 3d3c 62b6 9d3d
00000010: d56e ea3a a296 8bbc 3db5 4cbc 8c27 61bd
00000020: 7ee6 0a3e adeb 203d e89a 343d 2408 8cbc
00000030: b8bb e4bc 50a1 85bd ec15 07bd 3a51 3abd
00000040: e941 e73d 72d1 6ebb bb59 723d 26ca a73c
00000050: cc41 2c3e 2e63 723d 2136 68bd 704b 8ebb
00000060: 1c5d eb3c ca52 b63c 5b13 853c 9e02 ad3d
00000070: 108b a63d 3aa3 99bd 9aea fb3d a8f0 4e3d
00000080: 824e d6bc a910 32bd def2 8a3d f42f edbc
00000090: 91d0 833c 475e 42bc 4253 0f3d 4a1f 92bd
000000a0: 2bc6 d13d 560b e8bd e9fb 5cbd a6d5 c6bd
000000b0: b98b 7bbd 1b83 cfbd 7b1d 18bd 3370 b03c
000000c0: 69b8 f7bc 5155 773c ad51 4fbc e195 bd3d
000000d0: fe3c 61bb a4f6 7dbd bfb9 89bd faac 4bbd
000000e0: b261 0cbd f9ae ab3c d73e 933d ccf4 0c3e
000000f0: 2e7a 683d 6733 f1bc 2767 c6bc d284 98bd
00000100: afdb d5bc 0246 4f3c b7e9 c4bd a4d7 de3d
00000110: d42a 183d 3a84 3dbd 0140 9cbd b45c 943d
00000120: 520e 0abc 285a 32bd ee60 babd b3f1 d33d
00000130: 4a66 06be 49af 0bbd 5b9e a3bc 4a08 853b
00000140: 6067 133d 49b3 013e 28af 12bd 49df aa3c
00000150: 6fbe 743b 7a30 82bd 913d c83d 098c 0abd
00000160: e401 ce3c 1085 95bd 84ca 2b3d 7ce0 3d3d
00000170: a3e1 ca3c 1d90 c1bc 970f 4b3d 7c39 3f3c
00000180: 3949 76bb b1f6 213d 66e4 22bd 6fbb 1d3d
00000190: 2a0e b1bd 2aba cc3b 0bfb c0bc a027 0f3e
000001a0: 7e25 dfbc 04a4 38bd 2c44 85bc b024 ab3d
000001b0: 8e1a 8c3d e8ff 1fbd 2ce4 a8bd 5eb2 59bd
000001c0: bab7 203d 8a9a 73bd d95a f6bd 3267 573d
000001d0: bdf1 133d 6953 0e3e 3021 d43c 9d28 36bd
000001e0: efc1 c13d ff3a cc3d 23ba 4cbd ed36 dc3d
000001f0: cf20 b2bd eded 80bc 9003 bcbc 57cd 15bd

action_model._continuous_distribution.mu.bias f4 [2]
0.017357798 -0.0026515343
00000000: f131 8e3c 5dc5 2dbb

action_model._discrete_distribution.branches.0.weight f4 [3, 64]
0.014356909 0.057374455 -0.06088672 0.0027099855 -0.07345962 -0.035507172 0.058700737 0.025229752
0.060177337 -0.06959866 0.0027029105 0.0057062674 -0.018872209 -0.048880253 0.008018501 -0.009352961
0.03673493 -0.07671108 0.023486936 0.012043368 -0.06252483 -0.036449537 0.13592437 -0.051782146
-0.025321022 -0.011635558 0.038074385 -0.056567926 -0.01354973 0.028048603 0.07370661 -0.01938541
0.073940255 0.003530399 0.0285305 0.06883349 -0.016712453 -0.01619256 -0.07907548 -0.10827335
0.0081945425 0.05264297 -0.0027510577 0.00328199 0.0031596113 0.10192734 -0.06976196 -0.0038341316
0.019228376 0.038918722 0.013456506 0.017137438 0.019904254 -0.06195004 -0.025662767 -0.035459977
-0.048879113 -0.060156703 0.011996474 0.025673602 -0.029488917 -0.01679557 -0.063937716 0.023711115
-0.042087633 -0.03978824 0.11611614 -0.0121075725 0.020360887 -0.032003257 -0.10912259 -0.039602328
-0.08396845 0.08118276 0.004895239 0.012791936 0.1119689 0.097118236 0.05747719 -0.034787156
0.029486347 0.082136475 -0.13144696 -0.0050167316 -0.005888391 0.15321913 -0.1164565 0.00720094
0.07940776 0.11702837 0.013197739 0.14742447 0.02291667 -0.049608354 -0.006471928 -0.02390772
-0.008206662 -0.09777634 -0.03442496 -0.017652603 -0.2026501 0.043171782 0.08182079 0.04952342
0.02703224 -0.11731469 0.0072394195 -0.036856372 0.07234918 0.15114745 0.031247698 0.00876653
-0.067601115 -0.017372852 0.07744859 0.07402696 -0.020605838 -0.027238281 -0.02789593 0.05929097
0.1867439 0.050863355 -0.060693752 0.010838566 0.026109021 0.037658136 -0.00041622377 0.024790427
0.017516756 -0.042976137 6.6950506e-06 0.031049425 0.08357915 0.04414725 0.010727337 0.011715203
-0.0146327345 -0.0062924875 0.032671195 3.0786487e-05 -0.01959229 -0.047849827 -0.044602837 0.036859673
-0.091419354 -0.021454312 0.099901624 0.0053896075 0.08472433 -0.07009794 -0.026001323 0.01790468
-0.062080044 -0.07501547 -0.056666825 -0.09969848 -0.012902279 -0.012027998 -0.04840934 0.036006425
-0.08342925 0.07838778 0.0050627193 -0.028977381 0.20852256 -0.023571856 0.022215331 0.06959783
-0.013504899 0.08981804 -0.019165773 0.07820387 -0.07878654 -0.2769872 0.07488415 0.02030139
0.011983912 -0.020838534 -0.09252641 -0.10282969 0.004241067 0.112698756 0.0512421 0.01707266
-0.1593025 -0.00013937728 0.045664046 -0.005728735 0.042611174 0.024617657 0.06266293 -0.017850209
00000000: 3e39 6b3c 7a01 6b3d 5a64 79bd 039a 313b
00000010: ff71 96bd f86f 11bd 2f70 703d a0ae ce3c
00000020: 837c 763d be89 8ebd 5023 313b a4fb ba3b
00000030: e499 9abc a936 48bd 0860 033c 293d 19bc
00000040: 5e77 163d b31a 9dbd ad67 c03c 8c51 453c
00000050: 050d 80bd 1c4c 15bd c22f 0b3e 8419 54bd
00000060: 086e cfbc 11a3 3ebc e3f3 1b3d c5b3 67bd
00000070: b0ff 5dbc 2fc6 e53c 7ef3 963d 27ce 9ebc
00000080: fd6d 973d 445e 673b ccb8 e93c 93f8 8c3d
00000090: 8ee8 88bc 42a6 84bc 53f2 a1bd 6bbe ddbd
000000a0: 6742 063c 28a0 573d 174b 34bb a816 573b
000000b0: 7b11 4f3b 48bf d03d 5cdf 8ebd 0e46 7bbb
000000c0: d484 9d3c 3d69 1f3d ad78 5c3c d063 8c3c
000000d0: 3f0e a33c 53bf 7dbd b93a d2bc 7b3e 11bd
000000e0: 7735 48bd e066 76bd dc8c 443c 7251 d23c
000000f0: be92 f1bc dd96 89bc c7f1 82bd d03d c23c
00000100: 1564 2cbd fef8 22bd 4cce ed3d d75e 46bc
00000110: e0cb a63c d915 03bd aa7b dfbd 0d36 22bd
00000120: a7f7 abbd 2643 a63d 3e68 a03b 4595 513c
00000130: f34f e53d ede5 c63d 346d 6b3d fa7c 0ebd
00000140: 5a8d f13c 2b37 a83d 089a 06be 6563 a4bb
00000150: 67f3 c0bb 7ae5 1c3e bf80 eebd ddf5 eb3b
00000160: 89a0 a23d 92ac ef3d 543b 583c 71f6 163e
00000170: bebb bb3c 2132 4bbd 7812 d4bb 1fda c3bc
00000180: 3c75 06bc f63e c8bd 3001 0dbd 319c 90bc
00000190: 8283 4fbe e5d4 303d a991 a73d 12d9 4a3d
000001a0: b772 dd3c af42 f0bd a738 ed3b b5f6 16bd
000001b0: cf2b 943d 66c6 1a3e 2cfb ff3c 7ea1 0f3c
000001c0: 7472 8abd 8351 8ebc 5e9d 9e3d 729b 973d
000001d0: 93cd a8bc d122 dfbc 0186 e4bc 17db 723d
000001e0: cb39 3f3e 1856 503d 039a 78bd 3e94 313c
000001f0: 96e2 d53c 6b3f 1a3d 9c38 dab9 4b15 cb3c
00000200: 4d7f 8f3c bf07 30bd 0ca6 e036 5d5b fe3c
00000210: 8c2b ab3d bfd3 343d b6c1 2f3c 1ff1 3f3c
00000220: 23be 6fbc 3631 cebb 3bd2 053d bd20 0138
00000230: 0380 a0bc 2efe 43bd 77b1 36bd 2bfa 163d
00000240: 123a bbbd f4c0 afbc 3999 cc3d 4e9b b03b
00000250: f383 ad3d 828f 8fbd ba00 d5bc d6ac 923c
00000260: a547 7ebd b6a1 99bd 791b 68bd b72e ccbd
00000270: 1564 53bc 1511 45bc df48 46bd 797b 133d
00000280: f4dc aabd c689 a03d 2be5 a53b f961 edbc
00000290: f086 553e c419 c1bc edfc b53c 4f89 8e3d
000002a0: a743 5dbc 85f2 b73d 8a01 9dbc 5a29 a03d
000002b0: d65a a1bd 44d1 8dbe dc5c 993d 1a4f a63c
000002c0: 2c58 443c 93b5 aabc 7d7e bdbd 5f98 d2bd
000002d0: a6f8 8a3b 9bce e63d 3ce3 513d f7db 8b3c
000002e0: 3220 23be ce25 12b9 390a 3b3d 1db8 bbbb
000002f0: 0e89 2e3d f8aa c93c 6c55 803d 9a3a 92bc

action_model._discrete_distribution.branches.0.bias f4 [3]
0.032780424 -0.0025922253 -0.041976362
00000000: c444 063d 53e2 29bb 68ef 2bbd
