results/MLHades_main_11_grid32x32cellsize1x1/MLHades.onnx (onnx, 158122 bytes, 22 tensors)

discrete_action_output_shape f4 [1, 4]
0	0x40400000	3.0
1	0x40400000	3.0
2	0x40400000	3.0
3	0x40000000	2.0

network_body.observation_encoder.processors.1.conv_layers.0.weight f4 [16, 7, 8, 8]
0	0x3c5bb62c	0.013410132
1	0xbc90dae1	-0.017682495
2	0xbbf7c2f2	-0.007561081
3	0xbb3d7aaa	-0.0028912225
4	0xbc9e215d	-0.019303018
5	0x3d25bfe0	0.04046619
6	0x3cd3e40f	0.025865583
7	0xbd896c4b	-0.06710108
8	0xbc34b8cd	-0.011030388
9	0x3bf3a430	0.007435344
10	0x392c81b6	0.0001645152
11	0x3d98d08d	0.07461653
12	0x3da0236a	0.07819255
13	0x3ca289fd	0.019841189
14	0xbc68b415	-0.014203091
15	0xbdbb1c71	-0.09136284
16	0xbd2f96cc	-0.04286842
17	0x3d72f211	0.059312884
18	0x3d31ee11	0.04343993
19	0x3c920240	0.017823339
20	0x3d50d1e7	0.05098143
21	0x3c32d0c2	0.01091403
22	0xbafa5d99	-0.0019101381
23	0xbd76cbb0	-0.060252845
24	0x3d24232b	0.0400726
25	0x3d0009ba	0.031259276
26	0xbcd372db	-0.025811603
27	0xbd1c6fdf	-0.038192626
28	0x3cff2208	0.031144157
29	0xbc8f0458	-0.017458126
30	0x3cdab957	0.026699705
31	0x399da3ab	0.00030067316
32	0xbc848214	-0.016175307
33	0x3d261250	0.040544808
34	0xbd6cffee	-0.05786126
35	0x3bffb092	0.0078030312
36	0x3d1ccf28	0.038283497
37	0xb98b0064	-0.00026512437
38	0x3b88e4c1	0.00417766
39	0x3d9e091b	0.077165805
40	0xbc898c48	-0.016790524
41	0x3d4be61f	0.049780007
42	0xbd9cb6a8	-0.076520264
43	0x3c34eae3	0.0110423295
44	0x3cfac62f	0.03061208
45	0xbd1a3cea	-0.03765575
46	0x3c5ca12a	0.013466159
47	0xbb17e8d4	-0.0023179548
48	0x3c888930	0.016666979
49	0x3cc71be4	0.024305291
50	0xbdb3113b	-0.08743521
51	0xbdc9ec7f	-0.09859561
52	0x3c2bdce3	0.010489675
53	0xbc8d4426	-0.01724441
54	0x3c6b8886	0.014375811
55	0x3d077381	0.033069137
56	0x39faf014	0.00047862588
57	0xbdda5596	-0.106608555
58	0xbd94b1c1	-0.07260466
59	0xbd974a5d	-0.073872305
60	0x3c0851f9	0.008320325
61	0xbd0581f9	-0.032594655
62	0x3c66413e	0.014053641
63	0x3d5021e2	0.050813563
64	0x3db1d2c9	0.08682782
65	0x3e83a8e1	0.25714782
66	0x3e898d6f	0.26865718
67	0x3d49288f	0.049110945
68	0x3e81b3cb	0.25332484
69	0x3e8d1ef7	0.27562687
70	0x3dcb403b	0.0992436
71	0x3e5e04d1	0.21681525
72	0x3d678231	0.056520645
73	0x3e163e02	0.14672092
74	0x3e96bf8d	0.29443017
75	0x3dabc59f	0.083873026
76	0x3de4bda0	0.111689806
77	0x3e57bc1d	0.21067853
78	0x3d1340de	0.035950534
79	0x3e491f18	0.19640768
80	0xbdbdbe44	-0.09264806
81	0x3cc37d8e	0.02386358
82	0x3dcd023f	0.10010194
83	0x3debdc9c	0.11516687
84	0x3da0a342	0.07843639
85	0x3e3cc925	0.18436106
86	0x3da5a158	0.080874145
87	0x3e0e6399	0.13905181
88	0x3dd9089b	0.105973445
89	0x3d85c3d4	0.06531492
90	0x3e2136b7	0.15743528
91	0x3df100e0	0.11767745
92	0x3d0e93fc	0.034809098
93	0x3e76832c	0.24073476
94	0x3e10336b	0.14082114
95	0x3e280dac	0.16411465
96	0x3e4d04f1	0.20021416
97	0x3d917316	0.07102029
98	0x3d9bb0db	0.07602092
99	0x3e9b2133	0.30298766
100	0x3e54cd5a	0.2078146
101	0x3e8f52bf	0.27992818
102	0x3e6bf49b	0.23042528
103	0x3e265e7a	0.16246977
104	0x3e2fecad	0.17180128
105	0x3e0d0eb2	0.13775137
106	0x3e40ae9e	0.18816611
107	0x3e93404c	0.28759992
108	0x3ea28f89	0.31750134
109	0x3e805910	0.2506795
110	0x3e0017a0	0.12509012
111	0x3e56eadf	0.20988034
112	0x3e465934	0.19369966
113	0x3db53020	0.0884707
114	0x3e3566fb	0.17715065
115	0x3dfc4815	0.12318436
116	0x3d8fc3e2	0.070197836
117	0x3e6a90a3	0.22906737
118	0xbcf7c7d3	-0.03024665
119	0x3d2152eb	0.039385717
120	0x3e351487	0.17683612
121	0x3d069d8b	0.03286509
122	0x3dd833ec	0.10556778
123	0x3da4d63a	0.08048673
124	0x3d8ff6b3	0.07029476
125	0x3e4a1b5a	0.19736996
126	0x3db995c1	0.090617664
127	0x3ce49fe2	0.02790827
128	0x3ca0cea6	0.019629788
129	0xbd3e0307	-0.046389606
130	0x38ead400	0.000111974776
131	0xbdbccbaa	-0.09218533
132	0xbcc1a405	-0.02363778
133	0x3d5862e1	0.052828673
134	0x3d63f47e	0.055653088
135	0xbd5a44b1	-0.053288165
136	0xbd2def7d	-0.042464722
137	0xbd8607cd	-0.06544457
138	0xbc3b65d6	-0.011437854
139	0x3c275baf	0.01021473
140	0xbdf7b6fe	-0.1209545
141	0xbcbd9967	-0.023144437
142	0x3cb1f215	0.021721879
143	0xbde83499	-0.11338157
144	0x3c9bcbb5	0.019018034
145	0xba1db4a2	-0.0006015991
146	0xbcb3bc4a	-0.02194037
147	0xbd81c64f	-0.063366525
148	0xbda35bc8	-0.0797649
149	0xbdc0fc74	-0.094231516
150	0xbc13a88d	-0.009012354
151	0x3cbeaece	0.023276713
152	0x3da33a01	0.07970048
153	0xbc8bd7a2	-0.017070595
154	0x3dc781d8	0.097415626
155	0x3c8cbced	0.01717993
156	0x3d46fde7	0.048581984
157	0xbd4acb83	-0.04951049
158	0x3deb2c5c	0.1148307
159	0x3ca64ee3	0.020301288
160	0x3e034fb3	0.12823372
161	0xbc9e3e12	-0.019316707
162	0x3dec1b35	0.11528627
163	0x3d8b81eb	0.06811889
164	0x3dd0880e	0.101822
165	0x3d5fd9b3	0.054650974
166	0x3d5fa1d4	0.05459769
167	0x3d0fd3ee	0.03511422
168	0x3d15157c	0.036397442
169	0xba3ec3d7	-0.0007277107
170	0x3d03f384	0.032214656
171	0x3d949047	0.07254081
172	0x3c944a1d	0.018101746
173	0xbda5c910	-0.0809499
174	0xbd1cb79e	-0.03826105
175	0x3bdb7f60	0.006698534
176	0x3cbf1bec	0.023328744
177	0xbd5faf2f	-0.054610427
178	0x3b7ea489	0.0038855395
179	0x3b9e6abc	0.004834501
180	0x3c91eac5	0.017812142
181	0x3d0f55e8	0.034994036
182	0xbd0d12be	-0.034441702
183	0x3dc3834b	0.095465265
184	0x3d277327	0.040881302
185	0xbdd4a48e	-0.10382949
186	0xbdb481fe	-0.088138565
187	0x3b20ca18	0.002453452
188	0xbd903cd6	-0.070428535
189	0xbd663299	-0.056200597
190	0xbe017ea5	-0.12645967
191	0xbc53091a	-0.012880588
192	0xbce900ef	-0.028442828
193	0xba46c3af	-0.000758226
194	0x3d187e32	0.037229724
195	0xbd4e89cf	-0.050424393
196	0x3a9aa9e6	0.0011799901
197	0xbca67ddd	-0.020323688
198	0xbc346c77	-0.011012188
199	0xbd301e4e	-0.04299765
200	0xbc5872fe	-0.01321101
201	0x3d31fac7	0.04345205
202	0xbd89de87	-0.06731897
203	0xbd97a9e8	-0.07405454
204	0x3cee7524	0.029108591
205	0x3dbee652	0.09321274
206	0xbd4e33d0	-0.05034238
207	0xbdfd6577	-0.123728685
208	0x3dbb2027	0.09136992
209	0x3b8d805b	0.0043182797
210	0xbd5d6237	-0.054048743
211	0xbcf197a5	-0.029491255
212	0x3d64b907	0.05584052
213	0x3d242f58	0.040084213
214	0xba64acfa	-0.0008723285
215	0xbdb399e8	-0.0876959
216	0x3c8cd479	0.017191159
217	0xbd7845b0	-0.060613334
218	0xbe12388e	-0.14279386
219	0xbd383e53	-0.044981312
220	0xbd1103f0	-0.035404146
221	0xbc228d22	-0.009921344
222	0x3d819d58	0.06328839
223	0xbd6a6cf5	-0.057232816
224	0x3b861fa1	0.004093126
225	0x3bce2c77	0.0062919217
226	0x3aac2fef	0.0013136844
227	0x3d7bc062	0.061462767
228	0xbcb76c26	-0.022390436
229	0xbd479dbc	-0.04873441
230	0x3d4ceb6e	0.05002921
231	0xbcf5b84c	-0.029995106
232	0xbdcdfede	-0.10058378
233	0xbd822ff0	-0.063567996
234	0xbd664f32	-0.05622787
235	0x3d6655bd	0.05623411
236	0x3dd25c3e	0.102715
237	0x3d93edc1	0.07223082
238	0x3cec7979	0.028866516
239	0xbe1a6756	-0.15078482
240	0x3bee5cfb	0.0072742677
241	0x3daff9c5	0.08592562
242	0xbd2fdbc1	-0.042934183
243	0x3c7b2850	0.0153294355
244	0x3d2d2330	0.042269886
245	0xbb25a1bf	-0.002527341
246	0x3d19d6a2	0.037558205
247	0xbd7fc287	-0.062441375
248	0xbc6016f8	-0.013677351
249	0xbbc046cf	-0.005867816
250	0x3c0174bc	0.007901367
251	0x3d1dbdd4	0.038511112
252	0xbd10184f	-0.035179432
253	0x3cfbb3b7	0.030725343
254	0x3da84b7b	0.08217522
255	0x3cda4206	0.02664281

network_body.observation_encoder.processors.1.conv_layers.0.bias f4 [16]
0	0x3c6c74a1	0.014432103
1	0xbcd0105f	-0.025398431
2	0x3c78d057	0.015186391
3	0xbc9c4e6d	-0.019080365
4	0x3d484176	0.048890553
5	0xbc97410d	-0.018463636
6	0xbccef311	-0.025262387
7	0xbb4a52eb	-0.0030872177
8	0xbc4df99c	-0.012571719
9	0xbc4ff3d8	-0.012692414
10	0xbd061953	-0.032738995
11	0xbce00496	-0.027345937
12	0xbd31300d	-0.043258715
13	0x3cddff49	0.027099269
14	0xbcb4c474	-0.022066332
15	0xbc1c062f	-0.009522959

network_body.observation_encoder.processors.1.conv_layers.2.weight f4 [32, 16, 4, 4]
0	0xbd074fb2	-0.033034988
1	0x3cb39913	0.021923577
2	0x3db1d976	0.086840555
3	0x3d586330	0.052828968
4	0xbd9fc146	-0.07800536
5	0x3d856119	0.065126605
6	0x3bdef047	0.0068035456
7	0x3d08652f	0.03329962
8	0x3d689bfc	0.056789383
9	0x3cde3a65	0.027127454
10	0x3d947933	0.072496794
11	0x3cf839ad	0.03030094
12	0xbd12b2cf	-0.035815056
13	0x3c3b8f93	0.011447805
14	0x3dd7b40d	0.10532389
15	0x3e65b878	0.2243365
16	0x3dc0e2c4	0.09418252
17	0x39a2e7ae	0.00031071663
18	0x3e309080	0.17242622
19	0xbcbd5790	-0.023113042
20	0x3c8d5354	0.017251648
21	0xbd694057	-0.056946125
22	0x3a622c96	0.00086278596
23	0x3de43ffe	0.11145018
24	0xbe0e2ec1	-0.13885023
25	0xbd499565	-0.04921474
26	0x3ced00a1	0.028930964
27	0x3aed959b	0.0018126251
28	0xbd6c3b4e	-0.057673745
29	0x3c30a32b	0.01078109
30	0x3da16199	0.078799434
31	0xbd1cd97a	-0.03829334
32	0xbcd0030a	-0.025392074
33	0x3de14ec5	0.11001352
34	0x3d0030f7	0.031296697
35	0x3d136cf5	0.03599258
36	0x3d1e512c	0.03865163
37	0x3b624fe8	0.003453249
38	0xbbd71192	-0.006563374
39	0xbcb99ef0	-0.022658795
40	0x3c5aa239	0.013344341
41	0x3cc50541	0.024050357
42	0xbd0b6875	-0.034035165
43	0xbde81fe1	-0.113342054
44	0xbd26ab9b	-0.040691
45	0xbdfe7b4c	-0.12425861
46	0xbd44c8b6	-0.048042975
47	0x3db90065	0.090332784
48	0x3dba9b41	0.091116436
49	0x3d93cfec	0.07217392
50	0xbc91413f	-0.017731307
51	0x3caa5a0b	0.020794889
52	0x3d7ecfa4	0.06220974
53	0x3d9f90d4	0.07791296
54	0x3e1ef832	0.15524366
55	0x3e0cd462	0.13752893
56	0xbbc351c5	-0.0059606754
57	0x3e1203b5	0.14259227
58	0x3b8d3631	0.0043094386
59	0x3e2228d2	0.15835884
60	0x3dceb4aa	0.10093053
61	0x3d0dd938	0.034630984
62	0xbd15ae5c	-0.036543235
63	0x3e2fc122	0.17163518
64	0xbd4ced80	-0.050031185
65	0x3dd314ba	0.10306688
66	0xbccbb964	-0.024868675
67	0x3d21d542	0.03951002
68	0xbbb1f5a3	-0.0054308935
69	0x3b9277dd	0.004469855
70	0x3ddd4623	0.10804393
71	0xbd6021e3	-0.054719817
72	0xbdc97d0b	-0.09838303
73	0x3dde33e1	0.10849739
74	0x3d4c3821	0.049858216
75	0x3d8b6ce4	0.068078786
76	0x3cde6ba6	0.02715094
77	0x3db48315	0.088140644
78	0xbce3f6ac	-0.027827583
79	0x3d989fe9	0.074523754
80	0xbc242e10	-0.010020748
81	0xbd3e59d6	-0.046472393
82	0x3d0351e0	0.032060504
83	0x3c84a065	0.016189763
84	0xbc8ebc4e	-0.017423775
85	0xbd9f1cd8	-0.077691734
86	0xbcedc221	-0.029023232
87	0x3de100b3	0.109864615
88	0xbd209207	-0.039201763
89	0xbd81eb9e	-0.063437685
90	0xbe1fd4ed	-0.15608568
91	0x3d94cd0f	0.07265674
92	0x3d2720bf	0.040802713
93	0xbd26249f	-0.04056227
94	0xbc8bd1e7	-0.017067863
95	0x3e01e810	0.12686181
96	0xbd32e33e	-0.043673746
97	0xbde52232	-0.11188163
98	0x3dcfaea0	0.10140729
99	0xbdcab9ea	-0.098987415
100	0x3de7ec68	0.11324388
101	0xbdcf9600	-0.10136032
102	0xbc2efbbb	-0.010680134
103	0xbe2425c7	-0.16030036
104	0x3cbc92a1	0.023019137
105	0x3cb9823d	0.02264511
106	0x3caa07c7	0.020755662
107	0xbda52a26	-0.0806468
108	0xbdc49f2d	-0.09600673
109	0xbd427939	-0.04747889
110	0x3d9612f7	0.07327836
111	0xbd07fd91	-0.033200804
112	0x3d9a1b76	0.07524769
113	0x3dab51d8	0.0836522
114	0x3c3d8bba	0.011568958
115	0x3c511ccc	0.012763213
116	0x3dbb501c	0.09146139
117	0x3e293c97	0.1652702
118	0x3dedf01c	0.11618063
119	0x3dd200c6	0.10254054
120	0xbd25efad	-0.040511776
121	0x3da7ea41	0.08198977
122	0x3e498c5f	0.19682454
123	0x3e173e7b	0.14769928
124	0x3d74cbd2	0.05976469
125	0x3e048238	0.129403
126	0x3dfae738	0.12251133
127	0x3e608b20	0.21928072
128	0x3d136fec	0.03599541
129	0x3d9eb2dd	0.07748959
130	0x3de731a1	0.11288763
131	0x3db9fb9e	0.09081195
132	0xbda111b5	-0.078647055
133	0x3cc4536e	0.023965564
134	0x3cc94d0d	0.024572873
135	0x3dcc4ee7	0.09975987
136	0x3cf1066c	0.029422008
137	0x3d128152	0.03576786
138	0x3dfc4ff0	0.12319934
139	0x3de34643	0.11097386
140	0x3d9eea64	0.0775955
141	0x3d328b5e	0.043589942
142	0x3e153379	0.14570417
143	0x3e428309	0.18995298
144	0xbc8687ff	-0.01642227
145	0xbcb12d0d	-0.021627927
146	0x3c46f508	0.012143381
147	0xbc53a1fd	-0.012917039
148	0xbcebae6f	-0.0287697
149	0xbcc5afe5	-0.024131725
150	0x3d9288e1	0.07155014
151	0xbdd2c04b	-0.10290583
152	0xbd9800b2	-0.074220076
153	0x3de0ed83	0.10982802
154	0xbaa35dbe	-0.001246385
155	0x3e208a03	0.15677647
156	0x3db7081e	0.08937095
157	0x393f33ed	0.00018234523
158	0x3c6892b6	0.014195135
159	0x3e06a8aa	0.13150278
160	0x3d6d8669	0.05798951
161	0x3cfe667e	0.031054731
162	0xbd589e96	-0.052885614
163	0x3bca64c7	0.0061765644
164	0xbc7cdfeb	-0.015434246
165	0x3d5451f3	0.051835965
166	0xbe17ae1e	-0.14812514
167	0x3d888193	0.06665339
168	0xbcfd5c4f	-0.030927805
169	0xbde4e3bd	-0.1117625
170	0x3d151613	0.036398005
171	0xbceeb706	-0.029140007
172	0x3cb74588	0.022372022
173	0x3daa6e61	0.08321834
174	0x3d874806	0.06605534
175	0xbd4fe26e	-0.05075305
176	0xbd579709	-0.052634273
177	0x3d5e0ee8	0.054213434
178	0xbc8b809d	-0.017029101
179	0xbb1657eb	-0.0022940587
180	0x3caeb101	0.021324636
181	0x3d1b155e	0.037862174
182	0x3d85b890	0.06529343
183	0x3e1597b8	0.14608657
184	0xbd3d9ccb	-0.046292108
185	0xbd5658e7	-0.052330878
186	0x3cf5fe9f	0.03002864
187	0x3d5edf6f	0.0544123
188	0x3d3a5872	0.045494504
189	0xbdc7eabe	-0.097615704
190	0xbc1cad9f	-0.009562879
191	0x3d78b6f8	0.060721368
192	0x3e4af50c	0.1982004
193	0x3d642422	0.05569852
194	0x3da3a566	0.079905316
195	0x3db65277	0.08902448
196	0x3e0e2a42	0.13883308
197	0xbd833caf	-0.06408059
198	0x3d816a4c	0.06319103
199	0x3d2ef499	0.042713735
200	0x3d24fcb3	0.040280055
201	0xbd003dc5	-0.031308908
202	0x3da4cb9f	0.0804665
203	0xbdb99678	-0.09061903
204	0xbd5e6696	-0.054297052
205	0x3dd1eb32	0.10249938
206	0x3ce50d35	0.0279604
207	0x3c07b1b4	0.008282114
208	0xbc1985bd	-0.009370265
209	0x3da66a5f	0.081257574
210	0x3cccc4ad	0.024996126
211	0xbd5f8c05	-0.054576892
212	0xbdb53a9b	-0.08849069
213	0xbc159576	-0.009129873
214	0x3e222e4f	0.15837978
215	0xbd7ccce2	-0.06171883
216	0xbdbf4256	-0.093388245
217	0x3e00b093	0.12567358
218	0x3ce851ce	0.02835932
219	0x3c602221	0.013680012
220	0x3e265922	0.16244939
221	0x3cfd4221	0.030915322
222	0x3dcc5b1a	0.09978314
223	0x3e7386c4	0.23781878
224	0x3d1b7e09	0.037961993
225	0x3e00e382	0.12586787
226	0x3d3ddfe9	0.046356115
227	0xbce0773e	-0.02740061
228	0x3da8c41c	0.0824053
229	0x3d8af642	0.06785251
230	0x3dbd9d6d	0.09258542
231	0xbc237370	-0.009976253
232	0x3a91042f	0.0011063869
233	0xbb2e186f	-0.0026564857
234	0x3d2e7b47	0.042598035
235	0x3c79d2bb	0.015247996
236	0x3d1ccdfc	0.03828238
237	0xbc966a61	-0.018361272
238	0x3c35eb00	0.011103392
239	0x3e05cd4d	0.13066597
240	0xbd5ab0a5	-0.053391118
241	0xbcf2ee8c	-0.029654764
242	0xbdc87219	-0.097873874
243	0xbe190e83	-0.14946942
244	0x3c60e18e	0.013725651
245	0xbdb677f2	-0.089095965
246	0xbe10d7d6	-0.14144835
247	0xbd31e09d	-0.0434271
248	0x3ca884c9	0.02057113
249	0xbd3d0624	-0.046148434
250	0xbc9207fd	-0.017826075
251	0x3d2624bc	0.040562376
252	0xbd6404ae	-0.055668525
253	0xbcecce4a	-0.02890696
254	0xbcfa0cc2	-0.030523662
255	0xbd3aeace	-0.045634083

network_body.observation_encoder.processors.1.conv_layers.2.bias f4 [32]
0	0xbae8ef5a	-0.0017771528
1	0x3d1ed18c	0.03877406
2	0x3c864146	0.016388547
3	0xbd06ce3f	-0.032911535
4	0x3c3266aa	0.010888735
5	0x3df0ab12	0.11751379
6	0x3c0aad66	0.008464193
7	0x3d96eb3a	0.07369085
8	0xbd35bc6f	-0.044369157
9	0x3d43a35d	0.047763217
10	0x3ca657d6	0.020305555
11	0x3c1a44d8	0.009415828
12	0x3cbe6cbf	0.023245214
13	0x3cd2fafe	0.025754448
14	0xbbefa49f	-0.0073133255
15	0x3c0142cb	0.00788946
16	0xbceaf935	-0.028683284
17	0x3d4fde89	0.050749335
18	0x3c86d7b0	0.01646027
19	0xbdbac7a1	-0.091201074
20	0xbcc7c3b9	-0.02438532
21	0xbc0df5da	-0.008664573
22	0xbd97d039	-0.07412762
23	0xbd334d5d	-0.04377495
24	0xbcd0baee	-0.02547976
25	0x3ddea5a9	0.10871441
26	0x3d23bc1c	0.039974317
27	0x3b5d9243	0.0033809103
28	0x3d69afda	0.05705247
29	0xbd601c86	-0.054714702
30	0xbd3b0723	-0.045661103
31	0xbd77e779	-0.060523484

network_body.observation_encoder.processors.1.dense.0.weight f4 [64, 128]
0	0xbd6d4ee2	-0.057936557
1	0xbdd81477	-0.10550778
2	0x3e168942	0.14700797
3	0x3e162abc	0.1466474
4	0x3df56aba	0.11983247
5	0xbdd7f357	-0.1054446
6	0xbdb86507	-0.090036444
7	0x3e8865a0	0.26640034
8	0x3d735880	0.059410572
9	0x3e933e90	0.2875867
10	0xbde0c4a7	-0.109750085
11	0x3e6bdb9a	0.2303299
12	0x3d6fc674	0.05853887
13	0x3d37f6cd	0.044913102
14	0x3da7d23a	0.081943944
15	0xbdfd71a5	-0.123751916
16	0xbe6eef3b	-0.23333447
17	0x3e165195	0.14679559
18	0xbd9dd2b3	-0.07706203
19	0xbdf4a336	-0.119451925
20	0x3da175fd	0.078838326
21	0x3dd595a4	0.10428932
22	0xbdbc0525	-0.09180669
23	0x3d438263	0.04773177
24	0xbd2e1916	-0.042504393
25	0xbd563ea5	-0.052305836
26	0x3edbbbb5	0.42916647
27	0x3e61f582	0.2206631
28	0xbd93b994	-0.072131306
29	0x3e09eb35	0.1346863
30	0x3c0667ad	0.008203429
31	0x3e555172	0.2083185
32	0xbd45e0c3	-0.048310053
33	0x3db163c6	0.086616084
34	0xbd40efd6	-0.047103725
35	0x3e128224	0.14307457
36	0xbe78ad57	-0.24284874
37	0xbde3d700	-0.11124992
38	0x3be955c1	0.0071208184
39	0x3de69826	0.11259489
40	0xbd8b2bbf	-0.06795453
41	0xbdf0e344	-0.117620975
42	0xbdce4a21	-0.10072733
43	0x3d9085b9	0.070567556
44	0xbe6ed81b	-0.23324625
45	0xbdfc79fb	-0.123279534
46	0x3db595f9	0.08866496
47	0x3df01a59	0.117237754
48	0x3e2388fc	0.15970224
49	0xbd27444c	-0.040836617
50	0xbe655026	-0.22393855
51	0x3e4572d5	0.19282086
52	0x3d82e217	0.063907795
53	0xbe044735	-0.12917788
54	0xbe159536	-0.146077
55	0x3cd40a9e	0.025883969
56	0xbdd7dea9	-0.10540516
57	0x3e03e4d9	0.12880267
58	0xbe8326a1	-0.2561541
59	0x3d3d4a47	0.046213415
60	0xbd15b5df	-0.0365504
61	0xbdd5f372	-0.10446824
62	0x3d36523b	0.044512015
63	0xbd867f78	-0.065672815
64	0xbd1d3d84	-0.038388744
65	0x3d478ec1	0.048720125
66	0x3da5e196	0.08099668
67	0xbd1b5461	-0.037922267
68	0x3dbb3a78	0.091420114
69	0xbe16f87e	-0.1474323
70	0xbdebc8e9	-0.1151293
71	0xbdd173af	-0.10227143
72	0xbdae4856	-0.08509891
73	0x3d8bd5ca	0.068278864
74	0x3d31efbe	0.043441527
75	0x3e4452b6	0.19172177
76	0xbdf5c2e3	-0.12000062
77	0x3e9ebfa4	0.31005585
78	0xbdd2b2bb	-0.102879964
79	0x3ce3e603	0.02781964
80	0x3e92db58	0.2868297
81	0x3e16e1f6	0.14734635
82	0xbd9a6be9	-0.075401135
83	0x3dfad511	0.122476704
84	0x3cef16bf	0.02918565
85	0x3dc432de	0.09580015
86	0x3e81067b	0.25200257
87	0xbe669364	-0.22517163
88	0xbd7ccbf8	-0.061717957
89	0xbe9b6f54	-0.30358374
90	0x3e1e4971	0.15457703
91	0x3cf0388a	0.029323835
92	0xbd538532	-0.051640697
93	0xbda61451	-0.08109344
94	0x3c01be3d	0.0079188915
95	0x3ecce0af	0.4001517
96	0x3e1509c4	0.14554507
97	0xbd841217	-0.06448763
98	0x3c09841c	0.008393314
99	0x3e4e2bed	0.20133944
100	0x3e9256f2	0.2858196
101	0x3e20c3fe	0.15699765
102	0x3da0a134	0.07843247
103	0xbdcb321e	-0.099216685
104	0xbcb6dc25	-0.02232177
105	0xbe4708d2	-0.19436958
106	0x3e18e24a	0.14930072
107	0x3e1c97bc	0.15292257
108	0xbd406391	-0.046969954
109	0xbdd15fbf	-0.1022334
110	0x3e518c80	0.20463753
111	0x3e85b523	0.2611476
112	0xbe226e0e	-0.15862295
113	0x3d769427	0.060199883
114	0x3d8ca006	0.068664595
115	0xbea4e709	-0.32207516
116	0xbd30595c	-0.04305397
117	0x3d3b1707	0.045676257
118	0x3e440feb	0.19146697
119	0xbd213915	-0.03936108
120	0xbe52c57f	-0.20583151
121	0x3df57a62	0.11986233
122	0xbe5a712d	-0.21332236
123	0x3e8cb015	0.2747809
124	0xbe77dd84	-0.24205595
125	0xbe4f7bac	-0.20262021
126	0x3e3f0858	0.18655527
127	0xbdae8e29	-0.08523209
128	0x3df19b39	0.117971845
129	0xbe33a811	-0.17544581
130	0x3e3ba9e8	0.18326533
131	0xbdb68c07	-0.08913427
132	0x3ebea75f	0.3723707
133	0xbd63c14c	-0.055604264
134	0x3d110d98	0.035413355
135	0xbdc1fd26	-0.09472112
136	0x3e35c1d9	0.17749728
137	0xbe299da7	-0.16564046
138	0x3e284018	0.164307
139	0xbe85f177	-0.26160786
140	0x3e213442	0.15742591
141	0xbdaa022f	-0.08301198
142	0xbcb31718	-0.021861598
143	0xbe16a2d9	-0.14710559
144	0x3d598902	0.053109176
145	0xbe2bbb41	-0.1677065
146	0x3de887f6	0.113540575
147	0x3dc6536c	0.0968388
148	0xbc13d6c3	-0.009023371
149	0xbd65a2e8	-0.056063563
150	0xbdfb9443	-0.12284138
151	0xbe662b3f	-0.22477435
152	0xbe6d768d	-0.23189755
153	0x3c62ba2b	0.013838331
154	0xbc986b0b	-0.01860573
155	0x3d08e15c	0.033418044
156	0x3d916441	0.070992
157	0xbeb2a2cc	-0.3488983
158	0x3e2c1ba1	0.16807415
159	0xbbff7a6b	-0.007796576
160	0xbe513c9d	-0.20433278
161	0x3dfa3476	0.122170374
162	0x3d76632b	0.060153168
163	0x3c984e18	0.018591926
164	0x3de515ee	0.111858234
165	0xbe74671b	-0.23867457
166	0x3dab5ae9	0.08366949
167	0xbea4124f	-0.32045218
168	0xbe31fa7f	-0.17380713
169	0xbe64214d	-0.22278328
170	0x3d203be9	0.039119635
171	0xbe51d3f9	-0.20491017
172	0x3e8640a4	0.26221192
173	0x3d29d953	0.041467022
174	0x3e88fa95	0.2675368
175	0x3d8e07a4	0.06935051
176	0x3e4aa72a	0.1979033
177	0x3d35e276	0.044405423
178	0x3e7131b1	0.23554112
179	0x3d78f613	0.06078155
180	0x3d1336c3	0.035940897
181	0x3daddbc5	0.08489183
182	0xbe1e07cb	-0.1543266
183	0x3e062eb3	0.13103752
184	0xbd728131	-0.059205238
185	0xbe2db5a0	-0.16963816
186	0x3e69d4bb	0.22835056
187	0xbe293311	-0.16523387
188	0xbdf78d4c	-0.12087497
189	0xbd5884c7	-0.052861
190	0xbe14ea34	-0.14542466
191	0xbdcaddca	-0.09905584
192	0xbe47a235	-0.19495471
193	0xbcc0bd73	-0.023527836
194	0x3d0f9547	0.03505447
195	0x3cc49013	0.023994481
196	0xbd59240c	-0.053012893
197	0xbdc22b83	-0.094809555
198	0xbd2743c6	-0.04083612
199	0xbd963125	-0.07333592
200	0x3d7942d1	0.060854737
201	0x3c99d01a	0.018775988
202	0x3ea02b8b	0.3128322
203	0x3e1cf6f3	0.15328579
204	0x3e6bff49	0.23046602
205	0xbe4ff302	-0.20307544
206	0x3e9e1ec2	0.3088284
207	0x3e1ca9b0	0.15299106
208	0xbd497d8f	-0.049192008
209	0xbdb5dac7	-0.08879619
210	0x3e2d5fe1	0.16931106
211	0xbe27c687	-0.16384326
212	0x3cda31be	0.026635047
213	0x3e2023be	0.15638635
214	0x3e85a2d1	0.26100782
215	0xbd81a04c	-0.06329402
216	0x3e475836	0.19467244
217	0x3b706d3a	0.0036686198
218	0x3e20a300	0.1568718
219	0xbb2c6c2b	-0.002630959
220	0x3e931696	0.2872817
221	0xbcc939b0	-0.02456364
222	0x3df2d46a	0.11856921
223	0xbe21646f	-0.15760969
224	0x3e15963f	0.14608096
225	0xbe2849a7	-0.16434346
226	0x3c43e353	0.011956054
227	0xbdb66219	-0.089054294
228	0xbe20c190	-0.15698838
229	0x3d53fae6	0.051752947
230	0xbc21da51	-0.009878711
231	0x3a17ba53	0.00057879573
232	0xbddb2273	-0.1069993
233	0xbd886351	-0.06659568
234	0xbd27959a	-0.040914156
235	0xbe598973	-0.21243839
236	0x3e138f13	0.14410047
237	0x3d4b12aa	0.049578346
238	0x3e30105d	0.17193742
239	0xbe6d2e62	-0.23162225
240	0x3d852f5e	0.06503175
241	0x3da4e3b0	0.080512404
242	0xbde385e4	-0.11109522
243	0xbe5fe658	-0.21865213
244	0x3e9e8bbc	0.30965984
245	0xbe4503b8	-0.192397
246	0x3d12b897	0.03582057
247	0x3e2eb751	0.17062117
248	0xbd337830	-0.04381579
249	0x3e478372	0.19483736
250	0x3e087f7d	0.13329883
251	0xbd327c27	-0.043575432
252	0x3ebc111b	0.367318
253	0x3d38d7d8	0.04512772
254	0x3c223481	0.009900213
255	0xbd844ae0	-0.06459594

network_body.observation_encoder.processors.1.dense.0.bias f4 [64]
0	0x3d109004	0.035293594
1	0x3ca9f7cf	0.020748047
2	0x3c5a435f	0.013321727
3	0x3cd4f79d	0.025996977
4	0x3d01bdd0	0.03167516
5	0xbcac4781	-0.02103019
6	0x3c738645	0.014863555
7	0x3ca56e5b	0.020194223
8	0x3d0045b3	0.03131647
9	0x3d5ce5e1	0.053930167
10	0x3d5ecdb2	0.054395385
11	0x3d0cd7e9	0.034385595
12	0xbcf8b791	-0.030360969
13	0x3d52ba4b	0.051447194
14	0x3d837bdd	0.064201094
15	0x3d63bebb	0.055601817
16	0x3d1df691	0.038565222
17	0x3c98619b	0.01860123
18	0x3cfd9167	0.030953122
19	0x3c9257a1	0.01786405
20	0x3d18e7b5	0.037330348
21	0x3d36d015	0.044632036
22	0x3d56664f	0.052343663
23	0x3bd85b54	0.006602684
24	0x3d3e9e86	0.0465379
25	0xbb16c8e1	-0.0023007917
26	0x3c00025f	0.007813065
27	0x3d2eb63d	0.042654265
28	0x3d2634a5	0.04057755
29	0x3d3b6eea	0.045760073
30	0xbb634c98	-0.0034683105
31	0x3d3e0604	0.046392456
32	0x3c90cc2f	0.017675487
33	0x3d3e9736	0.046530925
34	0x3be05d72	0.006847077
35	0x3cd0800a	0.025451679
36	0x3cfab647	0.030604495
37	0x3d081916	0.03322705
38	0x3d4ad0d7	0.04951557
39	0x3d13f8ea	0.036126055
40	0x3d5795c5	0.052633066
41	0x3acc22bf	0.001557432
42	0x3ca4de25	0.020125458
43	0x3d0af626	0.03392615
44	0x3d368767	0.044562723
45	0x3ca32444	0.019914754
46	0x3d0046e0	0.03131759
47	0xbcea12de	-0.02857345
48	0x3c081944	0.008306805
49	0xbd03a8c4	-0.03214337
50	0x3c96de1e	0.01841646
51	0x3d9180d0	0.07104647
52	0x3d846202	0.06464006
53	0x3d1e92ef	0.038714346
54	0x3c8a2a16	0.016865771
55	0x3d1f7f11	0.03893954
56	0x3d731256	0.05934366
57	0x3c909992	0.017651353
58	0x3cb4ba1b	0.022061398
59	0x3d9928f5	0.07478515
60	0x3c8a8de8	0.01691337
61	0x3ceca2bb	0.02888619
62	0x3d0ad466	0.033893965
63	0x3cb7532b	0.022378525

network_body._body_endoder.seq_layers.0.weight f4 [64, 142]
0	0x3c727bf9	0.014800065
1	0xbd92437b	-0.07141777
2	0xbdb9fd5b	-0.09081527
3	0x3d21bd3d	0.039487112
4	0xbd14ca78	-0.0363259
5	0xbddc43da	-0.10755129
6	0xbd6869fd	-0.056741703
7	0xbcbf9cf0	-0.023390263
8	0xbca1ae26	-0.01973636
9	0xbc9909ad	-0.018681372
10	0x3e39a287	0.18128406
11	0xbc8c6e44	-0.017142422
12	0x3d57c915	0.052682
13	0xbdad6481	-0.08466435
14	0x3d90fb19	0.07079143
15	0x3d8a8001	0.06762696
16	0x3deb4046	0.114868686
17	0xbe86cc79	-0.26327875
18	0xbcf0d638	-0.029399022
19	0xbdd6551f	-0.10465454
20	0x3de259e0	0.110522985
21	0x3e0a193b	0.13486187
22	0xbd950708	-0.07276732
23	0xbd603052	-0.05473358
24	0x3db3e841	0.08784533
25	0x3dd32fbf	0.10311841
26	0xbc166e8d	-0.009181631
27	0xbd9193e7	-0.07108288
28	0xbe220354	-0.15821582
29	0xbe466e7d	-0.19378085
30	0xbce95421	-0.028482499
31	0x3d80f45d	0.062966086
32	0xbb521668	-0.0032056812
33	0x3e0535e5	0.1300884
34	0xbd19bcfa	-0.037533738
35	0xbe091209	-0.13385786
36	0xbcc1e6d5	-0.02366964
37	0xbdf0bda5	-0.11754922
38	0x3c4f9a39	0.012671047
39	0x3dafc0d8	0.08581704
40	0xbe09a4cf	-0.13441776
41	0xbb01a9f7	-0.0019785145
42	0x3e1ad07f	0.15118597
43	0xbd104ee8	-0.0352315
44	0x3db4b927	0.088243775
45	0xbbaeb3c3	-0.005331488
46	0xbcc238e2	-0.023708764
47	0xbe6a16ed	-0.22860308
48	0x3e36c9e3	0.17850451
49	0x3d6297b7	0.055320468
50	0xbd5385a3	-0.051641118
51	0xbe5ac36b	-0.21363609
52	0x3ce1a0c9	0.027542489
53	0xbc75d447	-0.015004224
54	0xbdd1bf0f	-0.1024152
55	0x3dc19aec	0.09453377
56	0xbd67a61b	-0.056554895
57	0xbdb54c9a	-0.08852501
58	0x3d7c8db4	0.061658576
59	0xbdf5cd94	-0.120021015
60	0x3dc0d178	0.09414953
61	0x3e25bae8	0.1618458
62	0xbd95b656	-0.073101684
63	0xbe22805f	-0.15869282
64	0x3d7f39c1	0.062310938
65	0x3ded435a	0.11585112
66	0xbd7d7d0a	-0.061886825
67	0x3e3cb4d9	0.18428363
68	0xbd512590	-0.051061213
69	0xbe4e5c40	-0.20152378
70	0x3a27df61	0.00064038305
71	0xbd0f27bf	-0.034950014
72	0xbd5c5580	-0.053792477
73	0x3d4c1249	0.049822126
74	0xbdd0a1fd	-0.10187147
75	0xbe302a04	-0.17203528
76	0x3de339fe	0.110950455
77	0xbd9aeb9d	-0.07564471
78	0xbd5fd1db	-0.054643493
79	0x3da75bec	0.081718296
80	0x3e164948	0.14676392
81	0x3dab0207	0.08349996
82	0x3d67c274	0.05658193
83	0xbe52514c	-0.20538825
84	0x3cb4e0dd	0.02207988
85	0xbc89303f	-0.016746638
86	0xbdab894a	-0.08375795
87	0x3e41fe23	0.18944602
88	0x3dcca2c1	0.0999198
89	0x3d06061e	0.032720678
90	0xbd5ba8e5	-0.053627867
91	0x3c3691ee	0.011143191
92	0xbce63e6c	-0.028105937
93	0x3c9efd07	0.019407762
94	0xbe05f68c	-0.13082331
95	0x3db8987c	0.09013459
96	0x3d9c357c	0.07627389
97	0xbd28a3f2	-0.041171975
98	0x3e09c90d	0.13455601
99	0xbd36c1ac	-0.044618294
100	0x3dc0afb7	0.09408515
101	0x3c835186	0.016030084
102	0xbccbdee2	-0.024886552
103	0x3d170c5c	0.03687702
104	0xbe7161af	-0.2357242
105	0x3e563bc6	0.2092124
106	0xbd25987e	-0.04042863
107	0x3e20a9de	0.15689799
108	0x3dcb7d22	0.099359766
109	0x3e441b5a	0.19151059
110	0x3d9c9bdb	0.076469146
111	0x3d87beca	0.06628187
112	0xbceab0ff	-0.028648851
113	0x3d8de6e4	0.069288045
114	0x3e0ebd5f	0.13939427
115	0x3d47be3e	0.048765413
116	0x3d9b530f	0.075842015
117	0x3d2fa361	0.04288042
118	0xbe33ea9a	-0.17569962
119	0x3e0aef67	0.13567887
120	0x3d4be424	0.04977812
121	0xbe8b0201	-0.27149966
122	0xbd02115d	-0.03175484
123	0xbce4f7a5	-0.027950117
124	0xbca53e4c	-0.020171307
125	0xbdad9621	-0.084759004
126	0x3e1e34a7	0.15449773
127	0xbaec0d03	-0.0018009249
128	0xbdd00eba	-0.10159059
129	0xbda715e8	-0.08158475
130	0x3d07564a	0.033041276
131	0xbe985be6	-0.29757613
132	0xbd95e2a7	-0.07318621
133	0xbb2e2029	-0.0026569462
134	0x3d7b9b07	0.061427142
135	0xbe14f626	-0.14547023
136	0xbd1bbc77	-0.03802153
137	0x3dc14533	0.09437027
138	0x3e413af0	0.18870139
139	0xbe42787a	-0.1899127
140	0x3c8ba1e4	0.017044969
141	0xbd10b430	-0.03532809
142	0x3db4a807	0.08821111
143	0x3bc45886	0.005991998
144	0x3dd45082	0.10366918
145	0xbe48cf33	-0.1961029
146	0xbd9a89aa	-0.075457886
147	0xbe2d71ce	-0.16937944
148	0xbcfaf27b	-0.030633202
149	0x3c7719e4	0.015081856
150	0xbded68f6	-0.11592285
151	0xbe023388	-0.1271497
152	0x3d83eb1d	0.06441329
153	0xbc069aa0	-0.008215576
154	0xbc42c71e	-0.011888294
155	0xbd12fcdf	-0.035885688
156	0xbe07152d	-0.13191672
157	0x3e92046d	0.28519002
158	0xbdbabc04	-0.091178924
159	0xbd97cc65	-0.07412032
160	0xbd46a0a3	-0.04849304
161	0xbe4eb2d9	-0.20185412
162	0x3de1e266	0.1102951
163	0x3c7e1976	0.015509
164	0xbd890c63	-0.06691816
165	0xbdbeda4b	-0.0931898
166	0x3bfdb0e5	0.0077420347
167	0xbe0a87ad	-0.13528319
168	0xb90f78a0	-0.00013682479
169	0x3dab0ce0	0.08352065
170	0xbd3c14b5	-0.045918185
171	0xbcda77bc	-0.026668422
172	0xbd7dc12b	-0.061951797
173	0xbd49cd51	-0.04926807
174	0xbe2642f1	-0.16236474
175	0xbd5e5da7	-0.054288533
176	0xbd97ae42	-0.07406284
177	0x3d253856	0.04033693
178	0xbcac589c	-0.021038346
179	0xbcfe5acb	-0.031049153
180	0xbd051607	-0.03249171
181	0xbd1bf082	-0.038071163
182	0xbdb2669a	-0.08710976
183	0x3dbfc36c	0.09363446
184	0x3c0c763a	0.008573109
185	0xbc7e7057	-0.015529714
186	0x3ddee26e	0.10883032
187	0x3c7ce424	0.015435252
188	0x3de663bf	0.11249494
189	0xbe0ff8bd	-0.1405973
190	0x3dd8a5dd	0.10578511
191	0xbcd8c8b7	-0.026462896
192	0x3df91fb0	0.12164247
193	0x3e0ca6b8	0.13735473
194	0xbd9ce8c0	-0.07661581
195	0x3e041034	0.12896806
196	0x3d90c8c5	0.07069544
197	0x3e08532c	0.13312978
198	0x3dbe9407	0.09305578
199	0x3c22e447	0.009942121
200	0x3d0372c8	0.032091886
201	0x3d49e3d4	0.04928954
202	0xbdb74661	-0.089489706
203	0x3e7a2bc4	0.24430758
204	0xbd0d169e	-0.034445398
205	0x3db8d281	0.090245254
206	0xbdc3b4c8	-0.09555966
207	0xbcfeb8be	-0.031093951
208	0xbe73c310	-0.23804879
209	0x3e239aa2	0.15976956
210	0x3d1bc626	0.038030766
211	0xbbca8a04	-0.0061810035
212	0xbdf97e53	-0.121822976
213	0xbe0abd5a	-0.13548794
214	0xbd2b53d5	-0.041827995
215	0xbe025d55	-0.12730916
216	0x3e2052e0	0.15656614
217	0xbe30133c	-0.17194837
218	0x3de44de9	0.11147673
219	0x3d129912	0.03579051
220	0xbd86bf2c	-0.06579432
221	0xbd85422a	-0.065067604
222	0x3b411406	0.0029461398
223	0xbc20fcb6	-0.009825876
224	0x3db08021	0.08618189
225	0x3c631220	0.013859302
226	0xbdded110	-0.10879719
227	0x3db5524f	0.0885359
228	0xbd954f75	-0.07290546
229	0xbd344bc7	-0.04401758
230	0x3d5f6dd1	0.05454809
231	0x3c083fa5	0.008315955
232	0xbe085170	-0.13312316
233	0xbb9c6b6f	-0.0047735493
234	0x3d3d4d61	0.046216372
235	0xbddc0329	-0.1074279
236	0x3e3d9b83	0.18516354
237	0x3de160e2	0.11004807
238	0x39a34a1d	0.00031145
239	0xbe306ffa	-0.17230216
240	0x3de026d0	0.10944903
241	0x3eb503ee	0.3535456
242	0x3d31d3e4	0.043414965
243	0x3dfd697d	0.12373636
244	0x3e05fa9b	0.1308388
245	0xbd2577c0	-0.040397406
246	0xbd98610e	-0.07440387
247	0xbd004060	-0.031311393
248	0xbbdc65a4	-0.0067259837
249	0x3e159d3a	0.14610758
250	0x3e419514	0.18904525
251	0x3e27a5f8	0.16371906
252	0xbce3b71e	-0.027797278
253	0x3dfe37b8	0.12412971
254	0x3c2ef498	0.010678433
255	0xbc72a0a2	-0.014808806

network_body._body_endoder.seq_layers.0.bias f4 [64]
0	0x3aac5e23	0.0013150614
1	0x3c804519	0.015657948
2	0x3cf09cc4	0.029371627
3	0xbba02ae5	-0.004887926
4	0x3d11ef69	0.03562871
5	0x3ce0aa52	0.027424965
6	0x3ce6f27b	0.028191796
7	0x3bb09660	0.00538902
8	0x3d0be9c1	0.034158472
9	0x3d4c9da1	0.049955014
10	0x3c0f9c46	0.008765286
11	0x3d5327c7	0.051551607
12	0x3b14d8e5	0.0022712287
13	0x3b034dd8	0.0020035412
14	0x3d1edfef	0.03878778
15	0x3c8501e8	0.01623626
16	0x3c8c55aa	0.017130692
17	0x3af0e462	0.001837861
18	0x3c2c1d51	0.010505036
19	0x3d024bb6	0.031810485
20	0x3d03c655	0.032171566
21	0x3d1575ff	0.036489483
22	0x3d78eea3	0.060774457
23	0x3bb2c98e	0.005456156
24	0x3d2cff57	0.0422357
25	0x3c94a241	0.018143775
26	0x3d4b52b1	0.049639408
27	0x3d1b98df	0.037987586
28	0xbb9f01be	-0.0048525026
29	0xbb9c4514	-0.004768977
30	0xbbcbb295	-0.006216357
31	0x3d7fcc29	0.06245056
32	0x3d5d88ea	0.05408565
33	0x3c98634e	0.01860204
34	0x3c3c066f	0.011476143
35	0x3cd129d8	0.025532648
36	0x3d5acbc2	0.053416975
37	0x3d01d603	0.031698238
38	0x3d820a4a	0.06349619
39	0x3caf721f	0.021416722
40	0xbcb12ff2	-0.021629307
41	0x3d537634	0.0516264
42	0xbacb2d30	-0.0015501138
43	0x3c477c4d	0.012175632
44	0x3d217165	0.039414782
45	0x3d3ae57b	0.045629006
46	0x3d32b137	0.043626036
47	0x3bf9b9f9	0.0076210466
48	0x3c3f4443	0.01167399
49	0x3c83f419	0.016107606
50	0x3d44688f	0.047951277
51	0x3c93b04c	0.0180284
52	0x3d23e7fe	0.040016167
53	0x3c81e7bc	0.01585757
54	0x3caa4970	0.02078697
55	0x3c7ea016	0.015541097
56	0xbc72c930	-0.014818475
57	0x3c89b00f	0.016807584
58	0x3d0563f0	0.03256601
59	0xbc02087c	-0.007936593
60	0xba511061	-0.0007975158
61	0x3c3ef98c	0.011656176
62	0x3d4963b1	0.04916734
63	0x3cd49ea0	0.025954545

network_body._body_endoder.seq_layers.2.weight f4 [64, 64]
0	0xbd896047	-0.067078166
1	0xbda9b041	-0.08285571
2	0xbd8ab36c	-0.06772503
3	0xbd28208a	-0.041046657
4	0xbe1ebf24	-0.15502602
5	0xbe590e07	-0.21196757
6	0x3c597279	0.013271921
7	0xbdf89ec6	-0.12139659
8	0x3e185a5a	0.14878216
9	0x3e8c9968	0.2746079
10	0x3e1d518d	0.1536314
11	0x3d0dca91	0.03461701
12	0xbe3ef5ac	-0.18648404
13	0x3d954f71	0.07290543
14	0x3e0bf0ad	0.1366603
15	0x3e259252	0.16169098
16	0xbe551d0e	-0.20811865
17	0xbda375c9	-0.0798145
18	0xbbf424a9	-0.0074506593
19	0x3d1d4e1a	0.03840456
20	0x3d4eb08d	0.05046134
21	0x3d5de155	0.05416997
22	0x3d1e6b9b	0.03867684
23	0x3d0054be	0.031330816
24	0x3d5b3d8e	0.0535255
25	0xbd99699c	-0.074908465
26	0xbe1f2eb6	-0.15545163
27	0x3e477c4a	0.19481006
28	0xbe38cf99	-0.18047942
29	0xbe2bc954	-0.1677602
30	0x3dfb63a2	0.12274863
31	0x3dec7184	0.11545089
32	0x3dcae92d	0.09907756
33	0x3db1a346	0.0867372
34	0x3d2c1f86	0.04202225
35	0x3d88cf15	0.06680123
36	0xbb180019	-0.0023193418
37	0xbde63785	-0.11241058
38	0x3e57d46c	0.21077126
39	0x3bc7ffdf	0.0061035003
40	0x3e7e1f44	0.24816614
41	0xbc03af05	-0.008037333
42	0xbf00bb3f	-0.50285715
43	0x3c7d0834	0.01544385
44	0x3cef984a	0.029247422
45	0x3e77a41e	0.241837
46	0xbe222296	-0.15833506
47	0x3e83c473	0.25735816
48	0xbcef4246	-0.029206406
49	0xbe68bb12	-0.22727612
50	0xbdb312b1	-0.087437995
51	0x3d966cbd	0.07344959
52	0xbca3a337	-0.019975288
53	0x3cc1560e	0.023600604
54	0xbd28331d	-0.04106437
55	0x3d2bf34a	0.041980065
56	0x3e98e9c8	0.2986586
57	0x3e20abf2	0.15690592
58	0x3e66b41b	0.22529642
59	0x3d592866	0.053017043
60	0xbe7632ff	-0.24042891
61	0xbe80cc4b	-0.25155863
62	0x3e8475c6	0.25871104
63	0x3db0df8b	0.086363874
64	0x3e4ed2a3	0.20197539
65	0xbe22ccbd	-0.15898414
66	0xbb52f0af	-0.0032186916
67	0x3d80806f	0.06274497
68	0xbe4162c2	-0.1888533
69	0xbefbfbf3	-0.4921566
70	0x3e045a89	0.12925161
71	0xbdf43d4b	-0.11925753
72	0x3d4b7a9c	0.049677476
73	0xbe5a5ebd	-0.21325202
74	0x3d97feee	0.07421671
75	0xbb7eca20	-0.00388778
76	0x3e3f3ae1	0.18674804
77	0x3a13a973	0.0005632855
78	0x3c1ecbe9	0.009692171
79	0x3e3376c7	0.17525779
80	0xbe1d66c1	-0.15371229
81	0x3d9b5895	0.07585255
82	0xba57fb6b	-0.00082390633
83	0x3e2d3c77	0.16917597
84	0xbe179fdd	-0.14807077
85	0x3c63b898	0.013898991
86	0xbd36431b	-0.04449759
87	0x3d950560	0.07276416
88	0xbeb13de0	-0.3461752
89	0x3e8056e1	0.25066283
90	0xbe346df1	-0.17620064
91	0x3e5ba2d8	0.21448839
92	0x3e371aa0	0.1788125
93	0xbd03b2fb	-0.03215311
94	0x3e2c8464	0.16847378
95	0xbe15be40	-0.14623356
96	0x3d59a02a	0.05313126
97	0xbe4b568b	-0.19857232
98	0x3e3dd770	0.18539214
99	0x397349d8	0.00023201795
100	0x3d37a8d2	0.044838734
101	0x3e011f9e	0.12609717
102	0xbc2fbaa0	-0.010725647
103	0xbe458c3d	-0.19291778
104	0x3df04c30	0.117332816
105	0xbcbbdd8d	-0.022932792
106	0x3d61ffd6	0.055175625
107	0xbe51c738	-0.20486152
108	0xbdc09561	-0.09403492
109	0x3c91a84d	0.017780447
110	0x3d5e1749	0.054221425
111	0x3bc9c654	0.0061576758
112	0xbe5a9bd7	-0.2134851
113	0x3e2500de	0.16113612
114	0xbe068a61	-0.13138725
115	0xbdd9cb6c	-0.10634503
116	0xbcb76515	-0.022387067
117	0x3e7a957e	0.24471089
118	0xbe379dcd	-0.1793129
119	0x3e665648	0.22493851
120	0xbd8a6cf8	-0.067590654
121	0xbe0e6ea9	-0.13909401
122	0xbe77ef2c	-0.2421233
123	0x3dc2cc5d	0.095116355
124	0x3dbba65a	0.091625884
125	0x3dbcb8e6	0.09214954
126	0x38a204c1	7.7256474e-05
127	0xbe27ae11	-0.16374995
128	0x3c46055f	0.0120862415
129	0x3d828fef	0.063751094
130	0x3d2955fb	0.041341763
131	0xbdacafbc	-0.08431956
132	0x3e1be355	0.15223439
133	0x3e3164a7	0.17323552
134	0x3c94b0e3	0.018150752
135	0x3c967225	0.018364975
136	0xbcc39bb1	-0.02387795
137	0x3e4969d8	0.19669282
138	0x3d564146	0.052308343
139	0x3e365290	0.17804933
140	0x3decc24e	0.11560498
141	0xbcdf4f75	-0.027259568
142	0x3d0bdd9a	0.034146883
143	0x3e21f6b1	0.15816762
144	0xbdccd4bd	-0.10001514
145	0xbdbc36ea	-0.091901615
146	0x3b9e8848	0.0048380233
147	0x3dfb81f0	0.12280643
148	0x3dda517d	0.10660074
149	0xbce6c14b	-0.028168341
150	0x3dc7efaf	0.09762513
151	0xbd04c05f	-0.032410022
152	0x3e5b09d8	0.21390474
153	0xbe575d39	-0.21031655
154	0x3d85545c	0.06510231
155	0xbdfa6278	-0.12225813
156	0xbe39bb9b	-0.18137972
157	0x3c26c4a1	0.010178716
158	0x3d7522ee	0.059847765
159	0x3e3c07a8	0.18362296
160	0x3e3e3fd0	0.1857903
161	0x3dcceb56	0.10005824
162	0xbe1b056e	-0.1513879
163	0x3d67dee0	0.056609035
164	0x3d98a09a	0.07452507
165	0xbd8e217c	-0.069399804
166	0x3e2628ef	0.16226552
167	0x3e753ba0	0.23948526
168	0xbe98d978	-0.29853415
169	0xbdf33e73	-0.118771456
170	0x3d16e6fe	0.036841385
171	0xbd936698	-0.071973026
172	0x3bc7f331	0.0061019887
173	0x3cbe19d8	0.023205683
174	0x3e0e5d9d	0.13902898
175	0xbe087af5	-0.13328154
176	0x3ddd7e92	0.10815157
177	0xbe4d2ffc	-0.20037836
178	0xbabce692	-0.0014411977
179	0xbe07d406	-0.13264474
180	0xbd9ddcea	-0.07708152
181	0x3e28e5a0	0.16493845
182	0x3e819b93	0.25314006
183	0xbd81a15c	-0.06329605
184	0x3bbcebfe	0.005765437
185	0xbd625d9f	-0.055265065
186	0x3d8ba154	0.0681788
187	0x3e08bf6b	0.1335427
188	0xbdb52e45	-0.08846716
189	0x3dddf404	0.10837558
190	0x3e102816	0.14077792
191	0xbe1aa793	-0.15102987
192	0xbe5f42b2	-0.21802786
193	0x3ea662dd	0.32497302
194	0xbde87e6d	-0.11352239
195	0xbe4bdcec	-0.19908494
196	0x3e8549e8	0.26032948
197	0x3e4abce4	0.19798619
198	0x3e8b049a	0.27151948
199	0xbd9364fa	-0.07196994
200	0xbe67f21c	-0.22650951
201	0x3ddfc2e9	0.10925848
202	0x3e82d515	0.25553194
203	0x3e49420e	0.19654104
204	0xbdb65776	-0.089034006
205	0x3dc07477	0.09397214
206	0x3e15f0cf	0.14642642
207	0xbcd55f65	-0.026046464
208	0xbe1991ba	-0.14996997
209	0xbec8ce3e	-0.3921985
210	0xbe9ce853	-0.30646
211	0xbd50443b	-0.05084632
212	0xbc77d147	-0.015125579
213	0xbd310d28	-0.043225437
214	0x3de3c1ae	0.11120926
215	0x3eb5d251	0.3551202
216	0x3df683bc	0.12036845
217	0x3e1b1b8e	0.1514723
218	0xbde6d7e7	-0.11271649
219	0xbdd78a53	-0.1052443
220	0xbe1b6ece	-0.15178987
221	0xbbcc8d7d	-0.0062424527
222	0xbe2d3b22	-0.16917089
223	0x3e256c3a	0.16154566
224	0xbe86d3ff	-0.26333615
225	0x3d692de5	0.056928534
226	0xbe6df39c	-0.23237461
227	0xbd0acc36	-0.033886157
228	0xbd9592f6	-0.07303421
229	0x3d4dd2bf	0.05024981
230	0x3e245564	0.16048199
231	0x3d7875b3	0.06065912
232	0xbdf4eefd	-0.11959646
233	0x3cc5f73e	0.024165746
234	0xbdf4dc91	-0.11956132
235	0xbe6ee6dd	-0.23330255
236	0x3dd093c6	0.101844355
237	0x3e840186	0.25782412
238	0x3e1e3242	0.1544886
239	0xbe1d87f9	-0.153839
240	0x3d9d5685	0.07682518
241	0x3d71c840	0.059028864
242	0xbcecc06d	-0.02890035
243	0xbdce42b3	-0.100713156
244	0x3ea0e380	0.3142357
245	0x3d8a5475	0.0675439
246	0xbdbc07b1	-0.091811545
247	0xbe40b7b3	-0.18820076
248	0xbdb5cab4	-0.08876553
249	0xbda12a16	-0.078693554
250	0x3db2ade4	0.08724573
251	0x3ca61757	0.020274801
252	0xbdaceedf	-0.084439985
253	0xbe242ee9	-0.1603352
254	0x3d7a09d0	0.061044514
255	0xbc255184	-0.010090236

network_body._body_endoder.seq_layers.2.bias f4 [64]
0	0x3d0de42d	0.034641434
1	0xbcde32fd	-0.027123922
2	0x3d3ad84c	0.045616433
3	0x3d98208d	0.074280836
4	0x3b5a465c	0.0033306098
5	0x3d5b843c	0.053592905
6	0x3d784eb2	0.060621925
7	0x3cff47d9	0.03116219
8	0x3db5ae3a	0.08871122
9	0x3d589c3c	0.05288337
10	0xbcd37ad9	-0.025815414
11	0x3c9eaa16	0.019368213
12	0xbbbd53c8	-0.00577781
13	0x3bb454e2	0.005503283
14	0xbd291063	-0.041275393
15	0xbdc36317	-0.09540384
16	0x3d65cc11	0.056102816
17	0x3d56da47	0.05245426
18	0x3b7a8ad0	0.0038229711
19	0x3cdfc4db	0.027315548
20	0x3b72fe1b	0.0037077728
21	0x3c4a16d2	0.012334542
22	0xbca3bf26	-0.019988608
23	0x3c41d5ea	0.011830786
24	0xb996915b	-0.00028718528
25	0x3d1f5385	0.03889801
26	0x3d572f35	0.052535255
27	0x3cbf8651	0.023379477
28	0x3c89db18	0.016828105
29	0x3d368438	0.044559687
30	0x3acd5eff	0.001566857
31	0xbcd83b87	-0.026395572
32	0x3d277935	0.040887076
33	0x3cfa0757	0.030521078
34	0x3d5d9fe1	0.05410755
35	0x3d483d59	0.04888663
36	0x3d2a11dd	0.041520942
37	0x3d698d18	0.057019323
38	0x39d259f0	0.0004012133
39	0x3d8d5850	0.0690161
40	0xbd134ccf	-0.035961922
41	0x3a9fd075	0.0012192862
42	0x3d48ace0	0.04899299
43	0x3d154169	0.036439333
44	0x3d0cbb3a	0.03435824
45	0x3cf6340c	0.030054115
46	0x3cdc0e09	0.026862161
47	0xbbe974eb	-0.0071245334
48	0x3d0ee3c8	0.034885198
49	0x3d1929b1	0.037393276
50	0x3a5454e1	0.0008099806
51	0x3be1ed02	0.0068947086
52	0x3d00501f	0.03132641
53	0x3cd2381c	0.02566152
54	0x3d5615e4	0.05226697
55	0x3d7e8756	0.062140785
56	0x3c10a007	0.008827216
57	0x3d817baa	0.06322415
58	0x3d2ad380	0.04170561
59	0x3da7473b	0.08167883
60	0xbc95750d	-0.01824429
61	0x3cb91eca	0.02259769
62	0x3d7c314a	0.061570443
63	0xbc224032	-0.009903001

action_model._continuous_distribution.log_sigma f4 [1, 2]
0	0x3e22e176	0.15906319
1	0x3e36ea09	0.17862715

action_model._continuous_distribution.mu.weight f4 [2, 64]
0	0x3deefb04	0.11668971
1	0xbc2ac7ba	-0.010423595
2	0x3db1223b	0.08649107
3	0x3de7db7f	0.113211624
4	0x3c279dd4	0.0102305
5	0x3d801911	0.06254781
6	0xbd276857	-0.04087099
7	0xbc4fc080	-0.012680173
8	0x3d0ac86e	0.03388255
9	0xbd19bff1	-0.037536565
10	0xbb5d53cc	-0.003377187
11	0xbd8c1fd0	-0.06842005
12	0xbddf219d	-0.10895083
13	0x3c206bbd	0.009791312
14	0xbd150976	-0.036385976
15	0x3c42c0ba	0.01188677
16	0x3d400b28	0.04688564
17	0x3b736e0f	0.0037144457
18	0xbd1edf2c	-0.038787052
19	0xbbe7dbdd	-0.0070757703
20	0xbdc2462e	-0.09486042
21	0xbd5d5f3c	-0.0540459
22	0xbd6d26f9	-0.057898495
23	0xbd07a8c8	-0.033119947
24	0xbd010fe7	-0.031509306
25	0xbd269621	-0.040670518
26	0x3dd436e8	0.10362035
27	0x3d43c862	0.04779852
28	0x3cf32ca9	0.029684382
29	0x3d4cafa9	0.04997221
30	0x3ce157d0	0.027507693
31	0xbdbf7e02	-0.09350206
32	0xbdab5445	-0.083656825
33	0x3ccf4dfa	0.025305737
34	0xbdcb5780	-0.09928799
35	0xbb07b708	-0.002070846
36	0x3d98b153	0.07455697
37	0xbda1a8c1	-0.078935154
38	0xbd3515b0	-0.044210136
39	0x3e2e692f	0.17032312
40	0xbb8108eb	-0.0039378307
41	0xbb198f49	-0.0023431352
42	0x3e058434	0.13038713
43	0x3de467bc	0.11152598
44	0xbd8f344a	-0.06992395
45	0x3d87460a	0.06605156
46	0xbda1086e	-0.07862936
47	0xbd8843f6	-0.066535875
48	0x3d89d560	0.06730151
49	0xbc942c37	-0.01808749
50	0xbb14b804	-0.002269269
51	0x3c39d1e6	0.011341548
52	0xbd7f6619	-0.062353227
53	0xbda1a95f	-0.07893633
54	0x3d798b89	0.060924087
55	0x3c1829b4	0.009287287
56	0x3d0196be	0.0316379
57	0xbd54c97b	-0.05194996
58	0x3dbfb03a	0.093597844
59	0x3d9c8671	0.0764283
60	0x3d228e84	0.039686695
61	0xbbf16865	-0.007367181
62	0x3c9a0784	0.018802412
63	0x3c4c3e39	0.012466007
64	0xbde92501	-0.11384011
65	0x3d86fc38	0.06591076
66	0xbd8a835e	-0.067633376
67	0xbdb34f06	-0.08755307
68	0x3d0d6945	0.03452422
69	0xbdb97b37	-0.090567045
70	0xbd682e90	-0.05668503
71	0x3e010a5f	0.12601613
72	0xbd8ae171	-0.06781281
73	0x3d0983b9	0.033572886
74	0xbd7b16dd	-0.0613011
75	0x3dae9216	0.085239574
76	0x3d354285	0.04425289
77	0x3d26c6c2	0.040716894
78	0xbd195d44	-0.03744246
79	0xbd64c1e0	-0.055848956
80	0xbdb69b20	-0.089163065
81	0xbdf19c41	-0.11797381
82	0x3dc61bed	0.09673295
83	0x3d7784d9	0.060429428
84	0x3cc67818	0.024227187
85	0xbd2692cf	-0.04066735
86	0xbcadbe92	-0.021209035
87	0x3e01576e	0.12631008
88	0xbcd62f6c	-0.02614566
89	0x3d92f631	0.071758635
90	0x3d933602	0.071880355
91	0xbbc82147	-0.0061074826
92	0xbc811a66	-0.015759658
93	0x3df553b7	0.11978858
94	0xbbec3d15	-0.00720943
95	0xbd131153	-0.035905194
96	0x3cc441ab	0.023957094
97	0xbdf6bd79	-0.12047858
98	0x3d41d5c5	0.047323007
99	0xbb130b59	-0.0022437184
100	0xbdd998c4	-0.10624841
101	0x3da46743	0.08027508
102	0xbd0280ed	-0.031861234
103	0xbe20c2eb	-0.15699355
104	0x3c5a91e0	0.013340443
105	0x3d782863	0.06058539
106	0xbc1ca135	-0.009559919
107	0x3d8242bb	0.06360384
108	0x3c31796e	0.010832174
109	0x3d9a7891	0.075425275
110	0x3df6de1d	0.120540835
111	0xbd88db5e	-0.06682466
112	0xbdb60c91	-0.088891156
113	0x3d608724	0.05481638
114	0xbd5b62e3	-0.053561103
115	0xbdff2cdd	-0.12459729
116	0xbd3cf345	-0.046130437
117	0xbb9a876b	-0.00471585
118	0xbd1f94d6	-0.0389603
119	0x3d4a2c59	0.0493587
120	0xbdba5dd9	-0.09099931
121	0xbdd7926e	-0.10525976
122	0xbdb5f48a	-0.08884533
123	0xbc448701	-0.011995078
124	0x3c1f7881	0.00973332
125	0xbdc163bc	-0.09442851
126	0xbd895847	-0.06706291
127	0x3da4f608	0.08054739

action_model._continuous_distribution.mu.bias f4 [2]
0	0x3c6602a1	0.014038713
1	0x3a98e72d	0.0011665575

action_model._discrete_distribution.branches.0.weight f4 [3, 64]
0	0xbd2711c2	-0.04078842
1	0xbd5c0802	-0.053718574
2	0x3d9f650a	0.077829435
3	0x3dbb3aca	0.091420725
4	0x3d114a1e	0.035471074
5	0x3da01b88	0.07817751
6	0xbd4351fb	-0.047685605
7	0xbcf983c0	-0.030458331
8	0x3d8333bd	0.06406353
9	0x3dfd0fd7	0.12356537
10	0x3d0ee7d6	0.034889065
11	0xbc71f252	-0.014767246
12	0x3d8bba27	0.06822615
13	0x3d1a6298	0.037691683
14	0xbd6def12	-0.058089323
15	0xbd880715	-0.06641976
16	0x3ba3de61	0.005000875
17	0xbdb9a68c	-0.090649694
18	0x3d519368	0.05116597
19	0x3d70a502	0.058751114
20	0xbd25cb0f	-0.040476855
21	0x3cf1bc7a	0.029508818
22	0xbd8f6b38	-0.07002872
23	0xbdf8f6dc	-0.1215646
24	0x3d92e53d	0.0717263
25	0x3d7d0c30	0.0617792
26	0x3d44cbd9	0.048045967
27	0xbe05d808	-0.1307069
28	0xbda8a320	-0.082342386
29	0xbd2476ea	-0.040152468
30	0xbc2aca6a	-0.010424236
31	0x3d80f6fb	0.06297108
32	0x3c873e2c	0.016509138
33	0xbd337f03	-0.0438223
34	0x3dcbf8ba	0.0995955
35	0xbb686fdf	-0.003546707
36	0x3d834ef1	0.06411541
37	0x3adb53a2	0.0016733299
38	0xbc67a02e	-0.014137311
39	0xbd219a9e	-0.039454095
40	0xbcc50a82	-0.024052862
41	0x3d430942	0.04761625
42	0x3d0e3727	0.034720566
43	0xbcbddfef	-0.023178069
44	0x3c972ba4	0.018453427
45	0x3cc98e4c	0.024603985
46	0x3dd761fa	0.105167344
47	0xbd831496	-0.06400411
48	0xbd99040b	-0.07471474
49	0x3c7d9e32	0.015479611
50	0xbd0e13d7	-0.03468689
51	0xbd1fa73a	-0.03897784
52	0xbc46c30f	-0.0121314665
53	0xbdaa2def	-0.083095424
54	0xbbc173c8	-0.005903695
55	0x3de4451c	0.11145994
56	0x3c673dfa	0.014113897
57	0xbd715397	-0.058917608
58	0x3cbff136	0.023430448
59	0x3deb9b0f	0.115041845
60	0xbe0aabfb	-0.13542168
61	0xbd3ed77e	-0.046592228
62	0xbc93666b	-0.017993173
63	0xbe0f1662	-0.13973382
64	0x3d289457	0.041157093
65	0x3e075d9b	0.13219301
66	0xbdc8e65d	-0.09809563
67	0xbd02148e	-0.031757884
68	0xbd925a31	-0.07146109
69	0xbcbf10e2	-0.02332348
70	0x3d6f041e	0.058353536
71	0x3d783350	0.06059581
72	0xbdebc60b	-0.11512383
73	0xbc747a5f	-0.014921754
74	0x3d8382a1	0.064214
75	0x3e024d33	0.12724762
76	0xbcd8fa1d	-0.02648645
77	0xbdf51ab3	-0.11967983
78	0x3dbc4a5a	0.09193869
79	0x3da63d70	0.08117187
80	0xbdb8c169	-0.09021265
81	0xbcabe07f	-0.020981072
82	0xbd8f62cb	-0.07001265
83	0xbd4eda01	-0.050500873
84	0xbd8e7f1b	-0.06957837
85	0xbe46d7ab	-0.19418208
86	0xbdeaba7b	-0.114613496
87	0x3e2e4478	0.17018306
88	0xbd6cb320	-0.057788014
89	0x3db66027	0.08905058
90	0x3e080302	0.13282397
91	0x3e0c2137	0.13684545
92	0xbd87e0eb	-0.066346966
93	0x3e80eb99	0.25179747
94	0xbc87a227	-0.016556812
95	0xbdadb5b8	-0.08481926
96	0x3da7846e	0.08179556
97	0x3debdcfe	0.1151676
98	0xbd8870e4	-0.06662157
99	0x3e05228e	0.13001463
100	0xbe03b026	-0.12860164
101	0x3d0634be	0.032765143
102	0xbc8fd6c5	-0.017558465
103	0x3b77d14e	0.0037813964
104	0xbbd08f3f	-0.0063647325
105	0xbb9bad9a	-0.0047509195
106	0x3cc78e10	0.024359733
107	0x3c81276e	0.015765872
108	0x3d5b71c7	0.053575303
109	0xbd3be270	-0.045870245
110	0x3d07a66c	0.033117697
111	0xbd34bed2	-0.044127293
112	0x3d2e7ca7	0.042599346
113	0x3c1e32e8	0.009655692
114	0x3d8baa49	0.06819589
115	0xbd34cc7b	-0.04414032
116	0x3cf21f9f	0.029556094
117	0xbd35b556	-0.04436239
118	0xbe34bf25	-0.17651041
119	0x3d34f4e4	0.04417886
120	0x3ba0072f	0.004883669
121	0x3e00ecff	0.12590407
122	0x3d826d75	0.063685335
123	0xbd5233b2	-0.05131883
124	0x3e685ecc	0.22692412
125	0x3c70e318	0.014702581
126	0xbe865579	-0.26237085
127	0x3e422d6f	0.18962644
128	0xbc9a6531	-0.01884708
129	0xbd7a7337	-0.061145034
130	0xbc8e39a0	-0.017361462
131	0xbda67021	-0.08126856
132	0x3d01aef4	0.03166099
133	0xbd719a61	-0.058985118
134	0x3c0eee46	0.008723801
135	0xbd396f89	-0.045272384
136	0x3cbe6511	0.023241552
137	0xbdefd9a2	-0.11711432
138	0xbd7ca9a8	-0.061685234
139	0xbe2ca89a	-0.16861191
140	0xbd51f4da	-0.0512589
141	0x3d42445c	0.047428474
142	0xbc39f30e	-0.011349453
143	0x3d87e9ff	0.06636428
144	0x3e0ca494	0.13734657
145	0x3ddb6617	0.107128315
146	0x3c838e98	0.016059205
147	0xbc0189fe	-0.007906435
148	0x3dcc099d	0.09962771
149	0x3e28341f	0.16426133
150	0x3e28b354	0.16474658
151	0xbcbde711	-0.02318147
152	0xbdc92c84	-0.09822944
153	0xbe5a080e	-0.21292135
154	0xbe653b05	-0.22385795
155	0x3c2cc4f2	0.010545002
156	0x3e094255	0.1340421
157	0xbe920fa2	-0.28527552
158	0x3c1d26d2	0.009591775
159	0x3d42c029	0.04754654
160	0xbda5705b	-0.08078071
161	0xbb8daa82	-0.0043233046
162	0xbd38b34b	-0.045092862
163	0xbda0ff30	-0.07861173
164	0x3ceca8bf	0.028889058
165	0x3cf170f8	0.029472813
166	0x3c60808b	0.013702522
167	0x3d1f096f	0.038827356
168	0x3c7661ff	0.0150380125
169	0xbd60c063	-0.054870974
170	0xba99339a	-0.0011688352
171	0x3b5549af	0.003254514
172	0xbcec0a55	-0.02881352
173	0xbd3a37e1	-0.045463447
174	0xbe36a066	-0.17834625
175	0x3dddc240	0.10828066
176	0x3c8db315	0.017297307
177	0xbc91cfc3	-0.017799264
178	0xbc754e80	-0.014972329
179	0x3dc23e36	0.09484522
180	0xbc6c3ead	-0.01441924
181	0x3dfccf4b	0.123442255
182	0x3e043122	0.12909368
183	0xbe61ef56	-0.22063956
184	0xbd08288e	-0.0332418
185	0xbbd8eb42	-0.006619842
186	0xbd2bfd38	-0.041989535
187	0xbdd3555d	-0.10319016
188	0xbdf56ada	-0.11983271
189	0x3dd45f9e	0.103698
190	0x3e79fa47	0.2441188
191	0xbdf02a2a	-0.11726792

action_model._discrete_distribution.branches.0.bias f4 [3]
0	0x3d50c700	0.05097103
1	0xbd2be0b3	-0.041962337
2	0xbce8dbd1	-0.02842513
