results/MLHades_main_12_grid32x32cellsize1x1_andraycastsensor/MLHades/MLHades-1499966.onnx (onnx, 234194 bytes, 22 tensors)

discrete_action_output_shape f4 [1, 4]
3.0 3.0 3.0 2.0
00000000: 0000 4040 0000 4040 0000 4040 0000 0040

network_body.observation_encoder.processors.1.conv_layers.0.weight f4 [16, 7, 8, 8]
-0.066782914 -0.0068281232 -0.054653537 -0.02421554 0.0025195938 0.011074698 0.099659145 0.006601137
-0.08374182 -0.031009039 -0.0039055017 0.03564808 -0.012107087 -0.028134013 0.052696235 0.00031597115
-0.13368133 -0.0063627134 0.047159605 0.023060104 0.048236787 -0.0056809736 0.07060534 -0.025352987
0.01337496 0.024046572 0.073707305 0.06554718 0.038850375 -0.035152398 -0.03813206 -0.056138746
-0.048849467 -0.009576413 0.06841235 0.02762945 0.047804426 0.03801323 0.015304888 -0.06771299
-0.072219454 0.010697164 0.014724156 0.045711827 0.05602596 -0.028117333 0.0071831984 0.057194386
-0.0746147 -0.03548867 0.011277999 0.02989597 0.048515465 -0.03872885 0.04055302 0.044539433
-0.0020336919 -0.009827192 0.05043475 0.02600529 -0.0031443706 -0.041852094 -0.06088571 -0.05958009
0.10033078 0.16106343 0.10010525 0.09327985 0.08488783 0.21761523 0.041852444 0.11732944
0.24549568 0.16907614 0.20726717 0.102641046 0.15723898 0.15773892 0.09516427 0.098857254
0.2439383 0.23043418 0.20862597 0.16334826 0.16601756 0.16970591 0.08217249 0.04222065
0.2110524 0.20553698 0.22210702 0.2607212 0.14582908 0.055381227 0.07688865 0.16283281
0.1192511 0.23792154 0.112051666 0.1170828 0.10076012 0.11265661 0.052160807 0.16158146
0.105304845 0.21048522 0.2724394 0.10762946 0.14481683 0.06761449 0.122444555 0.06263441
0.121603355 0.2045667 0.19954813 0.23950566 0.2417548 0.09885747 0.17109011 0.09886034
0.22908247 0.21101986 0.13710213 0.14202884 0.037784997 0.061831336 0.13048835 0.15884145
-0.1707487 -0.074388996 0.025896726 0.07084509 0.051687222 -0.1140943 -0.0738315 -0.08058681
-0.013465203 0.010180625 0.044499584 0.09018707 0.086146444 -0.029076517 -0.049372863 0.04834484
-0.06512798 0.060550548 0.006931459 -0.018214637 -0.023230167 -0.059581216 -0.124826916 -0.011144055
-0.05098986 -0.045651875 -0.07932913 -0.011647416 0.068657205 0.013418521 -0.07507442 0.023657475
-0.08705767 -0.079609714 -0.08414134 -0.02198388 0.011115318 0.011833184 -0.06603596 -0.069757335
-0.02441313 -0.017971925 -0.03516735 0.0011492701 0.02814691 0.11296738 -0.0739217 -0.02147018
0.060297176 0.035755735 0.008521505 0.091155194 -0.012327035 -0.029352352 -0.106646255 -0.088725634
0.025465861 0.064228125 0.071115784 0.05523428 0.07293193 0.019315654 -0.15368007 -0.11798853
0.045935042 -0.08623204 0.05651567 0.10356208 0.062227014 0.07249978 -0.0057290993 -0.041259337
-0.16533858 -0.08578409 -0.104500115 -0.04306173 0.016556835 -0.03478469 -0.008266304 -0.012519153
-0.008605807 0.009731848 0.010999131 -0.031415064 0.039332442 -0.022699375 -0.048726875 -0.002142359
0.04669085 -0.061651357 0.059845615 0.060249597 -0.010522815 -0.057398327 -0.025852077 -0.08536443
0.03802952 0.008957147 0.060136486 0.09559947 0.042520955 -0.013922983 -0.033042263 0.041305207
-0.00046162892 -0.008764372 -0.021707011 -0.05676927 0.04432508 0.057006653 -0.03702539 -0.017425966
0.09588019 -0.004349634 0.048991457 -0.09232119 -0.0043095644 0.005292837 0.009578935 -0.10054611
-0.029758891 -0.0077249194 0.040853325 -0.08009181 0.08804031 0.051234234 -0.05613416 -0.036052532
00000000: 7bc5 88bd 73be dfbb 63dc 5fbd ab5f c6bc
00000010: c51f 253b a672 353c 181a cc3d 5a4e d83b
00000020: d580 abbd ab06 febc 72f3 7fbb b903 123d
00000030: ce5c 46bc 4d79 e6bc 02d8 573d eea8 a539
00000040: c2e3 08be 4f7e d0bb 6e2a 413d 8be8 bc3c
00000050: f093 453d 7627 babb 8899 903d 11b1 cfbc
00000060: a622 5b3c 51fd c43c dbf3 963d 9a3d 863d
00000070: 9221 1f3d f6fb 0fbd 5d30 1cbd bef1 65bd
00000080: 6116 48bd 63e6 1cbc c61b 8c3d 2857 e23c
00000090: 93ce 433d c3b3 1b3d 5ac1 7a3c 1cad 8abd
000000a0: cbe7 93bd 2843 2f3c 963d 713c 533c 3b3d
000000b0: 7a7b 653d 5256 e6bc 0961 eb3b a944 6a3d
000000c0: 98cf 98bd 915c 11bd 5bc7 383c 65e8 f43c
000000d0: 27b8 463d 25a2 1ebd ec1a 263d fb6e 363d
000000e0: b047 05bb 3b02 21bc ab94 4e3d 0c09 d53c
000000f0: c911 4ebb 1a6d 2bbd 4b63 79bd 410a 74bd
00000100: 397a cd3d d0ed 243e fb03 cd3d 8209 bf3d
00000110: acd9 ad3d 87d6 5e3e 786d 2b3d 6b4a f03d
00000120: 3863 7b3e 4c22 2d3e d83d 543e 7835 d23d
00000130: 4103 213e 5086 213e 7ce5 c23d ac75 ca3d
00000140: f6ca 793e f0f6 6b3e 0ca2 553e c444 273e
00000150: 8200 2a3e 63c7 2d3e 0d4a a83d 8fef 2c3d
00000160: 1f1e 583e 4978 523e 0670 633e 407d 853e
00000170: 3854 153e 6dd7 623d cc77 9d3d a5bd 263e
00000180: ec39 f43d b4a1 733e 587b e53d 1bc9 ef3d
00000190: 525b ce3d 82b8 e63d 92a6 553d 9c75 253e
000001a0: 11aa d73d 7089 573e 2d7d 8b3e d66c dc3d
000001b0: dd4a 143e 7779 8a3d 36c4 fa3d 7846 803d
000001c0: 2e0b f93d ef79 513e 5856 4c3e f940 753e
000001d0: 928e 773e c975 ca3d 3f32 2f3e 4a77 ca3d
000001e0: 9894 6a3e 9715 583e 8064 0c3e 0270 113e
000001f0: 71c4 1a3d db42 7d3d bd9e 053e 55a7 223e
00000200: bfd8 2ebe 4259 98bd 5f25 d43c 3b17 913d
00000210: fbb5 533d 46aa e9bd f834 97bd b30a a5bd
00000220: 289d 5cbc a3cc 263c 3245 363d 00b4 b83d
00000230: 8c6d b03d e031 eebc 333b 4abd 3d05 463d
00000240: d261 85bd da03 783d 4b21 e33b dd36 95bc
00000250: 314d bebc 6f0b 74bd 41a5 ffbd 8e95 36bc
00000260: beda 50bd 76fd 3abd 5077 a2bd ced4 3ebc
00000270: 269c 8c3d 5bd9 5b3c 9ec0 99bd 52cd c13c
00000280: 4b4b b2bd 6b0a a3bd 4b52 acbd 8a17 b4bc
00000290: 061d 363c f9df 413c dd3d 87bd efdc 8ebd
000002a0: 0bfe c7bc dc39 93bc a40b 10bd 1ba3 963a
000002b0: 5994 e63c 715b e73d 4364 97bd 3be2 afbc
000002c0: 2cfa 763d 9b74 123d c89d 0b3c 93af ba3d
000002d0: 55f7 49bc 5874 f0bc 5a69 dabd c9b5 b5bd
000002e0: c89d d03c 098a 833d 27a5 913d 573d 623d
000002f0: 565d 953d dd3b 9e3c 4f5e 1dbe f8a3 f1bd
00000300: 6226 3c3d 6c9a b0bd fa7c 673d 5b18 d43d
00000310: c1e1 7e3d c47a 943d 2bbb bbbb 8dff 28bd
00000320: 844e 29be 92af afbd 2804 d6bd 7f61 30bd
00000330: 33a2 873c 647a 0ebd 646f 07bc 221d 4dbc
00000340: 5fff 0cbc 5472 1f3c b335 343c 15ad 00bd
00000350: 0e1b 213d 0af4 b9bc d595 47bd d266 0cbb
00000360: e83e 3f3d 2286 7cbd ad20 753d 48c8 763d
00000370: e367 2cbc 821a 6bbd bcc7 d3bc 8cd3 aebd
00000380: d8c4 1b3d ffc0 123c ad51 763d a8c9 c33d
00000390: 742a 2e3d 391d 64bc 5357 07bd a62f 293d
000003a0: c906 f2b9 7198 0fbc e7d2 b1bc e586 68bd
000003b0: 378e 353d cf7f 693d efa7 17bd e6c0 8ebc
000003c0: d55c c43d 6087 8ebb 44ab 483d e412 bdbd
000003d0: 3f37 8dbb 896f ad3b f7f0 1c3c 1eeb cdbd
000003e0: ebc8 f3bc 5221 fdbb d155 273d 2d07 a4bd
000003f0: 7a4e b43d fdda 513d efec 65bd d2ab 13bd

network_body.observation_encoder.processors.1.conv_layers.0.bias f4 [16]
0.0063264277 0.043155517 -0.01708256 -0.00070292136 -0.036264222 -0.0499666 -0.0043333666 0.043757707
-0.055484194 0.01968814 0.054648593 0.007704743 -0.0061131706 0.090925805 -0.00948305 -0.015302633
00000000: ec4d cf3b d7c3 303d baf0 8bbc 4144 38ba
00000010: cb89 14bd c7a9 4cbd eafe 8dbb 483b 333d
00000020: 6543 63bd 0649 a13c 34d7 5f3d 1278 fc3b
00000030: fe50 c8bb 4f37 ba3d cb5e 1bbc e5b7 7abc

network_body.observation_encoder.processors.1.conv_layers.2.weight f4 [32, 16, 4, 4]
0.115610555 0.003663688 0.12785365 -0.07177896 0.046985656 0.08683747 0.06093194 -0.006619589
0.046377264 0.09250529 0.032682773 -0.06556246 0.13301255 0.024207609 0.00044122574 -0.06520812
-0.14641911 -0.0065685343 0.035535812 0.021961149 -0.06046251 -0.030745665 0.040449966 0.105638325
0.07260295 0.02265814 0.016554372 0.030387705 0.04053203 0.09188748 0.098023355 0.10795581
0.008804199 -0.075001396 -0.0026189508 -0.09956212 0.05080076 0.11202006 0.015937166 0.08666605
0.07235137 0.08626707 -0.039470267 0.045019872 -0.03741908 -0.013226647 0.10531461 0.07797017
-0.08817343 -0.07444774 -0.050076917 -0.13647951 -0.042003937 -0.1162495 0.029589843 -0.0029487666
0.16626641 0.1733869 0.058439787 0.016128069 0.13590084 0.047211915 0.06162632 0.0044263517
0.111358635 0.0943563 0.087615676 -0.104697354 0.05761525 -0.039433155 0.07743511 -0.049264908
0.08207002 -0.08289601 0.01204452 0.033675976 -0.008289498 -0.061522804 -0.03639504 0.028960854
0.0044865147 0.08260842 0.17142473 0.06073738 0.007690149 0.0007017844 -6.8028357e-06 0.026200375
-0.06265681 0.06400724 0.05588609 0.008271312 0.07515407 -0.049492046 0.02565736 0.051133253
0.0070577986 0.015639186 -0.057715908 -0.10533581 -0.10363817 -0.02121769 0.05014062 -0.056749854
0.091206625 -0.040924508 0.085111514 0.1663217 -0.03943394 0.023688857 -0.019718096 0.14055014
-0.023886606 -0.11218908 0.08292309 -0.02174131 -0.034633793 -0.06278481 0.08751614 -0.0718007
0.08771507 9.1074486e-05 0.0032654312 -0.026572606 -0.016502809 0.031785958 0.042693 0.16395965
0.008374441 0.1380793 0.09006692 -0.0736014 0.060622614 -0.05749806 -0.04814188 -0.086705804
0.013193797 -0.11178896 -0.0010929909 0.07388473 0.03593758 0.10700536 0.03187173 -0.030141199
-0.033597767 -0.06190128 0.07758019 -0.04847406 -0.0054668416 0.03662264 0.07858643 -0.061730843
0.025537318 -0.034486525 0.008388492 0.013622698 0.03456608 0.214718 0.13341005 0.17753167
0.035328228 -0.06094792 -0.100377165 0.027775176 0.071906745 -0.04128235 -0.05003146 0.1519785
0.10345413 -0.0036333294 -0.15121448 0.03589841 -0.049560446 -0.012792721 0.025242858 -0.06530367
0.040865965 -0.0018389792 -0.0651356 -0.0013882301 -0.013581921 -0.03913398 0.049310178 0.0066722445
0.03516367 -0.004320589 0.0116020525 0.059536282 0.0017870574 -0.023872606 0.007219979 0.1519244
-0.074614786 0.10011705 0.011193788 -0.02865336 0.06465864 -0.06531798 -0.114487074 -0.075071916
0.106081195 -0.036613975 0.09289157 -0.022456298 -0.10052058 0.08805018 0.089078344 -0.027073456
0.0070050284 0.06861028 -0.022188252 -0.079055995 -0.040680807 -0.062070385 0.011999898 -0.15207224
0.040496144 -0.016461108 0.0068066106 -0.08552021 0.11382811 0.09810345 0.13237749 0.1216248
-0.032321982 0.00022517511 -0.03327528 -0.059421826 -0.025551442 -0.040955734 -0.060266893 -0.038844425
0.16741545 0.040523075 0.047841705 0.031703863 -0.047890726 0.15427043 0.1548546 -0.019939857
0.04469717 0.06885351 0.04821568 0.006080734 0.016399315 -0.008978097 -0.059287667 -0.15357836
0.020879207 0.08778359 -0.08399945 -0.07625393 -0.027544038 0.0092742685 -0.0130188875 0.1244232
00000000: 3ac5 ec3d 7c1a 703b 11ec 023e d900 93bd
00000010: 0874 403d d8d7 b13d c593 793d 23e9 d8bb
00000020: 16f6 3d3d 6a73 bd3d 5fde 053d 9c45 86bd
00000030: 7134 083e 094f c63c 5154 e739 d68b 85bd
00000040: e4ee 15be dc3c d7bb 008e 113d dee7 b33c
00000050: 89a7 77bd 55de fbbc ddae 253d e858 d83d
00000060: dbb0 943d 909d b93c 099d 873c a3ef f83c
00000070: ea04 263d 812f bc3d 78c0 c83d f017 dd3d
00000080: 7d3f 103c 559a 99bd b4a2 2bbb 3ae7 cbbd
00000090: 7514 503d c66a e53d a98e 823c f87d b13d
000000a0: f42c 943d caac b03d 93ab 21bd c266 383d
000000b0: c044 19bd 94b4 58bc 30af d73d d3ae 9f3d
000000c0: 4594 b4bd 0f78 98bd 741d 4dbd 49c1 0bbe
000000d0: 520c 2cbd 3814 eebd 6666 f23c 1840 41bb
000000e0: be41 2a3e 568c 313e 8f5e 6f3d 031f 843c
000000f0: 9729 0b3e 4861 413d e16b 7c3d ee0a 913b
00000100: ff0f e43d e03d c13d d96f b33d 916b d6bd
00000110: f8fd 6b3d a984 21bd 4d96 9e3d 00ca 49bd
00000120: 5414 a83d 62c5 a9bd 6156 453c d2ef 093d
00000130: add0 07bc 56ff 7bbd f712 15bd 503f ed3c
00000140: 9d03 933b 9a2e a93d f789 2f3e c2c7 783d
00000150: a5fd fb3b f4f7 373a ea43 e4b6 2ba2 d63c
00000160: 3752 80bd 3a16 833d d0e8 643d 6684 073c
00000170: 61ea 993d 2cb8 4abd 622f d23c 1a71 513d
00000180: 1b45 e73b c01d 803c 8467 6cbd 4dba d7bd
00000190: 4040 d4bd b9d0 adbc 4060 4d3d 8972 68bd
000001a0: 8aca ba3d 75a0 27bd f24e ae3d 3c50 2a3e
000001b0: 7c85 21bd 220f c23c d887 a1bc 60ec 0f3e
000001c0: d8ad c3bc 63c3 e5bd 95d3 a93d d51a b2bc
000001d0: 2adc 0dbd 5395 80bd a93b b33d 3f0c 93bd
000001e0: f5a3 b33d 3eff be38 d800 563b cbae d9bc
000001f0: e630 87bc fe31 023d dbde 2e3d 0ae5 273e
00000200: f434 093c a964 0d3e 0175 b83d 55bc 96bd
00000210: 6b4f 783d 1683 6bbd 6c30 45bd d092 b1bd
00000220: cc2a 583c 9cf1 e4bd b042 8fba e150 973d
00000230: 4933 133d a025 db3d ee8b 023d adea f6bc
00000240: d09d 09bd 328c 7dbd 5de2 9e3d bc8c 46bd
00000250: 3123 b3bb 9f01 163d ecf1 a03d 7bd9 7cbd
00000260: a333 d13c be41 0dbd e36f 093c bd31 5f3c
00000270: 2995 0d3d 09df 5b3e a59c 083e ddca 353e
00000280: 55b4 103d 87a4 79bd 8b92 cdbd c488 e33c
00000290: d843 933d ae17 29bd caed 4cbd 40a0 1b3e
000002a0: c2df d33d 271d 6ebb f8d7 1abe 360a 133d
000002b0: e5ff 4abd 9098 51bc 1cca ce3c eebd 85bd
000002c0: 1263 273d e709 f1ba d065 85bd 46f5 b5ba
000002d0: b586 5ebc f44a 20bd 78f9 493d d8a2 da3b
000002e0: c807 103d ba93 8dbb 8916 3e3c 51dc 733d
000002f0: b23b ea3a 7c90 c3bc 9395 ec3b 1292 1b3e
00000300: a3cf 98bd 2b0a cd3d 2666 373c 74ba eabc
00000310: c06b 843d 6fc5 85bd 3378 eabd 4ebf 99bd
00000320: 1941 d93d 89f8 15bd ef3d be3d 45f6 b7bc
00000330: bcdd cdbd a753 b43d b56e b63d 27c9 ddbc
00000340: 708a e53b 8c83 8c3d 23c4 b5bc 1ce8 a1bd
00000350: eba0 26bd 843d 7ebd 389b 443c d3b8 1bbe
00000360: 49df 253d 72d9 86bc fd09 df3b 3825 afbd
00000370: b61e e93d 76ea c83d f78d 073e 6c16 f93d
00000380: 0e64 04bd fc1c 6c39 a94b 08bd 4d64 73bd
00000390: 4251 d1bc 33c1 27bd 6bda 76bd 551b 1fbd
000003a0: f56e 2b3e 86fb 253d aaf5 433d e9db 013d
000003b0: 1129 44bd 11f9 1d3e 3492 1e3e e958 a3bc
000003c0: 6114 373d 1203 8d3d ce7d 453d e540 c73b
000003d0: db57 863c de18 13bc a0d7 72bd a543 1dbe
000003e0: df0a ab3c e2c7 b33d e707 acbd 052b 9cbd
000003f0: 09a4 e1bc 1af3 173c 2c4d 55bc 97d1 fe3d

network_body.observation_encoder.processors.1.conv_layers.2.bias f4 [32]
-0.008965412 0.019636448 -0.06305144 -0.061411053 -0.018182315 0.06281259 -0.062343433 -0.07907257
0.030461298 0.021850545 0.054668855 -0.06032699 -0.037761044 -0.05717457 0.009704321 -0.007557471
-0.0041030217 0.04891153 -0.028150456 0.049911197 -0.105824664 0.058957927 -0.103787154 -0.03377702
-0.04824485 0.005270443 -0.026510354 0.06202997 0.0040958035 -0.013005584 0.034717936 -0.0057057496
00000000: aae3 12bc 9edc a03c 1d21 81bd 288a 7bbd
00000010: 14f3 94bc e3a3 803d d45b 7fbd cdf0 a1bd
00000020: f989 f93c eaff b23c 73ec 5f3d 6f19 77bd
00000030: 53ab 1abd e22f 6abd dffe 1e3c a9a4 f7bb
00000040: a472 86bb 7557 483d c99b e6bc af6f 4c3d
00000050: 9aba d8bd de7d 713d 5c8e d4bd c659 0abd
00000060: 649c 45bd aeb3 ac3b 3e2c d9bc 2313 7e3d
00000070: 1736 863b 5f15 55bc 6534 0e3d 4cf7 babb

network_body.observation_encoder.processors.1.dense.0.weight f4 [64, 128]
-0.08175046 0.03495338 0.0326467 -0.14617299 -0.31250146 0.2170503 0.018268498 -0.036757115
0.06274241 0.10226893 -0.25229543 -0.04207601 -0.18776166 -0.20893914 0.12336159 0.20045294
0.055065457 -0.20652857 0.12461408 -0.14583114 -0.025925765 0.07084946 -0.25106308 -0.04882027
0.036662444 0.0040956694 0.12818077 0.13692747 -0.018194783 -0.12524098 -0.06634658 0.10272845
-0.037033696 -0.29904225 0.0073644216 0.14647569 0.32591447 0.15916868 -0.14543962 0.008981705
-0.101674825 0.30320522 0.07808655 -0.084115565 0.0839806 -0.36668912 0.11626948 0.17327742
-0.2210784 0.01409054 0.047194965 -0.05301803 0.1141881 -0.007329091 0.1385827 -0.05525337
0.11197491 -0.008172996 -0.15872344 -0.18236002 0.17122899 -0.05619893 0.26327157 -0.11383317
0.113799244 0.13887435 0.114923015 0.1129018 -0.030899461 0.09233035 -0.0032522436 0.100343384
-0.09710364 -0.07169978 0.24517916 0.00014321528 0.1524898 0.09997834 0.06021734 -0.0421389
-0.07831351 -0.06346228 0.00849841 0.013084819 0.15053798 0.06162279 0.020207336 0.09150666
0.30549863 -0.26749855 0.08304822 0.029860537 -0.21068032 0.08009728 0.043995783 0.035288166
0.1527008 -0.05998133 0.023487488 0.0724224 0.1979064 0.057865016 -0.32241255 0.13326573
-0.031361967 -0.008834449 0.026282493 -0.14162828 0.044917587 -0.04696401 -0.10400929 0.11242288
0.017080452 -0.06915505 0.059734672 -0.06908318 -0.012443401 0.15328318 0.041677307 0.26775882
-0.05680825 0.13464387 0.08464352 0.02166281 -0.07394329 0.15525159 -0.16863112 -0.03196975
-0.28105277 0.05484678 0.23694813 0.22565973 -0.031375512 0.2136435 -0.10005557 0.1053119
0.07935289 -0.20613666 -0.07260945 0.088223994 0.051474787 0.020747138 -0.20914884 0.08888708
0.21699013 0.11876789 -0.22310588 0.07410403 0.16714501 0.2856328 -0.21756043 0.09148318
-0.19130138 0.19972292 -0.13491929 0.25197598 -0.13029347 0.03143639 -0.18508427 0.17211024
-0.048041362 -0.06839431 -0.08043692 0.21216112 -0.18172406 -0.03873566 0.20369452 -0.014783869
-0.023687726 -0.149171 -0.4104049 -0.103562035 0.026612889 -0.086677685 0.03963595 -0.009854238
-0.40340856 0.04726025 0.10748158 -0.05054628 -0.0050076395 0.011279593 0.11192388 -0.018471016
0.14447707 0.037672255 0.06754617 0.11072834 0.0363031 0.017999843 -0.15687416 0.06524563
0.09725259 -0.028051188 -0.100673646 -0.17196289 0.05728774 -0.11617794 -0.14388487 0.33560893
0.09534473 0.079351045 0.076184586 -0.21523911 -0.014887164 -0.013909469 0.055775747 -0.047086034
-0.04308458 0.010294901 0.05345778 0.09331408 0.11816204 -0.35904834 -0.07896478 0.06901118
-0.25735793 0.36395502 -0.05241718 0.16153765 -0.07632834 -0.025375837 0.2747872 -0.07670972
0.0117473 0.04898476 0.04267892 0.08308983 -0.1707068 0.16600874 -0.086686425 -0.019360447
0.055305395 0.18700247 0.0859232 0.061915133 0.25160062 -0.081578165 0.056137968 0.052778907
-0.21906395 -0.032942668 0.19038218 -0.119902804 0.0010398834 -0.039578237 -0.09123771 0.030236954
-0.30192238 0.009090971 -0.036786582 -0.089641795 -0.10264621 0.19568054 0.08853035 -0.023367964
00000000: c96c a7bd 462b 0f3d 8cb8 053d 5fae 15be
00000010: 3100 a0be 6f42 5e3e d1a7 953c a18e 16bd
00000020: 187f 803d 5f72 d13d de2c 81be e557 2cbd
00000030: 9844 40be 24f4 55be 00a5 fc3d 8943 4d3e
00000040: 518c 613d 3a7c 53be ab35 ff3d c254 15be
00000050: 4562 d4bc 8619 913d 578b 80be c3f7 47bd
00000060: 5c2b 163d f734 863b d241 033e b736 0c3e
00000070: 3a0d 95bc 2c3f 00be b7e0 87bd 4b63 d23d
00000080: a5b0 17bd 111c 99be 3f51 f13b b9fd 153e
00000090: 43de a63e 1dfd 223e 20ee 14be 0028 133c
000000a0: e43a d0bd b73d 9b3e d7eb 9f3d c844 acbd
000000b0: 05fe ab3d adbe bbbe b11e ee3d a36f 313e
000000c0: 6062 62be 02dc 663c 824f 413d 6f29 59bd
000000d0: 73db e93d df28 f0bb a0e8 0d3e 5c51 62bd
000000e0: 1a53 e53d 08e8 05bc 6688 22be 96bc 3abe
000000f0: a756 2f3e d930 66bd 88cb 863e 5d21 e9bd
00000100: 940f e93d 1435 0e3e c25c eb3d 0f39 e73d
00000110: de20 fdbc b217 bd3d 9823 55bb d580 cd3d
00000120: 46de c6bd 56d7 92bd 3f10 7b3e 0f2c 1639
00000130: 4926 1c3e 72c1 cc3d 75a6 763d d799 2cbd
00000140: d562 a0bd 83f8 81bd ea3c 0b3c b561 563c
00000150: a126 1a3e 2e68 7c3d db89 a53c d867 bb3d
00000160: 516a 9c3e 92f5 88be 2f15 aa3d 169e f43c
00000170: 95bc 57be 0b0a a43d ec34 343d 538a 103d
00000180: 995d 1c3e fcae 75bd d568 c03c 3252 943d
00000190: faa7 4a3e de03 6d3d 4213 a5be d076 083e
000001a0: 6875 00bd 5dbe 10bc 624e d73c 0107 11be
000001b0: 81fb 373d 555d 40bd d302 d5bd f83d e63d
000001c0: 4eec 8b3c 2aa1 8dbd 58ac 743d 7b7b 8dbd
000001d0: 68df 4bbc 44f6 1c3e d3b5 2a3d af17 893e
000001e0: c4af 68bd 15e0 093e 9559 ad3d 3576 b13c
000001f0: 946f 97bd 46fa 1e3e a3ad 2cbe b6f2 02bd
00000200: 26e6 8fbe 04a7 603d 88a2 723e 5813 673e
00000210: 9c83 00bd 5dc5 5a3e efe9 ccbd c4ad d73d
00000220: c583 a23d 7d15 53be 43b4 94bd c8ae b43d
00000230: 3ad7 523d e7f5 a93c 1d2b 56be 6e0a b63d
00000240: a932 5e3e 943c f33d de75 64be dbc3 973d
00000250: 1028 2b3e 763e 923e 29c8 5ebe 895b bb3d
00000260: 82e4 43be 2a84 4c3e 4828 0abe ff02 813e
00000270: a76b 05be 72c3 003d bb86 3dbe ab3d 303e
00000280: 05c7 44bd 5112 8cbd 1dbc a4bd c440 593e
00000290: df15 3abe 49a9 1ebd 4c95 503e 0a38 72bc
000002a0: c30c c2bc 48c0 18be 9720 d2be 5518 d4bd
000002b0: 4603 da3c 1284 b1bd 4e59 223d ab73 21bc
000002c0: 918b cebe f793 413d 4d1f dc3d 9e09 4fbd
000002d0: 2017 a4bb 0bce 383c 5938 e53d 8750 97bc
000002e0: ccf1 133e 394e 1a3d a555 8a3d 8ac5 e23d
000002f0: 8fb2 143d 6874 933c 9fa3 20be 809f 853d
00000300: 5e2c c73d 9bcb e5bc fc2d cebd 0a17 30be
00000310: 8da6 6a3d b3ee edbd 8e56 13be efd4 ab3e
00000320: 1944 c33d cd82 a23d aa06 9c3d a467 5cbe
00000330: 4be9 73bc 8be4 63bc 1c75 643d 49dd 40bd
00000340: 7579 30bd f2ab 283c 8cf6 5a3d 741b bf3d
00000350: f1fe f13d 2fd5 b7be 49b8 a1bd bc55 8d3d
00000360: 6bc4 83be 5058 ba3e 66b3 56bd 206a 253e
00000370: 0852 9cbd fde0 cfbc e8b0 8c3e fc19 9dbd
00000380: bf77 403c 3ea4 483d 17d0 2e3d 002b aa3d
00000390: c3cd 2ebe 32fe 293e a788 b1bd cd99 9ebc
000003a0: e987 623d 937d 3f3e 81f8 af3d b99a 7d3d
000003b0: ccd1 803e 7412 a7bd edf0 653d b22e 583d
000003c0: 4d52 60be e4ee 06bd 8cf3 423e 9a8f f5bd
000003d0: b24c 883a ca1c 22bd d6da babd 7db3 f73c
000003e0: 9295 9abe 4cf2 143c 87ad 16bd 1e96 b7bd
000003f0: 2d38 d2bd 7b60 483e 664f b53d 2c6e bfbc

network_body.observation_encoder.processors.1.dense.0.bias f4 [64]
0.015086868 0.032108616 0.02459626 0.046398245 0.012522692 -0.013465555 0.021163207 0.04067687
0.051897306 0.046053775 0.051493865 0.059071828 0.028546816 -0.01927419 -0.0024606509 0.028352404
0.041710317 -0.038302675 0.042334847 0.019397624 0.043179967 0.04759522 0.015887463 0.04032988
0.04101074 0.04568975 0.044354577 0.040227696 0.032644033 0.0024754861 0.025913013 0.0029217904
-0.025552027 0.053841565 0.06014407 0.03832062 0.036708545 0.05265599 0.04224901 0.06755782
0.05515279 0.051805153 -1.2450252e-05 -0.024534203 0.06865149 0.054602858 0.020164741 -0.009721745
0.00073418283 0.04867188 0.03871043 0.028337808 0.04750287 0.048236396 0.07348957 -0.02756865
-0.032715254 0.06958561 0.04149229 -0.0020775832 0.05851637 -0.011106451 0.048709292 0.020150581
00000000: e92e 773c 5384 033d 197e c93c 160c 3e3d
00000010: fa2b 4d3c a29e 5cbc 765e ad3c ca9c 263d
00000020: 4592 543d e2a2 3c3d 3beb 523d 4df5 713d
00000030: 03db e93c e8e4 9dbc df42 21bb 4d43 e83c
00000040: 70d8 2a3d 44e3 1cbd 4e67 2d3d c4e7 9e3c
00000050: 7add 303d 35f3 423d 6d26 823c f230 253d
00000060: e1fa 273d 2d25 3b3d 25ad 353d ccc5 243d
00000070: c0b5 053d c43b 223b 8747 d43c 827b 3f3b
00000080: 7c52 d1bc f988 5c3d a159 763d 15f6 1c3d
00000090: b35b 163d cfad 573d 4c0d 2d3d c15b 8a3d
000000a0: e4e7 613d a431 543d 6de1 50b7 f4fb c8bc
000000b0: 2799 8c3d 3fa7 5f3d 8730 a53c f447 1fbc
000000c0: 2d76 403a 2a5c 473d d48e 1e3d b124 e83c
000000d0: 5f92 423d 8793 453d b381 963d a6d7 e1bc
000000e0: 6e00 06bd e682 8e3d d2f3 293d 1028 08bb
000000f0: dcae 6f3d d5f7 35bc 6583 473d d512 a53c

network_body._body_endoder.seq_layers.0.weight f4 [64, 439]
0.18575309 0.0005380357 0.0894611 -0.05535265 -0.007856697 0.017192006 0.118042216 0.007846733
0.08750575 -0.06627433 0.011550605 0.047904152 0.15930215 -0.06163485 0.0895507 0.014996139
0.017573444 0.015663952 0.051438265 -0.025099736 -0.011655663 -0.05332423 0.04235125 0.03057425
0.09227289 -0.083478056 0.01689533 0.059099115 0.0977152 0.03183128 0.0076979073 0.038235225
0.12659015 0.10445807 -0.0014683976 0.028155021 0.21343143 0.011794769 0.035902217 -0.019684447
-0.065337405 0.03718174 0.07299094 0.0047808797 -0.04756792 -0.040133554 -0.06919245 -0.015671672
-0.018801656 -0.05064364 0.081760116 -0.07040365 0.079421096 0.024671918 -0.009675673 -0.02001252
0.018866926 0.04148559 0.03879049 0.00785767 0.12824519 0.09577993 0.006072301 -0.04741487
0.016331943 -0.046594054 -0.014741399 0.10437942 0.030537622 -0.03141966 0.01832063 0.011018066
0.00015615148 0.0014291223 0.014883132 0.0607752 0.028139686 0.100776315 -0.116313726 -0.075030714
-0.045123775 0.06998762 -0.012057267 -0.061356284 -0.10347426 -0.09858073 -0.095198214 -0.14809312
0.058807194 0.06917139 0.11240281 0.024258988 0.042546067 -0.120959684 0.021658886 -0.048969835
-0.02524104 -0.04263369 0.016372655 -0.06945911 -0.037536535 0.071078785 -0.10258727 -0.010649864
0.08246335 -0.16869104 0.050350323 0.15667215 0.089870304 0.049070254 -0.09311259 0.09198128
-0.074085005 -0.028977081 0.0889454 -0.108652495 -0.025277657 -0.01243753 0.21573688 -0.02153438
-0.14933874 0.04588464 0.055407602 -0.10196623 0.15142445 -0.048965234 0.07060142 -0.05303404
-0.107927375 -0.076766424 0.07731673 0.0908762 -0.10933206 -0.024153484 -0.0081561385 0.09410639
0.19891621 -0.032455016 0.19775146 0.0021274653 0.1373902 -0.053019058 0.019191502 -0.19334693
0.14227745 -0.056754217 -0.07110891 -0.0105908215 0.013721496 0.03427389 -0.13164242 0.086688556
-0.17364402 -0.060931694 -0.17207038 -0.08517076 -0.13168186 -0.04160571 0.16854939 -0.034691907
-0.06287452 -0.056143392 0.022482287 0.0344055 0.06269372 -0.032308716 0.04008768 0.06855258
-0.16388582 -0.019785402 -0.09191308 -0.03336472 0.07651862 -0.01405314 0.008892765 0.012927219
0.17151101 0.010219097 -0.013263842 -0.07775579 0.14074485 -0.13267712 0.026641892 0.011245589
0.071095705 0.05873211 -0.13379447 -0.036861368 -0.054110695 0.13933164 -0.09033549 0.048114732
-0.028936408 -0.025571866 0.1524161 -0.21697423 -0.025573105 -0.07387968 0.07561334 -0.09290764
-0.108642094 4.37685e-05 0.09699413 0.037717775 -0.16029318 -0.01633337 0.0057664234 -0.019414475
-0.01953907 0.055797286 0.032522343 -0.0900831 0.22779728 -0.123475626 -0.084565066 -0.013194001
0.14493515 -0.016072333 -0.007794952 -0.10484791 0.006574911 0.09680135 -0.21123494 -0.20208329
-0.032474104 -0.014184875 -0.14076787 0.11973377 0.113896884 0.056871332 0.19199729 -0.07539306
-0.051356316 -0.05926676 0.1346928 -0.0396588 0.069990166 0.049876753 0.045113683 -0.08257832
-0.042740755 -0.13295034 0.060000613 0.081694946 -0.023334425 -0.0006518825 0.0991928 0.0036419537
0.13854808 0.0056427508 0.052539468 -0.121031016 -0.07480742 0.04624254 -0.06794472 0.007495197
00000000: 0f36 3e3e f70a 0d3a 6237 b73d 76b9 62bd
00000010: 60b9 00bc 40d6 8c3c 1ec0 f13d 958f 003c
00000020: 3736 b33d d6ba 87bd c03e 3d3c 2537 443d
00000030: 1a20 233e d374 7cbd 5b66 b73d 5eb2 753c
00000040: 2ff6 8f3c b051 803c eeb0 523d f69d cdbc
00000050: 65f7 3ebc 826a 5abd 8178 2d3d d976 fa3c
00000060: 92f9 bc3d 8bf6 aabd 1368 8a3c ea11 723d
00000070: e81e c83d 8461 023d ba3e fc3b 8a9c 1c3d
00000080: d9a0 013e 1dee d53d 3f77 c0ba 5ca5 e63c
00000090: c58d 5a3e d93e 413c 340e 133d 4741 a1bc
000000a0: 9ecf 85bd e14b 183d 467c 953d eda8 9c3b
000000b0: 94d6 42bd 1563 24bd c5b4 8dbd e161 80bc
000000c0: ee05 9abc b56f 4fbd d971 a73d ca2f 90bd
000000d0: 87a7 a23d c31c ca3c b786 1ebc 4cf1 a3bc
000000e0: d08e 9a3c cbec 293d c7e2 1e3d 75bd 003c
000000f0: b552 033e 4528 c43d 27fa c63b 1836 42bd
00000100: 91ca 853c 68d9 3ebd e985 71bc e1c4 d53d
00000110: 092a fa3c e7b1 00bd 2515 963c 1e85 343c
00000120: 98bc 2339 6351 bb3a 61d8 733c 6bef 783d
00000130: 3385 e63c d063 ce3d e435 eebd b4a9 99bd
00000140: b5d3 38bd ab55 8f3d d88b 45bc ba50 7bbd
00000150: 50ea d3bd b2e4 c9bd 48f7 c2bd b9a5 17be
00000160: d0df 703d bba9 8d3d 7233 e63d c9ba c63c
00000170: c944 2e3d b6b9 f7bd fa6d b13c 9894 48bd
00000180: 4cc6 cebc aaa0 2ebd f21f 863c 9440 8ebd
00000190: e9bf 19bd c191 913d 4619 d2bd c47c 2ebc
000001a0: 8be2 a83d 58bd 2cbe 243c 4e3d aa6e 203e
000001b0: ec0d b83d e4fd 483d d0b1 bebd ae60 bc3d
000001c0: e1b9 97bd 5861 edbc 0229 b63d 3385 debd
000001d0: 1713 cfbc c8c6 4bbc 21ea 5c3e de68 b0bc
000001e0: 41ec 18be 88f1 3b3d 15f3 623d acd3 d0bd
000001f0: 030f 1b3e c58f 48bd 7a97 903d 393a 59bd
00000200: 0709 ddbd b737 9dbd 3c58 9e3d 4d1d ba3d
00000210: 7de9 dfbd 87dd c5bc 53a1 05bc daba c03d
00000220: b1b0 4b3e 8def 04bd 5c7f 4a3e f26c 0b3b
00000230: 04b0 0c3e 832a 59bd 7f37 9d3c bdfc 45be
00000240: 2eb1 113e 1c77 68bd 8ca1 91bd 2085 2dbc
00000250: 20d0 603c c762 0c3d 45cd 06be c589 b13d
00000260: bdcf 31be 8393 79bd 3833 30be 026e aebd
00000270: 9cd7 06be c06a 2abd 3698 2c3e 1a19 0ebd
00000280: 5bc4 80bd 9df6 65bd c62c b83c c8ec 0c3d
00000290: 9165 803d 2556 04bd fb32 243d 4c65 8c3d
000002a0: afd1 27be ff14 a2bc ed3c bcbd 72a9 08bd
000002b0: cbb5 9c3d 243f 66bc f6b2 113c b0cc 533c
000002c0: 95a0 2f3e 006e 273c 9650 59bc 6d3e 9fbd
000002d0: 6b1f 103e 83dc 07be 1940 da3c 6b3f 383c
000002e0: a09a 913d 1591 703d 6b01 09be f2fb 16bd
000002f0: 2da3 5dbd f4ac 0e3e d001 b9bd f413 453d
00000300: 0c0c edbc 177c d1bc f712 1c3e 7e2e 5ebe
00000310: b07e d1bc 3b4e 97bd 2bdb 9a3d 5c46 bebd
00000320: bf7f debd 1294 3738 dca4 c63d f47d 1a3d
00000330: e523 24be 8fcd 85bc 44f4 bc3b 1b0b 9fbc
00000340: 6610 a0bc b28b 643d 2636 053d 7d7d b8bd
00000350: b143 693e cae0 fcbd 7330 adbd a72b 58bc
00000360: e169 143e 20aa 83bc cc6c ffbb 80ba d6bd
00000370: 5a72 d73b c93f c63d f94d 58be ecee 4ebe
00000380: 9103 05bd ae67 68bc 7425 10be fb36 f53d
00000390: c542 e93d eaf1 683d f09a 443e ad67 9abd
000003a0: 005b 52bd b4c1 72bd e9ec 093e 4471 22bd
000003b0: 0157 8f3d 914b 4c3d 20c9 383d d21e a9bd
000003c0: ee10 2fbd 2224 08be 34c3 753d ae4f a73d
000003d0: d627 bfbc 18e3 2aba 9825 cb3d d8ad 6e3b
000003e0: 8cdf 0d3e d3e6 b83b a033 573d 1cdf f7bd
000003f0: a234 99bd d168 3d3d 9a26 8bbd 459a f53b

network_body._body_endoder.seq_layers.0.bias f4 [64]
0.019748677 0.0111106 0.014636241 -0.032508153 -0.0004910298 0.02323331 0.00025135532 0.042587247
0.01276125 0.01930271 0.028543178 0.029627753 0.010052231 0.048004773 0.03970209 0.0122510195
0.01226588 0.03584166 0.019210303 0.02654699 0.031316385 -0.019876843 0.047367807 0.009292211
0.014294923 0.021760033 0.021213805 -0.005180064 0.013072357 0.012653876 0.018532041 0.04873538
-0.039438836 -0.052463636 0.031014986 0.009911012 0.027890554 0.01396727 0.033631925 0.02709627
0.012938928 0.02601702 0.021704482 0.044478618 0.035378534 0.011685356 -0.00690635 0.026814848
-0.03908893 -0.00025649293 0.004202559 0.028198801 0.022986012 -0.00644996 0.028400218 0.008470653
0.041503936 0.009926592 -0.04413546 0.012653738 0.008673431 0.023057776 0.014212673 -0.017000578
00000000: fac7 a13c 3c09 363c d8cc 6f3c 4527 05bd
00000010: 74b8 00ba c853 be3c 57c8 8339 f76f 2e3d
00000020: 9014 513c b820 9e3c 62d3 e93c e7b5 f23c
00000030: 1db2 243c a7a0 443d a99e 223d 80b8 483c
00000040: d4f6 483c b4ce 123d ed5e 9d3c 1379 d93c
00000050: 9c45 003d c3d4 a2bc bf04 423d 5c3e 183c
00000060: 4135 6a3c 1942 b23c 93c8 ad3c 87bd a9bb
00000070: 702d 563c 3452 4f3c 82d0 973c c09e 473d
00000080: 9e8a 21bd 1ce4 56bd 2413 fe3c cc61 223c
00000090: bb7a e43c fad6 643c a1c1 093d fff8 dd3c
000000a0: ccfd 533c a521 d53c 99cd b13c 362f 363d
000000b0: 15e9 103d ef73 3f3c aa4e e2bb d0aa db3c
000000c0: b71b 20bd e679 86b9 9fb5 893b 2c01 e73c
000000d0: 294d bc3c 305a d3bb 93a7 e83c 7ec8 0a3c
000000e0: 0800 2a3d 25a3 223c 62c7 34bd a051 4f3c
000000f0: 021b 0e3c a9e3 bc3c 45dc 683c cc44 8bbc

network_body._body_endoder.seq_layers.2.weight f4 [64, 64]
-0.123956166 0.1351377 -0.06217053 -0.40837893 -0.16513157 0.16208492 0.064050004 -0.3458006
0.07925745 -0.022866413 -0.23574902 0.07224903 0.1655859 0.23032662 -0.18398508 0.20943123
-0.115322985 -0.15527841 -0.0132810455 0.016689165 0.045863308 -0.18845074 0.33837566 0.225423
0.12376187 -0.0058929003 0.035193726 0.35096136 0.08206236 -0.2633105 -0.02786064 0.18413089
-0.18251544 -0.054825388 0.09058849 -0.07823206 0.078184806 0.0019804102 0.15555248 -0.051564727
-0.19407885 0.014256493 0.06710944 -0.05370089 0.084337436 -0.11610798 0.018059114 -0.31874815
0.0487118 -0.2844615 -0.1334011 0.19562183 0.08333631 0.036224138 0.28693548 -0.18215677
0.09062748 0.08372307 -0.00028002792 0.19931497 0.05488501 0.056412876 0.23234284 -0.36809754
-0.1513943 -0.1949201 -0.018521974 0.05932043 -0.030465279 0.040562812 0.08311368 0.11871656
-0.055132452 -0.14651957 -0.25152972 -0.17621271 0.17122127 -0.051844247 -0.032098882 -0.11969212
-0.048374783 -0.026787944 -0.08050257 -0.025635548 0.13759427 -0.046504535 -0.22336179 -0.095410876
-0.20057267 0.13495645 0.17656067 -0.025661943 0.06011923 0.018228699 -0.009696082 -0.04779858
-0.116909064 0.035993587 -0.009109392 0.101072736 0.04134711 0.015283761 -0.095798776 -0.061779823
0.031233205 0.17601648 0.3346708 0.010347936 0.004682463 0.114994176 -0.0809224 0.08794665
0.047160316 0.13522199 -0.0014345385 0.14003396 -0.024375003 -0.0066680047 0.12139947 0.11232267
0.025622139 -0.16256027 -0.10144594 0.2220102 -0.057700377 -0.11381406 -0.005749021 -0.091442876
-0.078024074 -0.016760442 -0.043713838 -0.00035311878 -0.07772698 0.1924698 0.009884323 -0.032784343
-0.06418612 0.23002025 -0.050592534 -0.15231891 -0.032133207 -0.004708477 -0.107701205 -0.04680309
-0.06454941 0.040700138 0.13125215 -0.0760149 -0.11309896 -0.17880489 0.28828797 0.13158317
0.09572746 -0.03390607 -0.04530874 0.115014 -0.019529045 0.15890045 0.08323701 0.010031853
0.05060672 0.020103399 0.13330072 -0.10261813 0.09450374 -0.11400359 0.003969454 0.09049052
0.08123403 0.10673809 0.0132082 0.21780157 0.19079827 -0.19002558 -0.095580354 0.062043697
-0.123534195 0.043744102 -0.0012440229 0.020675095 -0.013504052 0.08641747 0.19186012 -0.101348504
0.14579771 -0.07026381 -0.20830095 0.06039246 -0.012315343 -0.045749232 0.10093512 0.033967216
0.16911371 0.0127071915 -0.028105468 -0.098190844 0.12310873 0.01949133 -0.046145752 0.2580136
-0.23583113 0.14361028 0.06452133 0.12058371 -0.0030986713 0.063384905 0.12235181 -0.3327055
-0.112750255 0.097463205 0.16434583 -0.14271875 -0.062528744 -0.1535093 -0.2517557 -0.14087799
0.23020083 0.08591121 -0.108114876 0.14066698 0.22252183 -0.038851503 -0.035831586 -0.030199466
0.12862763 0.38554865 0.07919881 0.18961665 0.13342242 -0.038417954 0.050808355 -0.15673527
-0.18822196 0.045436773 0.13779566 0.2383804 0.105611905 -0.04761478 -0.071113795 0.2158884
0.02255959 0.106552586 -0.14096384 -0.09442404 -0.047016658 -0.076849125 -0.022366539 0.10350395
0.12561457 -0.041917186 0.13315625 0.15660287 0.012775259 -0.060650297 -0.071269445 -0.19125465
00000000: bbdc fdbd 8a61 0a3e 87a6 7ebd 0b17 d1be
00000010: 4018 29be 97f9 253e a62c 833d c70c b1be
00000020: bb51 a23d 5852 bbbc 3168 71be 4df7 933d
00000030: 5a8f 293e beda 6b3e 9666 3cbe 2475 563e
00000040: 752e ecbd 4e01 1fbe be98 59bc b7b7 883c
00000050: 2adb 3b3d 3bf9 40be 933f ad3e 49d5 663e
00000060: dd76 fd3d 3b19 c1bb 4c27 103d 35b1 b33e
00000070: 5010 a83d a2d0 86be ff3b e4bc cf8c 3c3e
00000080: 54e5 3abe 9690 60bd 7586 b93d 2138 a0bd
00000090: 5b1f a03d c5c9 013b 2649 1f3e 8935 53bd
000000a0: 9bbc 46be 1194 693c ad70 893d 77f5 5bbd
000000b0: 1bb9 ac3d 05ca edbd b5f0 933c f532 a3be
000000c0: 0686 473d f0a4 91be 4c9a 08be 1751 483e
000000d0: 3aac aa3d c35f 143d 35e9 923e 4e87 3abe
000000e0: e69a b93d 0077 ab3d b6d0 92b9 3919 4c3e
000000f0: 1bcf 603d 3011 673d 48eb 6d3e 4877 bcbe
00000100: 1b07 1bbe 2299 47be 65bb 97bc fbf9 723d
00000110: 5292 f9bc 3125 263d 8137 aa3d ab21 f33d
00000120: 91d2 61bd 3a09 16be 81c8 80be 1b71 34be
00000130: a154 2f3e a25a 54bd 1e7a 03bd 2421 f5bd
00000140: a324 46bd 6472 dbbc 88de a4bd a401 d2bc
00000150: 83e5 0c3e 8a7b 3ebd f4b8 64be c766 c3bd
00000160: ec62 4dbe 0632 0a3e 52cc 343e ff38 d2bc
00000170: 953f 763d 5a54 953c 51dc 1ebc 72c8 43bd
00000180: 056e efbd 036e 133d 8f3f 15bc 39ff ce3d
00000190: 965b 293d bd68 7a3c 2632 c4bd d70c 7dbd
000001a0: c7dc ff3c aa3d 343e f959 ab3e 648a 293c
000001b0: 596f 993b 1182 eb3d a5ba a5bd 601d b43d
000001c0: 2d2b 413d a277 0a3e 2007 bcba 1065 0f3e
000001d0: 16ae c7bc 477f dabb 49a0 f83d 6e09 e63d
000001e0: 85e5 d13c 3376 26be e4c2 cfbd a456 633e
000001f0: 3b57 6cbd 5917 e9bd 4962 bcbb 6746 bbbd
00000200: 16cb 9fbd 324d 89bc 480d 33bd cd22 b9b9
00000210: 532f 9fbd ce16 453e dbf1 213c e048 06bd
00000220: 0374 83bd 6e8a 6b3e 1e3a 4fbd 7df9 1bbe
00000230: 1c9e 03bd 9149 9abb 7392 dcbd 99b4 3fbd
00000240: 7b32 84bd 30b5 263d f766 063e b3ad 9bbd
00000250: 6da0 e7bd a118 37be 7b9a 933e bdbd 063e
00000260: c20c c43d 17e1 0abd a895 39bd 768c eb3d
00000270: 60fb 9fbc cdb6 223e 2a78 aa3d a45c 243c
00000280: fe48 4f3d e2af a43c fc7f 083e 7429 d2bd
00000290: 2d8b c13d b77a e9bd 3212 823b 1853 b93d
000002a0: 075e a63d 8099 da3d 3567 583c 6007 5f3e
000002b0: 9f60 433e 1196 42be a2bf c3bd 8821 7e3d
000002c0: 7fff fcbd 042d 333d 7b0e a3ba d15e a93c
000002d0: 1940 5dbc a4fb b03d fb76 443e ce8f cfbd
000002e0: ff4b 153e 79e6 8fbd d84c 55be 165e 773d
000002f0: 4bc6 49bc 8c63 3bbd 12b7 ce3d 3521 0b3d
00000300: 252c 2d3e d331 503c 703d e6bc 4818 c9bd
00000310: 6e20 fc3d 48ac 9f3c 5403 3dbd 5c1a 843e
00000320: b77d 71be 930e 133e c223 843d 98f4 f63d
00000330: 1413 4bbb f2cf 813d 9693 fa3d 6058 aabe
00000340: 9be9 e6bd ca9a c73d 464a 283e dd24 12be
00000350: 120f 80bd 8b31 1dbe 20e6 80be 5242 10be
00000360: c4b9 6b3e 37f2 af3d 556b ddbd 010b 103e
00000370: c3dc 633e c122 1fbd 24c4 12bd df64 f7bc
00000380: f6b6 033e a266 c53e fc32 a23d de2a 423e
00000390: e39f 083e 255c 1dbd 6c1c 503d 367f 20be
000003a0: 42bd 40be e91b 3a3d 4e1a 0d3e fe19 743e
000003b0: 0e4b d83d b707 43bd 1ca4 91bd d911 5d3e
000003c0: e4ce b83c 3e38 da3d d358 10be 6461 c1bd
000003d0: 8a94 40bd 1363 9dbd 083a b7bc e1f9 d33d
000003e0: 1ba1 003e 5bb1 2bbd 1d5a 083e 815c 203e
000003f0: 524f 513c 726c 78bd b7f5 91bd 42d8 43be

network_body._body_endoder.seq_layers.2.bias f4 [64]
0.041790158 0.018223587 0.014299605 0.029776758 0.03797255 0.06678384 -0.0025542642 0.01623177
-0.036267333 0.029624688 0.0196939 -0.0032012444 -0.009757492 0.026366577 -0.032821313 0.024492757
-0.012213948 0.024593865 0.021355595 0.024652883 0.031076495 0.006167176 -0.028332803 0.0028827437
-0.00042171704 0.010697274 0.040033024 -0.019621192 0.043521605 0.033582196 -0.0057897223 -0.001586577
-0.0067246305 0.0324814 0.039899807 0.0038502736 -0.019935574 0.01827404 0.06092716 -0.027356097
0.034996044 -0.035189256 0.03447336 -0.0051037353 -0.014349405 0.048454236 0.026558656 0.007772485
0.0661791 0.027573552 0.0013060234 0.022722635 0.05626723 -0.0044370573 0.034764234 0.04466142
0.024100222 -0.016464347 -0.00930299 -0.0072650565 0.0137609495 0.04287642 0.013053167 -0.009145684
00000000: 282c 2b3d a249 953c e448 6a3c 63ee f33c
00000010: 1b89 1b3d f7c5 883d 7165 27bb 7df8 843c
00000020: 0e8d 14bd 79af f23c 1a55 a13c f8cb 51bb
00000030: e3dd 1fbc b8fe d73c a46f 06bd 09a5 c83c
00000040: 031d 48bc 1379 c93c eef1 ae3c d8f4 c93c
00000050: 2294 fe3c 0616 ca3b 321a e8bc 6aec 3c3b
00000060: e719 ddb9 9e43 2f3c abf9 233d 9fbc a0bc
00000070: b643 323d 7c8d 093d b6b7 bdbb b1f4 cfba
00000080: 4a5a dcbb 370b 053d fb6d 233d df54 7c3b
00000090: ee4f a3bc 71b3 953c c28e 793d e519 e0bc
000000a0: 0358 0f3d 9c22 10bd f033 0d3d 3c3d a7bb
000000b0: c419 6bbc f377 463d 8a91 d93c 54b0 fe3b
000000c0: e888 873d eee1 e13c e02e ab3a d224 ba3c
000000d0: 7878 663d bc64 91bb f164 0e3d e5ee 363d
000000e0: d46d c53c 3de0 86bc 916b 18bc b60f eebb
000000f0: 9b75 613c 2f9f 2f3d f3dc 553c c7d7 15bc

action_model._continuous_distribution.log_sigma f4 [1, 2]
0.30212292 0.33772576
00000000: dbaf 9a3e 64ea ac3e

action_model._continuous_distribution.mu.weight f4 [2, 64]
-0.1184007 0.05336855 0.07168235 0.09973302 0.11088343 -0.0057044607 0.00438463 -0.034108985
-0.061180364 -0.016828723 -0.050057 0.024702951 0.004057907 0.03544456 0.047757063 -0.09674726
0.048621807 0.03373264 0.033754434 0.047490276 0.06089712 -0.06195586 -0.0048616356 -0.006959874
0.08082092 0.12133138 0.020061197 -0.081823334 -0.09637584 -0.11642782 -0.051090572 -0.06893511
-0.06295068 0.11276145 0.056268897 0.13777854 0.04773369 -0.13391814 -0.121635094 0.030288994
-0.028776657 -0.006269798 0.036675718 -0.06498856 -0.02392666 -0.028994028 -0.0913854 -0.022058474
-0.07464832 -0.03939142 -0.032091286 0.06685013 0.09690661 0.092002444 0.046635427 0.024803873
0.028745862 -0.05006404 -0.10542871 0.055911466 0.030165765 -0.1494336 -0.06898686 -0.020151284
0.03933918 0.066171914 0.07938813 0.043017 -0.05078051 0.010817772 -0.06077116 -0.093074754
-0.011877296 0.0639022 0.09586111 0.036879703 0.005295544 0.08095189 0.05606186 0.04433674
0.14322494 -0.00030163283 0.0022497522 0.11454548 -0.13117175 0.026128419 0.06986791 -0.08177345
-0.014298137 0.09341062 -0.121875055 -0.013657391 -0.07013465 -0.003516095 -0.12541543 0.005737989
0.022818042 0.022177251 0.025717037 0.041536216 0.077747256 -0.08062211 0.1262899 0.041039575
0.061371293 -0.035070103 0.017922016 0.1082634 0.010500011 -0.09721726 -0.012753916 -0.05853249
0.11490692 0.060249567 -0.013309513 -0.040681675 -0.12614511 -0.02832687 -0.050579477 0.04956534
-0.09305806 0.027500119 -0.043025315 -0.06479977 0.07137855 0.011427063 -0.020674074 0.022194829
00000000: 117c f2bd fb98 5a3d 32ce 923d d340 cc3d
00000010: da16 e33d 7cec babb f1ac 8f3b ddb5 0bbd
00000020: 4398 7abd 64dc 89bc 9208 4dbd d85d ca3c
00000030: 31f8 843b 512e 113d e99c 433d 6d23 c6bd
00000040: a927 473d 3d2b 0a3d 1742 0a3d 2a85 423d
00000050: 426f 793d 6ec5 7dbd 5b4e 9fbb a80f e4bb
00000060: 7085 a53d 967c f83d 6157 a43c fe92 a7bd
00000070: b260 c5bd b571 eebd 5944 51bd da2d 8dbd
00000080: 49ec 80bd 7aef e63d 377a 663d d115 0d3e
00000090: 6784 433d d621 09be d21b f9bd a020 f83c
000000a0: 06bd ebbc e172 cdbb 4739 163d b918 85bd
000000b0: d801 c4bc e284 edbc 4528 bbbd f9b3 b4bc
000000c0: 38e1 98bd e658 21bd 2772 03bd b9e8 883d
000000d0: f976 c63d c76b bc3d ca04 3f3d 7e31 cb3c
000000e0: 717c eb3c f30f 4dbd 02eb d7bd 6c03 653d
000000f0: 321e f73c 1f05 19be fc48 8dbd 4e14 a5bc
00000100: 1f22 213d 2485 873d 3e96 a23d 9832 303d
00000110: 39ff 4fbd 063d 313c 2eeb 78bd fa9d bebd
00000120: fd98 42bc 28df 823d d452 c43d 2c0f 173d
00000130: 3e86 ad3b 1bca a53d 1fa1 653d 719a 353d
00000140: 8fa9 123e 7924 9eb9 9470 133b d296 ea3d
00000150: e351 06be 440b d63c e816 8f3d d778 a7bd
00000160: bc42 6abc 114e bf3d a199 f9bd 40c3 5fbc
00000170: c1a2 8fbd 496e 66bb e76c 00be be05 bc3b
00000180: e7ec ba3c 11ad b53c 89ac d23c e121 2a3d
00000190: f439 9f3d 341d a5bd 2452 013e 1d19 283d
000001a0: 7760 7b3d aba5 0fbd 31d1 923c 34b9 dd3d
000001b0: 3d08 2c3c d819 c7bd cdf5 50bc c4bf 6fbd
000001c0: 5254 eb3d 40c8 763d 2510 5abc d4a1 26bd
000001d0: 2f2c 01be c10d e8bc 6d2c 4fbd 0705 4b3d
000001e0: 3995 bebd ee47 e13c 503b 30bd beb5 84bd
000001f0: eb2e 923d 9338 3b3c ad5c a9bc eed1 b53c

action_model._continuous_distribution.mu.bias f4 [2]
-0.02492411 -0.011371783
00000000: a62d ccbc b750 3abc

action_model._discrete_distribution.branches.0.weight f4 [3, 64]
0.037479002 -0.009442129 -0.042564232 0.020144615 0.075629026 0.028728606 -0.013785007 -0.024972761
-0.014109608 -0.006814059 0.027761264 -0.024650738 0.050795596 0.036188576 -0.05408581 0.011380157
-0.060457513 -0.02618684 0.017374786 -0.026899768 0.04047385 0.027174095 0.019964714 -0.036311153
-0.014105421 -0.05715318 -0.086958416 0.009841515 0.014904392 -0.06467156 0.043898325 0.041070156
0.0730894 0.03555116 -0.0058893366 0.045173965 -0.032160196 0.029824508 0.0016337852 -0.021952163
-0.042844653 -0.026793618 0.03666702 0.09606305 0.015322303 -0.04856068 0.011500395 -0.091450766
0.0148878265 0.04849056 -0.031460084 0.1137999 -0.042453527 -0.046826582 0.074093424 -0.0027810524
-0.009833068 0.12900563 0.03465266 0.052297357 0.07749822 0.025178753 0.04277685 -0.043168962
0.008043724 -0.115164496 0.04589469 -0.032087613 0.0018419569 -0.11496546 0.024409886 -0.086913675
-0.0077312794 -0.06889516 0.18463482 0.0205227 0.019717451 0.018283166 -0.006264237 0.062175818
0.11441248 -0.061962064 0.05433526 0.048373915 0.008405862 -0.023599416 -0.026580127 0.010309198
0.043328304 -0.010365058 0.035828263 -0.07528662 -0.10643047 0.06303665 -0.0134703405 -0.030055476
-0.1034957 -0.008344294 -0.09697401 -0.00095144927 0.012849433 0.032655112 0.065833345 0.011996025
0.13982089 0.04798771 -0.062485818 -0.036454823 0.01321144 -2.8596902e-05 0.07127819 -0.14072792
0.08951623 0.0046235532 0.061031766 -0.054951776 0.0401564 0.03923359 -0.20869312 -0.0477013
0.03590529 -0.07226539 -0.04571281 -0.011508241 -0.07435087 -0.043198586 0.05426178 0.0121859275
-0.039004948 0.12347268 0.0354265 0.032311253 -0.09918892 0.03596855 -0.012672064 0.082401775
0.0018360773 0.06723796 -0.23791493 -0.026197098 -0.04640646 -0.064850844 0.051769234 -0.031214016
-0.086137086 0.1117744 -0.10343264 -0.03228317 -0.024531225 0.010336782 0.0063442406 0.006254721
0.0064392663 0.111368164 0.049464837 0.046567257 0.1001227 0.044480715 -0.05338887 -0.004416375
-0.042314865 -0.01106311 0.08174695 -0.047329746 0.035491955 -0.018309414 -0.06798317 0.028718866
-0.105652355 -0.0407127 0.017864706 -0.0024978376 -0.0028043147 0.09634126 -0.06995091 0.18448026
-0.16667283 -0.11966305 -0.009916443 -0.058433402 0.045034785 0.00028942584 0.12411555 0.07210031
-0.030768909 -0.078275785 -0.0015365363 -0.020891689 -0.06142995 0.06574169 -0.114330836 0.019939588
00000000: 9583 193d 29b3 1abc d557 2ebd 5206 a53c
00000010: 64e3 9a3d 4158 eb3c 83da 61bc ad93 ccbc
00000020: fc2b 67bc 7848 dfbb 976b e33c 58f0 c9bc
00000030: 0b0f 503d 793a 143d 1589 5dbd d773 3a3c
00000040: 4ca2 77bd c985 d6bc 9155 8e3c e75c dcbc
00000050: e8c7 253d 359c de3c 0a8d a33c 01bb 14bd
00000060: 6c1a 67bc 7419 6abd 4117 b2bd 4e3e 213c
00000070: 8d31 743c 8672 84bd bbce 333d 2e39 283d
00000080: e5af 953d 189e 113d 56fb c0bb 5608 393d
00000090: 69ba 03bd 8752 f43c bc24 d63a 06d5 b3bc
000000a0: e07d 2fbd 4a7e dbbc 2830 163d b4bc c43d
000000b0: 660a 7b3c 90e7 46bd 276c 3c3c 8a4a bbbd
000000c0: 12ec 733c 0a9e 463d 4adc 00bd ec0f e93d
000000d0: c0e3 2dbd 3bcd 3fbd 4bbe 973d 5142 36bb
000000e0: e01a 21bc 0d1a 043e f3ef 0d3d c135 563d
000000f0: 63b7 9e3d ac43 ce3c c736 2f3d f0d1 30bd
00000100: d3c9 033c 5ddb ebbd 12fc 3b3d 4d6e 03bd
00000110: d16d f13a 0373 ebbd 3ef7 c73c ccff b1bd
00000120: ac56 fdbb e818 8dbd e910 3d3e 391f a83c
00000130: 7e86 a13c 94c6 953c 3b44 cdbb 12ac 7e3d
00000140: 1751 ea3d efcb 7dbd a68e 5e3d ba23 463d
00000150: beb8 093c 9053 c1bc 91be d9bc e9e7 283c
00000160: 0579 313d 34d2 29bc a8c0 123d df2f 9abd
00000170: 38f8 d9bd 5c19 813d b4b2 5cbc e736 f6bc
00000180: 8ef5 d3bd 81b6 08bc 4f9a c6bd ae6a 79ba
00000190: 6e86 523c 5ec1 053d a2d3 863d fa8a 443c
000001a0: 352d 0f3e c38e 443d 21f1 7fbd a751 15bd
000001b0: cc74 583c 61e3 efb7 4dfa 913d fb1a 10be
000001c0: 4954 b73d 2d81 973b 72fc 793d 1d15 61bd
000001d0: 0a7b 243d 67b3 203d a6b3 55be 7062 43bd
000001e0: 6d11 133d e0ff 93bd 5b3d 3bbd 108d 3cbc
000001f0: 4545 98bd 00f1 30bd 9a41 5e3d 7ca7 473c
00000200: a7c3 1fbd 3fdf fc3d 611b 113d ce58 043d
00000210: 8f23 cbbd c253 133d 7d9e 4fbc 43c2 a83d
00000220: 88a8 f03a 0eb4 893d f99f 73be 4c9b d6bc
00000230: b314 3ebd 85d0 84bd fa0b 543d 89b4 ffbc
00000240: a468 b0bd fae9 e43d 7ed4 d3bd 5b3b 04bd
00000250: b5f5 c8bc 9b5b 293c 59e3 cf3b 67f4 cc3b
00000260: 7b00 d33b fe14 e43d a49b 4a3d 4fbd 3e3d
00000270: 210d cd3d 6931 363d 4aae 5abd 3db7 90bb
00000280: 5a52 2dbd 0c42 35bc f26a a73d d6dc 41bd
00000290: 0360 113d a0fd 95bc c33a 8bbd d443 eb3c
000002a0: 4360 d8bd 5cc2 26bd 0159 923c c3b2 23bb
000002b0: 98c8 37bb 914e c53d 6c42 8fbd 65e8 3c3e
000002c0: 48ac 2abe e711 f5bd 9478 22bc dd57 6fbd
000002d0: 6576 383d 14be 9739 4b30 fe3d 54a9 933d
000002e0: 140f fcbc 0e4f a0bd 9a65 c9ba 0c25 abbc
000002f0: f99d 7bbd 94a3 863d 4926 eabd 5958 a33c

action_model._discrete_distribution.branches.0.bias f4 [3]
0.021285292 -0.015206276 -0.01363502
00000000: 7e5e ae3c bf23 79bc 6b65 5fbc

action_model._discrete_distribution.branches.1.weight f4 [3, 64]
-0.011975952 0.068985835 -0.033681754 -0.06134782 -0.00720407 -0.056593936 0.05818931 0.033426963
0.0094332 0.0601797 0.008063403 0.027556524 -0.017067473 -0.00057107274 -0.02097302 -0.07578592
0.026011815 0.02842846 0.021267798 0.013699691 -0.015853053 0.021588556 -0.018578377 0.036886543
0.0028410798 -0.004625563 0.064248644 -0.045506075 -0.034896765 0.043134276 0.0561397 -0.000487326
0.036139823 0.08435017 -0.016102716 0.01068285 0.041282713 -0.04074358 0.0326031 -0.00671187
-0.028222611 0.015269967 0.015435646 0.008221331 -0.021694066 0.071265295 0.027454318 0.09006325
-0.012293784 0.027916353 0.062670484 -0.057869863 -0.009715219 -0.0051559624 0.0020055068 -0.040344387
-0.011127166 -0.04786589 -0.006426484 0.028381933 -0.021720119 -0.006540508 0.0016145721 -0.023556378
-0.028543845 0.025701987 0.10667612 0.1364648 -0.0513809 0.17938432 -0.042716164 -0.15317036
0.002516432 -0.053077035 -0.0798665 -0.008221197 0.023814183 0.13686475 0.0096743135 0.010649181
-0.019352455 0.00808233 -0.032478135 0.035144176 -0.06717592 0.03961547 -0.021271542 -0.0040474106
-0.0024871875 0.06003547 -0.08297289 0.02534941 0.089716196 -0.014075325 -0.105728805 -0.0036818872
-0.063098 -0.06812757 0.10775702 0.031609315 -0.07043312 0.058875725 -0.10755785 -0.018578136
0.12817208 -0.07428694 0.06304917 0.008061247 -0.012651256 -0.009332754 -0.077893294 -0.067632034
0.16506737 -0.15909539 0.09083075 0.033612285 0.016814658 -0.061203625 -0.041307878 0.13595434
-0.06280003 -0.018579027 0.047922987 -0.06557764 0.06341374 -0.16338845 -0.07563862 0.0027976052
0.03108466 -0.10905257 -0.09214268 -0.08522856 0.064605586 -0.08270113 -0.020399569 0.09062925
0.0006711672 -0.009279411 0.016788129 -0.031029087 0.045956492 -0.10019744 -0.0030714027 0.060290035
-0.04009156 -0.09141289 0.006828149 -0.059098285 0.052749068 -0.08681028 0.05498372 -0.03129676
0.008512616 -0.015680095 0.017898021 0.022616673 -0.02824466 -0.004401379 0.057254985 0.038250763
-0.019720249 -0.06020464 -0.09420727 -0.020220166 0.019782316 -0.008096429 0.061980914 0.030141508
-0.11998605 0.04288705 -0.058131587 -0.03336411 0.08466351 -0.06812538 0.08293492 -0.018423924
-0.16554584 0.14547515 -0.15949473 0.013982029 0.021667432 0.017365297 0.060932126 -0.08404864
0.099309236 0.06895156 -0.06832986 0.0060409717 -0.06318747 0.15635517 0.057155997 0.009255446
00000000: c936 44bc 7248 8d3d e1f5 09bd da47 7bbd
00000010: 1f10 ecbb 0bcf 67bd ea57 6e3d b6ea 083d
00000020: b58d 1a3c fd7e 763d 5d1c 043c 38be e13c
00000030: 16d1 8bbc 0bb4 15ba 9ccf abbc a635 9bbd
00000040: bb16 d53c cde2 e83c ce39 ae3c ab74 603c
00000050: 43de 81bc 7cda b03c ae31 98bc 5816 173d
00000060: 6931 3a3b 0992 97bb cb94 833d 9464 3abd
00000070: e9ef 0ebd 91ad 303d bef2 653d ca7f ffb9
00000080: 5a07 143d c8bf ac3d d8e9 83bc 1f07 2f3c
00000090: 1018 293d bde2 26bd d48a 053d 3fef dbbb
000000a0: 1b33 e7bc e22e 7a3c cbe5 7c3c c3b2 063c
000000b0: c1b7 b1bc 8af3 913d e1e7 e03c 1573 b83d
000000c0: de6b 49bc d6b0 e43c 6259 803d f308 6dbd
000000d0: 952c 1fbc 59f3 a8bb d26e 033b 2840 25bd
000000e0: b84e 36bc 060f 44bd 4195 d2bb 3a81 e83c
000000f0: 64ee b1bc c251 d6bb 0da0 d33a 4ef9 c0bc
00000100: c8d4 e9bc f98c d23c 0279 da3d 6ebd 0b3e
00000110: c774 52bd 86b0 373e 25f7 2ebd b1d8 1cbe
00000120: b9ea 243b 4e67 59bd 0c91 a3bd 33b2 06bc
00000130: f615 c33c 4626 0c3e 0381 1e3c e779 2e3c
00000140: 0a89 9ebc c06b 043c cb07 05bd 57f3 0f3d
00000150: 8793 89bd d543 223d a841 aebc 24a0 84bb
00000160: 1500 23bb c1e7 753d b1ed a9bd 91a9 cf3c
00000170: 20bd b73d 319c 66bc 5888 d8bd d14b 71bb
00000180: 8639 81bd 7886 8bbd b6af dc3d c578 013d
00000190: 3d3f 90bd ac27 713d 4a47 dcbd 2d31 98bc
000001a0: 8b3f 033e c023 98bd ec1f 813d 5213 043c
000001b0: 3747 4fbc 68e8 18bc 8586 9fbd aa82 8abd
000001c0: 6c07 293e e7e9 22be 7905 ba3d 09ad 093d
000001d0: e5be 893c a7b0 7abd 7332 29bd 9d37 0b3e
000001e0: 4d9d 80bd 0b33 98bc e54a 443d 924d 86bd
000001f0: 10df 813d 4d4f 27be 6ce8 9abd 0758 373b
00000200: 42a5 fe3c f456 dfbd 4db5 bcbd 508c aebd
00000210: ef4f 843d 365f a9bd ff1c a7bc d49b b93d
00000220: 45f1 2f3a ac08 18bc 4287 893c b630 febc
00000230: e03c 3c3d 5134 cdbd 9649 49bb aff2 763d
00000240: 0c37 24bd ae36 bbbd aabe df3b 0b11 72bd
00000250: 680f 583d 97c9 b1bd 9c36 613d 0831 00bd
00000260: 8078 0b3c 8b73 80bc df9e 923c 9a46 b93c
00000270: 5861 e7bc 7139 90bb 3484 6a3d d5ac 1c3d
00000280: 5c8c a1bc 2499 76bd beef c0bd c3a4 a5bc
00000290: 860e a23c e2a6 04bc b3df 7d3d 53eb f63c
000002a0: 3fbb f5bd 55aa 2f3d 631b 6ebd cea8 08bd
000002b0: 1064 ad3d 5285 8bbd c9d9 a93d c5ed 96bc
000002c0: d984 29be 70f7 143e 9652 23be e114 653c
000002d0: e67f b13c ab41 8e3c f793 793d b221 acbd
000002e0: a462 cb3d 7a36 8d3d 87f0 8bbd 58f3 c53b
000002f0: 6f68 81bd 921b 203e 681c 6a3d 27a4 173c
