results/MLHades_main_12_grid32x32cellsize1x1_andraycastsensor/MLHades/MLHades-1999989.onnx (onnx, 234194 bytes, 22 tensors)

discrete_action_output_shape f4 [1, 4]
3.0 3.0 3.0 2.0
00000000: 0000 4040 0000 4040 0000 4040 0000 0040

network_body.observation_encoder.processors.1.conv_layers.0.weight f4 [16, 7, 8, 8]
-0.078523375 0.0009940293 -0.05552929 -0.022601133 -0.007293011 -0.0032116992 0.104048334 0.008223941
-0.08499657 -0.025284454 -0.014263861 0.020505624 -0.038340952 -0.051999632 0.054671057 0.0051120576
-0.112489045 0.018608931 0.052166842 0.026920428 0.03803474 -0.0051113185 0.094862215 -0.0030747284
0.034547266 0.041923884 0.07921418 0.06778755 0.028718665 -0.038583264 -0.01806018 -0.0381966
-0.045316845 -0.013565852 0.064855635 0.020027349 0.030359581 0.025444847 0.026018646 -0.067986056
-0.052970756 0.017417831 0.018809188 0.047694393 0.045056254 -0.03513913 0.012059214 0.05228144
-0.07921176 -0.05188513 -0.0020315389 0.018197617 0.024071543 -0.053943064 0.037550908 0.030801518
0.004731691 -0.023812806 0.047593642 0.01700236 -0.037256114 -0.062500216 -0.058958456 -0.064807005
0.15575603 0.2040278 0.13731118 0.0815805 0.08734214 0.22306748 0.058333684 0.13926698
0.27452618 0.2057147 0.25147533 0.115117185 0.14035189 0.16967224 0.13361302 0.1089347
0.24712506 0.23759192 0.16480589 0.121925846 0.14623335 0.16243692 0.041152008 0.0036923536
0.23316674 0.19419126 0.19732895 0.25659558 0.15224603 0.053672142 0.0673921 0.13755658
0.1488555 0.25138885 0.11289283 0.14825396 0.1356629 0.11587413 0.065200455 0.1902313
0.10392018 0.21883422 0.2837426 0.10677535 0.14905217 0.07646455 0.12219075 0.07348121
0.14255029 0.2149671 0.20698877 0.20836353 0.251159 0.10369549 0.14013813 0.08614722
0.25095618 0.23968075 0.13705592 0.10725225 0.049465105 0.08304466 0.14135678 0.14851318
-0.1900218 -0.08933067 0.024055632 0.06351805 0.056479666 -0.12128977 -0.075492695 -0.088418886
-0.015492838 0.012577813 0.07499606 0.099477604 0.09389051 -0.02790191 -0.03327267 0.053665187
-0.07858431 0.06095228 0.024593748 -0.016225459 -0.009811775 -0.07134276 -0.11934909 -0.009656972
-0.067313775 -0.046415474 -0.0769652 -0.0046354504 0.079069324 0.020510767 -0.065287516 0.04019366
-0.106837094 -0.08589416 -0.09405402 -0.021852426 0.011040591 0.018411165 -0.06381466 -0.08457185
-0.023200424 -0.020950004 -0.04122979 0.0068332385 0.023280714 0.114459544 -0.05564694 0.0004979038
0.084114395 0.05861811 0.028172182 0.0925104 -0.023255227 -0.052570015 -0.12542845 -0.10872049
0.057557773 0.09737632 0.09455069 0.059248716 0.079384744 0.02855319 -0.1474696 -0.13247883
0.061153926 -0.06881434 0.078718625 0.10698657 0.07221731 0.08283412 -0.008572487 -0.043406866
-0.13840498 -0.07661772 -0.100750834 -0.029485725 0.045847595 -0.008276191 -0.0060669337 -0.027086928
-0.015062187 0.0023072395 -0.003842852 -0.039107982 0.031676397 -0.022652272 -0.085633375 -0.030902602
0.022176111 -0.07379319 0.05031816 0.05591442 -0.0061718584 -0.02567503 -0.017784558 -0.08581737
0.008562114 -0.0040114173 0.058230415 0.1061676 0.048659336 0.012581443 -0.04742578 0.04198453
-0.015193345 -0.025386818 -0.033151783 -0.055841677 0.041246347 0.06160687 -0.07290897 -0.031016013
0.088293016 -0.02226538 0.036374032 -0.09649156 -0.010145642 0.0085876705 -0.017977327 -0.12788583
-0.03580386 -0.029906789 0.025927467 -0.09367195 0.07444077 0.045472436 -0.06387548 -0.04353899
00000000: ddd0 a0bd 174a 823a ae72 63bd 0326 b9bc
00000010: 36fa eebb 5f7b 52bb 4b17 d53d b5bd 063c
00000020: af12 aebd 5821 cfbc f8b2 69bc 69fb a73c
00000030: 670b 1dbd 91fd 54bd c2ee 5f3d 0c83 a73b
00000040: a860 e6bd c271 983c e6ac 553d 3b88 dc3c
00000050: 51ca 1b3d d97c a7bb 1f47 c23d 6281 49bb
00000060: 6f81 0d3d 61b8 2b3d 0b3b a23d 33d4 8a3d
00000070: 6843 eb3c 7c09 1ebd f1f2 93bc 0a74 1cbd
00000080: 289e 39bd 4f43 5ebc 08d3 843d 6510 a43c
00000090: a8b4 f83c b671 d03c 0e25 d53c 463c 8bbd
000000a0: ddf7 58bd d7af 8e3c ba15 9a3c 325b 433d
000000b0: e88c 383d 0cee 0fbd 0294 453c 1025 563d
000000c0: c639 a2bd 8185 54bd 9123 05bb 2b13 953c
000000d0: af31 c53c 67f3 5cbd fbce 193d 7753 fc3c
000000e0: 4d0c 9b3b 1313 c3bc 8df1 423d 8948 8b3c
000000f0: de99 18bd 1d00 80bd 6c7e 71bd 89b9 84bd
00000100: 827e 1f3e aaec 503e 4d9b 0c3e ad13 a73d
00000110: 70e0 b23d cd6b 643e 4def 6e3d 019c 0e3e
00000120: b28e 8c3e e0a6 523e 60c1 803e 8fc2 eb3d
00000130: 68b8 0f3e 8fbe 2d3e dad1 083e 2819 df3d
00000140: 5a0e 7d3e 4c4b 733e e0c2 283e 42b4 f93d
00000150: 32be 153e dd55 263e 028f 283d 6afb 713b
00000160: 43c3 6e3e 13da 463e 9a10 4a3e 7f60 833e
00000170: 62e6 1b3e 52d7 5b3d df04 8a3d a2db 0c3e
00000180: 946d 183e 0ab6 803e 5b34 e73d e3cf 173e
00000190: 37eb 0a3e 6a4f ed3d d187 853d fecb 423e
000001a0: 1ad4 d43d 1416 603e b646 913e 09ad da3d
000001b0: 22a1 183e 7299 9c3d 253f fa3d 517d 963d
000001c0: b4f8 113e 5620 5c3e ddf4 533e 405d 553e
000001d0: ea97 803e 4d5e d43d 5f80 0f3e f46d b03d
000001e0: 547d 803e df6e 753e 6358 0c3e 11a7 db3d
000001f0: ec9b 4a3d 5213 aa3d d5bf 103e d713 183e
00000200: 1395 42be 00f3 b6bd 5110 c53c c015 823d
00000210: 3957 673d c566 f8bd ea9b 9abd f614 b5bd
00000220: acd5 7dbc 2c13 4e3c 8997 993d eaba cb3d
00000230: ab49 c03d 8c92 e4bc ec48 08bd 07d0 5b3d
00000240: d0f0 a0bd 19a9 793d d478 c93c 41eb 84bc
00000250: 91c1 20bc 271c 92bd 4c6d f4bd 4738 1ebc
00000260: cedb 89bd 271e 3ebd ee9f 9dbd fae4 97bb
00000270: 19ef a13d 3206 a83c 76b5 85bd 1ba2 243d
00000280: 68cd dabd 47e9 afbd 659f c0bd dc03 b3bc
00000290: 98e3 343c 03d3 963c 43b1 82bd 0234 adbd
000002a0: d10e bebc 589f abbc 91e0 28bd 5ce9 df3b
000002b0: 32b7 be3c c469 ea3d 0cee 63bd c285 023a
000002c0: 2b44 ac3d 8b19 703d 59c9 e63c 1876 bd3d
000002d0: bf81 bebc a853 57bd 5170 00be d9a8 debd
000002e0: b3c1 6b3d 3c6d c73d cba3 c13d c8ae 723d
000002f0: 7894 a23d 61e8 e93c 4502 17be 88a8 07be
00000300: 8a7c 7a3d 88ee 8cbd 3b37 a13d c61b db3d
00000310: abe6 933d efa4 a93d 9e73 0cbc 66cb 31bd
00000320: 09ba 0dbe c0e9 9cbd 7456 cebd 0c8c f1bc
00000330: b0ca 3b3d dc98 07bc 21cd c6bb 68e5 ddbc
00000340: 64c7 76bc 0e35 173b 5cd8 7bbb b12f 20bd
00000350: 1cbf 013d 4291 b9bc 8d60 afbd 7427 fdbc
00000360: adaa b53c e220 97bd 6a1a 4e3d 8506 653d
00000370: 4d3d cabb 7154 d2bc ecb0 91bc 04c1 afbd
00000380: 1c48 0c3c 3572 83bb 0483 6e3d 666e d93d
00000390: 034f 473d 6622 4e3c 8941 42bd f8f7 2b3d
000003a0: 82ed 78bc 04f8 cfbc 2aca 07bd 3eba 64bd
000003b0: eef1 283d 7c57 7c3d 4c51 95bd 4b15 febc
000003c0: f8d2 b43d e365 b6bc f0fc 143d 5e9d c5bd
000003d0: e839 26bc 4db3 0c3c 3045 93bc 81f4 02be
000003e0: 11a7 12bd 15ff f4bc d765 d43c 14d7 bfbd
000003f0: 6774 983d 4e41 3a3d 26d1 82bd f155 32bd

network_body.observation_encoder.processors.1.conv_layers.0.bias f4 [16]
0.004543695 0.041470032 -0.021221118 0.008672973 -0.030733706 -0.015161612 0.0012358455 0.03556082
-0.060912583 0.008644023 0.050697397 -0.004860718 0.0077213384 0.097378306 -0.016153725 -0.0121076815
00000000: 47e3 943b 7bdc 293d e9d7 adbc 1619 0e3c
00000010: 41c5 fbbc 6968 78bc 18fc a13a 39a8 113d
00000020: 797f 79bd a99f 0d3c 13a8 4f3d a846 9fbb
00000030: 4803 fd3b 476e c73d d154 84bc 4c5f 46bc

network_body.observation_encoder.processors.1.conv_layers.2.weight f4 [32, 16, 4, 4]
0.091282286 -0.0131297065 0.11591204 -0.099498734 0.028893389 0.08640761 0.0693123 -0.021269657
0.0060724835 0.0965372 0.04091929 -0.075875536 0.13373497 0.03692265 -0.009107809 -0.056393012
-0.16367726 -0.033015683 -0.0074567925 0.019833976 -0.07913219 -0.032272313 0.04586373 0.0983566
0.066391125 0.04034716 0.021196987 0.028850464 0.030829398 0.09680993 0.07960142 0.106645435
0.011784737 -0.0873163 -0.031392008 -0.083852656 0.014370862 0.08829213 -0.03414946 0.052848663
0.07487115 0.08903484 -0.043694437 0.010364617 -0.037608407 -0.002622482 0.11369618 0.08510643
-0.09237318 -0.10679752 -0.07989041 -0.14254206 -0.062758 -0.11284352 0.02552212 -0.02299335
0.12071952 0.17562942 0.06289426 0.006847241 0.14132029 0.06662392 0.06465683 0.013954532
0.09076864 0.09344521 0.091304235 -0.0876288 0.051536273 -0.03417501 0.043023616 -0.07452336
0.06021714 -0.08860742 -0.005698802 0.039203577 -0.047347423 -0.09251269 -0.036988024 0.07890105
0.007070344 0.08388543 0.1740016 0.056878407 -0.03897402 -0.03395901 -0.014310353 -0.0035504205
-0.082028694 0.036630314 0.034924295 -0.0035091667 0.06804212 -0.051762935 0.021537729 0.042110108
0.023116222 0.0021289303 -0.050914977 -0.0919167 -0.079187125 -0.029580329 0.06127941 -0.058979955
0.09382497 -0.030022882 0.068648845 0.1789173 -0.053902257 -0.0016114931 -0.015059486 0.1522547
-0.028565729 -0.13524912 0.06433983 -0.033756085 -0.04276777 -0.056355935 0.08947569 -0.079714365
0.049520664 0.013233921 0.015559669 -0.031228675 0.0050903615 0.058881402 0.056574043 0.17786403
-0.011086403 0.127058 0.0840392 -0.06914031 0.033262838 -0.054207545 -0.056724623 -0.060664546
0.0071568377 -0.15636607 -0.026929041 0.050785065 0.05255992 0.11313796 0.018552769 -0.0264211
-0.03545143 -0.0673184 0.03591121 -0.07473404 -0.0032681106 0.040337455 0.09625915 -0.070743114
-0.010843313 -0.052683376 0.029249806 0.002305469 0.044062003 0.21525422 0.13828254 0.18971437
0.055339262 -0.051056165 -0.09261627 0.052548066 0.088724695 -0.060223367 -0.04508081 0.14205772
0.095916286 -0.054700427 -0.1748287 0.021182375 -0.055204634 -0.025065467 0.009677311 -0.07792057
0.041258547 -0.0006502561 -0.05076345 -0.02270389 -0.044900812 -0.032737356 0.037974954 0.0012815237
0.03600941 -0.0094852885 -0.009598863 0.06912824 0.034940533 -0.040932648 0.010032209 0.15004519
-0.08136655 0.090893574 0.019775223 -0.019969072 0.047577273 -0.086567245 -0.12259208 -0.119755186
0.1019139 -0.06283518 0.052875053 -0.038953137 -0.09485604 0.07805912 0.07377968 -0.008212974
-0.0115279555 0.06053521 -0.033098724 -0.09455152 -0.05152462 -0.06551706 0.016127927 -0.14604813
0.027824815 -0.038077906 -0.014791678 -0.07721875 0.109147966 0.08156994 0.12622602 0.10607085
-0.023184799 -0.016328909 -0.02693109 -0.040091947 -0.029366842 -0.054719903 -0.05968261 -0.045271397
0.14378749 0.018216103 0.032511074 0.020411538 -0.07043789 0.13519281 0.16010113 -0.034079444
0.03324806 0.065002814 0.051055 -0.012443009 0.039449815 -0.009499738 -0.03218705 -0.1638278
-0.004355278 0.061159704 -0.08542882 -0.09190665 -0.018512523 0.0050259954 -0.029655116 0.11383191
00000000: 35f2 ba3d fb1d 57bc 4b63 ed3d fec5 cbbd
00000010: d4b1 ec3c 79f6 b03d 9bf3 8d3d b43d aebc
00000020: affb c63b 4cb5 c53d fc9a 273d a264 9bbd
00000030: d2f1 083e 343c 173d eb38 15bc 5cfc 66bd
00000040: 039b 27be 743b 07bd 1c58 f4bb dd7a a23c
00000050: 0f10 a2bd f92f 04bd 9bdb 3b3d 2f6f c93d
00000060: 12f8 873d 1043 253d 4ea5 ad3c cf57 ec3c
00000070: ef8d fc3c 4944 c63d 1206 a33d ec68 da3d
00000080: c514 413c e3d2 b2bd e894 00bd f1ba abbd
00000090: c473 6b3c 81d2 b43d 4ee0 0bbd d777 583d
000000a0: 0c56 993d e657 b63d f0f8 32bd 5bd0 293c
000000b0: 460b 1abd f2dd 2bbb 8bd9 e83d 484c ae3d
000000c0: 262e bdbd a8b8 dabd 959d a3bd 8cf6 11be
000000d0: 4487 80bd 811a e7bd c413 d13c 8d5c bcbc
000000e0: cc3b f73d 33d8 333e b5ce 803d d25e e03b
000000f0: 44b6 103e 1f72 883d cd6a 843d 8da1 643c
00000100: e9e4 b93d 3460 bf3d b7fd ba3d ba76 b3bd
00000110: b317 533d 18fb 0bbd 8839 303d b49f 98bd
00000120: 3fa6 763d cf77 b5bd 04bd babb ee93 203d
00000130: 5fef 41bd 4b77 bdbd c180 17bd e096 a13d
00000140: 58ae e73b 20cc ab3d 7a2d 323e 55f9 683d
00000150: 39a3 1fbd 9a18 0bbd f975 6abc 2cae 68bb
00000160: a9fe a7bd ab09 163d c70c 0f3d 0cfa 65bb
00000170: ab59 8b3d 5f05 54bd e46f b03c a67b 2c3d
00000180: 3b5e bd3c 8685 0b3b 398c 50bd d33e bcbd
00000190: dc2c a2bd 7252 f2bc 1e00 7b3d f794 71bd
000001a0: 4e27 c03d 8cf2 f5bc c497 8c3d 1936 373e
000001b0: 9dc8 5cbd bc38 d3ba 10bc 76bc a8e8 1b3e
000001c0: ad02 eabc bf7e 0abe 9ac4 833d d243 0abd
000001d0: 422d 2fbd 7bd5 66bd 083f b73d 4941 a3bd
000001e0: 2ed6 4a3d 16d3 583c fbed 7e3c 47d3 ffbc
000001f0: 0ccd a63b a02d 713d 2fba 673d fd21 363e
00000200: bfa3 35bc 7e1b 023e be1c ac3d 6f99 8dbd
00000210: 9d3e 083d bb08 5ebd 1458 68bd 637b 78bd
00000220: e883 ea3b 6d1e 20be 4b9a dcbc 0004 503d
00000230: 1249 573d e0b4 e73d fafb 973c 1071 d8bc
00000240: 8535 11bd 3bde 89bd a217 133d 290e 99bd
00000250: cc2d 56bb e338 253d 8423 c53d c4e1 90bd
00000260: 27a8 31bc 86ca 57bd 4a9d ef3c 5a17 173b
00000270: 5c7a 343d 9a6b 5c3e f099 0d3e 7c44 423e
00000280: 6cab 623d 4520 51bd 99ad bdbd a43c 573d
00000290: 4bb5 b53d c7ac 76bd a8a6 38bd 9477 113e
000002a0: c26f c43d 8e0d 60bd 4b06 33be a986 ad3c
000002b0: 411e 62bd 1856 cdbc 968d 1e3c d294 9fbd
000002c0: b9fe 283d f375 2aba 56ed 4fbd 82fd b9bc
000002d0: eae9 37bd 9b17 06bd a08b 1b3d cdf8 a73a
000002e0: 9a7e 133d 2f68 1bbc 8d44 1dbc 1b93 8d3d
000002f0: ce1d 0f3d fea8 27bd 225e 243c 72a5 193e
00000300: 81a3 a6bd 6926 ba3d a6ff a13c 2e96 a3bc
00000310: 63e0 423d 2b4a b1bd 8e11 fbbd 3542 f5bd
00000320: 3cb8 d03d bbaf 80bd 8393 583d 538d 1fbd
00000330: e243 c2bd 76dd 9f3d cd19 973d b68f 06bc
00000340: c0df 3cbc c5f3 773d 8792 07bd 3aa4 c1bd
00000350: 7b0b 53bd cf2d 86bd b71e 843c a48d 15be
00000360: def0 e33c 94f7 1bbd cb58 72bc dd24 9ebd
00000370: f888 df3d 240e a73d 6541 013e ac3b d93d
00000380: 0cee bdbc 34c4 85bc 979e dcbc 7437 24bd
00000390: bb92 f0bc fa21 60bd c175 74bd 806e 39bd
000003a0: 073d 133e f039 953c 552a 053d 1936 a73c
000003b0: be41 90bd fc6f 0a3e 8df1 233e e396 0bbd
000003c0: 1e2f 083d 3220 853d 0c1f 513d c3dd 4bbc
000003d0: 2196 213d caa4 1bbc 91d6 03bd 7ac2 27be
000003e0: b8b6 8ebb 9982 7a3d 4ef5 aebd 8e39 bcbd
000003f0: 93a7 97bc 1bb1 a43b 49ef f2bc b420 e93d

network_body.observation_encoder.processors.1.conv_layers.2.bias f4 [32]
-0.027280552 0.018245693 -0.058501694 -0.059169643 -0.007895284 0.06947162 -0.07349578 -0.098518535
0.021653034 0.024552228 0.054813534 -0.05658393 -0.041629773 -0.072744496 -0.0012556722 -0.024709197
0.0069180974 0.049810912 -0.026738027 0.047442995 -0.08947847 0.02914411 -0.11733188 -0.032935284
-0.036949925 -0.000937538 -0.035379224 0.06373499 0.0023468928 -0.009119704 0.025786502 0.005794548
00000000: 777b dfbc fe77 953c 799f 6fbd de5b 72bd
00000010: 395b 01bc 2347 8e3d f584 96bd 16c4 c9bd
00000020: b461 b13c c121 c93c 2884 603d 8dc4 67bd
00000030: fb83 2abd 11fb 94bd 5e95 a4ba f16a cabc
00000040: 35b1 e23b 8706 4c3d b509 dbbc 9653 423d
00000050: 7d40 b7bd a1bf ee3c b24b f0bd 26e7 06bd
00000060: ce58 17bd 1cc5 75ba cee9 10bd 7e87 823d
00000070: 54ce 193b d06a 15bc 373e d33c 31e0 bd3b

network_body.observation_encoder.processors.1.dense.0.weight f4 [64, 128]
-0.07561578 0.044649765 0.038326062 -0.151486 -0.33396208 0.23316076 0.022258189 -0.050353438
0.06714094 0.098636985 -0.25239843 -0.030654155 -0.18653567 -0.21061352 0.13353267 0.2120711
0.079973236 -0.21240592 0.1194949 -0.1513581 -0.018486945 0.072040044 -0.25750375 -0.045980014
0.043715946 0.0053357044 0.12999758 0.13975541 -0.017998112 -0.12849933 -0.06463837 0.123148754
-0.045841113 -0.29964438 0.015352254 0.15268098 0.3404481 0.1572641 -0.13574055 0.008426405
-0.10344939 0.3155306 0.08341147 -0.07900667 0.06677931 -0.3308865 0.13553919 0.17258237
-0.21329425 0.031815007 0.051291555 -0.035550695 0.119702935 -0.019510278 0.14423808 -0.05111955
0.1144678 -0.008477521 -0.15326802 -0.17538986 0.1778372 -0.05514467 0.26557857 -0.10217486
0.09478056 0.15013386 0.13878497 0.094086885 -0.010168444 0.09761881 0.026911484 0.09327447
-0.103285 -0.068913616 0.2514977 0.00065515656 0.16225816 0.1021353 0.072915405 -0.029351627
-0.073623486 -0.06661846 0.012011893 0.020735813 0.15047579 0.06665827 0.026607553 0.09323218
0.3122009 -0.2721019 0.09656537 0.03776569 -0.21224864 0.08065293 0.04143688 0.02233744
0.16427337 -0.0633865 0.039501876 0.08275889 0.19738899 0.059846852 -0.33208045 0.14071627
-0.03266491 -0.0027242464 0.033455964 -0.13591479 0.056104545 -0.04427543 -0.09339235 0.115775175
0.01321326 -0.08037607 0.06627701 -0.07701168 -0.005951932 0.15066862 0.052736096 0.27303421
-0.041358005 0.13597551 0.08606332 0.008512534 -0.060157984 0.16088274 -0.16687258 -0.033847015
-0.27657193 0.069919914 0.2439565 0.21831372 -0.02540802 0.22551982 -0.099029064 0.1052298
0.09039428 -0.19805361 -0.06835978 0.10115369 0.056643292 0.03676189 -0.20592745 0.093163244
0.21005432 0.1295821 -0.19876577 0.06879257 0.17676225 0.297941 -0.20982833 0.10266829
-0.18315431 0.20888443 -0.13467227 0.26892492 -0.12134524 0.04602523 -0.18460108 0.19131444
-0.040007535 -0.067579664 -0.07523247 0.22289558 -0.17693512 -0.032975264 0.20590936 -0.009970928
-0.021173738 -0.13362417 -0.41293544 -0.085968636 0.021521121 -0.056471933 0.031903844 -0.012063039
-0.38866353 0.046854068 0.08847478 -0.05394895 0.007829561 0.023457542 0.119509235 -0.009966309
0.14812815 0.055703573 0.06851407 0.12094873 0.0424477 0.032998126 -0.15243576 0.063926235
0.10338984 -0.016913695 -0.121776 -0.18059129 0.057256397 -0.1004111 -0.15006302 0.32629982
0.106744595 0.080991566 0.06545244 -0.19250761 -0.005898128 -0.0009437717 0.05135277 -0.045132637
-0.02827775 0.024331616 0.061926104 0.104878135 0.11928844 -0.3309232 -0.07004706 0.082433924
-0.24545363 0.36994207 -0.04329771 0.17405477 -0.08378575 -0.007483951 0.26786473 -0.09884347
0.02138136 0.062246017 0.035921156 0.081447646 -0.16447353 0.16069147 -0.09430402 -0.0038606161
0.06561536 0.1983124 0.08171494 0.07574588 0.2612771 -0.067742296 0.06873846 0.06798927
-0.21690339 -0.011037666 0.19543442 -0.10915044 0.020758934 -0.02647517 -0.08496627 0.044418924
-0.29085448 0.01766967 -0.019586863 -0.07515331 -0.10534246 0.20516641 0.079044536 -0.0024370195
00000000: 72dc 9abd ace2 363d cafb 1c3d 251f 1bbe
00000010: 14fd aabe b2c1 6e3e ce56 b63c 683f 4ebd
00000020: 3081 893d 3002 ca3d 5e3a 81be 6c1e fbbc
00000030: 3503 3fbe 12ab 57be cabc 083e 2b29 593e
00000040: 02c9 a33d f080 59be beb9 f43d 9efd 1abe
00000050: ef71 97bc bb89 933d 88d7 83be 8a55 3cbd
00000060: 7e0f 333d 22d7 ae3b 161e 053e 0b1c 0f3e
00000070: c770 93bc 5495 03be 1f61 84bd 6a35 fc3d
00000080: e4c3 3bbd fd6a 99be 0588 7b3c 6758 1c3e
00000090: 374f ae3e d709 213e 92ff 0abe e70e 0a3c
000000a0: 46dd d3bd 3a8d a13e a2d3 aa3d 40ce a1bd
000000b0: 97c3 883d f569 a9be c9ca 0a3e 6fb9 303e
000000c0: cf69 5abe 7450 023d 1817 523d 9b9d 11bd
000000d0: d026 f53d 05d4 9fbc 26b3 133e bc62 51bd
000000e0: 186e ea3d 4de5 0abc 4bf2 1cbe 6699 33be
000000f0: f41a 363e 61df 61bd eaf9 873e 0e41 d1bd
00000100: 4f1c c23d b1bc 193e a61d 0e3e a0b0 c03d
00000110: 8c99 26bc 5fec c73d 7975 dc3c af06 bf3d
00000120: 1687 d3bd 9522 8dbd 4ec4 803e d0be 2b3a
00000130: 0127 263e 502c d13d ac54 953d d372 f0bc
00000140: e9c7 96bd 426f 88bd 88cd 443c 27de a93c
00000150: 5316 1a3e 2284 883d 15f8 d93c 83f0 be3d
00000160: ccd8 9f3e f150 8bbe 11c4 c53d 32b0 1a3d
00000170: b557 59be 5d2d a53d b8b9 293d 02fd b63c
00000180: 4737 283e c8d0 81bd b8cc 213d 7e7d a93d
00000190: 5720 4a3e f921 753d 7306 aabe ed17 103e
000001a0: a4cb 05bd 4589 32bb 1f09 093d 3f2d 0bbe
000001b0: e1cd 653d 275a 35bd 7d44 bfbd 891b ed3d
000001c0: 6e7c 583c 369c a4bd 3ebc 873d 4db8 9dbd
000001d0: 6d08 c3bb e048 1a3e ce01 583d 24cb 8b3e
000001e0: 0367 29bd 2a3d 0b3e f741 b03d 2878 0b3c
000001f0: 3868 76bd 72be 243e a5e0 2abe 2ba3 0abd
00000200: d69a 8dbe 2c32 8f3d bccf 793e a28d 5f3e
00000210: 7b24 d0bc abee 663e c0cf cabd b982 d73d
00000220: a320 b93d 91ce 4abe 3600 8cbd aa29 cf3d
00000230: cc02 683d a393 163d a5de 52be 5fcc be3d
00000240: 7b18 573e 2cb1 043e 4189 4bbe 1ee3 8c3d
00000250: 2a01 353e b98b 983e 3ddd 56be c143 d23d
00000260: ce8c 3bbe cde5 553e 87e7 09be 87b0 893e
00000270: da83 f8bd f484 3c3d 1108 3dbe efe7 433e
00000280: f1de 23bd 3567 8abd 7b13 9abd bd3e 643e
00000290: 7b2e 35be 1211 07bd e7d9 523e 1a5d 23bc
000002a0: 8c74 adbc c6d4 08be 466c d3be 5310 b0bd
000002b0: 104d b03c 1d4f 67bd 9bad 023d 0da4 45bc
000002c0: e8fe c6be 0dea 3f3d 4432 b53d 93f9 5cbd
000002d0: 8f47 003c 082a c03c 42c1 f43d bb49 23bc
000002e0: e8ae 173e 6e29 643d 1b51 8c3d f8b3 f73d
000002f0: a4dd 2d3d 0b29 073d 1f18 1cbe c2eb 823d
00000300: 0dbe d33d 978e 8abc b265 f9bd ecec 38be
00000310: af85 6a3d 56a4 cdbd 1faa 19be c510 a73e
00000320: e99c da3d e8de a53d ee0b 863d b720 45be
00000330: 1545 c1bb 7267 77ba 4857 523d 00dd 38bd
00000340: bda6 e7bc 1953 c73c 3aa6 7d3d 59ca d63d
00000350: 7f4d f43d c46e a9be d574 8fbd 1ed3 a83d
00000360: 3258 7bbe 0c69 bd3e f158 31bd 6a3b 323e
00000370: dd97 abbd ee3b f5bb 9125 893e 726e cabd
00000380: f627 af3c aef5 7e3d 1022 133d 06ce a63d
00000390: c06b 28be 4e8c 243e 7722 c1bd 6402 7dbb
000003a0: 5961 863d 6812 4b3e 2a5a a73d a820 9b3d
000003b0: 1dc6 853e 79bc 8abd c0c6 8c3d f53d 8b3d
000003c0: ec1b 5ebe 54d7 34bc f61f 483e 448a dfbd
000003d0: a40e aa3c 75e2 d8bc cc02 aebd 9ef0 353d
000003e0: e1ea 94be fcbf 903c a174 a0bc fbe9 99bd
000003f0: cabd d7bd 2517 523e 1ae2 a13d 67b6 1fbb

network_body.observation_encoder.processors.1.dense.0.bias f4 [64]
0.01908884 0.038517118 0.030591363 0.05034949 0.011837795 -0.010297964 0.028843997 0.038704645
0.050218992 0.054348435 0.052969106 0.06114807 0.034771 -0.013609029 -0.0069777425 0.034624293
0.04178632 -0.039261844 0.046231646 0.011623482 0.025794249 0.04566261 0.019261904 0.04932594
0.041117653 0.04443931 0.03558975 0.046791784 0.03624867 -0.014112186 0.010827755 -0.005863361
-0.021486206 0.059363164 0.065437466 0.0453342 0.04293239 0.050679862 0.046733875 0.05851586
0.04430271 0.047004122 0.002105112 -0.0040630605 0.06481954 0.05174642 0.04969948 -0.007921042
0.014814694 0.052246414 0.036203306 0.017565709 0.029554166 0.048366126 0.073599316 -0.010509954
-0.019990811 0.0724278 0.041546326 -0.0048503103 0.052847557 -0.010974499 0.0492799 0.02691779
00000000: 3360 9c3c 20c4 1d3d bd9a fa3c 443b 4e3d
00000010: 50f3 413c cbb8 28bc 3f4a ec3c c388 1e3d
00000020: 6eb2 4d3d 779c 5e3d 22f6 583d 6676 7a3d
00000030: 096c 0e3d 68f8 5ebc 8ca5 e4bb 34d2 0d3d
00000040: 2228 2b3d 07d1 20bd 655d 3d3d 6b70 3e3c
00000050: 764e d33c b808 3b3d 24cb 9d3c ff09 4a3d
00000060: fc6a 283d fe05 363d 8fc6 113d bea8 3f3d
00000070: 7c79 143d cc36 67bc e566 313c 7021 c0bb
00000080: d703 b0bc ca26 733d 1404 863d 5bb0 393d
00000090: e0d9 2f3d b095 4f3d 056c 3f3d 54ae 6f3d
000000a0: c276 353d 6587 403d ebf5 093b 6c23 85bb
000000b0: 1bc0 843d 0ef4 533d af91 4b3d 42c7 01bc
000000c0: 55b9 723c 5600 563d eb49 143d f6e5 8f3c
000000d0: 941b f23c 8f1b 463d 3dbb 963d f131 2cbc
000000e0: c5c3 a3bc 0755 943d 7b2c 2a3d 5aef 9ebb
000000f0: ae76 583d 63ce 33bc b8d9 493d b282 dc3c

network_body._body_endoder.seq_layers.0.weight f4 [64, 439]
0.18729812 0.021504793 0.10415045 -0.04157135 0.0024605598 0.032088425 0.13181749 0.02530474
0.10250477 -0.059353463 0.0063205804 0.057426568 0.16608335 -0.05347145 0.102242075 -0.0036809065
0.015609002 0.022921145 0.040945902 -0.019472951 0.0015537975 -0.0636359 0.03732592 0.038322076
0.08217428 -0.0674314 0.033057667 0.0718556 0.105203316 0.040820215 -0.015156153 0.060095087
0.14744931 0.08985018 0.013514425 0.041172586 0.21411 0.015974207 0.047833756 -0.03575017
-0.048180237 0.0482652 0.08928429 0.006391137 -0.04069855 -0.03668092 -0.06160211 -0.006934463
-0.027681347 -0.037909847 0.09518017 -0.057285946 0.0799602 0.032976132 -0.016401619 -0.018607486
0.032984294 0.057756223 0.032805342 0.012414331 0.11348518 0.09953425 0.018160617 -0.05363182
0.018888477 -0.03523197 -0.015206907 0.10102369 0.04241273 -0.041239414 0.020803291 0.021541424
-0.0096636 0.003836449 0.025356581 0.078626186 0.034612156 0.09338297 -0.13538912 -0.07471229
-0.061206646 0.06740593 -0.008369613 -0.07258702 -0.097743064 -0.100137375 -0.07855392 -0.15501761
0.064234406 0.08534256 0.1160622 0.032876335 0.057739712 -0.09525805 0.023000235 -0.048964072
-0.015092601 -0.03764619 0.027323358 -0.066236645 -0.04103048 0.09581522 -0.09233178 -0.00086009403
0.0944398 -0.1841615 0.05813409 0.16782525 0.073123455 0.04101046 -0.10144817 0.09786007
-0.08144013 -0.016562324 0.08840604 -0.10182056 -0.029735148 0.019120768 0.23282066 -0.017570995
-0.1467177 0.057634488 0.07350138 -0.10636787 0.15476234 -0.034531027 0.07750169 -0.047419973
-0.12840211 -0.07253445 0.080625094 0.103656515 -0.11203207 -0.0050873654 -0.010517455 0.09639623
0.2162517 -0.027024636 0.20372231 -0.0058131693 0.1416961 -0.026750851 0.07651584 -0.1539356
0.13831556 -0.059110474 -0.09752414 -0.014802788 0.017635027 0.04356832 -0.11673903 0.112008356
-0.1313982 -0.044114262 -0.20208526 -0.08095981 -0.13475627 -0.06564281 0.19623485 -0.020269278
-0.02648065 -0.047852352 0.031150144 0.04501213 0.062241565 -0.037830096 0.04375564 0.07885799
-0.1256112 0.002926565 -0.049749974 -0.014133872 0.050382946 0.0003733195 0.017918026 0.0057773367
0.20936042 0.008215629 -0.009573973 -0.055861443 0.17365111 -0.1319767 0.037113093 0.011490155
0.07804614 0.0715141 -0.108933926 -0.04527161 -0.0315362 0.15330951 -0.098587774 0.06700497
-0.018317534 -0.034529094 0.15659456 -0.23012413 -0.010923529 -0.055797704 0.089522466 -0.08609613
-0.09822902 0.0066125854 0.111670405 0.027792508 -0.14945775 -0.014391781 0.014328034 -0.046857428
-0.023313379 0.061344307 0.045120183 -0.10439556 0.2406394 -0.100891575 -0.08279972 0.013835387
0.13714734 -0.0025728634 -0.0032878832 -0.09957026 0.008921061 0.09699514 -0.2103022 -0.19576722
-0.035695754 -0.038625862 -0.14502594 0.14302346 0.11419718 0.07107377 0.2082766 -0.05594177
-0.054972257 -0.04134994 0.112626605 -0.03990237 0.06336699 0.0563246 0.05673854 -0.06274024
-0.053340524 -0.11989692 0.043007728 0.056489985 -0.0366344 0.012560901 0.09955981 0.0138418
0.12279687 0.041132607 0.105568156 -0.12034973 -0.0863255 0.031344038 -0.08877954 0.008633581
00000000: 14cb 3f3e d22a b03c d54c d53d b846 2abd
00000010: 5841 213b 276f 033d 2afb 063e e34b cf3c
00000020: 05ee d13d 9e1c 73bd df1c cf3b 1f38 6b3d
00000030: c111 2a3e e104 5bbd 4b64 d13d 5d3b 71bb
00000040: e6bc 7f3c 20c5 bb3c e4b6 273d bd85 9fbc
00000050: cba8 cb3a 8a53 82bd 10e3 183d 9cf7 1c3d
00000060: fd4a a83d 7919 8abd 7a67 073d 0729 933d
00000070: d674 d73d 1933 273d 8351 78bc 4426 763d
00000080: f4fc 163e 5f03 b83d 9b6b 5d3c 96a4 283d
00000090: a73f 5b3e 57dc 823c 54ed 433d c56e 12bd
000000a0: a458 45bd bbb1 453d afda b63d be6c d13b
000000b0: 86b3 26bd bb3e 16bd 7e52 7cbd 7e3a e3bb
000000c0: fec3 e2bc 5b47 1bbd d2ed c23d aba4 6abd
000000d0: 2cc2 a33d fb11 073d b05c 86bc ba6e 98bc
000000e0: 8a1a 073d ca91 6c3d e55e 063d 7a65 4b3c
000000f0: eb6a e83d 9dd8 cb3d 93c5 943c 0aad 5bbd
00000100: 02bc 9a3c 664f 10bd 6426 79bc 82e5 ce3d
00000110: f9b8 2d3d a9ea 28bd aa6b aa3c a477 b03c
00000120: 1354 1ebc ef6c 7b3b 9bb8 cf3c c406 a13d
00000130: 7ac5 0d3d 923f bf3d 72a3 0abe c202 99bd
00000140: d2b3 7abd 1f0c 8a3d b420 09bc 81a8 94bd
00000150: 842d c8bd d314 cdbd e1e0 a0bd f0bc 1ebe
00000160: 548d 833d 15c8 ae3d 05b2 ed3d 56a9 063d
00000170: 7a80 6c3d a716 c3bd fd6a bc3c 8d8e 48bd
00000180: f546 77bc e432 1abd 3cd5 df3c 14a7 87bd
00000190: 940f 28bd c53a c43d 7218 bdbd ef77 61ba
000001a0: a769 c13d d594 3cbe 031e 6e3d 62da 2b3e
000001b0: c0c1 953d 96fa 273d 0fc4 cfbd dc6a c83d
000001c0: 15ca a6bd b6ad 87bc 3a0e b53d 4c87 d0bd
000001d0: 2097 f3bc 28a3 9c3c 8a68 6e3e 0cf1 8fbc
000001e0: 2a3d 16be 2412 6c3d e487 963d 66d7 d9bd
000001f0: 057a 1e3e 6870 0dbd 35b9 9e3d 723b 42bd
00000200: d87b 03be f18c 94bd c51e a53d de49 d43d
00000210: 1271 e5bd eab3 a6bb 6751 2cbc 636b c53d
00000220: 1671 5d3e c562 ddbc 959c 503e 667c bebb
00000230: c818 113e 9a24 dbbc 56b4 9c3d 4ba1 1dbe
00000240: 98a2 0d3e d31d 72bd bcba c7bd 6587 72bc
00000250: 5577 903c b274 323d df14 efbd a364 e53d
00000260: 408d 06be 28b1 34bd 70ef 4ebe 42ce a5bd
00000270: 8cfd 09be bd6f 86bd caf1 483e c20b a6bc
00000280: f3ed d8bc d400 44bd 962e ff3c a45e 383d
00000290: 03f1 7e3d bbf3 1abd 1d39 333d 4c80 a13d
000002a0: 39a0 00be 9dcb 3f3b a1c6 4bbd c291 67bc
000002b0: 595e 4e3d 18ba c339 d3c8 923c d04f bd3b
000002c0: 9462 563e d89a 063c 27dc 1cbc f8ce 64bd
000002d0: 99d1 313e e624 07be e603 183d 3441 3c3c
000002e0: a8d6 9f3d fc75 923d c018 dfbd b96e 39bd
000002f0: 1a2c 01bd 2bfd 1c3e 63e8 c9bd e739 893d
00000300: a70e 96bc 616e 0dbd 535a 203e a9a5 6bbe
00000310: 9af8 32bc 228c 64bd 8e57 b73d 2b53 b0bd
00000320: 4c2c c9bd 63ae d83b 74b3 e43d 1dad e33c
00000330: 740b 19be 81cb 6bbc 21c0 6a3c 93ed 3fbd
00000340: b3fb bebc 2b44 7b3d f1cf 383d 57cd d5bd
00000350: 2d6a 763e 3ea0 cebd e692 a9bd d2ad 623c
00000360: 5a70 0c3e 7c9d 28bb 8779 57bb 7eeb cbbd
00000370: a429 123c 63a5 c63d 7659 57be 3477 48be
00000380: b635 12bd 2736 1ebd ae81 14be be74 123e
00000390: 36e0 e93d 208f 913d 7646 553e 3323 65bd
000003a0: 972a 61bd 8e5e 29bd c7a8 e63d ab70 23bd
000003b0: 8dc6 813d a0b4 663d ac66 683d f47d 80bd
000003c0: 987b 5abd 848c f5bd df28 303d 0b62 673d
000003d0: f40d 16bd 3dcc 4d3c 03e6 cb3d b8c8 623c
000003e0: ed7c fb3d aa7a 283d 1e34 d83d eb79 f6bd
000003f0: 6ccb b0bd 9b62 003d 0cd2 b5bd dd73 0d3c

network_body._body_endoder.seq_layers.0.bias f4 [64]
0.02841129 0.01234609 0.01930399 -0.02988764 -0.0074068727 0.028678138 0.0126824165 0.040547818
0.017033568 0.018366775 0.03766197 0.031096365 0.027479576 0.048404574 0.03768959 0.01024996
0.017939834 0.042768784 0.021685656 0.026395688 0.02595872 -0.009086486 0.044210028 0.007100079
0.00719092 0.021257631 0.017895002 -0.0014936001 0.016359901 0.015101993 0.024121422 0.051316284
-0.033508714 -0.045937624 0.02993084 0.003983484 0.024895737 0.016639344 0.028802339 0.022815036
0.015584679 0.02841852 0.024994776 0.04619295 0.0379134 0.014508801 -0.0058386712 0.02896132
-0.0261315 -0.008248343 0.010355962 0.022156233 0.036343023 -0.0022177005 0.02441274 0.007638588
0.041044656 0.016206374 -0.028147912 0.011506116 0.017511753 0.028727667 0.016429106 -0.0033415551
00000000: cbbe e83c 4147 4a3c 6723 9e3c edd6 f4bc
00000010: 5ab5 f2bb 6aee ea3c e9c9 4f3c 7815 263d
00000020: fb89 8b3c eb75 963c 7043 1a3d cebd fe3c
00000030: d91c e13c e043 463d 6660 1a3d 73ef 273c
00000040: 8ff6 923c 522e 2f3d 1ea6 b13c c53b d83c
00000050: 62a7 d43c 7cdf 14bc 9315 353d c8a7 e83b
00000060: cfa1 eb3b 7c24 ae3c 8a98 923c e7c4 c3ba
00000070: 3305 863c 5a6e 773c 4a9a c53c 0631 523d
00000080: 6f40 09bd 1729 3cbd 8531 f53c e387 823b
00000090: 25f2 cb3c 3c4f 883c e2f2 eb3c 99e6 ba3c
000000a0: e256 7f3c f5cd e83c d8c1 cc3c d234 3d3d
000000b0: 154b 1b3d 52b6 6d3c 5352 bfbb 4a40 ed3c
000000c0: ba11 d6bc 0f24 07bc 0eac 293c fd80 b53c
000000d0: 6cdc 143d d756 11bb 3afd c73c 1f4d fa3b
000000e0: 711e 283d 3bc3 843c 7396 e6bc 2684 3c3c
000000f0: cf74 8f3c 4956 eb3c 5596 863c fefd 5abb

network_body._body_endoder.seq_layers.2.weight f4 [64, 64]
-0.12070304 0.1419354 -0.063257694 -0.4063912 -0.12699711 0.19043995 0.073347986 -0.3418569
0.084884144 -0.005789397 -0.23316064 0.080454096 0.15707825 0.23371957 -0.15351278 0.21040818
-0.106100544 -0.15254194 0.0008172169 0.013678534 0.04889707 -0.18189548 0.3365854 0.23810355
0.12375097 -0.016740417 0.043089967 0.3592453 0.09570476 -0.26816356 -0.009925496 0.18625362
-0.172962 -0.05332238 0.09415989 -0.073071554 0.07748426 0.008245749 0.15263046 -0.050364576
-0.18158826 0.040199056 0.06966158 -0.043339282 0.098787144 -0.11379035 0.02475014 -0.305154
0.04837696 -0.2503634 -0.14368132 0.19192033 0.091768414 0.032396395 0.29242715 -0.17485385
0.094959304 0.09022108 0.0016443264 0.20364563 0.06575548 0.051883142 0.23516609 -0.37412706
-0.14371206 -0.20632777 -0.023422506 0.042222198 -0.006652677 -0.0066760257 0.08188433 0.13873045
-0.07080469 -0.13188507 -0.22577389 -0.17771429 0.18998244 -0.05597828 -0.0073822364 -0.13357075
-0.024393464 -0.04946843 -0.05912382 -0.039619792 0.14231502 -0.015162843 -0.22280572 -0.090466
-0.20016944 0.14301533 0.17694452 -0.030314252 0.07383101 0.014417826 0.009977643 -0.032186806
-0.12802716 0.009642165 -0.011451232 0.10177955 0.0351612 0.011940815 -0.07980742 -0.06307707
0.044708375 0.19318002 0.34852502 0.022566378 0.023295352 0.130556 -0.0886728 0.11719059
0.031771187 0.14597435 0.008494131 0.13554119 -0.03469437 0.0100171985 0.12205539 0.11516547
0.05918032 -0.17869133 -0.10637105 0.2539684 -0.040765498 -0.13117218 -0.016504966 -0.10965265
-0.079774275 -0.026406359 -0.029078154 -0.005381406 -0.060573302 0.18281557 0.007860868 -0.019152794
-0.07570185 0.23040216 -0.032893345 -0.15333998 -0.02621748 -0.007565474 -0.09971609 -0.043241087
-0.046896048 0.044261716 0.13304584 -0.068643056 -0.10200434 -0.1468897 0.28798425 0.13875496
0.09416771 -0.007496938 -0.047359917 0.11125618 -0.019867197 0.1598273 0.08076804 0.014458532
0.048738707 0.012114721 0.12905578 -0.1003129 0.10107333 -0.1155672 -0.0018020094 0.10581714
0.098394476 0.110482015 0.019869147 0.22259514 0.1922556 -0.19524544 -0.095815174 0.070128
-0.12448223 0.04721386 0.020663815 0.01604574 -0.017928569 0.06895492 0.18393971 -0.10031263
0.15166527 -0.07181019 -0.21048857 0.05978991 0.010733753 -0.03491456 0.10081584 0.030621931
0.16012743 0.004782969 -0.0276931 -0.09501493 0.1314144 -0.010984706 -0.04750401 0.25485057
-0.25089228 0.14457089 0.061920043 0.12356563 0.032885082 0.055171486 0.12279135 -0.332863
-0.11991683 0.09458582 0.16357018 -0.13998969 -0.056449596 -0.14585762 -0.25124007 -0.14283282
0.22883675 0.09940613 -0.10928162 0.13176298 0.22829792 -0.03152534 -0.043764915 -0.048972316
0.13448887 0.3859028 0.08495449 0.19481166 0.12666747 -0.046375234 0.0590576 -0.15474555
-0.19357787 0.042686336 0.13946089 0.24180044 0.10041733 -0.057456873 -0.06986325 0.21667147
0.025018314 0.09218751 -0.13643257 -0.08578189 -0.058599383 -0.08738851 -0.030246224 0.100184165
0.12076506 -0.059306666 0.13637398 0.14775792 0.011408972 -0.052112088 -0.07357102 -0.18258198
00000000: 2833 f7bd 8357 113e 408d 81bd 8212 d0be
00000010: 880b 02be b102 433e 7837 963d de07 afbe
00000020: bdd7 ad3d fbb4 bdbb aac1 6ebe 1ec5 a43d
00000030: 1fd9 203e 2f54 6f3e 7432 1dbe 3e75 573e
00000040: 3e4b d9bd f433 1cbe 7f3a 563a ee1b 603c
00000050: 4b48 483d cf42 3abe ec54 ac3e 6bd1 733e
00000060: 2671 fd3d 3323 89bc 1b7f 303d 00ef b73e
00000070: db00 c43d bc4c 89be 8c9e 22bc 45b9 3e3e
00000080: f31c 31be 9168 5abd e7d6 c03d 8aa6 95bd
00000090: 11b0 9e3d 2e19 073c 294b 1c3e 164b 4ebd
000000a0: 46f2 39be c4a7 243d bbaa 8e3d 8884 31bd
000000b0: ea50 ca3d ea0a e9bd cec0 ca3c 253d 9cbe
000000c0: eb26 463d a22f 80be 3221 13be c386 443e
000000d0: 14f1 bb3d 15b2 043d 03b9 953e e30c 33be
000000e0: 067a c23d d4c5 b83d 7086 d73a 7b88 503e
000000f0: cfaa 863d 6b83 543d 61cf 703e 958d bfbe
00000100: 4129 13be 9647 53be 8ee0 bfbc 2ff1 2c3d
00000110: b3fe d9bb 90c2 dabb f9b2 a73d 5b0f 0e3e
00000120: 0d02 91bd e10c 07be 4531 67be bcfa 35be
00000130: c28a 423e 7b49 65bd b0e6 f1bb c5c6 08be
00000140: cdd4 c7bc 699f 4abd d22b 72bd 5d48 22bd
00000150: 07bb 113e 936d 78bc 2f27 64be 3d46 b9bd
00000160: 38f9 4cbe 9c72 123e f230 353e 9855 f8bc
00000170: b634 973d bf38 6c3c 4579 233c 50d6 03bd
00000180: 8d19 03be 2cfa 1d3c f39d 3bbc cc71 d03d
00000190: 3105 103d 68a3 433c 1372 a3bd 8d2e 81bd
000001a0: 2120 373d fcd0 453e df71 b23e 20dd b83c
000001b0: e5d5 be3c 79b0 053e 169a b5bd 9f01 f03d
000001c0: 8122 023d 4d7a 153e f82a 0b3c 4fcb 0a3e
000001d0: af1b 0ebd 2d1f 243c 2df8 f93d e0db eb3d
000001e0: 1067 723d dcfa 36be 11d9 d9bd 2508 823e
000001f0: b9f9 26bd 0052 06be 6c35 87bc 9291 e0bd
00000200: b260 a3bd 2652 d8bc 4f35 eebc 8156 b0bb
00000210: b61b 78bd 0134 3b3e dfca 003c 52e6 9cbc
00000220: 9209 9bbd 8bee 6b3e 2cbb 06bd 2805 1dbe
00000230: 0ac6 d6bc cce7 f7bb f337 ccbd 911d 31bd
00000240: 1216 40bd c64b 353d 2b3d 083e bb94 8cbd
00000250: a7e7 d0bd 416a 16be ac72 933e c815 0e3e
00000260: 00db c03d e0a8 f5bb 79fc 41bd 48da e33d
00000270: 88c0 a2bc c5a9 233e b769 a53d 7be3 6c3c
00000280: 3da2 473d d37c 463c 3327 043e da70 cdbd
00000290: 89ff ce3d 7fae ecbd 6731 ecba a8b6 d83d
000002a0: 0b83 c93d 6544 e23d 9fc4 a23c fbef 633e
000002b0: a7de 443e 6cee 47be bf3a c4bd 459f 8f3d
000002c0: 8af0 febd 5263 413d 2947 a93c 5b72 833c
000002d0: efde 92bc 3d38 8d3d b15a 3c3e b570 cdbd
000002e0: 244e 1b3e 3911 93bd 518a 57be 44e6 743d
000002f0: a0dc 2f3c 9202 0fbd 8978 ce3d d8da fa3c
00000300: 72f8 233e 74ba 9c3b a4dc e2bc 3097 c2bd
00000310: 7f91 063e 32f9 33bc 9193 42bd c67b 823e
00000320: f474 80be 640a 143e df9f 7d3d fa0f fd3d
00000330: 82b2 063d 7ffb 613d 087a fb3d 056d aabe
00000340: f496 f5bd 36b6 c13d f17e 273e 7559 0fbe
00000350: b137 67bd b35b 15be 8aa2 80be c442 12be
00000360: 2e54 6a3e 7195 cb3d 0bcf dfbd e0ec 063e
00000370: eec6 693e b720 01bd d742 33bd 3297 48bd
00000380: 73b7 093e 0d95 c53e 9ffc ad3d b57c 473e
00000390: 1eb5 013e f5f3 3dbd 62e6 713d 9e75 1ebe
000003a0: 4739 46be ded7 2e3d d6ce 0e3e 899a 773e
000003b0: 9aa7 cd3d e657 6bbd 7714 8fbd 20df 5d3e
000003c0: 35f3 cc3c cecc bc3d fbb4 0bbe 6aae afbd
000003d0: e805 70bd bff8 b2bd eec6 f7bc 5b2d cd3d
000003e0: ac53 f73d 8ceb 72bd 9fa5 0b3e da4d 173e
000003f0: b2ec 3a3c 7c73 55bd 67ac 96bd c5f6 3abe

network_body._body_endoder.seq_layers.2.bias f4 [64]
0.047530808 0.030944822 0.021528885 0.025101293 0.045578957 0.06616113 -0.010787096 0.02495217
-0.033575766 0.014486763 0.025742162 -0.017318178 0.0049585085 0.03468242 -0.011269617 0.030216519
-0.018903585 0.022691377 0.030604456 0.017034777 0.028457878 0.010694482 -0.028977644 0.009719329
-0.01637202 0.003534687 0.032959256 -0.023342451 0.04874247 0.03742158 0.004830371 -0.006556836
-0.0065992684 0.036795035 0.03744818 0.01313942 -0.021300687 0.01698699 0.05704937 0.014748973
0.032765564 -0.012707021 0.040654052 0.016712632 -0.026170973 0.047072634 0.020027554 0.0073427004
0.06603554 0.029636035 0.004776249 0.022298886 0.051354147 0.010709192 0.04656745 0.048498027
0.030791558 -0.0128833605 -0.005078852 -0.010323936 0.019221494 0.04195467 0.019834477 -0.023077965
00000000: aaaf 423d ff7f fd3c 585d b03c 3aa1 cd3c
00000010: 00b1 3a3d 7d7f 873d 5cbc 30bc 7e68 cc3c
00000020: be86 09bd e359 6d3c 3ae1 d23c dade 8dbc
00000030: fc7a a23b 270f 0e3d 33a4 38bc a288 f73c
00000040: b1db 9abc 44e3 b93c 32b6 fa3c 848c 8b3c
00000050: 7f20 e93c e937 2f3c 8662 edbc d23d 1f3c
00000060: 9d1e 86bc 35a6 673b 4900 073d ab38 bfbc
00000070: 2fa6 473d 5f47 193d 1748 9e3b bada d6bb
00000080: ad3e d8bb 64b6 163d 4363 193d b946 573c
00000090: c77e aebc 4d28 8b3c 9aac 693d ada5 713c
000000a0: 2f35 063d 1c31 50bc dd84 263d eee8 883c
000000b0: 8264 d6bc 3ccf 403d d310 a43c 099b f03b
000000c0: a43d 873d 45c7 f23c 1582 9c3b 27ac b63c
000000d0: ba58 523d 9b75 2f3c 83bd 3e3d dea5 463d
000000e0: 943e fc3c bb14 53bc 806c a6bb ba25 29bc
000000f0: 6576 9d3c a9d8 2b3d ea7b a23c 000e bdbc

action_model._continuous_distribution.log_sigma f4 [1, 2]
0.22502688 0.28668767
00000000: 726d 663e bac8 923e

action_model._continuous_distribution.mu.weight f4 [2, 64]
-0.12201901 0.045331907 0.066106506 0.09229721 0.11666785 -0.019771824 -0.007884583 -0.039095685
-0.06368423 -0.011132049 -0.050180037 -0.008969125 0.027719244 0.03018965 0.031937502 -0.09288063
0.044632964 0.029116658 0.03695223 0.033711147 0.06515632 -0.06804599 -0.010330196 -0.007464351
0.08206929 0.11477785 0.009727326 -0.08796715 -0.09482878 -0.11828354 -0.049825795 -0.06996543
-0.07133707 0.111300506 0.0468055 0.12924938 0.044437762 -0.13776858 -0.123145044 0.04887522
-0.05031769 -0.018339954 0.02681829 -0.07278629 -0.026187671 -0.021422863 -0.09310833 -0.018152429
-0.08444027 -0.040082015 -0.021553976 0.052090622 0.103862904 0.09580666 0.057334773 0.00094200345
0.035433766 -0.05482133 -0.11206819 0.050993133 0.02160689 -0.15157337 -0.07062298 -0.023479344
0.030988378 0.0803865 0.08167837 0.05153247 -0.03839071 0.021767141 -0.04284637 -0.084284425
-0.035369508 0.060611404 0.09314535 0.058152616 0.016455196 0.09000875 0.067355774 0.07524384
0.14683756 0.005736328 0.020311376 0.12329701 -0.12325249 0.029567592 0.049057756 -0.082286775
-0.015461348 0.10039499 -0.10710735 -0.020016009 -0.08694313 -0.029633705 -0.1196884 -0.00060366356
0.022362612 0.02972051 0.027299859 0.049668577 0.09253603 -0.088730566 0.11899429 0.058859304
0.05846404 -0.032972645 0.03225317 0.1281749 0.0105499355 -0.098467715 -0.016510397 -0.059335634
0.11195475 0.046394933 -0.0070252144 -0.030157145 -0.11325367 -0.0042634783 -0.045652382 0.04736239
-0.08383292 0.021012526 -0.03970008 -0.038827725 0.07310117 0.0028496848 -0.03974844 0.03763545
00000000: 1ae5 f9bd f3ad 393d d962 873d 5206 bd3d
00000010: 8eef ee3d 85f8 a1bc 572e 01bc cc22 20bd
00000020: e16c 82bd 3363 36bc 9589 4dbd 3df3 12bc
00000030: 7813 e33c 4950 f73c e6d0 023d 3338 bebd
00000040: 0ed1 363d 0f86 ee3c 395b 173d b314 0a3d
00000050: ad70 853d b25b 8bbd fb3f 29bc 8497 f4bb
00000060: f213 a83d a610 eb3d 5d5f 1f3c 1f28 b4bd
00000070: 9735 c2bd a43e f2bd 2216 4cbd 094a 8fbd
00000080: 2b19 92bd 85f1 e33d 20b7 3f3d f359 043e
00000090: 5f04 363d 3513 0dbe 7833 fcbd 6231 483d
000000a0: ec19 4ebd ac3d 96bc 08b2 db3c fa10 95bd
000000b0: 8787 d6bc 007f afbc 95af bebd 67b4 94bc
000000c0: 05ef acbd 0a2d 24bd f791 b0bc fa5c 553d
000000d0: 13b6 d43d 4836 c43d ded7 6a3d c8f0 763a
000000e0: ff22 113d 558c 60bd 0284 e5bd 2dde 503d
000000f0: ef00 b13c 0d36 1bbe c8a2 90bd c157 c0bc
00000100: 57db fd3c ada1 a43d fd46 a73d b613 533d
00000110: 943f 1dbd 0151 b23c ad7f 2fbd 509d acbd
00000120: 9edf 10bd aa43 783d fdc2 be3d 7031 6e3d
00000130: 0ccd 863c 8256 b83d d3f1 893d 7119 9a3d
00000140: 965c 163e cff7 bb3b 0b64 a63c 2583 fc3d
00000150: cd6b fcbd bc37 f23c c9f0 483d f885 a8bd
00000160: 9851 7dbc e39b cd3d 195b dbbd 9df8 a3bc
00000170: 3d0f b2bd 62c2 f2bc 311f f5bd 2d3f 1eba
00000180: cc31 b73c 6d78 f33c f4a3 df3c 4771 4b3d
00000190: 8883 bd3d 5fb8 b5bd 47b3 f33d 7416 713d
000001a0: fd77 6f3d 530e 07bd e61b 043d 4840 033e
000001b0: a3d9 2c3c 71a9 c9bd d040 87bc ec09 73bd
000001c0: 8848 e53d 9d08 3e3d c533 e6bb 1e0c f7bc
000001d0: 8af1 e7bd a6b4 8bbb fefd 3abd 11ff 413d
000001e0: 98b0 abbd 7622 ac3c 8d9c 22bd d209 1fbd
000001f0: 11b6 953d c7c1 3a3b 43cf 22bd a127 1a3d

action_model._continuous_distribution.mu.bias f4 [2]
-0.024379035 -0.010122624
00000000: 8bb6 c7bc 5dd9 25bc

action_model._discrete_distribution.branches.0.weight f4 [3, 64]
0.037963577 -0.03705258 -0.023358673 0.03020752 0.0798944 0.029539842 -0.026824897 -0.025354337
-0.033508137 -0.02039056 0.02964628 0.005923683 0.052671786 0.046305872 -0.0664519 -0.020803615
-0.025900422 -0.03315296 0.023204567 0.00046913404 0.038677473 0.011763269 -0.004319274 -0.045066815
-0.035401266 -0.039222438 -0.100185424 -0.005898227 0.017964177 -0.07378857 0.042801347 0.03528929
0.08196014 0.041557424 -0.0025027215 0.055787448 0.006723251 0.018638164 -0.008786553 -0.04464928
-0.014276439 -0.041396182 0.02747087 0.07398191 0.009425423 -0.046388425 0.005454577 -0.10884321
0.031142907 0.039591473 -0.047595568 0.111092165 -0.051504098 -0.054450367 0.09876747 0.010549982
-0.0013342847 0.1173025 0.017748311 0.06036123 0.07620203 0.027081054 0.038828798 -0.03579916
0.01704793 -0.12924388 0.031295504 -0.05362576 -0.009918621 -0.15099037 0.036778685 -0.08898194
0.009061526 -0.053209048 0.19282275 0.0070257 0.017764684 0.006404443 -0.012060254 0.08469344
0.0880714 -0.07134056 0.050717097 0.02579513 -0.002785698 -0.013328264 -0.014701423 0.00784097
0.060069133 -0.03188603 0.03799893 -0.06272585 -0.11178099 0.067050375 -0.018923778 -0.019482158
-0.11702656 -0.015499254 -0.11464753 -0.01141254 -0.021944286 0.03908167 0.08159586 0.018393297
0.12677108 0.07004783 -0.07622914 -0.017885782 0.025201796 -0.013299752 0.07902115 -0.14262979
0.082095265 0.019999165 0.066036485 -0.07837041 0.035740275 0.038684234 -0.2722045 -0.07455418
0.02739491 -0.061679337 -0.04200558 -0.0053308876 -0.07468152 -0.03863088 0.06882316 0.002787798
-0.054478038 0.16089496 0.026066871 0.04228645 -0.091965005 0.064931236 -0.009227432 0.0864835
0.010391887 0.06750046 -0.2668071 -0.04860402 -0.044841778 -0.06455795 0.075811155 -0.0069219796
-0.11518239 0.12686443 -0.10709086 -0.056050275 -0.013722564 0.020502817 0.023007002 0.01909254
0.016049206 0.11214006 0.062909715 0.05512913 0.10227242 0.055203743 -0.044305153 -0.011022553
-0.035088148 -0.010547058 0.09286791 -0.049112264 0.01753649 -0.008689096 -0.08110434 0.046451498
-0.1385206 -0.045158003 0.040362287 0.013063225 -0.008035063 0.104402944 -0.07143699 0.20498636
-0.18679374 -0.13923028 0.0075658867 -0.03749016 0.0579581 0.011190822 0.13779731 0.08644327
-0.03206899 -0.071087025 0.019721663 -0.03349569 -0.057682108 0.05716198 -0.134346 0.021609006
00000000: b27f 1b3d 72c4 17bd b05a bfbc c375 f73c
00000010: ad9f a33d 8afd f13c e3bf dbbc e6b3 cfbc
00000020: d43f 09bd 1b0a a7bc c1dc f23c 741b c23b
00000030: 5fbe 573d 3aab 3d3d ef17 88bd 586c aabc
00000040: 1f2d d4bc 66cb 07bd 8117 be3c 1bf6 f539
00000050: 456c 1e3d baba 403c b288 8dbb fb97 38bd
00000060: eb00 11bd b5a7 20bd 042e cdbd ea45 c1bb
00000070: 9c29 933c 761e 97bd 7750 2f3d 818b 103d
00000080: b8da a73d 1e38 2a3d b304 24bb 6181 643d
00000090: b84e dc3b 10af 983c 79f5 0fbc 2ae2 36bd
000000a0: bae7 69bc 0b8f 29bd 970a e13c d483 973d
000000b0: 176d 1a3c ca01 3ebd 4fbc b23b 30e9 debd
000000c0: 691f ff3c ab2a 223d 92f3 42bd 4a84 e33d
000000d0: f6f5 52bd 5907 5fbd 9946 ca3d d5d9 2c3c
000000e0: 2ae3 aeba 4b3c f03d e864 913c 563d 773d
000000f0: cf0f 9c3d 16d9 dd3c f20a 1f3d 24a2 12bd
00000100: 1aa8 8b3c 8258 04be b72f 003d afa6 5bbd
00000110: b681 22bc 389d 1abe 3fa5 163d 2a3c b6bd
00000120: cb76 143c bbf1 59bd 5473 453e d837 e63b
00000130: 3e87 913c 5ddc d13b 5f98 45bc c173 ad3d
00000140: c75e b43d 001b 92bd bbbc 4f3d 4f50 d33c
00000150: 4290 36bb ca5e 5abc 3dde 70bc 6977 003c
00000160: 0d0b 763d ed9a 02bd c4a4 1b3d 6976 80bd
00000170: 6fed e4bd b551 893d 0a06 9bbc 0c99 9fbc
00000180: 9fab efbd 95f0 7dbc 53cc eabd aafb 3abc
00000190: 81c4 b3bc 1a14 203d bb1b a73d 8aad 963c
000001a0: 47d0 013e 3d75 8f3d 061e 9cbd 3485 92bc
000001b0: ff73 ce3c 34e7 59bc d7d5 a13d 8b0d 12be
000001c0: 9021 a83d 4ad5 a33c 233e 873d aa80 a0bd
000001d0: 6564 123d 5c73 1e3d 635e 8bbe ddaf 98bd
000001e0: 4a6b e03c 79a3 7cbd 0b0e 2cbd baae aebb
000001f0: a0f2 98bd 6a3b 1ebd 28f3 8c3d 7db3 363b
00000200: 5d24 5fbd a6c1 243e 318a d53c 8e34 2d3d
00000210: 2658 bcbd abfa 843d a82e 17bc 431e b13d
00000220: bc42 2a3c ae3d 8a3d f19a 88be 0215 47bd
00000230: 03ac 37bd f536 84bd e142 9b3d c6d1 e2bb
00000240: bfe4 ebbd c0e8 013e 7452 dbbd f994 65bd
00000250: 9bd4 60bc 86f5 a73c 2e79 bc3c f567 9c3c
00000260: a079 833c b0a9 e53d cfd6 803d 15cf 613d
00000270: 3474 d13d 521d 623d 5279 35bd f097 34bc
00000280: 97b8 0fbd 91cd 2cbc 8831 be3d f129 49bd
00000290: afa8 8f3c b65c 0ebc 081a a6bd ed43 3e3d
000002a0: 58d8 0dbe 99f7 38bd ed52 253d 2307 563c
000002b0: 7fa5 03bc 36d1 d53d 8e4d 92bd f2e7 513e
000002c0: dc46 3fbe 6292 0ebe 42eb f73b 488f 19bd
000002d0: 7965 6d3d b659 373c bd1a 0d3e 2b09 b13d
000002e0: c65a 03bd 1396 91bd 538f a13c c732 09bd
000002f0: 1344 6cbd ae22 6a3d ff91 09be 5f05 b13c

action_model._discrete_distribution.branches.0.bias f4 [3]
0.030059898 -0.02005601 -0.019833015
00000000: 2d40 f63c 804c a4bc d978 a2bc

action_model._discrete_distribution.branches.1.weight f4 [3, 64]
0.009930654 0.08985697 -0.016698852 -0.061214764 -0.012385603 -0.05671809 0.04135781 0.0074839513
0.02616342 0.030863859 0.019195434 0.020419002 -0.043720227 0.006782365 -0.034652308 -0.08750298
0.055612 0.04158607 0.0195439 0.03358564 -0.026428677 0.019588064 -0.05844788 0.024123717
-0.010282621 0.015444644 0.03250368 -0.061984453 -0.03005945 0.074364066 0.0157922 -0.008553501
-0.0005524092 0.09998485 -0.0018724513 0.015614506 0.061853778 -0.059767995 0.05355461 -0.0062011387
-0.018536046 -0.0019906764 0.012996389 -0.016429422 -0.04240961 0.06683564 0.03101574 0.084763855
0.005752794 0.040947948 0.0531271 -0.05601425 -0.0057286383 -0.06726752 0.01072251 -0.023675112
-0.02586542 -0.07647658 -0.031533014 -0.011367797 -0.04414883 0.0022965726 -0.015519031 0.01801374
-0.039517358 0.020059863 0.100845344 0.1407763 -0.058404103 0.1992413 -0.04015017 -0.16906767
-0.0045131007 -0.031634647 -0.080821514 0.010912864 0.05119573 0.14104185 0.032118835 0.023940777
-0.034824442 0.0030871986 -0.030360771 0.026825696 -0.08104948 0.039831217 0.0021840252 -0.010214182
-0.00209274 0.05385216 -0.09146267 0.03632216 0.09358727 -0.029717613 -0.09116995 0.001214847
-0.04443912 -0.0728925 0.11116414 0.028036108 -0.08784193 0.07067359 -0.11762765 -0.008632245
0.13898924 -0.07288405 0.07407247 0.017266812 0.015611238 -0.01378704 -0.08411409 -0.07084931
0.1664166 -0.18065402 0.10020465 0.041214902 0.0049230484 -0.028271085 -0.058291625 0.1395243
-0.07741364 -0.00125523 0.06361307 -0.07886277 0.084303595 -0.16752021 -0.07373378 -0.028984848
0.014178711 -0.14403878 -0.11253627 -0.09367486 0.07798746 -0.12539892 -0.0060013547 0.12200163
-0.013534604 0.007009226 0.0025533962 -0.03446785 0.05248278 -0.1271697 -0.0041616666 0.05951943
-0.07245689 -0.10674247 0.0048941406 -0.08739904 0.0743151 -0.086125 0.08000411 -0.015180002
0.021641094 -0.04252719 0.052800905 0.03286868 -0.037495185 -0.028799897 0.09357964 0.04450853
0.0061152424 -0.08240622 -0.12777069 -0.02392394 0.011250711 0.0045095426 0.044724878 0.017990474
-0.16656566 0.06780604 -0.08272953 -0.015525345 0.08278411 -0.061296917 0.08244141 -0.011374345
-0.19641611 0.14544035 -0.1566168 -0.0022731805 0.029438373 0.07098307 0.06276197 -0.1239848
0.12387951 0.08908687 -0.052667975 0.054310437 -0.061818518 0.14956857 0.07464331 -0.008706215
00000000: 2fb4 223c ee06 b83d 08cc 88bc 55bc 7abd
00000010: fcec 4abc 3a51 68bd cf66 293d ef3b f53b
00000020: ab54 d63c 34d6 fc3c be3f 9d3c c045 a73c
00000030: fb13 33bd 9a3e de3b 94ef 0dbd c334 b3bd
00000040: 69c9 633d 2856 2a3d 871a a03c 1991 093d
00000050: f480 d8bc 2677 a03c 0b67 6fbd 1a9f c53c
00000060: 7078 28bc 880b 7d3c 9422 053d 69e3 7dbd
00000070: 3c3f f6bc 304c 983d a55e 813c fc23 0cbc
00000080: 8ecf 10ba dbc4 cc3d 0a6d f5ba fcd3 7f3c
00000090: 635a 7d3d 49cf 74bd 145c 5b3d ec32 cbbb
000000a0: e8d8 97bc 0276 02bb ceee 543c ff96 86bc
000000b0: b3b5 2dbd 20e1 883d b914 fe3c ac98 ad3d
000000c0: ef81 bc3b 09b9 273d cd9b 593d 336f 65bd
000000d0: 4db7 bbbb 8ec3 89bd 77ad 2f3c 4ff2 c1bc
000000e0: b8e3 d3bc c19f 9cbd c328 01bd ff3f 3abc
000000f0: 67d5 34bd 1882 163b 8943 7ebc 8d91 933c
00000100: f4dc 21bd 9554 a43c 0188 ce3d aa27 103e
00000110: 2439 6fbd e905 4c3e 8174 24bd 1320 2dbe
00000120: a2e2 93bb 5593 01bd c085 a5bd decb 323c
00000130: 9db2 513d 466d 103e 0a8f 033d 731f c43c
00000140: 13a4 0ebd 9952 4a3b 27b7 f8bc 90c1 db3c
00000150: 45fd a5bd 0f26 233d dd21 0f3b 6259 27bc
00000160: 5a26 09bb 1594 5c3d c850 bbbd 8cc6 143d
00000170: afaa bf3d 5a72 f3bc 50b7 babd 803b 9f3a
00000180: cb05 36bd aa48 95bd 06aa e33d fbab e53c
00000190: 78e6 b3bd 51bd 903d c4e6 f0bd 426e 0dbc
000001a0: 3253 0e3e 3c44 95bd 4fb3 973d 2173 8d3c
000001b0: 47c6 7f3c 09e3 61bc 0244 acbd 7119 91bd
000001c0: 1d69 2a3e 5efd 38be 1838 cd3d f5d0 283d
000001d0: 8651 a13b c398 e7bc 33c3 6ebd 75df 0e3e
000001e0: 0b8b 9ebd 8886 a4ba 9247 823d ce82 a1bd
000001f0: 5da7 ac3d 6b8a 2bbe bc01 97bd a271 edbc
00000200: d34d 683c e77e 13be 6a79 e6bd 9bd8 bfbd
00000210: e4b7 9f3d 9368 00be 03a7 c4bb fedb f93d
00000220: 3ec0 5dbc a6ad e53b e156 273b 292e 0dbd
00000230: 2ff8 563d c638 02be 975e 88bb a5ca 733d
00000240: 4764 94bd cc9b dabd 075f a03b 45fe b2bd
00000250: 8432 983d 4e62 b0bd 32d9 a33d 8bb5 78bc
00000260: aa48 b13c fe30 2ebd c345 583d 4fa1 063d
00000270: 8d94 19bd c3ed ebbc afa6 bf3d 944e 363d
00000280: 5f62 c83b 98c4 a8bd 52d6 02be 23fc c3bc
00000290: e754 383c c9c4 933b 6f31 373d c260 933c
000002a0: 3090 2abe e5dd 8a3d 1a6e a9bd 045e 7ebc
000002b0: b78a a93d 7a12 7bbd 0bd7 a83d 765b 3abc
000002c0: 4e21 49be 51ee 143e 2860 20be a4f9 14bb
000002d0: be28 f13c 925f 913d 5989 803d beeb fdbd
000002e0: 8ab4 fd3d 2d73 b63d 60ba 57bd 9f74 5e3d
000002f0: 6a35 7dbd 8128 193e 97de 983d 83a4 0ebc

action_model._discrete_distribution.branches.1.bias f4 [3]
0.024586525 -0.0039485157 -0.03234455
00000000: ae69 c93c 8d62 81bb b87b 04bd
