results/MLHades_main_12_grid32x32cellsize1x1_andraycastsensor/MLHades/MLHades-2499973.onnx (onnx, 234194 bytes, 22 tensors)

discrete_action_output_shape f4 [1, 4]
0	0x40400000	3.0
1	0x40400000	3.0
2	0x40400000	3.0
3	0x40000000	2.0

network_body.observation_encoder.processors.1.conv_layers.0.weight f4 [16, 7, 8, 8]
0	0xbdabb50b	-0.083841406
1	0xba3c417a	-0.00071813876
2	0xbd7db54f	-0.061940487
3	0xbcef410d	-0.029205823
4	0xbb37d9fe	-0.0028053517
5	0xbcac21bb	-0.021012178
6	0x3dd8e9ab	0.10591444
7	0x3c93f858	0.018062755
8	0xbd83ba8a	-0.06432064
9	0xbc3540b5	-0.011062791
10	0xbc08c7df	-0.008348434
11	0x3cc21b7f	0.023694752
12	0xbce4cb47	-0.027928961
13	0xbd6fc6fa	-0.05853937
14	0x3d750e81	0.059828285
15	0x3c964662	0.018344108
16	0xbdd0d2b4	-0.101964384
17	0x3ce78b3e	0.028264638
18	0x3d43c732	0.04779739
19	0x3cb0cb99	0.021581458
20	0x3d2d2fbe	0.04228186
21	0xbc3f92a9	-0.011692681
22	0x3dcdfc3c	0.100578755
23	0x3b26a97a	0.0025430606
24	0x3d065b6c	0.03280203
25	0x3d31684a	0.04331235
26	0x3d9464cc	0.07245788
27	0x3d7d66a3	0.06186546
28	0x3cdfe3d9	0.027330326
29	0xbd3a3b07	-0.04546645
30	0xbc7fe307	-0.015618092
31	0xbcfff064	-0.031242557
32	0xbd3f5513	-0.046711992
33	0xbc0747af	-0.008256837
34	0x3d731d22	0.059353955
35	0x3c74f8a4	0.014951859
36	0x3cea17f7	0.02857588
37	0x3cb31550	0.021860749
38	0x3cecc400	0.028902054
39	0xbd8948d4	-0.06703344
40	0xbd3c2d50	-0.04594165
41	0x3ce8b61e	0.028407153
42	0x3c8be735	0.017078022
43	0x3d3869d0	0.045022786
44	0x3d37fcde	0.044918887
45	0xbd10161e	-0.035177343
46	0x3c2b5ebb	0.010459597
47	0x3d5604d6	0.052250706
48	0xbd8aec14	-0.067833096
49	0xbd3305b4	-0.04370661
50	0xbbb34018	-0.005470287
51	0x3c8d04cf	0.017214207
52	0x3cb8f807	0.022579206
53	0xbd5e2a32	-0.05423946
54	0x3d2cb0bd	0.04216074
55	0x3d0ae5c7	0.03391054
56	0x3c8ea4c9	0.01741256
57	0xbc42fe63	-0.011901471
58	0x3d42419b	0.047425848
59	0x3c98bd5b	0.01864498
60	0xbcf3174a	-0.029674191
61	0xbd620154	-0.055177048
62	0xbd60b56c	-0.054860517
63	0xbd644688	-0.055731326
64	0x3e2e817a	0.17041579
65	0x3e5fed85	0.2186795
66	0x3e1c9337	0.15290533
67	0x3db0e5f5	0.08637611
68	0x3dccb035	0.09994546
69	0x3e6b0fa2	0.22955182
70	0x3d92bb53	0.071646355
71	0x3e206c35	0.15666278
72	0x3e8cce97	0.27501366
73	0x3e614711	0.21999766
74	0x3e8a6c77	0.27035877
75	0x3e082424	0.13295037
76	0x3e1bf811	0.15231349
77	0x3e2d7219	0.16938056
78	0x3e0a2984	0.134924
79	0x3df47b65	0.11937598
80	0x3e853be0	0.26022243
81	0x3e73e102	0.23816302
82	0x3e2eab42	0.17057517
83	0x3e197bb2	0.14988592
84	0x3e20446f	0.15651105
85	0x3e13b111	0.14423014
86	0x3ca97f69	0.020690637
87	0x3c44580e	0.0119838845
88	0x3e7f73c8	0.24946511
89	0x3e50562c	0.20345372
90	0x3e4af038	0.19818199
91	0x3e84f761	0.25969985
92	0x3e228a98	0.15873182
93	0x3d852ffd	0.06503294
94	0x3d9baa89	0.076008864
95	0x3e0a3027	0.13494931
96	0x3e271dd6	0.16319975
97	0x3e86af49	0.26305607
98	0x3de9a753	0.11408868
99	0x3e0fbc6e	0.14036724
100	0x3e1236b6	0.14278683
101	0x3e11e271	0.14246537
102	0x3dc151cd	0.094394304
103	0x3e5c173f	0.21493243
104	0x3dc29edc	0.09502956
105	0x3e5f92cf	0.21833347
106	0x3e8fdd6f	0.28098628
107	0x3dbda163	0.09259298
108	0x3e10d614	0.14144164
109	0x3dac01c0	0.08398771
110	0x3e083a73	0.13303547
111	0x3da8a341	0.08234263
112	0x3e1164fe	0.14198682
113	0x3e51b780	0.20480156
114	0x3e528be4	0.20561177
115	0x3e539fe3	0.2066646
116	0x3e80847f	0.25101086
117	0x3dc308a5	0.09523133
118	0x3e0d230a	0.13782898
119	0x3dadae2b	0.084804855
120	0x3e8107be	0.2520122
121	0x3e736d9c	0.23772281
122	0x3e12ee8d	0.14348812
123	0x3de4a797	0.11164778
124	0x3d202a9b	0.03910313
125	0x3dbc6c25	0.092003144
126	0x3e1abd7d	0.15111347
127	0x3e121c37	0.14268576
128	0xbe4475a1	-0.19185497
129	0xbdb98acf	-0.09059679
130	0x3ced43da	0.028963018
131	0x3da60982	0.08107282
132	0x3d972909	0.07380874
133	0xbde57270	-0.11203468
134	0xbd903b17	-0.070425205
135	0xbd97a191	-0.07403863
136	0xbc6facf5	-0.0146286385
137	0x3b036b27	0.0020052881
138	0x3da27c81	0.079339035
139	0x3dd9e2ab	0.106389366
140	0x3dedff08	0.11620909
141	0xbc59b1fb	-0.013287063
142	0xbd09b515	-0.03361996
143	0x3d8c96df	0.06864714
144	0xbdb127c5	-0.086501636
145	0x3d734796	0.05939444
146	0x3cc12b6a	0.023580272
147	0xbc4914db	-0.012273039
148	0xbc7f507a	-0.015583152
149	0xbd73cb6b	-0.059520166
150	0xbde6ab61	-0.11263157
151	0x3ab09fd6	0.0013475369
152	0xbda24529	-0.079233475
153	0xbd4e8706	-0.050421737
154	0xbd9a8cd8	-0.07546395
155	0xbc13abe0	-0.009013146
156	0x3d91bb91	0.071158536
157	0x3ce36042	0.02775586
158	0xbd4caaad	-0.049967457
159	0x3d55de8c	0.05221419
160	0xbdf962a7	-0.121770196
161	0xbdae42e3	-0.085088514
162	0xbdd815ae	-0.1055101
163	0xbcd48fed	-0.025947535
164	0xbaab8937	-0.0013087158
165	0x3ce46211	0.027878793
166	0xbd6fb3da	-0.05852113
167	0xbd9350a9	-0.07193119
168	0xbcd92235	-0.026505569
169	0xbc804aea	-0.015660722
170	0xbcea8c5d	-0.028631384
171	0x3bae3c28	0.00531723
172	0x3cce33bb	0.025171151
173	0x3e00dbc2	0.12583831
174	0xbd26578f	-0.040610846
175	0x3cefbddf	0.029265342
176	0x3daef589	0.08542926
177	0x3d8fc953	0.070208214
178	0x3d062ab2	0.03275556
179	0x3dba23f2	0.09088887
180	0xbd049d96	-0.03237685
181	0xbd57be56	-0.052671753
182	0xbdf340cf	-0.11877596
183	0xbdafa2e9	-0.085759945
184	0x3d8481fb	0.06470104
185	0x3de26bab	0.11055692
186	0x3dd278f5	0.10276977
187	0x3d695f43	0.056975614
188	0x3d9213a2	0.07132651
189	0x3c9c6358	0.01909034
190	0xbe1dcc3b	-0.15409939
191	0xbdf31af1	-0.11870373
192	0x3da34eba	0.07974
193	0xbd5b87da	-0.053596355
194	0x3d82eab2	0.06392421
195	0x3dc1ed37	0.09469073
196	0x3d7984ac	0.06091754
197	0x3db4f628	0.08836013
198	0x3c236ae0	0.009974211
199	0xbd07cf9d	-0.03315698
200	0xbddcedf4	-0.107875735
201	0xbd2d649e	-0.042332284
202	0xbdb99783	-0.09062102
203	0xbca873b9	-0.020562993
204	0x3d66c253	0.056337666
205	0x3bd6e379	0.0065578786
206	0x3c93b00f	0.018028287
207	0xbc90311c	-0.017601542
208	0x3c2a6f75	0.01040255
209	0x3c53c5d0	0.01292558
210	0x3c1e1dc4	0.009650651
211	0xbce7af55	-0.028281847
212	0x3d253683	0.04033519
213	0xbb82e65a	-0.003994745
214	0xbd86452b	-0.065561615
215	0xbcdba828	-0.026813582
216	0x3d204869	0.039131556
217	0xbd89b5ef	-0.06724154
218	0x3d617a06	0.05504801
219	0x3d89af9f	0.0672295
220	0x3b64895b	0.003487191
221	0xbb1934f3	-0.0023377507
222	0x3c6a74b5	0.014310052
223	0xbd891ec8	-0.06695324
224	0x3c464132	0.012100505
225	0xbbbf28e8	-0.005833734
226	0x3d6205a4	0.05518116
227	0x3dd4c995	0.10390011
228	0x3d18b26f	0.037279543
229	0x3ca8950a	0.02057888
230	0xbd0c6e7b	-0.03428505
231	0x3d53c941	0.051705603
232	0xbcc1cac6	-0.02365626
233	0xbcfd5dc6	-0.030928504
234	0xbd252188	-0.04031518
235	0xbd5303d2	-0.051517315
236	0x3d21aec5	0.039473314
237	0x3d8c9637	0.06864589
238	0xbd86c381	-0.06580258
239	0xbcd61cb9	-0.026136743
240	0x3d9228fc	0.071367234
241	0xbd2f3a33	-0.042780112
242	0x3ccd1598	0.02503471
243	0xbdd2f27b	-0.10300156
244	0xbcb09b39	-0.02155839
245	0x3b3ca94a	0.0028787428
246	0xbcf0a00d	-0.029373193
247	0xbe07252b	-0.13197772
248	0xbd1ecce9	-0.038769636
249	0xbd2f8055	-0.042846996
250	0x3cb04486	0.02151705
251	0xbdb312f4	-0.087438494
252	0x3d9decbe	0.077111706
253	0x3d2981fa	0.04138372
254	0xbd84fe63	-0.06493833
255	0xbcafba53	-0.021451151

network_body.observation_encoder.processors.1.conv_layers.0.bias f4 [16]
0	0x3c362d9e	0.011119274
1	0x3d225cd9	0.039639328
2	0xbc18aff3	-0.009319293
3	0x3c05f194	0.0081752725
4	0xbd2ff490	-0.042957842
5	0xbcca36f2	-0.024684403
6	0xbaca5b12	-0.0015438518
7	0x3d1db4d5	0.038502533
8	0xbd8efbfd	-0.06981657
9	0x3c27cbb9	0.010241442
10	0x3d6a3e1a	0.05718813
11	0xbc4afa36	-0.0123887565
12	0x3b12d2ae	0.0022403407
13	0x3dc18c99	0.09450645
14	0xbcb338c2	-0.02187765
15	0xbc1354dc	-0.0089924

network_body.observation_encoder.processors.1.conv_layers.2.weight f4 [32, 16, 4, 4]
0	0x3da7595a	0.08171339
1	0xbc5df03c	-0.013546046
2	0x3debe80f	0.11518871
3	0xbdc9e5ae	-0.09858261
4	0x3c528069	0.012847998
5	0x3da5f1c1	0.081027515
6	0x3d3c7b16	0.04601582
7	0xbd1ef88b	-0.038811248
8	0xbc0ad1ed	-0.008472902
9	0x3db3f361	0.08786655
10	0x3ceb4f9c	0.028724484
11	0xbdc853df	-0.09781622
12	0x3e0108c0	0.12600994
13	0x3d321fa0	0.04348719
14	0x3b62aec8	0.003458904
15	0xbd7e5c26	-0.0620996
16	0xbe26482d	-0.1623847
17	0xbcdfdf21	-0.027328076
18	0xbc4e89d6	-0.012606105
19	0x3c5fef5f	0.01366791
20	0xbd856848	-0.06514031
21	0xbd4ff771	-0.050773088
22	0x3c9cc4b2	0.01913676
23	0x3dbc72dc	0.09201595
24	0x3db9ed2f	0.09078442
25	0x3d2c75f2	0.04210467
26	0x3be4ab09	0.006978397
27	0x3d039d1a	0.032132246
28	0x3d451b17	0.048121538
29	0x3deddcb7	0.11614364
30	0x3dacf825	0.08445767
31	0x3de1cd02	0.1102543
32	0x3b80f2e6	0.0039352058
33	0xbd9d3ef8	-0.07678026
34	0xbcff5902	-0.031170372
35	0xbd9efbfd	-0.07762907
36	0x3c8f3d47	0.017485274
37	0x3d9eb444	0.07749227
38	0xbcf0d5a5	-0.029398749
39	0x3d4a1596	0.049336992
40	0x3d948e75	0.07253734
41	0x3db104ec	0.08643517
42	0xbd4ab182	-0.04948569
43	0x3c664688	0.014054902
44	0xbd13d662	-0.036093123
45	0x3ca59d51	0.020216616
46	0x3de640d4	0.11242834
47	0x3da90f41	0.082548626
48	0xbdc08f7a	-0.09402366
49	0xbde2b5c3	-0.110698245
50	0xbdba2304	-0.0908871
51	0xbe15f05a	-0.14642468
52	0xbd73427e	-0.059389584
53	0xbe084162	-0.13306192
54	0xbc5b9a35	-0.013403465
55	0xbd3eb79a	-0.046561815
56	0x3e0bb701	0.13644029
57	0x3e36da3b	0.17856686
58	0x3d5d018f	0.053956565
59	0x3b5aba44	0.0033375183
60	0x3e26a24d	0.1627285
61	0x3da7b256	0.08188312
62	0x3da18d3d	0.07888267
63	0x3ca7df01	0.020492079
64	0x3d9700f5	0.073732294
65	0x3dd05906	0.1017323
66	0x3dad1845	0.08451895
67	0xbda71385	-0.0815802
68	0x3d7ab2b3	0.061205577
69	0xbd067413	-0.03282554
70	0x3d2b83cc	0.04187374
71	0xbdaae909	-0.08345229
72	0x3d89b05c	0.06723091
73	0xbdc2d183	-0.095126174
74	0xbc920d82	-0.017828707
75	0x3d1aa18e	0.037751727
76	0xbd5a1d9f	-0.053250905
77	0xbdc53850	-0.096298814
78	0xbd43fd2a	-0.047848858
79	0x3dafb772	0.08579911
80	0x3c3b2bd0	0.01142402
81	0x3dc6c4cc	0.09705505
82	0x3e3100c4	0.17285448
83	0x3d8e5ae6	0.06950931
84	0xbd14d067	-0.03633156
85	0xbcfaa39b	-0.030595591
86	0xbc781403	-0.01514149
87	0xbc2db32e	-0.010601802
88	0xbdba0982	-0.09083845
89	0x3ca4a1a7	0.020096613
90	0x3c928213	0.01788429
91	0xbcb727ed	-0.022357905
92	0x3d6ef467	0.05833855
93	0xbd770bd2	-0.060314007
94	0x3cb70bd8	0.022344515
95	0x3d2fb9a2	0.042901643
96	0x3cb1f69b	0.021724036
97	0xbc9537c6	-0.018215071
98	0xbd3d0dbb	-0.046155673
99	0xbda1a924	-0.07893589
100	0xbd9807ae	-0.0742334
101	0xbcbe1d5e	-0.023207363
102	0x3d91d9ed	0.07121644
103	0xbd8fa056	-0.070130035
104	0x3dd071c4	0.10177949
105	0xbcb09666	-0.02155609
106	0x3d8fa47d	0.070137955
107	0x3e36efdc	0.17864937
108	0xbd4f6259	-0.0506309
109	0xbc018d50	-0.007907227
110	0xbcd1b35f	-0.025598226
111	0x3e1f9e2b	0.1558768
112	0xbccee052	-0.025253449
113	0xbe01431d	-0.12623258
114	0x3da087f0	0.07838428
115	0xbcf2471b	-0.029574921
116	0xbd7ceebb	-0.06175111
117	0xbd65680d	-0.056007434
118	0x3d8b6ae0	0.06807494
119	0xbdadf07a	-0.08493133
120	0x3d4d7565	0.050160784
121	0x3c916a9c	0.01775103
122	0xba6cb0b8	-0.00090290187
123	0xbcb9390e	-0.022610214
124	0x3c950070	0.018188685
125	0x3d91cec1	0.07119513
126	0x3d8a69a5	0.06758431
127	0x3e3b8ceb	0.18315475
128	0x3c6276e3	0.01382229
129	0x3e08f64f	0.1337521
130	0x3dbf9943	0.09355404
131	0xbd3f7c23	-0.046749245
132	0x3cc806de	0.024417337
133	0xbd93ddab	-0.07220014
134	0xbd43cbd1	-0.047801796
135	0xbd9c3e4a	-0.07629068
136	0x3b6b6b43	0.0035922087
137	0xbe23932f	-0.15974115
138	0xbcf4d73a	-0.029887784
139	0x3d25ddad	0.04049461
140	0x3d8c335f	0.06845736
141	0x3e027acd	0.12742157
142	0x3c76a1ea	0.015053252
143	0xbd055911	-0.032555643
144	0xbcc84442	-0.02444661
145	0xbd50de5f	-0.05099332
146	0x3d251014	0.040298536
147	0xbd9bdb00	-0.0761013
148	0xbc2a3c8c	-0.010390412
149	0x3caa7ed1	0.020812424
150	0x3d96cdfe	0.07363509
151	0xbd7feb42	-0.06248022
152	0xbbf58ed8	-0.007493835
153	0xbd13cba3	-0.036082875
154	0x3cba9c06	0.022779476
155	0x3b0c5290	0.0021411516
156	0x3d80552d	0.06266246
157	0x3e71b7ad	0.23605223
158	0x3e0ccb64	0.13749462
159	0x3e54a756	0.20766959
160	0x3d496c57	0.049175587
161	0xbd46589c	-0.04842435
162	0xbd991c32	-0.07476081
163	0x3d75b2a3	0.059984814
164	0x3db9a831	0.09065283
165	0xbd1f7cae	-0.038937263
166	0xbd414bc2	-0.04719139
167	0x3e0ff24f	0.14057277
168	0x3dd854f4	0.105630785
169	0xbd134e9a	-0.035963632
170	0xbe4198e2	-0.18905976
171	0x3cbab8a5	0.022793123
172	0xbd8bef61	-0.06832767
173	0xbd1aa988	-0.037759334
174	0x3adf34fa	0.0017029338
175	0xbd7b15d5	-0.061300118
176	0x3d38ae5f	0.04508817
177	0x3ba42109	0.005008821
178	0xbd528927	-0.05140033
179	0xbca189a5	-0.019718954
180	0xbd6c20ff	-0.057648655
181	0xbd2ca5a6	-0.042150162
182	0x3c61751c	0.013760831
183	0xbc8d333b	-0.017236343
184	0x3d613a7e	0.054987423
185	0xbceebeaa	-0.02914365
186	0xbd083c07	-0.03326037
187	0x3d629b9c	0.055324182
188	0x3d3847b0	0.04499024
189	0xbd1fe2ad	-0.039034534
190	0x3ce898aa	0.028393108
191	0x3e208af2	0.15678003
192	0xbdbe6236	-0.09296076
193	0x3dd4d9e2	0.1039312
194	0x3cd7e800	0.026355743
195	0xbce1b0d4	-0.027550139
196	0x3d1f990a	0.03896431
197	0xbda14953	-0.078753136
198	0xbdfb09be	-0.122577175
199	0xbdfd0979	-0.123553224
200	0x3df0cf14	0.11758247
201	0xbd6355dd	-0.055501807
202	0x3d5376ab	0.051626842
203	0xbd03010d	-0.031983424
204	0xbdbeda85	-0.09319023
205	0x3d957733	0.07298126
206	0x3dab8b2f	0.083761565
207	0xbae29184	-0.0017285799
208	0xbbef578d	-0.007304138
209	0x3d87017c	0.0659208
210	0xbd1ce55e	-0.03830468
211	0xbda42bbe	-0.08016156
212	0xbd878394	-0.066168934
213	0xbd9e2550	-0.077219605
214	0x3c38b984	0.011274699
215	0xbe15b7ea	-0.14620939
216	0x3d41faa8	0.047358185
217	0xbd36a5b9	-0.04459164
218	0xbcb21248	-0.021737233
219	0xbd9eb348	-0.07749039
220	0x3dc699a7	0.096972756
221	0x3db33b10	0.087515
222	0x3e060583	0.1308804
223	0x3dfb8f78	0.12283224
224	0xbcea49d9	-0.028599666
225	0xbc6e0d45	-0.014529531
226	0x3b40f710	0.0029444136
227	0xbcdfd878	-0.0273249
228	0xbcd27509	-0.025690572
229	0xbd5ecb85	-0.05439331
230	0xbd97d427	-0.07413512
231	0xbd7fc734	-0.062445834
232	0x3e19f883	0.15036206
233	0x3c25741c	0.010098483
234	0x3c0a3d98	0.008437537
235	0x3c98cea5	0.018653223
236	0xbda7ff5f	-0.08203005
237	0x3dfb9bbd	0.12285564
238	0x3e2ff3a6	0.17182788
239	0xbcf736ee	-0.03017756
240	0x3cdd0685	0.026980648
241	0x3d757a15	0.05993088
242	0x3d36487b	0.044502717
243	0xbc866a9f	-0.016408263
244	0x3d0da2b5	0.034578998
245	0xbd0e8683	-0.03479625
246	0xbd3e04ac	-0.046391174
247	0xbe3c6b34	-0.1840027
248	0xbbf90b4a	-0.0076002227
249	0x3d7f11b1	0.06227273
250	0xbda5028c	-0.080571264
251	0xbdee17a1	-0.116256006
252	0x3ba435d3	0.005011299
253	0x3d04b9e2	0.032403834
254	0xbc721c57	-0.014777265
255	0x3de885c6	0.1135364

network_body.observation_encoder.processors.1.conv_layers.2.bias f4 [32]
0	0xbcdf49a2	-0.02725679
1	0x3ca75239	0.020424949
2	0xbd739813	-0.0594712
3	0xbd789264	-0.060686484
4	0xbc3423e9	-0.01099489
5	0x3d8eab94	0.0696632
6	0xbd86935c	-0.06571075
7	0xbde89eda	-0.113584235
8	0x3c99084b	0.018680712
9	0x3cbc5fa5	0.022994826
10	0x3d6c05ba	0.05762265
11	0xbd7aa4a1	-0.06119216
12	0xbd5e733d	-0.05430912
13	0xbd9df54b	-0.077128015
14	0xbbb7e421	-0.005611912
15	0xbc909b0d	-0.017652059
16	0x3c3f52ef	0.011677488
17	0x3d3f92b2	0.04677076
18	0xbcc8da6e	-0.024518218
19	0x3d3afe4f	0.045652684
20	0xbdba7723	-0.09104755
21	0x3cb530b3	0.022117948
22	0xbde551cd	-0.11197243
23	0xbd139502	-0.036030777
24	0xbd174bbf	-0.03693747
25	0x3c8a9995	0.016918937
26	0xbd1a0952	-0.037606545
27	0x3d6f850c	0.058476493
28	0xbb3223cc	-0.002718198
29	0xbc81e0db	-0.01585429
30	0x3cc962e6	0.024583291
31	0x3b0297bd	0.001992687

network_body.observation_encoder.processors.1.dense.0.weight f4 [64, 128]
0	0xbd8ef4b2	-0.06980266
1	0x3d2dad9f	0.042401906
2	0x3d1d03d9	0.038333748
3	0xbe1bad47	-0.15202819
4	0xbeaba589	-0.3352473
5	0x3e75e2b5	0.24012263
6	0x3cf711c7	0.030159844
7	0xbd399724	-0.045310155
8	0x3d3d7f98	0.04626426
9	0x3dbf420b	0.093387686
10	0xbe7824eb	-0.24232833
11	0xbd0f24ab	-0.03494708
12	0xbe4283d8	-0.18995607
13	0xbe5510f5	-0.2080725
14	0x3e081a6c	0.13291329
15	0x3e55613f	0.20837878
16	0x3dc5232b	0.096258484
17	0xbe5068f5	-0.20352538
18	0x3e0956c9	0.13412012
19	0xbe1c5d2a	-0.15269914
20	0xbc842ffc	-0.016136162
21	0x3d81a09a	0.063294604
22	0xbe7dc35d	-0.24781556
23	0xbd0868b9	-0.033302996
24	0x3d1f6246	0.03891208
25	0x3b4eb659	0.0031541793
26	0x3e04c791	0.12966754
27	0x3e05f7c6	0.130828
28	0xbca5140e	-0.020151164
29	0xbe03a3fc	-0.12855524
30	0xbd867300	-0.06564903
31	0x3df88da6	0.12136392
32	0xbd460248	-0.04834202
33	0xbe9b8136	-0.30372018
34	0x3c416ae6	0.011805272
35	0x3e1808e7	0.14847146
36	0x3ead59cf	0.3385758
37	0x3e1e7be5	0.1547695
38	0xbe078a9b	-0.13236468
39	0x3b9eebe1	0.0048498963
40	0xbdfc65f1	-0.12324131
41	0x3e9ee46d	0.3103365
42	0x3dbb5017	0.09146135
43	0xbda69bf4	-0.081352144
44	0x3d77f7bd	0.060538996
45	0xbea7324b	-0.32655558
46	0x3e0d143a	0.13777247
47	0x3e44b449	0.19209398
48	0xbe50ed44	-0.2040301
49	0x3d0497a8	0.032371193
50	0x3d5cc5c7	0.053899553
51	0xbcdfc7da	-0.027316976
52	0x3e04a611	0.12953974
53	0xbbb188c8	-0.005417917
54	0x3e1392f0	0.14411521
55	0xbd49cacc	-0.049265668
56	0x3df24517	0.11829584
57	0xbc6d7a46	-0.014494484
58	0xbe1cb9b2	-0.15305212
59	0xbe375ae3	-0.17905764
60	0x3e450f2a	0.19244066
61	0xbd434942	-0.047677286
62	0x3e8aca61	0.27107528
63	0xbdc3b025	-0.09555081
64	0x3dc3d8f0	0.09562862
65	0x3e1b4979	0.15164746
66	0x3e0ba095	0.13635476
67	0x3dbffe5c	0.09374687
68	0xbb6c860b	-0.0036090638
69	0x3dcc0fb8	0.099639356
70	0x3d13c932	0.036080547
71	0x3d91a775	0.07112018
72	0xbdc38e28	-0.095485985
73	0xbda45640	-0.080242634
74	0x3e81fa96	0.25386494
75	0x3c746d4c	0.0149186365
76	0x3e2ed751	0.17074324
77	0x3ddb9e78	0.10723585
78	0x3da0cfd3	0.07852139
79	0xbd063cc5	-0.032772798
80	0xbd941c40	-0.07231951
81	0xbd91cf12	-0.07119574
82	0x3c3e15d0	0.01160188
83	0x3cb2d8b1	0.021831842
84	0x3e153300	0.14570236
85	0x3d8e500e	0.06948863
86	0x3d062999	0.032754514
87	0x3db2f852	0.087387696
88	0x3ea26ef4	0.31725276
89	0xbe8c01ba	-0.27345067
90	0x3dc05a6a	0.09392245
91	0x3d02677c	0.03183697
92	0xbe6f6e51	-0.23381926
93	0x3dc5f82c	0.09666476
94	0x3cead172	0.028664324
95	0x3cab4895	0.020908633
96	0x3e2fbd28	0.17162001
97	0xbd7e0e30	-0.06202525
98	0x3d35e34c	0.04440622
99	0x3da3c5fa	0.079967454
100	0x3e42a4bd	0.19008155
101	0x3d5df29b	0.054186445
102	0xbeaa2a3c	-0.33235347
103	0x3e04f20a	0.12982956
104	0xbd050d49	-0.032483373
105	0xb9c56954	-0.00037653244
106	0x3d071477	0.0329785
107	0xbe08b0e7	-0.13348733
108	0x3d697eaa	0.057005562
109	0xbd00a9c2	-0.031411894
110	0xbdbb1271	-0.09134377
111	0x3de8b44f	0.11362516
112	0x3c684601	0.0141768465
113	0xbd9be590	-0.07612145
114	0x3d81e58b	0.0634261
115	0xbd80a3de	-0.06281255
116	0x3add1983	0.0016868565
117	0x3e1676b0	0.14693713
118	0x3d6336cf	0.05547219
119	0x3e88a074	0.26684916
120	0xbcbaecd9	-0.022818016
121	0x3e049c01	0.12950136
122	0x3dc65129	0.09683449
123	0x3c871e50	0.016493946
124	0xbd5c4cc7	-0.053784158
125	0x3e275e45	0.16344555
126	0xbe2a87a9	-0.16653313
127	0xbd3262fd	-0.043551434
128	0xbe904be5	-0.28182903
129	0x3d96d7fd	0.07365415
130	0x3e7e22d3	0.24817972
131	0x3e6c3a8a	0.23069206
132	0xbd00f8ba	-0.031487204
133	0x3e6d7881	0.231905
134	0xbde32ead	-0.11092887
135	0x3de28b00	0.110616684
136	0x3ddb61ab	0.10711988
137	0xbe4cbafd	-0.19993205
138	0xbd851a54	-0.06499162
139	0x3dd1df64	0.102476865
140	0x3d834123	0.06408908
141	0x3d2cb766	0.04216709
142	0xbe4fc364	-0.2028938
143	0x3dc362ff	0.095403664
144	0x3e575196	0.21027216
145	0x3e065b90	0.13120866
146	0xbe462f44	-0.19353968
147	0x3d927da3	0.071528696
148	0x3e33a47b	0.17543213
149	0x3e9904ed	0.2988657
150	0xbe5e0287	-0.21680652
151	0x3dcdc2a0	0.100468874
152	0xbe380947	-0.17972289
153	0x3e50b234	0.20380479
154	0xbe08a222	-0.13343099
155	0x3e8b8ae7	0.27254412
156	0xbdf72742	-0.12068035
157	0x3d309b51	0.04311687
158	0xbe4145cc	-0.18874282
159	0x3e454846	0.19265851
160	0xbd093b27	-0.033503678
161	0xbd93958c	-0.07206258
162	0xbd93b92b	-0.07213052
163	0x3e680c5f	0.22660969
164	0xbe2f7119	-0.17132987
165	0xbcefacf0	-0.029257268
166	0x3e5873fc	0.21137995
167	0xbc42c316	-0.011887332
168	0xbcc48846	-0.023990761
169	0xbdf86fb7	-0.12130683
170	0xbed87811	-0.42279103
171	0xbdb14f27	-0.08657675
172	0x3cdcc00b	0.026947042
173	0xbd63ead6	-0.05564388
174	0x3cc2967d	0.023753399
175	0xbc32ae36	-0.010905793
176	0xbec7baf7	-0.3900983
177	0x3d21e6e6	0.039526843
178	0x3da959bb	0.08269068
179	0xbd2f9c19	-0.042873476
180	0x3bd0d5f5	0.006373162
181	0x3c54059c	0.0129407905
182	0x3de680b6	0.112550184
183	0xbb9615cf	-0.0045802365
184	0x3e1a089d	0.15042348
185	0x3d505d0f	0.050869998
186	0x3d893e1b	0.06701299
187	0x3dfd548a	0.1236964
188	0x3d4796d4	0.048727825
189	0x3d1f991b	0.038964372
190	0xbe177014	-0.14788848
191	0x3d7d8a31	0.061899368
192	0x3dcde874	0.100541025
193	0xbc52434c	-0.012833428
194	0xbe00ab79	-0.12565412
195	0xbe316e8f	-0.17327331
196	0x3d391dbd	0.045194376
197	0xbdc5519b	-0.09634706
198	0xbe0b5043	-0.13604836
199	0x3ea88c50	0.3291955
200	0x3ddeed2f	0.10885083
201	0x3d9e0925	0.07716588
202	0x3d6a2eea	0.057173647
203	0xbe428457	-0.18995796
204	0xbc18b7a0	-0.009321123
205	0xbb4848c5	-0.0030560952
206	0x3d51741d	0.051136125
207	0xbd08c32e	-0.033389263
208	0xbcc3c15b	-0.02389591
209	0x3cae7a84	0.021298654
210	0x3d808dcc	0.062770456
211	0x3dd97fed	0.10620103
212	0x3dfa8992	0.12233271
213	0xbeae7fc3	-0.3408185
214	0xbd9f4842	-0.07777454
215	0x3db13c68	0.086541
216	0xbe75f62f	-0.24019693
217	0x3eba3600	0.36369324
218	0xbd47cada	-0.04877744
219	0x3e353bb5	0.17698558
220	0xbda88ba7	-0.082297616
221	0xbbe55d11	-0.00699962
222	0x3e8c7f5e	0.27440923
223	0xbdd30e12	-0.10305418
224	0x3c9089bf	0.017643807
225	0x3d833dbd	0.0640826
226	0x3d049c1a	0.032375433
227	0x3da74755	0.081679024
228	0xbe1c833b	-0.15284435
229	0x3e24df4c	0.16100806
230	0xbdc1b658	-0.094586074
231	0xbc1ebbea	-0.009688357
232	0x3d8a4d4a	0.06753023
233	0x3e3c4a3c	0.18387693
234	0x3d9ff2bb	0.07809969
235	0x3db17c33	0.08666267
236	0x3e859907	0.26093313
237	0xbd9f30c4	-0.07772973
238	0x3d86c3fc	0.0658035
239	0x3da8182b	0.08207735
240	0xbe615a39	-0.22007073
241	0xbbdc2c2c	-0.006719133
242	0x3e3be083	0.18347363
243	0xbdd6d6f1	-0.104902156
244	0x3c8a4400	0.016878128
245	0xbccb3986	-0.024807703
246	0xbdc05d7d	-0.093928315
247	0x3d2598d2	0.040428944
248	0xbe963a90	-0.29341555
249	0x3ca328cb	0.019916913
250	0xbcbee2ae	-0.023301449
251	0xbda4cc94	-0.08046833
252	0xbdd55ec3	-0.10418465
253	0x3e52f8be	0.206027
254	0x3dae5db9	0.0851397
255	0xb90dfcfe	-0.00013541055

network_body.observation_encoder.processors.1.dense.0.bias f4 [64]
0	0x3cafb79d	0.021449858
1	0x3d1df3a7	0.038562443
2	0x3cf4795c	0.029843025
3	0x3d65d333	0.05610962
4	0x3bf68101	0.0075227027
5	0xbc52668d	-0.012841833
6	0x3d288b73	0.041148614
7	0x3d268150	0.040650666
8	0x3d4c2d85	0.0498481
9	0x3d593494	0.053028658
10	0x3d5bac3e	0.05363106
11	0x3d86d6f0	0.06583965
12	0x3cf06cd2	0.029348765
13	0xbc5626b4	-0.013070751
14	0xbba5ee6d	-0.005063823
15	0x3d0c4cde	0.034252994
16	0x3d2a01ab	0.041505497
17	0xbd39c32e	-0.045352153
18	0x3d3382b0	0.043825805
19	0x3c894200	0.016755104
20	0x3cdf27d5	0.027240673
21	0x3d3dcbd5	0.046336967
22	0x3c718b3a	0.014742667
23	0x3d4849a1	0.048898343
24	0x3d262d72	0.040570684
25	0x3d4048c0	0.04694438
26	0x3d36ba71	0.044611398
27	0x3d356f8d	0.044295836
28	0x3d26c71a	0.04071722
29	0xbbe52004	-0.006992342
30	0x3c88b215	0.016686479
31	0xbc4587a3	-0.012056264
32	0xbc981b78	-0.018567786
33	0x3d843448	0.06455284
34	0x3d8659fc	0.06560132
35	0x3d33e436	0.04391881
36	0x3d3d1850	0.046165764
37	0x3d6049c9	0.054757867
38	0x3d3b12e6	0.04567232
39	0x3d742e5a	0.059614517
40	0x3ce8b30b	0.028405687
41	0x3d3aa65c	0.04556881
42	0x3aa0c01e	0.0012264287
43	0xbbe10980	-0.0068675876
44	0x3d8935ca	0.066997126
45	0x3d5e5860	0.0542835
46	0x3d8b0f17	0.067899875
47	0xbc09d15e	-0.008411733
48	0x3c70ddbe	0.014701305
49	0x3d57a77f	0.05264997
50	0x3d079bb7	0.033107486
51	0x3cbf0530	0.023317903
52	0x3cdd2782	0.026996378
53	0x3d604672	0.054754682
54	0x3d9fc8df	0.07801985
55	0xbc66bb05	-0.014082675
56	0xbca1c53f	-0.019747375
57	0x3d97352f	0.07383191
58	0x3d1be457	0.03805956
59	0x3b0acd87	0.0021179633
60	0x3d628353	0.05530102
61	0xbc26e4a2	-0.010186346
62	0x3d49d90b	0.049279254
63	0x3cc9c91f	0.024632035

network_body._body_endoder.seq_layers.0.weight f4 [64, 439]
0	0x3e379387	0.17927371
1	0x3cb7bc2a	0.02242859
2	0x3de05173	0.10953035
3	0xbd078386	-0.033084415
4	0x3beaca44	0.007165225
5	0x3d1a37de	0.037650935
6	0x3e18d003	0.149231
7	0x3cd9afa4	0.02657301
8	0x3ddae379	0.10687918
9	0xbd62b7d0	-0.05535108
10	0x3c82eee0	0.015983045
11	0x3d81384a	0.063095644
12	0x3e468b7a	0.19389144
13	0xbd6afecf	-0.05737191
14	0x3dd33855	0.10313479
15	0x3c641918	0.013921998
16	0x3cfaafc4	0.03060139
17	0x3cf7157b	0.03016161
18	0x3d84b742	0.06480266
19	0xbcc87402	-0.02446938
20	0x3a414530	0.00073726755
21	0xbd5e88f7	-0.05432984
22	0x3d54c067	0.0519413
23	0x3d4234c1	0.04741359
24	0x3dc2d3fc	0.09513089
25	0xbd8f3145	-0.06991819
26	0x3d0b0349	0.03393868
27	0x3dad5a83	0.08464529
28	0x3dee1e04	0.11626819
29	0x3d46761b	0.048452478
30	0xbacc5843	-0.0015590269
31	0x3d80f896	0.06297414
32	0x3e1a6465	0.1507736
33	0x3db76436	0.089546606
34	0x3cb1c00a	0.021698017
35	0x3d4747cd	0.04865246
36	0x3e66004b	0.2246105
37	0x3cad293a	0.021137822
38	0x3d53449d	0.051579107
39	0xbd0cb0e5	-0.034348387
40	0xbd250882	-0.040291317
41	0x3d52c36e	0.051455908
42	0x3dd4b125	0.1038535
43	0x3c47939b	0.012181188
44	0xbd150c33	-0.036388587
45	0xbd0df917	-0.03466138
46	0xbd641b82	-0.055690296
47	0xbbd4327b	-0.0064757443
48	0xbc8328e7	-0.016010715
49	0xbd0542ea	-0.032534517
50	0x3dcd6b6e	0.10030256
51	0xbd42e099	-0.047577474
52	0x3da42d13	0.0801641
53	0x3cfca302	0.030839447
54	0xbbafead3	-0.0053685694
55	0xbc57fe3b	-0.013183172
56	0x3d1aac74	0.03776212
57	0x3d90c3a0	0.070685625
58	0x3cfd117e	0.03089213
59	0x3c3fa6ad	0.011697453
60	0x3dd34657	0.10316151
61	0x3ddd9f29	0.10821373
62	0x3ccc5491	0.024942668
63	0xbd5bef9e	-0.053695314
64	0x3cb89972	0.022534106
65	0xbcf5d52c	-0.030008875
66	0xbd11957b	-0.035542946
67	0x3decf1b2	0.11569537
68	0x3d551df3	0.052030515
69	0xbd4f9e1a	-0.050687887
70	0x3ce65f0e	0.028121497
71	0x3cf6d72b	0.030131897
72	0xbc9c907a	-0.01911186
73	0x3c37099c	0.011171725
74	0x3d0ae501	0.0339098
75	0x3da165ac	0.078807205
76	0x3cfa5823	0.030559605
77	0x3dbce805	0.09223942
78	0xbe11e5d3	-0.14247827
79	0xbd99943c	-0.074989766
80	0xbd5fe7f4	-0.054664567
81	0x3dc0b747	0.094099574
82	0xbca2c4df	-0.019869266
83	0xbd8a1afa	-0.067434266
84	0xbdb97d28	-0.09057075
85	0xbdd1f5bd	-0.10251949
86	0xbd9b1a51	-0.07573379
87	0xbe1c2b46	-0.15250883
88	0x3d8f76bf	0.07005071
89	0x3dbb48f0	0.09144771
90	0x3df81aee	0.121145114
91	0x3d3f95b4	0.046773627
92	0x3d87a60f	0.0662347
93	0xbdc05268	-0.09390718
94	0x3ccb7731	0.024837108
95	0xbd5146f2	-0.05109305
96	0xbc34bd84	-0.011031512
97	0xbce3082c	-0.027713858
98	0x3cc0ecbe	0.023550387
99	0xbd81391d	-0.063097216
100	0xbd39f840	-0.045402765
101	0x3dbe31d0	0.09286845
102	0xbda85b81	-0.08220578
103	0x3c046598	0.008080862
104	0x3dcaeac2	0.09908058
105	0xbe40880b	-0.18801896
106	0x3d560c23	0.05225767
107	0x3e2df486	0.1698781
108	0x3d95983f	0.07304429
109	0x3d33c99a	0.043893434
110	0xbdcb83cf	-0.0993725
111	0x3ddbb965	0.107287206
112	0xbdac2de5	-0.08407191
113	0xbc62ab30	-0.01383476
114	0x3dc3a62a	0.09553178
115	0xbda9154f	-0.082560174
116	0xbd008063	-0.03137244
117	0x3ce8f16b	0.02843543
118	0x3e745f78	0.23864543
119	0xbc769f64	-0.01505265
120	0xbe166fd0	-0.1469109
121	0x3d5f4b96	0.054515444
122	0x3dafed7f	0.08590221
123	0xbdc33133	-0.095308684
124	0x3e1f9746	0.1558505
125	0xbccbdba6	-0.02488501
126	0x3db1efc8	0.08688313
127	0xbd3d40bd	-0.046204317
128	0xbdfe27b8	-0.124099195
129	0xbd8b3f71	-0.0679921
130	0x3da1f416	0.07907884
131	0x3ddd5f6e	0.108092174
132	0xbdcd7a7f	-0.1003313
133	0x3b868084	0.0041046757
134	0xbc128799	-0.008943462
135	0x3dd3c82b	0.103409134
136	0x3e650d0b	0.22368257
137	0xbcbecfb1	-0.023292394
138	0x3e538f4b	0.2066013
139	0x3c22cb61	0.009936185
140	0x3e0df112	0.13861492
141	0xbce87669	-0.028376775
142	0x3d63a26a	0.055574812
143	0xbe3229bf	-0.17398737
144	0x3e16b3fd	0.14717098
145	0xbce7bdd5	-0.028288761
146	0xbdeb4508	-0.11487776
147	0xbc7e62d5	-0.015526493
148	0x3d0c0e5e	0.03419339
149	0x3d0908f9	0.033455823
150	0xbdf5eb0b	-0.120077215
151	0x3daa9337	0.0832886
152	0xbe1caa77	-0.15299402
153	0xbd20b748	-0.03923729
154	0xbe377af7	-0.17918001
155	0xbdac99fa	-0.08427806
156	0xbe033c68	-0.12816012
157	0xbd813683	-0.063092254
158	0x3e47caa2	0.19510892
159	0xbca35b11	-0.019940885
160	0xbd312428	-0.043247372
161	0xbd352ce6	-0.04423227
162	0x3d2c5697	0.042074766
163	0x3d87513e	0.066072926
164	0x3d7efa13	0.062250208
165	0xbcfb0e7d	-0.030646557
166	0x3d5d6a2f	0.054056343
167	0x3d96349f	0.073342554
168	0xbe01c3a4	-0.12672287
169	0x3a827761	0.000995379
170	0xbd8fc922	-0.07020785
171	0xbc530225	-0.012878929
172	0x3d7d341c	0.061817273
173	0xbc859e54	-0.016310848
174	0x3cac6ea0	0.021048844
175	0x3c8ea1fd	0.017411226
176	0x3e666c94	0.22502357
177	0x3bb22f68	0.00543778
178	0xbd064d71	-0.032788698
179	0xbd667f1e	-0.056273572
180	0x3e4846fa	0.19558325
181	0xbdfd0ab3	-0.12355556
182	0x3d3ff92b	0.046868484
183	0x3c97acc3	0.018514996
184	0x3dadf18c	0.08493337
185	0x3d913172	0.07089509
186	0xbde351bc	-0.11099574
187	0xbd1969f4	-0.03745456
188	0xbd85b237	-0.065281324
189	0x3e1889fa	0.14896384
190	0xbde46c0e	-0.11153422
191	0x3d957e32	0.072994605
192	0xbc51b1a9	-0.012798705
193	0xbce28a5e	-0.02765387
194	0x3e35e209	0.17762007
195	0xbe7a4846	-0.24441633
196	0xbc81ac87	-0.015829338
197	0xbd7009cf	-0.058603104
198	0x3ded33ca	0.115821436
199	0xbdadece9	-0.08492453
200	0xbdb7254c	-0.08942661
201	0x3c65a604	0.014016632
202	0x3e00cf69	0.1257912
203	0x3d343134	0.043992236
204	0xbe220214	-0.15821105
205	0xbc883ae9	-0.016629653
206	0xbbc6378f	-0.0060491036
207	0xbd44bef3	-0.048033666
208	0xbd04347a	-0.032276608
209	0x3d5dccea	0.0541505
210	0x3d569bf0	0.052394807
211	0xbdc79c97	-0.09746664
212	0x3e809c40	0.2511921
213	0xbdcf6c3d	-0.10128067
214	0xbdb744b7	-0.08948653
215	0x3bc38dc5	0.005967828
216	0x3e2a5bf7	0.16636644
217	0xbbcc3310	-0.006231673
218	0xbb5def73	-0.0033864647
219	0xbdb73220	-0.089451075
220	0x3c9c4dc8	0.019080058
221	0x3e01a0aa	0.12658945
222	0xbe55d123	-0.2088056
223	0xbe5c5a60	-0.2151885
224	0xbd8425ea	-0.06452544
225	0xbd1a8c28	-0.03773132
226	0xbe108cf4	-0.1411627
227	0x3e10fbff	0.14158629
228	0x3debc846	0.115128085
229	0x3d9553ef	0.072914
230	0x3e592de8	0.21208918
231	0xbd7d3d43	-0.061826
232	0xbd6673cb	-0.056262773
233	0xbd181379	-0.037127946
234	0x3debcbdd	0.11513493
235	0xbcdc2f01	-0.026877882
236	0x3d634e29	0.05549446
237	0x3d618823	0.05506147
238	0x3d8933bc	0.06699321
239	0xbd6f0095	-0.058350164
240	0xbd403e43	-0.046934377
241	0xbde121d9	-0.10992784
242	0x3cd85bb1	0.02641091
243	0x3d5de5cb	0.054174226
244	0xbd41624e	-0.04721289
245	0x3caf31b3	0.021386003
246	0x3dcba62f	0.099438064
247	0x3c13bbb9	0.009016925
248	0x3de21e64	0.11040953
249	0x3d636ad8	0.055521816
250	0x3dddeb74	0.10835925
251	0xbdf5615e	-0.11981462
252	0xbd9824b9	-0.07428879
253	0x3d215b31	0.039393608
254	0xbdad3f8f	-0.084593885
255	0x3c28a226	0.010292565

network_body._body_endoder.seq_layers.0.bias f4 [64]
0	0x3d08cc93	0.033398222
1	0x3c7e0119	0.015503191
2	0x3ca6724d	0.020318175
3	0xbc90e9e3	-0.01768965
4	0x3b0347a9	0.0020031726
5	0x3cf99159	0.030464815
6	0x3c57d1ff	0.013172626
7	0x3d1b16b4	0.03786345
8	0x3c858134	0.01629696
9	0x3c89a4f9	0.016802298
10	0x3d28db62	0.041224845
11	0x3d08de9f	0.033415433
12	0x3ce068ff	0.027393816
13	0x3d5745a9	0.052556667
14	0x3d34e3d9	0.044162605
15	0x3c2944f6	0.010331383
16	0x3c94deaa	0.01817258
17	0x3d31c4cc	0.04340057
18	0x3ca7f784	0.020503767
19	0x3cc1b786	0.023647081
20	0x3cdd22cf	0.026994137
21	0xbc0bf263	-0.008541676
22	0x3d4d5860	0.05013311
23	0x3c2a1bda	0.010382617
24	0x3bec3b00	0.007209182
25	0x3caf000f	0.021362333
26	0x3cad7468	0.02117367
27	0x3955da99	0.00020394697
28	0x3c360dac	0.011111658
29	0x3ca00fa8	0.019538715
30	0x3cd31d5c	0.025770836
31	0x3d4592a8	0.048235565
32	0xbcffd389	-0.031228798
33	0xbd219673	-0.03945012
34	0x3cdcb190	0.026940137
35	0x3bbe8371	0.005814009
36	0x3cfe242e	0.031023111
37	0x3cb57339	0.022149669
38	0x3cdf3e3c	0.027251355
39	0x3cc96fbe	0.024589416
40	0x3c7c3702	0.015393974
41	0x3cc218f7	0.023693545
42	0x3cdbcd4d	0.026831293
43	0x3d2e83a1	0.042606
44	0x3d1e0ba8	0.038585335
45	0x3c669395	0.014073272
46	0xbb8f06d3	-0.004364827
47	0x3cee316b	0.029076299
48	0xbc88eef5	-0.016715506
49	0xbc29009d	-0.010315088
50	0x3c61393b	0.013746555
51	0x3cc7b2de	0.024377283
52	0x3d0a9078	0.033829182
53	0x3a9812af	0.0011602248
54	0x3cf29262	0.029610816
55	0x3c12fad5	0.008970936
56	0x3d379379	0.044818375
57	0x3c74b83e	0.014936505
58	0xbd0a0e33	-0.033704948
59	0x3c6715ff	0.014104365
60	0x3c724a5e	0.014788238
61	0x3cec37d6	0.028835218
62	0x3c78369a	0.015149737
63	0x3b31d236	0.0027133352

network_body._body_endoder.seq_layers.2.weight f4 [64, 64]
0	0xbdf814e4	-0.121133596
1	0x3e11eb14	0.14249831
2	0xbd5d0e38	-0.05396864
3	0xbed1131f	-0.408349
4	0xbe039112	-0.12848309
5	0x3e3bcd6d	0.18340082
6	0x3d8d6da9	0.06905682
7	0xbea7f0ae	-0.32800812
8	0x3db7dc99	0.089776225
9	0xbc06f80b	-0.008237849
10	0xbe7646f9	-0.24050511
11	0x3d9c891f	0.07643341
12	0x3e20b631	0.156945
13	0x3e6f5e55	0.23375829
14	0xbe1d23de	-0.15345713
15	0x3e5826f8	0.21108615
16	0xbdc6ed8c	-0.09713277
17	0xbe22c787	-0.15896426
18	0x3b952ba4	0.0045523215
19	0x3c2fff2e	0.010741992
20	0x3d51702d	0.05113237
21	0xbe30bdfe	-0.17259976
22	0x3eab5c55	0.3346888
23	0x3e72f854	0.23727542
24	0x3df3b318	0.11899394
25	0xbb99147d	-0.004671632
26	0x3d2849d8	0.041086048
27	0x3eb69ae0	0.35665035
28	0x3dcd41fc	0.10022351
29	0xbe8a8772	-0.27056462
30	0xbb9e53f0	-0.0048317835
31	0x3e4452fe	0.19172284
32	0xbe35e67e	-0.17763707
33	0xbd5e5894	-0.054283693
34	0x3db3432f	0.08753049
35	0xbd9b4061	-0.07580639
36	0x3da4e55c	0.08051559
37	0x3c2afb84	0.010435943
38	0x3e133b39	0.1437806
39	0xbd4d2d36	-0.050091945
40	0xbe2bcd63	-0.16777568
41	0x3d394eae	0.04524105
42	0x3d991334	0.07474366
43	0xbd3a589a	-0.045494653
44	0x3dd1b335	0.10239259
45	0xbddede65	-0.10882262
46	0x3ce41ffe	0.027847286
47	0xbe979857	-0.29608414
48	0x3cf662cd	0.030076409
49	0xbe817acb	-0.25288996
50	0xbe138ec3	-0.14409928
51	0x3e44aabf	0.1920576
52	0x3dbc407d	0.09191988
53	0x3d3d808d	0.046265174
54	0x3e9607ac	0.29302728
55	0xbe2d23e9	-0.1690823
56	0x3dd5e172	0.10443391
57	0x3dc03ec5	0.09386972
58	0xbb784a62	-0.0037886132
59	0x3e540a75	0.20707114
60	0x3da45945	0.08024839
61	0x3d4afaaa	0.049555458
62	0x3e7060d2	0.23474434
63	0xbec3dae9	-0.38252953
64	0xbe0e66a5	-0.13906343
65	0xbe5e2ce7	-0.21696816
66	0xbcd1e9af	-0.025624124
67	0x3d2994eb	0.041401785
68	0xbc62f7b8	-0.013853006
69	0x3bb87259	0.0056288657
70	0x3dab5c91	0.08367265
71	0x3e09d9c2	0.13461974
72	0xbda3e190	-0.08002007
73	0xbe0f4eb9	-0.13994874
74	0xbe6baa3a	-0.23014155
75	0xbe3ce943	-0.18448357
76	0x3e34353f	0.17598437
77	0xbd5ce1b9	-0.053926203
78	0xbc12ea69	-0.008967021
79	0xbe0903c7	-0.13380347
80	0xbcf1138e	-0.02942827
81	0xbd5008b4	-0.05078955
82	0xbd906e0c	-0.0705224
83	0xbd4fb4d0	-0.050709546
84	0x3e1396d0	0.14412999
85	0xbc9b31b3	-0.018944597
86	0xbe537839	-0.2065133
87	0xbdc056da	-0.093915656
88	0xbe5256cb	-0.20540921
89	0x3e0ed0be	0.13946816
90	0x3e33e923	0.17569403
91	0xbcb2dde9	-0.02183433
92	0x3d784b78	0.060618848
93	0x3bddca59	0.0067685065
94	0x3b4c09bd	0.0031133734
95	0xbd012b9c	-0.03153573
96	0xbe07a29c	-0.13245624
97	0x3c0778fc	0.008268591
98	0xbc9009ca	-0.017582793
99	0x3dd556ea	0.10416968
100	0x3d232e18	0.03983888
101	0x3be381cd	0.0069429637
102	0xbd9c6472	-0.07636346
103	0xbd88d8de	-0.06681989
104	0x3d237881	0.039909843
105	0x3e403b7a	0.18772689
106	0x3eb2faf9	0.34957102
107	0x3c95e6cc	0.01829853
108	0x3c5ee65d	0.013604728
109	0x3e044b52	0.12919357
110	0xbda0f83d	-0.07859848
111	0x3de60659	0.112316795
112	0x3cffd312	0.031228576
113	0x3e144dee	0.14482853
114	0xbb99f9dc	-0.004698975
115	0x3e0e6883	0.13907056
116	0xbd053d8e	-0.032529406
117	0x3c3cb678	0.011518113
118	0x3dfcfbb2	0.123526946
119	0x3debb898	0.11509818
120	0x3d5e5443	0.054279577
121	0xbe3bc693	-0.18337469
122	0xbdd1c471	-0.10242546
123	0x3e834bb9	0.2564371
124	0xbd09a89c	-0.033608064
125	0xbdffcc9a	-0.124901965
126	0xbc2bc520	-0.01048401
127	0xbdd5fbe9	-0.10448439
128	0xbdaf1879	-0.0854959
129	0xbd08cae6	-0.033396624
130	0xbd41d7a7	-0.047324803
131	0xbc2c9232	-0.010532903
132	0xbd927b99	-0.07152481
133	0x3e455fa6	0.19274768
134	0xba761b7c	-0.0009388251
135	0xbce5d7f7	-0.028057082
136	0xbda2564f	-0.07926618
137	0x3e6ae583	0.22939114
138	0xbce5ad70	-0.028036803
139	0xbe2453c0	-0.16047573
140	0xbd098972	-0.033578344
141	0xba55c5c9	-0.00081547775
142	0xbdcc35f5	-0.09971229
143	0xbd3d94b5	-0.046284396
144	0xbd759b5c	-0.059962615
145	0x3d1a5dab	0.037686985
146	0x3e016954	0.12637836
147	0xbd93979a	-0.0720665
148	0xbdcb9ef6	-0.09942429
149	0xbe176755	-0.14785512
150	0x3e94a375	0.29030958
151	0x3e0183db	0.12647955
152	0x3dbef5dc	0.09324238
153	0x3ad1b0b8	0.0015998101
154	0xbd4a2a40	-0.0493567
155	0x3ddfc0ae	0.109254226
156	0xbd06c79b	-0.032905202
157	0x3e29515e	0.16534945
158	0x3d9dafe7	0.07699566
159	0x3c8f8cd3	0.017523205
160	0x3d5d5822	0.054039128
161	0x3cd766e3	0.026294177
162	0x3e08f641	0.13375188
163	0xbdd7980d	-0.10527048
164	0x3dddedbb	0.10836359
165	0xbdf6e322	-0.12055041
166	0x3c012443	0.007882181
167	0x3d96f219	0.07370395
168	0x3da10c65	0.07863692
169	0x3dd778c6	0.105210826
170	0x3cd2f330	0.025750726
171	0x3e637d88	0.22215855
172	0x3e46d7b3	0.1941822
173	0xbe427b07	-0.18992244
174	0xbdcf51d4	-0.10123029
175	0x3d8c1106	0.068391845
176	0xbe0963c1	-0.1341696
177	0x3cc943ef	0.024568526
178	0xbbb2c1c8	-0.0054552294
179	0x3c8514d3	0.016245281
180	0xbc3f063f	-0.011659204
181	0x3d8276a3	0.063702844
182	0x3e46cbda	0.194137
183	0xbdc7fc80	-0.097649574
184	0x3e209a7e	0.15683934
185	0xbd947dff	-0.07250594
186	0xbe529689	-0.20565237
187	0x3d9880a0	0.07446408
188	0x3ca6dc3e	0.020368692
189	0xbcf5e99d	-0.030018622
190	0x3dceaab6	0.10091154
191	0x3c8baa36	0.017048936
192	0x3e235d8d	0.15953656
193	0xbb4a6260	-0.003088139
194	0xbd2e3828	-0.042534024
195	0xbdcb94b4	-0.09940472
196	0x3e020869	0.1269852
197	0x3c09806f	0.008392437
198	0xbd524785	-0.051337738
199	0x3e7a835f	0.24464177
200	0xbe8238e1	-0.2543402
201	0x3e14897c	0.14505571
202	0x3d8958b3	0.06706371
203	0x3def3475	0.11679927
204	0x3d15943c	0.03651832
205	0x3d7caf2d	0.0616905
206	0x3df9646c	0.12177357
207	0xbea7d37c	-0.32778537
208	0xbe08077e	-0.13284108
209	0x3dbc7d2e	0.09203564
210	0x3e1c5264	0.15265805
211	0xbe08e0e6	-0.13367042
212	0xbd4973cb	-0.049182694
213	0xbe1a6c0c	-0.15080279
214	0xbe7a2577	-0.24428354
215	0xbe1e1ff9	-0.15441884
216	0x3e69f475	0.22847159
217	0x3dd49a6e	0.103810176
218	0xbde81594	-0.11332241
219	0x3e0a0df2	0.13481882
220	0x3e63406b	0.22192542
221	0xbce59631	-0.028025718
222	0xbd5f4587	-0.054509666
223	0xbd5f5f66	-0.05453434
224	0x3e0c676c	0.13711327
225	0x3eca321e	0.3949136
226	0x3db4d6f7	0.08830064
227	0x3e469061	0.19391014
228	0x3e051164	0.12994915
229	0xbd5b3931	-0.05352134
230	0x3d889788	0.06669527
231	0xbe354ae3	-0.17704348
232	0xbe5667b0	-0.20937991
233	0x3d0534e3	0.03252114
234	0x3e15a1a2	0.1461244
235	0x3e754173	0.23950748
236	0x3dc7b159	0.09750623
237	0xbd707a28	-0.058710247
238	0xbd763f23	-0.060118806
239	0x3e569821	0.2095647
240	0x3cfcbdc8	0.030852214
241	0x3da7dfb4	0.08196965
242	0xbe16a111	-0.1470988
243	0xbdabb59e	-0.0838425
244	0xbd49c087	-0.049255874
245	0xbdd74bb7	-0.10512488
246	0xbccd9f4a	-0.025100369
247	0x3dcd71ab	0.10031446
248	0x3df61d48	0.12017304
249	0xbd783fbd	-0.06060766
250	0x3e103e82	0.14086345
251	0x3e1fde63	0.15612178
252	0x3c20b9a3	0.009809884
253	0xbd1706df	-0.036871787
254	0xbd80ca82	-0.06288625
255	0xbe40e723	-0.18838172

network_body._body_endoder.seq_layers.2.bias f4 [64]
0	0x3d4f2e05	0.050580997
1	0x3cf71453	0.030161059
2	0x3c9b179e	0.01893216
3	0x3caaeb45	0.020864138
4	0x3d3d9dac	0.046292946
5	0x3d91de94	0.071225315
6	0xbc6d3798	-0.014478587
7	0x3ced426d	0.028962338
8	0xbd0c45ed	-0.034246374
9	0xbb448b16	-0.0029990128
10	0x3cd1e8ff	0.025623797
11	0xbcf3181c	-0.029674582
12	0x3ae22e76	0.0017256278
13	0x3d0883ef	0.033328947
14	0xbc98553a	-0.018595327
15	0x3cf24538	0.029574022
16	0xbca71c5b	-0.020399263
17	0x3cb03b48	0.021512643
18	0x3cdb1f03	0.026748186
19	0x3c24fb1e	0.010069637
20	0x3ce36a87	0.027760757
21	0x3bac39e1	0.005255923
22	0xbc3af96b	-0.011412005
23	0x3c07da1a	0.008291746
24	0xbc342ed6	-0.010997495
25	0x3b461d92	0.0030230028
26	0x3ce58c45	0.028020987
27	0xbcc86108	-0.02446033
28	0x3d4a4062	0.049377806
29	0x3d296cd1	0.04136354
30	0x3b93c000	0.004508972
31	0xbaab9c17	-0.0013092783
32	0xbac316d5	-0.0014884124
33	0x3d16bf36	0.036803447
34	0x3d26753e	0.040639155
35	0x3c821500	0.015879154
36	0xbcbbcc2d	-0.022924507
37	0x3c5ae57b	0.0133603765
38	0x3d824122	0.06360079
39	0x3c4561a9	0.01204721
40	0x3d11958c	0.03554301
41	0x3b3108a7	0.0027013214
42	0x3d2fb94a	0.042901315
43	0x3c8967b8	0.01677309
44	0xbc30994f	-0.010778739
45	0x3d5c3c81	0.05376864
46	0x3cafb3dc	0.021448068
47	0x3c1d3af9	0.00959658
48	0x3d8a9178	0.06766027
49	0x3d2ac150	0.041688263
50	0x3ac168df	0.0014755985
51	0x3c7c71a2	0.015407952
52	0x3d50e9ce	0.051004224
53	0x3cb82e9e	0.022483166
54	0x3d526d48	0.05137375
55	0x3d4ce020	0.05001843
56	0x3ce2e6ce	0.027697947
57	0x3bc15a40	0.005900651
58	0xbbcea08e	-0.0063057607
59	0x393e5f36	0.00018155281
60	0x3c8cb7c4	0.01717747
61	0x3d3fb82c	0.0468065
62	0x3ca42ba7	0.020040346
63	0xbc6024dd	-0.013680664

action_model._continuous_distribution.log_sigma f4 [1, 2]
0	0x3e2b06e1	0.16701843
1	0x3e6d3186	0.23163423

action_model._continuous_distribution.mu.weight f4 [2, 64]
0	0xbdfa3336	-0.12216799
1	0x3d368196	0.044557177
2	0x3d839455	0.064247765
3	0x3db8f37a	0.090308145
4	0x3dedf322	0.116186395
5	0xbc961b97	-0.018323703
6	0xbb5ac131	-0.0033379311
7	0xbd19be59	-0.037535045
8	0xbd8d5fca	-0.06903036
9	0xbbe9c8b7	-0.007134523
10	0xbd50f91d	-0.051018823
11	0xbc5565f6	-0.013024798
12	0x3ce3b5cb	0.027796647
13	0x3cfface5	0.031210372
14	0x3ce7cbe4	0.028295465
15	0xbdc7dcbe	-0.097589
16	0x3d2aaea1	0.041670445
17	0x3ce27d49	0.027647631
18	0x3d0b54e0	0.03401649
19	0x3d08158d	0.033223677
20	0x3d8ab881	0.067734726
21	0xbd8b3d67	-0.06798821
22	0x3b5b41bf	0.0033455936
23	0xbc01c09e	-0.007919459
24	0x3db3b484	0.08774665
25	0x3de4b85b	0.111679755
26	0x3c3e5b7c	0.011618491
27	0xbdb8e1f7	-0.090274744
28	0xbdcc9755	-0.09989802
29	0xbdff07c0	-0.1245265
30	0xbd3aa0b9	-0.045563433
31	0xbd8e26f9	-0.06941027
32	0xbd88f19d	-0.06686709
33	0x3ddfca23	0.109272264
34	0x3d320981	0.043466095
35	0x3e04318e	0.12909529
36	0x3d387729	0.045035515
37	0xbe0fa76d	-0.14028712
38	0xbdfc8300	-0.12329674
39	0x3d356bd1	0.044292275
40	0xbd333191	-0.043748442
41	0xbc5bdef7	-0.013419858
42	0x3ccb32b4	0.02480445
43	0xbd88effc	-0.066863984
44	0xbd014db0	-0.03156823
45	0xbcbfa12d	-0.023392284
46	0xbdbc33d3	-0.09189572
47	0xbcd1023d	-0.025513763
48	0xbdaa48c3	-0.083146594
49	0xbd179cfb	-0.037014943
50	0xbcc610d4	-0.024177946
51	0x3d5727ad	0.052528072
52	0x3dd9b527	0.10630255
53	0x3dcf5a52	0.10124649
54	0x3d6e01f5	0.058107335
55	0x3b74dfe7	0.0037364902
56	0x3d27c31b	0.04095755
57	0xbd51119e	-0.05104219
58	0xbdeb7a1c	-0.114979
59	0x3d630abc	0.05543016
60	0x3cc0331b	0.023461869
61	0xbe1eacc3	-0.15495591
62	0xbd8a7901	-0.06761361
63	0xbcf67bc6	-0.030088317
64	0x3cf9e797	0.030505938
65	0x3d9ac2bf	0.07556676
66	0x3da626e4	0.081128865
67	0x3d4e0cd6	0.05030521
68	0xbd4ba757	-0.049720135
69	0x3cd25328	0.025674418
70	0xbd40613c	-0.04696773
71	0xbdaf3458	-0.08554906
72	0xbd47dd4e	-0.048795037
73	0x3d6a97e5	0.057273764
74	0x3dc0670b	0.09394654
75	0x3d41cde2	0.047315486
76	0x3b4849ed	0.0030561641
77	0x3db7df3f	0.08978128
78	0x3d78b40d	0.060718585
79	0x3d9b0a20	0.075702906
80	0x3e19b55f	0.15010594
81	0xb9bb7b70	-0.00035759388
82	0x3c7055fc	0.014668938
83	0x3e00bac6	0.12571248
84	0xbe025390	-0.12727189
85	0x3d07330d	0.03300767
86	0x3d5f3550	0.054494202
87	0xbda10100	-0.07861519
88	0xbcd13bfc	-0.025541298
89	0x3dc7a4e9	0.09748251
90	0xbde9d22b	-0.114170395
91	0xbcabbf4a	-0.020965237
92	0xbdaeb867	-0.08531266
93	0xbd26cf36	-0.040724955
94	0xbdf13ece	-0.11779557
95	0xbb80cef4	-0.0039309207
96	0x3d062ff5	0.03276058
97	0x3cc98b05	0.024602422
98	0x3cfc420a	0.030793209
99	0x3d2c01eb	0.041994017
100	0x3dc1a3b4	0.09455052
101	0xbdb7fd32	-0.0898384
102	0x3ded2572	0.11579408
103	0x3d978ec7	0.074002795
104	0x3d814e10	0.06313717
105	0xbd24bc1d	-0.04021846
106	0x3ccddce6	0.025129747
107	0x3e0ed999	0.13950194
108	0x3c9297db	0.017894676
109	0xbdd4dac2	-0.10393287
110	0xbcadaf6c	-0.021201812
111	0xbd7f9d36	-0.062405787
112	0x3de97065	0.11398391
113	0x3d33a20c	0.04385571
114	0xbbd84bea	-0.0066008465
115	0xbd07dcf4	-0.0331697
116	0xbe00687a	-0.12539855
117	0xbc29a64e	-0.0103545915
118	0xbd4a5232	-0.049394794
119	0x3d42672e	0.04746168
120	0xbdad4532	-0.084604636
121	0x3c9646e0	0.018344343
122	0xbd1c3831	-0.038139526
123	0xbd1fe17d	-0.0390334
124	0x3d8bcda8	0.06826335
125	0x3939ad76	0.00017707594
126	0xbd475061	-0.04866064
127	0x3d0fdebc	0.035124525

action_model._continuous_distribution.mu.bias f4 [2]
0	0xbcd8e0c7	-0.02647437
1	0xbc2c7100	-0.010524988

action_model._discrete_distribution.branches.0.weight f4 [3, 64]
0	0x3d0a6e8d	0.033796836
1	0xbd1790c1	-0.037003282
2	0xbd0e5b72	-0.034755178
3	0x3ce3cc59	0.027807401
4	0x3db807a6	0.08985834
5	0x3c8792cc	0.01654949
6	0xbc8a42f1	-0.016877623
7	0xbc8beb00	-0.01707983
8	0xbd2aedcd	-0.04173069
9	0xbd1c255a	-0.03812156
10	0x3cdf6ae9	0.027272658
11	0xbabdef9e	-0.0014490967
12	0x3d530ae8	0.051524073
13	0x3d2e38a5	0.04253449
14	0xbd85772b	-0.0651687
15	0xbc71f6e4	-0.014768336
16	0xbd1c812c	-0.038209125
17	0xbd07ee88	-0.033186466
18	0x3cb433ae	0.021997299
19	0xbc8e2523	-0.017351693
20	0x3d5c266f	0.05374759
21	0x3c2bb3fa	0.0104799215
22	0x381de5a6	3.7645594e-05
23	0xbd327c0b	-0.043575328
24	0xbd31e7a8	-0.043433815
25	0xbd2f6db2	-0.042829223
26	0xbde324c8	-0.11091
27	0x3a0fd573	0.00054868235
28	0x3c101417	0.008793852
29	0xbdb6eacc	-0.08931503
30	0x3d4c06b9	0.0498111
31	0x3d085b56	0.03329023
32	0x3dc968a4	0.09834412
33	0x3d2e6a99	0.04258213
34	0xbc57b7a0	-0.013166338
35	0x3d5c97e1	0.05385578
36	0xba0dcb4a	-0.00054090156
37	0x3cacc850	0.02109161
38	0xbc340c97	-0.01098933
39	0xbd4226e0	-0.047400355
40	0xbd0807bb	-0.033210497
41	0xbd2372cd	-0.039904404
42	0x3d1baac5	0.038004655
43	0x3da5287b	0.08064362
44	0x3c08a518	0.008340143
45	0xbd2c5852	-0.042076416
46	0x3c2d8eb4	0.010593105
47	0xbdda510c	-0.1065999
48	0x3c54c7b9	0.012987071
49	0x3d2e0394	0.04248388
50	0xbd77d3bd	-0.060504664
51	0x3dfcaad1	0.12337268
52	0xbd37c6eb	-0.044867437
53	0xbd45fb41	-0.048335318
54	0x3de63956	0.11241405
55	0xbac72d91	-0.0015196075
56	0x3c27be56	0.010238251
57	0x3e075c2d	0.13218756
58	0x3c8cee73	0.017203545
59	0x3d81b533	0.06333389
60	0x3da6deb9	0.0814795
61	0x3cc028bc	0.023456924
62	0x3d2ac004	0.041687027
63	0xbd75da44	-0.060022607
64	0x3ca7fbfc	0.020505898
65	0xbe0a7a25	-0.13523157
66	0x3d39d9e3	0.04537381
67	0xbd3bbec3	-0.04583622
68	0xbc2d5753	-0.010579902
69	0xbe0da636	-0.13832936
70	0x3ce7e7f0	0.028308839
71	0xbdbb8b51	-0.09157432
72	0x3c97b953	0.018520987
73	0xbd0ad7f2	-0.033897348
74	0x3e496559	0.19667567
75	0x3c67227b	0.014107342
76	0x3cc9d12d	0.024635876
77	0x3c67e213	0.014153021
78	0xb9f0a782	-0.0004590117
79	0x3dc78356	0.09741847
80	0x3dce50b2	0.10073985
81	0xbd9cb996	-0.07652585
82	0x3d6729af	0.056436237
83	0x3d363aec	0.044489786
84	0xbc23cb41	-0.00999719
85	0xbc4dcee9	-0.012561538
86	0xbcc5e1f7	-0.0241556
87	0x3b0e9a0f	0.0021759307
88	0x3d852eed	0.06503091
89	0xbcdf4069	-0.027252393
90	0x3d58459b	0.052800756
91	0xbd87efdc	-0.066375464
92	0xbdd64757	-0.10462826
93	0x3dabc436	0.08387034
94	0xbc6deeaf	-0.014522239
95	0xbc4141c9	-0.01179547
96	0xbe00e1b9	-0.12586106
97	0xbc63e800	-0.013910294
98	0xbde4516b	-0.11148342
99	0xbb716306	-0.0036832704
100	0xbc7a7153	-0.015285808
101	0x3d30c372	0.04315514
102	0x3da316bc	0.079633206
103	0x3cd659f6	0.026165944
104	0x3e1bfb97	0.15232693
105	0x3da39bac	0.079886764
106	0xbda99046	-0.08279471
107	0xbccaae24	-0.02474124
108	0x3d095602	0.03352929
109	0xbc4affd2	-0.012390094
110	0x3da4d2f9	0.08048052
111	0xbe14d99e	-0.1453614
112	0x3dcfa816	0.10139482
113	0x3cbed674	0.023295619
114	0x3d9f5f68	0.07781869
115	0xbda1f203	-0.07907488
116	0x3cff68a9	0.031177836
117	0x3d2686ed	0.04065602
118	0xbe92a6a9	-0.28642777
119	0xbd8ba62b	-0.068188034
120	0x3ca8ced7	0.020606441
121	0xbd8f346c	-0.069924206
122	0xbd1d576e	-0.038413458
123	0xbc116644	-0.00887448
124	0xbd9fc6f0	-0.07801616
125	0xbd08be91	-0.033384863
126	0x3d9b59ce	0.07585488
127	0x3caa7214	0.02080635
128	0xbd55d9ea	-0.052209772
129	0x3e283d4a	0.1642963
130	0x3cca2ead	0.02468046
131	0x3d1826ae	0.037146263
132	0xbdd3864f	-0.10328352
133	0x3d906bb6	0.07051794
134	0xbc3db3c1	-0.011578501
135	0x3da079dd	0.078357436
136	0x3c150b39	0.009096914
137	0x3d8abc11	0.06774152
138	0xbe8accfa	-0.2710951
139	0xbd44170a	-0.047873534
140	0xbd5434ef	-0.051808294
141	0xbd8d87a5	-0.06910638
142	0x3d763fe7	0.060119536
143	0xbc90cddf	-0.017676292
144	0xbdee0c62	-0.116234556
145	0x3e066f51	0.13128401
146	0xbded8054	-0.11596742
147	0xbd7b916f	-0.061417993
148	0xbccdb992	-0.0251129
149	0x3cb178f1	0.021664115
150	0x3ce456b6	0.027873378
151	0x3cb3eb9c	0.021962933
152	0x3ca7e453	0.020494616
153	0x3de63cf7	0.11242097
154	0x3d7dbafc	0.0619459
155	0x3d4b8b6c	0.04969351
156	0x3dd9e68d	0.10639677
157	0x3d616ea9	0.055037174
158	0xbd6f449a	-0.058415033
159	0xbca6d2ac	-0.020364128
160	0xbd5a76af	-0.05333584
161	0xbc5d8756	-0.013521036
162	0x3dd35b13	0.103201054
163	0xbd646050	-0.055755913
164	0x3cad776d	0.02117511
165	0xbc953902	-0.01821566
166	0xbd8a7ed0	-0.06762469
167	0x3d30fadc	0.04320799
168	0xbe1d7fb9	-0.15380754
169	0xbd6aaf7b	-0.057296257
170	0x3d08a535	0.03336068
171	0x3c51137b	0.012760992
172	0xbc77b130	-0.015117928
173	0x3dc9d9fe	0.09856032
174	0xbdaf631a	-0.08563824
175	0x3e50ff68	0.2040993
176	0xbe3f7484	-0.18696791
177	0xbe21bd0a	-0.15794769
178	0x3c3df54e	0.01159413
179	0xbd51ba54	-0.051203087
180	0x3d5ad9f2	0.053430505
181	0x3a900d15	0.0010990227
182	0x3e070054	0.13183719
183	0x3dc7b3a8	0.097510636
184	0xbd23a954	-0.039956406
185	0xbdc0e381	-0.09418393
186	0x3c80a146	0.015701901
187	0xbd0d422e	-0.034486942
188	0xbd7f0fe5	-0.062271018
189	0x3d624b00	0.055247307
190	0xbe21b1c9	-0.15790476
191	0x3d1b9c45	0.037990827

action_model._discrete_distribution.branches.0.bias f4 [3]
0	0x3d060f8b	0.032729667
1	0xbcc8a910	-0.024494678
2	0xbc9107cf	-0.017703919
