results/MLHades_main_12_grid32x32cellsize1x1_andraycastsensor/MLHades/MLHades-3000010.onnx (onnx, 234194 bytes, 22 tensors)

discrete_action_output_shape f4 [1, 4]
00000000: 0000 4040 0000 4040 0000 4040 0000 0040
3.0 3.0 3.0 2.0

network_body.observation_encoder.processors.1.conv_layers.0.weight f4 [16, 7, 8, 8]
00000000: 3e6c a8bd c1df 5939 ed9a 71bd 2d41 d0bc
00000010: 6094 95ba 3835 d2bc 2e77 cc3d 1f5e 423c
00000020: 13d2 81bd 90c2 09bc 3533 4fbb 1752 ef3c
00000030: 3172 d5bc c7ba 7fbd 180b 663d 1cce 833c
00000040: de12 d4bd 851a e03c 719d 463d 5809 c13c
00000050: 1596 2a3d fca9 8dbc 433f c43d a22b 20ba
00000060: 8eda 013d e890 313d 6339 963d b6f5 813d
00000070: 4dd3 d03c dfae 4abd c5db 9abc 69b6 02bd
00000080: 012c 36bd 59fd b8bb 0be9 823d da9f 9a3c
00000090: 94f1 f43c c14f b13c be65 f63c 37a0 86bd
000000a0: b9de 20bd 7679 0a3d a912 b63c 442d 4a3d
000000b0: 2a9a 443d b422 0dbd dc22 3e3c 8a57 5f3d
000000c0: 2a39 83bd 4891 2cbd b11a 4cbb cd7b 953c
000000d0: 247a be3c 1630 72bd 0ba8 253d ed22 0a3d
000000e0: 9c6d a83c ddb5 29bc 3fbd 483d 1761 aa3c
000000f0: 2adb ecbc bc87 6cbd f568 5fbd 7245 57bd
00000100: d421 2d3e ec1d 5e3e e637 223e 9c6d c43d
00000110: 2146 d83d bc81 6f3e 3038 963d ca26 223e
00000120: 3f27 8d3e e0b2 643e afa2 8b3e 0ea6 0a3e
00000130: 4a75 1e3e 8128 313e 911a 083e 3c9d f23d
00000140: 69b0 833e 5f7b 793e 4374 353e cefc 143e
00000150: 115d 173e 303d 113e 909f 8e3c 077a 253c
00000160: d396 7f3e b83b 4f3e fa8e 4f3e fb81 863e
00000170: 3505 213e fde0 863d 0a36 9a3d 0623 043e
00000180: ba95 293e 6c13 843e 6d1c e93d 1a2a 1a3e
00000190: a175 1a3e 7ce3 163e d24a c63d a013 5c3e
000001a0: f88c cc3d e887 603e 8a4c 903e 2e9e c93d
000001b0: 5427 183e 50b2 c13d 08a0 0d3e 3a71 b13d
000001c0: 3439 0c3e 46ce 503e 63a6 583e 38a7 533e
000001d0: df5a 803e d21e d33d bd76 133e b50b ba3d
000001e0: 54a6 7f3e fdc5 743e b50d 143e b661 e13d
000001f0: c516 113d a0c2 b73d 6979 123e 7966 0b3e
00000200: 5d6b 49be 9e5d bcbd 982b bc3c c324 9e3d
00000210: 9630 983d a9aa eebd 1806 8cbd 6b05 90bd
00000220: 9258 7abc 78e2 85bb d0de 983d f358 d33d
00000230: 4495 e53d f2b7 68bc 1093 1cbd 1eeb 903d
00000240: c66a bcbd a20f 553d 3d35 aa3c 3318 38bc
00000250: 6482 56bc 34c0 79bd e00a e3bd f941 823a
00000260: b590 abbd a8ee 67bd bfc1 98bd f8e0 e5bb
00000270: bbae 933d b50b e23c ee8b 41bd 09a2 643d
00000280: 0c1a f8bd db33 abbd e8f8 cbbd 692f 9ebc
00000290: a09e 783b 7c5f 023d 8e37 83bd 0687 93bd
000002a0: 3bdc efbc 94ef 43bc c368 b8bc 25b5 133c
000002b0: a303 033d 3b27 043e 70ac 49bd dcb5 eb3c
000002c0: 8d4c a63d 779f 8d3d 475d 033d 6ab4 c63d
000002d0: 6f68 dabc 092e 32bd 8e26 f7bd 1932 aebd
000002e0: a429 8c3d 9008 e23d 9508 d73d e531 823d
000002f0: 98c3 9c3d b75f cd3c c2df 19be 9283 e6bd
00000300: 0d96 a43d d303 4fbd 40d8 863d 169c bf3d
00000310: ca44 6e3d 40e9 b13d 20ed 303c 25fe 16bd
00000320: 5160 dfbd a91b 21bd 4b19 babd c6c7 adbc
00000330: 0203 5d3d bc10 e43b 0fa0 943c 4967 5cbc
00000340: 16e1 683c 157b 883c 1428 353c ea7f ddbc
00000350: 26c2 243d 1284 73bb b7fd 81bd 87ce a4bc
00000360: a846 323d 0b6c 85bd bc82 6a3d 4a7b 8d3d
00000370: c389 dd3b a398 af3a 8fe4 8a3c d529 8ebd
00000380: 5bf1 813c c79b 66ba a2ef 743d 2c97 e03d
00000390: 01ee 223d da2c d63c 6128 0ebd 7f8d 3a3d
000003a0: b4d8 b5bc 9c86 0abd 4403 2abd 30de 4bbd
000003b0: 5b60 223d fdca 953d 993d 80bd b0dd 02bd
000003c0: 6085 913d 9af4 48bd 4ca1 cd3c 87f2 d1bd
000003d0: 05e6 91bc f0b4 bf3b e1a2 b4bc bf90 08be
000003e0: 04ac 23bd 2e7f 58bd 97bb 813c c46e bdbd
000003f0: 9df7 a63d 6361 353d 7b71 73bd 1830 a9bc
-0.082237706 0.00020778087 -0.05898564 -0.025421703 -0.0011412017 -0.025660142 0.09983669 0.0118632605
-0.063388966 -0.008408204 -0.0031616215 0.029213948 -0.026055427 -0.062433984 0.056162924 0.016089492
-0.10355161 0.027356395 0.04848999 0.023564026 0.041647036 -0.017292969 0.09582379 -0.00061100174
0.03170257 0.043351084 0.073351644 0.06345694 0.025491381 -0.049483176 -0.018903622 -0.03191224
-0.04447556 -0.005645436 0.06392106 0.018875051 0.02990035 0.021644475 0.030077811 -0.06573527
-0.039274905 0.03380724 0.022225695 0.049359575 0.047998585 -0.034456924 0.011604991 0.054526843
-0.064073876 -0.04213074 -0.003114384 0.01824751 0.0232516 -0.05912789 0.04044346 0.033724714
0.020560078 -0.010358301 0.049008604 0.02079825 -0.0289131 -0.057746634 -0.054543454 -0.052556463
0.16907436 0.21691102 0.15841636 0.09591219 0.10560251 0.23389333 0.07334936 0.1583511
0.27569005 0.2233386 0.27272555 0.13539907 0.1547443 0.17300607 0.13291384 0.11846396
0.25720528 0.24363469 0.17720132 0.14549562 0.14781596 0.14183497 0.01741007 0.010099894
0.24959879 0.20237625 0.20269385 0.26271042 0.15724643 0.06585882 0.075298384 0.12903985
0.16561022 0.25796068 0.11382375 0.15055123 0.15083934 0.14735216 0.096822396 0.21491861
0.09987825 0.21926844 0.28183395 0.098446235 0.14858752 0.094578385 0.13830578 0.086641744
0.13693696 0.20391187 0.21157221 0.20669258 0.2506933 0.10308613 0.14400764 0.09084264
0.24965793 0.23903652 0.14458354 0.11004965 0.035422105 0.08972669 0.14304127 0.13613309
-0.19669862 -0.091975436 0.022970006 0.077218555 0.07431142 -0.116536446 -0.068371 -0.070322834
-0.015279906 -0.004085835 0.07464373 0.103197 0.11210111 -0.014204012 -0.038226187 0.07076095
-0.09200053 0.05201686 0.02077734 -0.011236238 -0.013092611 -0.060974315 -0.110860586 0.0009937874
-0.0837721 -0.056624085 -0.07458829 -0.0070153438 0.072110616 0.027593473 -0.047252588 0.05581859
-0.12114343 -0.083595 -0.099595845 -0.019309716 0.0037936345 0.031829342 -0.064070806 -0.07203488
-0.029279819 -0.011958975 -0.022510892 0.009015356 0.03198589 0.1290559 -0.049236715 0.02877324
0.0812007 0.06915181 0.032071378 0.0970238 -0.026661126 -0.043500934 -0.120679006 -0.08505649
0.0684388 0.110367894 0.10499684 0.06357173 0.07654494 0.025070054 -0.15026763 -0.11255564
0.080364324 -0.050540756 0.06584215 0.09355943 0.05817107 0.08687067 0.0107987225 -0.036863465
-0.10907043 -0.03933302 -0.090868555 -0.021213423 0.053957947 0.0069600027 0.018142728 -0.0134523595
0.014213821 0.016660253 0.011056919 -0.027038533 0.040224217 -0.0037157577 -0.063472204 -0.020118011
0.043524414 -0.06514748 0.057253584 0.06908281 0.0067608072 0.001339693 0.016954688 -0.069415726
0.015862158 -0.00087970163 0.059798844 0.10966334 0.03977776 0.026144434 -0.034706477 0.045545097
-0.022198059 -0.03381978 -0.04150702 -0.04977244 0.039642673 0.073141076 -0.06261749 -0.0319497
0.071055174 -0.049061395 0.025101326 -0.102513365 -0.017809877 0.005850427 -0.022050323 -0.13336466
-0.03995897 -0.052855663 0.01583652 -0.092496425 0.08152697 0.04428233 -0.059434395 -0.020652816

network_body.observation_encoder.processors.1.conv_layers.0.bias f4 [16]
00000000: 0be7 433c c505 383d 5d66 d6bb cc98 3e3c
00000010: bb98 34bd ce36 9dbc 7a51 7eb8 4f29 223d
00000020: 6452 90bd b0b7 5f3c 2743 6f3d bca4 9bbc
00000030: b169 c93b 2554 c23d ea52 b9bc 49df 17bc
0.01195694 0.044927377 -0.0065429644 0.011633109 -0.044090968 -0.019191172 -6.06342e-05 0.039590176
-0.07046965 0.013654634 0.05841365 -0.01899945 0.0061466326 0.094887055 -0.022622544 -0.009269544

network_body.observation_encoder.processors.1.conv_layers.2.weight f4 [32, 16, 4, 4]
00000000: 98fe 9e3d bd5c e9ba 293d ec3d 4a13 c0bd
00000010: a399 783c 9806 a83d ed41 3d3d 28ea 2fbd
00000020: 043a 2ab9 7c11 b73d f6ee d73c 1408 c1bd
00000030: 8d85 f83d a4e9 373d 8ef0 e53b bacc 7fbd
00000040: 2d8b 23be 6d4f d4bc bbb7 babb 77c7 bf3c
00000050: d472 82bd 816a 5ebd ce4b 933c 5697 cb3d
00000060: 4bee c03d cf31 3a3d 9bc1 db3b 32d9 0a3d
00000070: d133 433d b97a f23d 11c8 b33d 5cb1 f13d
00000080: 1003 283c 54d3 94bd 52be d7bc c84e 8abd
00000090: 4ecc a93c 6db5 9c3d 692d e2bc 5bd3 613d
000000a0: 817e a43d 6aa3 a03d 4627 67bd 9b7d 2e3c
000000b0: 2403 10bd 6d17 c93c ad77 e93d e7ed af3d
000000c0: efa6 b4bd e473 e5bd 7123 afbd f907 11be
000000d0: 796e 6bbd cf65 0cbe ec04 62bc d695 14bd
000000e0: 0806 0f3e 6d71 373e 85db 5b3d b521 e03b
000000f0: 5edd 263e d4f1 b03d 3e51 a73d 435f dd3c
00000100: 1605 933d 513a db3d 6ebb b13d 3a3f 98bd
00000110: 9246 7d3d 0f6e 10bd daf8 1d3d 330c aabd
00000120: 73e9 8c3d 140a bbbd a7b3 87bc b5c3 0c3d
00000130: 6469 58bd 3390 c4bd fe3e 37bd 3f21 c13d
00000140: c65f 583c ee22 d73d 7940 363e 66ce 973d
00000150: 9f7f 20bd 870c d1bc 8340 9bbc 4729 83bc
00000160: 403a c2bd a598 c53c 71c0 8b3c c964 aebc
00000170: 9b97 663d b3d7 6dbd c893 e63c 19cf 583d
00000180: a4d5 b63c f35c 3abc 3fa8 2cbd dab0 8abd
00000190: 4f92 95bd 4b5f b2bc 35cd 923d 1c12 89bd
000001a0: 1d53 c83d 1863 9bbc bf8f 963d c4fd 3a3e
000001b0: d3a0 58bd e7cc 16bc 903b d4bc 5de9 233e
000001c0: c593 c6bc 2330 f8bd e4cf a23d cbd6 d5bc
000001d0: 0ce8 71bd 4ad1 56bd 1159 923d a3c8 96bd
000001e0: a8e0 673d 11aa 7d3c 460b 1bbb 4971 a6bc
000001f0: c84b 3e3c 0870 953d 0860 923d fab2 3d3e
00000200: d62c d13b ccf9 083e ed92 b93d 78d2 54bd
00000210: 4676 df3c 25d2 8fbd bba5 40bd 6dc2 89bd
00000220: e3fa 32bb 0112 29be 852b 06bd 4930 353d
00000230: d386 903d 16e3 033e b507 3a3c e38f 01bd
00000240: 2e79 98bc f752 63bd c3c1 2f3d 4f47 97bd
00000250: 9317 2c3a 1b0d b73c c3a3 963d 153b 68bd
00000260: c483 1c39 11ff 07bd 1486 9b3c a904 beba
00000270: cd4a 633d a0c1 6c3e d7bb 093e 4e49 573e
00000280: 2554 6a3d fcf5 59bd 3478 93bd 779d 833d
00000290: cb24 c53d fbf5 16bd 021a 29bd 51ff 0a3e
000002a0: 913f d73d 6399 29bd 64b3 40be e419 963c
000002b0: 44dd 84bd 4388 23bd bd21 693b 791e 74bd
000002c0: 4fbb 4a3d 7f84 eb3b 9d05 48bd 1d0f b7bc
000002d0: ce16 69bd 44fd 1bbd c7ce a63b 249b bebc
000002e0: f980 613d 2225 dfbc ea65 e1bc 2371 653d
000002f0: ae76 263d 2380 21bd 569c 183d 55d1 273e
00000300: e194 c3bd 6dc2 c93d c08b ad3c 554b f3bc
00000310: 5ce8 1c3d 7e48 99bd 3dd8 f5bd af00 01be
00000320: 8f3f f03d 232d 5ebd 32a9 753d 7bec 0dbd
00000330: 04c5 b8bd e733 9e3d 801e b33d 5aa3 293b
00000340: e0c2 9dbb d4c2 953d e0e9 1abd 24b4 91bd
00000350: bc16 85bd 5121 9cbd aac8 343c 848c 12be
00000360: e746 393d dcc4 47bd ac37 b9bc 7e95 9abd
00000370: 8570 c53d fad8 c03d 167d 093e 5998 033e
00000380: 9f6e e4bc 3131 ffbb dcc2 5f3b e994 9bbc
00000390: b194 d1bc 2858 80bd 9a6e b2bd b135 86bd
000003a0: af14 223e 0717 1c3c 8587 493c b516 ae3c
000003b0: c670 9abd 64ee 023e 900f 373e 51ca f4bc
000003c0: 18ef da3c aa84 713d 6183 403d e63f 60bc
000003d0: 8731 213d af65 0abd 5446 3ebd 35f4 35be
000003e0: 385d 34bb 1a5d 8f3d 7c86 9ebd 91e3 e8bd
000003f0: 0073 493a 83d2 013d 9fc9 44bc f6ad ec3d
0.07763404 -0.0017804127 0.11535103 -0.09378679 0.015173349 0.08204383 0.04620545 -0.04294792
-0.00016234076 0.08938882 0.026359063 -0.09425369 0.12134848 0.04490055 0.0070172017 -0.0624511
-0.1597106 -0.02591678 -0.005698172 0.023410542 -0.06369558 -0.05430079 0.017980482 0.099409744
0.09420451 0.045457657 0.006706429 0.03389854 0.047656838 0.11839814 0.08778394 0.11801407
0.010254636 -0.0726687 -0.026335869 -0.067533076 0.020727303 0.07651792 -0.027609544 0.055133205
0.08031941 0.07843669 -0.05643394 0.010650064 -0.035159245 0.024547303 0.113997795 0.08590298
-0.088209026 -0.11203745 -0.08551682 -0.14163198 -0.0574784 -0.13710712 -0.013795119 -0.036275707
0.13967144 0.17914362 0.053676147 0.0068399557 0.16295382 0.08639875 0.081697926 0.027022963
0.071787044 0.10704482 0.086783275 -0.074339345 0.06183488 -0.03526121 0.0385674 -0.08303108
0.068804644 -0.091327816 -0.016565157 0.03436633 -0.052834883 -0.09597816 -0.04473781 0.09430169
0.013206428 0.10504709 0.17798032 0.07412414 -0.03918421 -0.025518669 -0.01895166 -0.016010894
-0.094837666 0.024120638 0.017059537 -0.021288292 0.056296926 -0.058067035 0.02814664 0.05293188
0.022318669 -0.0113747 -0.04215264 -0.06772013 -0.07303297 -0.021773955 0.071680464 -0.06692907
0.097814776 -0.01896815 0.07351636 0.18260866 -0.05288775 -0.009204126 -0.025907308 0.1600699
-0.024240384 -0.12118556 0.07949808 -0.026103398 -0.059059188 -0.052445687 0.07145894 -0.07362487
0.056610733 0.0154824415 -0.0023657843 -0.02031769 0.011614747 0.07296759 0.07147223 0.18525305
0.0063835187 0.1337654 0.09061227 -0.05195853 0.027278077 -0.07022504 -0.047033053 -0.06726537
-0.0027310185 -0.16510774 -0.032756347 0.0442355 0.07056966 0.12879595 0.011354377 -0.03163136
-0.01861247 -0.055499043 0.042909395 -0.07386648 0.0006564792 0.022345116 0.07355454 -0.05669697
0.00014926406 -0.033202235 0.018984832 -0.0014497238 0.055491257 0.23120737 0.13450561 0.21024057
0.057209153 -0.053213105 -0.07200661 0.064265184 0.09626158 -0.03685568 -0.04128457 0.13573958
0.10510171 -0.041406047 -0.18818432 0.018322892 -0.064875156 -0.03992487 0.0035573088 -0.059599373
0.049495038 0.0071874256 -0.04883348 -0.022346074 -0.056906514 -0.03808333 0.0050905677 -0.023267336
0.05505464 -0.027239386 -0.027514417 0.0560161 0.040640526 -0.03942884 0.03725847 0.16388448
-0.09549881 0.09851537 0.021184802 -0.029699007 0.038307533 -0.0748453 -0.12004135 -0.12597917
0.11730873 -0.054242264 0.05997581 -0.034649353 -0.09021953 0.07724743 0.08746052 0.0025884719
-0.0048144907 0.07312551 -0.037820697 -0.07114437 -0.06498477 -0.07623542 0.01103417 -0.14311415
0.045233633 -0.048771724 -0.022609554 -0.075480446 0.09640602 0.09416385 0.13426623 0.12851085
-0.02788478 -0.0077878465 0.0034143245 -0.018991904 -0.025583597 -0.062668145 -0.08712502 -0.065532096
0.15828203 0.0095269745 0.012300377 0.021251062 -0.07541041 0.12786251 0.1787703 -0.029881628
0.026725337 0.05896441 0.047000293 -0.01368711 0.039353874 -0.03378838 -0.04645379 -0.17768939
-0.0027521383 0.070001796 -0.077404946 -0.1137153 0.0007684678 0.0316949 -0.012010961 0.11556618

network_body.observation_encoder.processors.1.conv_layers.2.bias f4 [32]
00000000: a5f9 b7bc 57b7 b03c 9472 63bd 517d 70bd
00000010: 26c5 1bbc 18e9 8a3d 5ac4 87bd 318d edbd
00000020: f7d0 a33c aa4b c63c 7436 743d 9dee 5dbd
00000030: dd4e 40bd 8968 a2bd fba8 d7bb a41f 8cbc
00000040: 149d 4d3c aa69 483d 3191 dabc 115b 333d
00000050: ec26 b9bd 2156 953c 831b e3bd 71b9 07bd
00000060: c247 26bd 13c1 8d3c 378b 1fbd b6d9 623d
00000070: 1da7 2bbb 2d6b 5ebc 4484 cc3c 95a5 8d3b
-0.022457907 0.021571798 -0.055529192 -0.05871326 -0.009507453 0.0678274 -0.06629248 -0.11599196
0.019997103 0.024206001 0.059622243 -0.054182637 -0.04695021 -0.07930095 -0.0065814233 -0.017104931
0.012549657 0.048928894 -0.02668056 0.04378802 -0.09040627 0.018229546 -0.11089232 -0.033135835
-0.040595777 0.017303979 -0.038951125 0.055383407 -0.0026192137 -0.013575357 0.024965413 0.0043227174

network_body.observation_encoder.processors.1.dense.0.weight f4 [64, 128]
00000000: 5f3e 8fbd 829b 353d 6dd0 233d 6ab1 1bbe
00000010: 6a46 a8be 1da8 7a3e 7205 0f3d c49b 40bd
00000020: f462 5f3d f97d b63d f157 7abe e3e7 0bbd
00000030: be21 3cbe e813 55be df0f 093e bfa7 543e
00000040: f819 d43d c73d 54be 9546 053e 522c 1bbe
00000050: ea17 84bc f8a2 803d dbcc 7fbe d8a9 f7bc
00000060: cb97 313d 7323 48ba 1bc7 003e 2c57 053e
00000070: 21b6 92bc 6b40 03be 8976 92bd 880b fc3d
00000080: e482 38bd 9cdb 9ebe 765b 403c f9e1 193e
00000090: 7808 b13e 026f 1c3e 1703 05be 4d55 1a3b
000000a0: 1623 fdbd b518 a03e e5fb c13d 17fc abbd
000000b0: 6c63 813d 201d a5be cdd2 123e d1de 3d3e
000000c0: 5aab 51be c1d1 0c3d bd20 503d cd1c 04bd
000000d0: 9f74 043e b4bd 46bc 5a98 0f3e f1b9 44bd
000000e0: 5034 f63d 5136 acbc 8cfb 1dbe 2e18 33be
000000f0: 4d73 473e f7b1 4cbd bedb 893e 7246 c2bd
00000100: 5a9e c43d 86c0 1d3e c332 113e 9476 ae3d
00000110: 3fda 403a 1412 d63d 116f 263d 88f0 813d
00000120: 5001 c4bd 1239 a9bd bd5d 803e 906f 873c
00000130: d6cb 303e 5bd1 de3d 8a83 943d 5f03 15bd
00000140: 8da9 8abd cee1 92bd 91f3 1d3c f2b6 c43c
00000150: bcfd 123e 8efc 813d 10e2 033d 766a b23d
00000160: aadb a33e 77d4 8cbe 34bc b63d 3379 0e3d
00000170: 82c5 6dbe 4115 d03d c940 183d fdd4 843c
00000180: 18fa 333e c94f 7dbd 54ae 253d e914 a63d
00000190: fee4 4a3e dee7 5e3d ad52 abbe 17bd 043e
000001a0: 91e9 0ebd 4416 13bc 4d05 023d 2ced 07be
000001b0: 6c74 5b3d d549 1dbd 50e2 bcbd cfe7 e73d
000001c0: 2c60 6a3c 5b9e afbd 7e48 7e3d 7760 7ebd
000001d0: 9674 0b3c fb52 183e ddad 523d 8669 893e
000001e0: 1bb4 9fbc 47e9 033e 9ff0 cb3d e3e9 4a3c
000001f0: 92f0 51bd 8292 273e 49a9 2ebe 6f86 36bd
00000200: b969 92be 2b03 953d 2e06 7f3e 28c8 6a3e
00000210: 659d 04bd 46c8 6b3e 1ece e6bd e098 de3d
00000220: 8381 dc3d a382 49be 2780 86bd 4bc4 cd3d
00000230: e75f 803d b748 303d 6fa5 51be 6512 c13d
00000240: b429 553e a177 073e 6615 45be 4ec1 913d
00000250: 90d9 323e 2569 9a3e a150 5dbe c6cb cb3d
00000260: 08b3 37be 7601 533e ce15 0abe bb12 8c3e
00000270: 3e88 f6bd daea 423d 06d7 3ebe 3fff 473e
00000280: af4e fdbc 0495 93bd 9789 9bbd 45b0 663e
00000290: 5752 31be 73bc f2bc a413 583e 03e6 58bc
000002a0: 7b45 d6bc 1570 f9bd 5a1e d9be 414e b8bd
000002b0: 1c82 a23c 9c6b 60bd 5408 e93c 373c a4bb
000002c0: dd16 c9be edb2 1b3d d5e1 aa3d a4bd 14bd
000002d0: 6689 d83b 5321 823c e381 e43d 3302 2ebb
000002e0: d8bb 1c3e aa52 643d b599 883d 4e38 fb3d
000002f0: f415 433d 1202 283d 5f37 1bbe 09e6 7c3d
00000300: 6ab3 c53d b7b7 7abc 387f ffbd 97f4 31be
00000310: 9b88 3c3d d8ed d4bd a164 0cbe a020 a63e
00000320: d078 de3d 2d05 9e3d 9abd 6b3d fae5 40be
00000330: 8c0f 49bc 2d7f 83bb a029 493d 2930 0abd
00000340: 3ff2 c7bc b627 b63c ee97 793d ccea d93d
00000350: bcb3 013e ca59 abbe c541 9fbd b23e b43d
00000360: 69ed 72be 7f4c bb3e 8ff8 4abd 2ed4 353e
00000370: 9aa9 a6bd 3e0b 2fbc 7f02 8c3e d74e debd
00000380: aba7 7c3c dd96 843d 3359 033d 1902 a23d
00000390: a71b 24be fdaf 243e e5e6 b7bd 0ac0 53bc
000003a0: 0b5e 8d3d dbdb 403e 7029 9e3d 3b65 ba3d
000003b0: d5e6 853e 2f89 97bd 49f4 853d ed6a a93d
000003c0: 387f 63be 409e 01bc 944f 3e3e 5569 d2bd
000003d0: b875 8e3c 293f b9bc 56c3 c1bd fdcb 253d
000003e0: 19e5 98be 2746 923c 9900 98bc fdc8 a1bd
000003f0: 8268 d7bd a8cd 533e 4135 ac3d 43ea 19ba
-0.06994318 0.044337757 0.039993692 -0.15204397 -0.32866222 0.24478193 0.034917302 -0.04702355
0.05453773 0.08910746 -0.2444761 -0.03415669 -0.18372247 -0.20808375 0.1338496 0.20767115
0.10356516 -0.20726691 0.13015206 -0.15153626 -0.016124684 0.06281084 -0.2498049 -0.030232355
0.04335765 -0.0007634677 0.12575953 0.13021535 -0.017909111 -0.12817542 -0.07151515 0.12306887
-0.045046702 -0.31026924 0.011740556 0.15027608 0.34576774 0.15276721 -0.1298946 0.0023549378
-0.12360208 0.3126885 0.09471873 -0.08397692 0.06317791 -0.32248783 0.14338227 0.18542029
-0.20475522 0.034379724 0.05081247 -0.03225403 0.12935112 -0.01213019 0.14022961 -0.04802889
0.120216966 -0.021021994 -0.15427989 -0.17489693 0.19477578 -0.049974408 0.26925462 -0.094860926
0.09600516 0.15405473 0.1417952 0.08518711 0.000735674 0.10452667 0.040633265 0.06344706
-0.09570563 -0.082628384 0.25071517 0.01653269 0.17265257 0.10879775 0.072516516 -0.036380168
-0.067706205 -0.07171975 0.00964059 0.024013016 0.14354604 0.06346999 0.032198012 0.08711712
0.32003528 -0.27505848 0.08922616 0.034783553 -0.23219875 0.10160304 0.03717116 0.016214842
0.17575872 -0.061843667 0.040449455 0.08109457 0.19813916 0.054420345 -0.33461514 0.12962757
-0.034890715 -0.0089774765 0.031743336 -0.13274068 0.053577825 -0.03840049 -0.09222853 0.11323511
0.014305156 -0.08575126 0.062080853 -0.062103715 0.008511683 0.14875405 0.05143534 0.2683832
-0.01949506 0.12881957 0.09958004 0.0123848645 -0.051254816 0.16364482 -0.17056765 -0.0445618
-0.28596285 0.07275995 0.24904701 0.22927916 -0.032376666 0.23025617 -0.112697825 0.10869002
0.1076689 -0.1967874 -0.06567412 0.100472055 0.06268292 0.043038096 -0.20473264 0.094273366
0.2081669 0.13229229 -0.19246444 0.07116948 0.17465806 0.30158344 -0.21612789 0.09950976
-0.17939389 0.20606026 -0.1348488 0.2735804 -0.12037705 0.047587253 -0.18636712 0.19530962
-0.030921308 -0.07206157 -0.075946026 0.22528179 -0.17316566 -0.029630875 0.21101242 -0.013238433
-0.026156178 -0.12179581 -0.4240597 -0.08999301 0.019837432 -0.054790124 0.028446354 -0.005012061
-0.39275256 0.038012434 0.08343855 -0.036313668 0.006608176 0.01588503 0.111575864 -0.0026551604
0.15306032 0.055742897 0.06669942 0.12266599 0.047628358 0.0410176 -0.15157841 0.061742816
0.09653361 -0.01530259 -0.12475437 -0.1737846 0.046028715 -0.103969276 -0.13710262 0.32446766
0.10862887 0.07715831 0.057553865 -0.18837729 -0.012271773 -0.0040129633 0.049111962 -0.033737335
-0.024407504 0.022235733 0.060935907 0.10640487 0.1266622 -0.3346694 -0.077762164 0.08801021
-0.23723377 0.365818 -0.04955345 0.17756721 -0.08137818 -0.010683833 0.27345654 -0.10854881
0.0154208345 0.064740874 0.03206749 0.07910556 -0.16026174 0.16082759 -0.089795865 -0.012924204
0.06902703 0.18833868 0.07722747 0.091013394 0.26152673 -0.073992126 0.06540734 0.082723476
-0.22216499 -0.007911265 0.18585044 -0.10273997 0.017390117 -0.022613125 -0.094610855 0.04047774
-0.29862288 0.017855717 -0.018554972 -0.078996636 -0.1051798 0.2068392 0.08408595 -0.00058713945

network_body.observation_encoder.processors.1.dense.0.bias f4 [64]
00000000: 9524 b43c ace6 153d c09f ed3c d8d0 5b3d
00000010: 066c 063c ebe6 1ebc 05a2 133d 15d4 2b3d
00000020: e26f 4a3d 4aab 523d 6d2b 513d d44a 833d
00000030: 20fc e63c 2715 82bc 4914 d3ba 185f 073d
00000040: c56d 303d c65d 3abd c463 3e3d ff3e 973c
00000050: 701d d93c 5d1b 413d bde8 783c f670 4a3d
00000060: 9c36 243d a140 403d e132 333d 1d7a 2f3d
00000070: d837 273d 4468 2cbc 9937 783c e15f 31bc
00000080: e77c a4bc 4beb 843d d483 833d cdeb 373d
00000090: f9b0 433d 152a 673d 567e 3f3d f8a0 793d
000000a0: ee48 023d b9a0 3a3d f937 fb39 499e 07bc
000000b0: 3c8f 8b3d 0895 613d 06ec 873d 6feb 1dbc
000000c0: 8767 8a3c 5a22 553d 2291 0a3d 1db7 be3c
000000d0: 5c70 fc3c 098b 5c3d 8194 9e3d 238d 88bc
000000e0: 451e 89bc 7b35 953d f4b5 193d 253c 8db9
000000f0: b141 6a3d 70a5 b4bb c4ac 433d 4659 b83c
0.0219901 0.03659694 0.029006839 0.053665966 0.008204466 -0.00969861 0.036043186 0.041950304
0.049423106 0.051432885 0.051066805 0.06410757 0.028196394 -0.015879227 -0.0016104068 0.033049673
0.043073434 -0.045499586 0.046481863 0.018462656 0.026503295 0.047145236 0.015192208 0.049424134
0.040091142 0.046936635 0.043749694 0.042841066 0.04082474 -0.010522906 0.015149974 -0.010826082
-0.02007909 0.06490191 0.064216286 0.04490261 0.047776196 0.056436617 0.046751343 0.060944527
0.031807832 0.045563433 0.00047916154 -0.008277484 0.06814429 0.055073768 0.06636815 -0.009638651
0.016895069 0.052034713 0.033829816 0.023280675 0.030815296 0.05384353 0.077431686 -0.016668862
-0.016738066 0.07285591 0.03752704 -0.00026938427 0.057191554 -0.0055128857 0.047772184 0.022503506

network_body._body_endoder.seq_layers.0.weight f4 [64, 439]
00000000: 6d2d 373e 7e31 be3c 5679 e03d 3439 0bbd
00000010: 4343 eb3b cbde 1a3d b846 153e cac2 ef3c
00000020: c521 dd3d 00c1 74bd f809 7f3c 2792 823d
00000030: c8f9 433e ef94 66bd 82e7 d33d f37c 9f3c
00000040: 61dc ff3c 57fe 003d e294 843d 4704 d8bc
00000050: 71fc d4b8 a1de 5dbd 0d1e 583d f7c9 4b3d
00000060: 9ecb bc3d cead 91bd 5096 073d 63f3 b03d
00000070: d100 f53d 0ced 503d 6090 85bb 945a 753d
00000080: c5d7 173e 0e36 c63d cd54 cb3c 2a1e 513d
00000090: 6c9b 623e 23ae 903c 5b84 483d 9b98 f5bc
000000a0: dc7d 16bd ab1d 583d c977 d23d 6bac 233c
000000b0: 4def 1bbd a4d4 d2bc 55b1 4cbd 1b88 8bbb
000000c0: 99e3 64bc ba92 0abd fc0c cc3d e447 20bd
000000d0: bbdb aa3d f8cc 053d ce77 8bbb d553 61bc
000000e0: 65e8 1b3d adfa 993d 6eba 0c3d f4d7 603c
000000f0: 8d0a dc3d cc74 e03d 16f5 db3c cfc4 59bd
00000100: 95fc d33c 48f5 e0bc 68cd 04bd c299 f53d
00000110: b2d6 5e3d 7b4d 40bd 1c53 073d 0a90 043d
00000120: 81de 7bbc 85c2 833c 7904 143d 0c20 a73d
00000130: 27d8 023d 8d62 c33d cd59 0fbe 9460 9cbd
00000140: 4c05 5fbd 113d c73d fb41 a4bc 0856 88bd
00000150: 8710 b8bd 9d8f cfbd 1adb 99bd ac1d 1fbe
00000160: 0d35 943d 3179 c43d d34b 003e b82c 533d
00000170: 251e 8b3d 80f2 babd 2cfa d83c 9138 55bd
00000180: aaed 33bc 06d5 07bd c16d cc3c 600e 80bd
00000190: 6c3b 3abd ffe8 b93d 53ba 9fbd a30e 3a3c
000001a0: 38d4 d13d c30d 44be b965 513d 8995 303e
000001b0: d389 9c3d c94c 3f3d 44e5 cabd 89ff e43d
000001c0: d7a7 b2bd a62d 72bc 5927 c93d 7066 b2bd
000001d0: 104b f9bc fdc2 0a3d d6f8 763e be72 7fbc
000001e0: 95aa 17be 9b7d 713d 420b b73d 2e22 ccbd
000001f0: 6677 223e bd2c bfbc d1e5 b03d c427 48bd
00000200: 3841 fdbd b940 84bd c848 a83d 4149 e43d
00000210: 76a4 d1bd 0218 f23b 5fe7 dabb 029e d53d
00000220: 7709 673e 4c43 a2bc bfa5 573e bdd2 0e3c
00000230: 0051 123e cf9f adbc 0878 7b3d bb08 30be
00000240: ba34 173e 0e10 08bd 8fa6 f3bd 55db 8abc
00000250: 5373 093d 15b4 0f3d 9009 ffbd f075 b03d
00000260: 4ff1 16be 9c84 14bd 68d0 39be 0dc5 aebd
00000270: 401d 04be 8f55 81bd db2a 453e 1c19 72bc
00000280: 2da3 3bbd bf44 1cbd 4eea 333d c638 8d3d
00000290: 062d 693d 3c74 03bd 3f93 663d 72ea 933d
000002a0: 12ac 08be 55a8 d13b f0c5 8bbd 6864 30bc
000002b0: af77 793d 4eb1 82bc f987 aa3c 230a 903c
000002c0: ebbf 603e 1273 583c 2e08 0dbd 6eb9 5dbd
000002d0: a7fa 433e ee94 f3bd 5bf2 2f3d c732 9b3c
000002e0: 9e50 aa3d 818d 963d 842b fabd aead 07bd
000002f0: b6c8 62bd fe5c 173e 0039 ddbd 898c 913d
00000300: e1cb 71bc 6176 debc bf6b 333e a4ab 6ebe
00000310: dfe7 9fbc 400a 52bd 21c5 ee3d 16d8 a8bd
00000320: 7766 bcbd 5a6b 623c e46f f93d 9123 5b3d
00000330: bb1a 2cbe 52b9 21bc 3030 043c 1948 68bd
00000340: a38e e4bc 113e 663d 3fc9 513d d7fe c8bd
00000350: 321e 7f3e 28b7 b8bd 5531 b9bd 42db d13b
00000360: b005 293e eec0 1dbc 924a a1bb fa9a b6bd
00000370: 4d4b 923c 35f7 0a3e 9193 5ebe da5d 5abe
00000380: ed82 79bd 7188 41bd 4284 0bbe da9a 123e
00000390: 8844 ee3d f380 953d 732a 5d3e 9906 5ebd
000003a0: 6f58 61bd d9e4 16bd 50c1 ef3d 8a2b 0dbd
000003b0: 61e7 6a3d 6c48 633d 6fa0 863d f62c 50bd
000003c0: 5f2a 3ebd 7479 ddbd da0d 0d3d f038 313d
000003d0: aa17 3ebd c87d a53c 1cbc cc3d 9791 443c
000003e0: 0e85 e93d cdb6 5e3d 4c6a d83d 4dcd fdbd
000003f0: e8c7 9bbd dbdb 103d 667c a8bd 2a3b 283c
0.17888422 0.02321696 0.10960643 -0.0339901 0.007179649 0.03781013 0.14577758 0.029267687
0.10797457 -0.05975437 0.015566342 0.063755326 0.19138253 -0.056294378 0.10346891 0.01946876
0.031233015 0.031492557 0.0647371 -0.026369227 -0.000101559686 -0.054167394 0.052763034 0.049753156
0.092185244 -0.07113229 0.033102334 0.08640172 0.11963046 0.051007316 -0.0040760487 0.059900835
0.14828403 0.09678279 0.02482071 0.051054157 0.22129601 0.01766116 0.04895435 -0.029979995
-0.036741123 0.05276267 0.102767535 0.009989838 -0.038070012 -0.02573616 -0.049973805 -0.0042581684
-0.013970279 -0.033831336 0.09963414 -0.03913106 0.083426915 0.032666177 -0.004256225 -0.013752897
0.038063426 0.07518516 0.03435748 0.013723362 0.107442 0.10959777 0.026850265 -0.053166207
0.025877276 -0.02746071 -0.032422453 0.119922176 0.05440397 -0.04694889 0.033038244 0.03236393
-0.015372873 0.016083965 0.036137078 0.08160409 0.03194442 0.095402814 -0.139991 -0.07635608
-0.05444841 0.09728444 -0.020050993 -0.06657034 -0.08987527 -0.10134814 -0.075124934 -0.15538663
0.07236681 0.09593428 0.12528925 0.05155632 0.06792859 -0.091282845 0.026486479 -0.0520559
-0.0109819565 -0.03316214 0.024954678 -0.06252742 -0.045466825 0.090776436 -0.077992104 0.011356029
0.10245556 -0.19145875 0.0511224 0.17244543 0.076434754 0.046704087 -0.0990701 0.11181552
-0.08723419 -0.014781391 0.09821958 -0.08710945 -0.0304313 0.03387736 0.24118361 -0.0155913215
-0.14811166 0.058957677 0.08937694 -0.09967457 0.1586586 -0.023336763 0.08637584 -0.04886605
-0.12365955 -0.06457657 0.08217007 0.111467846 -0.102364466 0.007388116 -0.0066804136 0.10430528
0.22562204 -0.01980748 0.21059321 0.008717236 0.14288712 -0.021194367 0.061393768 -0.1719083
0.14766207 -0.033218436 -0.11897003 -0.016950289 0.033557247 0.03508385 -0.12452996 0.08616245
-0.1474049 -0.03625928 -0.18145907 -0.08533678 -0.12901783 -0.06315147 0.1925463 -0.014776494
-0.045809913 -0.0381515 0.043924622 0.06895594 0.056927703 -0.03209327 0.05629277 0.07222451
-0.1334689 0.0063982406 -0.06824863 -0.010766126 0.060905155 -0.015953686 0.02081679 0.017582959
0.21948211 0.013211029 -0.03443163 -0.054131918 0.19138585 -0.118936405 0.042955738 0.018945111
0.08316158 0.073512085 -0.12215331 -0.03312462 -0.055367194 0.14781567 -0.108018875 0.07106883
-0.014758081 -0.027156057 0.1752157 -0.23307663 -0.019519744 -0.051279306 0.11658693 -0.0824434
-0.09199231 0.01381954 0.121795446 0.053500716 -0.16807072 -0.009870844 0.008068129 -0.056709383
-0.027900046 0.056211535 0.051217314 -0.09814232 0.24913862 -0.09019309 -0.090426125 0.0064043114
0.16506076 -0.009628518 -0.0049222196 -0.08916278 0.017858172 0.13570864 -0.2173598 -0.21324864
-0.060915876 -0.04724926 -0.13624671 0.14316884 0.11634165 0.07299986 0.21598224 -0.05420551
-0.055015977 -0.03683934 0.11706793 -0.03446535 0.057349566 0.05548899 0.06573569 -0.050824128
-0.046427127 -0.10814181 0.034437038 0.04326719 -0.046409287 0.020201579 0.099968165 0.011997602
0.11402331 0.05437355 0.105671495 -0.12392674 -0.076064885 0.03536592 -0.08226852 0.010268012

network_body._body_endoder.seq_layers.0.bias f4 [64]
00000000: ec03 0c3d 8594 853c f2b7 9c3c 7899 b5bc
00000010: 8725 d03a 0d74 053d 659c 4f3c ea88 183d
00000020: e819 8a3c e0b4 943c 8d0c 1e3d 5fa7 153d
00000030: ae0a c83c a1b8 5d3d bd3c 303d fd52 323c
00000040: 9d30 8a3c adf2 323d 5b4d a53c 5bfd bf3c
00000050: 4feb ea3c 754f 34bc 406a 583d 3a54 093c
00000060: ba9f 013c 8920 a23c 3a00 af3c 70a2 4b3a
00000070: b988 583c ced2 af3c 6cd1 cd3c 093e 493d
00000080: 9f7f b3bc dda7 3ebd 48e9 f43c 179a 9b3b
00000090: c269 0c3d f5fc c03c 03de fc3c 37ea b93c
000000a0: 66af 6d3c 6af2 c73c d366 ef3c 6612 353d
000000b0: 5c39 243d 2553 733c 2b7e a7bb 0a37 f03c
000000c0: 7049 a1bc 112f 0ebc 1721 633c 704c bb3c
000000d0: 835c 0a3d f1a4 5a3b 6d41 033d d0a9 163c
000000e0: 04c1 463d 9863 603c 2a39 d8bc 2e50 853c
000000f0: 2de9 363c 6a50 fc3c f6a1 753c f3ad f03a
0.034183428 0.016306171 0.01913068 -0.022167906 0.0015880325 0.032581378 0.012671565 0.037239946
0.016858056 0.018152654 0.038586188 0.03653657 0.024419155 0.054131154 0.043026675 0.010884044
0.016868884 0.043688465 0.020178488 0.023436239 0.028676657 -0.011005272 0.052835703 0.008381898
0.007911617 0.019790905 0.021362413 0.00077680405 0.013216191 0.021462824 0.025124274 0.049131427
-0.02191144 -0.046546806 0.029896393 0.0047485936 0.034280546 0.02355812 0.030867582 0.02269469
0.01450715 0.024407584 0.029223835 0.044207 0.040093765 0.014851366 -0.005111476 0.02932312
-0.019688338 -0.008678214 0.01386287 0.022863597 0.033779632 0.0033362473 0.032044817 0.00919576
0.048523918 0.01369562 -0.026394445 0.016273584 0.011163992 0.030800063 0.014992228 0.0018362388

network_body._body_endoder.seq_layers.2.weight f4 [64, 64]
00000000: 36f9 f2bd 7849 133e f5aa 54bd a675 d3be
00000010: bd9c f9bd c14a 433e ebf1 913d c8ed a6be
00000020: 7726 bc3d de9f 93bb 993d 72be f6d1 9d3d
00000030: 4de4 1e3e 68b9 703e 27c9 17be f9bb 573e
00000040: 5f01 c7bd ba73 21be f8c1 f03b 7cf6 1d3c
00000050: f669 523d 07fa 2fbe c02e ab3e db28 733e
00000060: 3eb9 f13d 79cd c0bb 97ec 253d 59da b73e
00000070: aa9a d03d c3b3 89be cc4c f8ba 6cfa 443e
00000080: 29de 38be 8f2e 6cbd 70a4 b43d 41d9 9cbd
00000090: cdce a73d 8821 4c3c c4a6 163e 11a8 4abd
000000a0: 1fb1 2abe abb1 443d 76d3 9d3d 6f4a 34bd
000000b0: 29ee d73d eef0 dabd 04c4 e33c 4f0b 96be
000000c0: 011f 0b3d c9dd 81be cea2 0fbe 1abe 443e
000000d0: 1d13 c33d 505e 433d 1c53 963e 8140 2bbe
000000e0: ff99 dd3d 9642 c23d 4da7 11bc 55c1 583e
000000f0: ff7c a43d 23e8 553d 7bb9 703e 2d5e c4be
00000100: 54bc 0ebe 2cfe 57be bb48 c9bc b530 243d
00000110: c287 44bc 9fde f13b dfa5 a63d f99f 0c3e
00000120: 3d36 9ebd 19f2 0abe db64 69be fbf7 3cbe
00000130: acb8 363e 0233 4cbd cc1a f2bb 026c 07be
00000140: 4eaa e0bc db3b 5bbd 0c80 89bd 8cd6 49bd
00000150: 80d1 163e f327 89bc 2bea 4bbe b47e bcbd
00000160: 9b58 4abe fbb6 0f3e 67e8 353e 3615 8cbc
00000170: 8af8 6a3d 72d7 be3b 2424 f53b e859 fabc
00000180: a6d0 0dbe ed0b 943b 593e a3bc e658 ca3d
00000190: 1145 3d3d 8728 403c 2f82 9abd 632a 94bd
000001a0: 043e 1f3d ed98 433e 13c6 b53e cfb5 9a3c
000001b0: 9d4a 8b3c 00dc 083e d2de 9dbd b46d ed3d
000001c0: 5698 f93c f914 0f3e 952f 3cbb 286a 083e
000001d0: 34eb f5bc 5531 623c f429 023e 67c9 f33d
000001e0: b856 703d cd80 37be ee44 ddbd 992e 843e
000001f0: ca61 02bd 08da febd 6b7d 16bc 4de2 dabd
00000200: c18b b5bd 62af f8bc 508f 49bd 8b3b 26bc
00000210: 4c11 91bd dfe7 4a3e 35f6 c0ba 30e5 e5bc
00000220: 0c8b a1bd 57dd 6c3e 886a ddbc a933 21be
00000230: 5d52 04bd 3dd3 0eb9 0bca cbbd 0456 3bbd
00000240: 3d91 7ebd a4a5 1c3d e473 043e aafc 92bd
00000250: 396a cbbd 60e4 18be e011 953e b550 043e
00000260: e606 c63d 3063 033b e3a9 42bd 0b7c e03d
00000270: 9410 fabc 7c58 2a3e 4d1f a63d 9012 833c
00000280: 9d17 5b3d f7f4 ca3c 624b 0b3e 26a8 d4bd
00000290: bcd3 e13d 4db5 f4bd 8ba4 243c 5d0d 8f3d
000002a0: 3699 953d 2d2a de3d 074c e43c be26 663e
000002b0: 77c9 4a3e 7c5b 43be ac2d d2bd 6081 903d
000002c0: 8254 09be 7176 9d3c af46 01bc 003a 8e3c
000002d0: 0351 80bc 0191 7c3d 0447 493e 3634 c8bd
000002e0: 334b 213e dc72 92bd 7f01 58be 6eb1 943d
000002f0: 06de 8d3c 7a52 0abd 72df cc3d a6c7 863c
00000300: c71c 203e 079c 61ba e5a9 38bd 754c ccbd
00000310: c88b 033e a678 d73b b227 58bd f9a9 7a3e
00000320: c14c 82be 4176 173e d526 8b3d 3cd0 f13d
00000330: 024c 0e3d d03c 803d df72 fb3d f999 a8be
00000340: 7313 0abe 4d51 bb3d 557a 1f3e f9df 0bbe
00000350: b814 46bd 43e3 1bbe 70e7 77be 6fb3 1fbe
00000360: 7a57 6c3e 3277 d13d 3e68 e7bd e5cb 073e
00000370: 4e7e 673e 8bda cebc 5b1d 53bd b951 65bd
00000380: d9ac 0c3e 2031 ca3e 4888 bb3d 204c 473e
00000390: 5d78 043e 40a7 5cbd 42fb 8d3d 6b07 3dbe
000003a0: 8d20 59be 744c 103d 363e 173e fb39 783e
000003b0: 01c2 d03d d63a 6dbd 9776 77bd 2ec1 593e
000003c0: 23ba fa3c 7413 9d3d d308 19be ef2d abbd
000003d0: fc38 51bd 4840 d1bd 1a70 adbc e119 cf3d
000003e0: ef6b fc3d 824a 79bd 6c07 0c3e 3f9d 203e
000003f0: 32a5 003c 8bbf 1cbd 4fa6 82bd 7844 43be
-0.118639395 0.14383495 -0.05192085 -0.41300696 -0.121880986 0.19071485 0.0712622 -0.32603288
0.09187024 -0.0045051416 -0.2365631 0.077060625 0.15516777 0.23508227 -0.14822827 0.210678
-0.097170584 -0.15766802 0.0073473416 0.009641286 0.051370583 -0.17185222 0.33434105 0.23746054
0.1180291 -0.0058838692 0.040508833 0.35908774 0.1018575 -0.2689496 -0.0018943786 0.19236153
-0.18053497 -0.05766159 0.088204265 -0.076586254 0.08193741 0.012459166 0.14712054 -0.049476687
-0.16669129 0.048021 0.077063486 -0.044016298 0.10543472 -0.10690485 0.027803428 -0.29305503
0.033965115 -0.2536452 -0.14026949 0.19213143 0.0952513 0.047697365 0.29360282 -0.16723825
0.10820388 0.094853565 -0.008889985 0.211675 0.080316536 0.052223336 0.23508255 -0.383531
-0.13939029 -0.21093053 -0.024570813 0.040085513 -0.011995258 0.007381275 0.08137106 0.137329
-0.07725189 -0.13568915 -0.2279238 -0.18453972 0.17843884 -0.049853332 -0.0073884483 -0.13224795
-0.027424958 -0.05352388 -0.06713876 -0.049276873 0.14728355 -0.016742682 -0.19913547 -0.09203854
-0.19760363 0.14034645 0.17764436 -0.017099958 0.05736593 0.005824023 0.007481115 -0.030560449
-0.13849124 0.004518023 -0.01992719 0.09880237 0.046208445 0.0117284125 -0.07544362 -0.07234647
0.038877502 0.19101305 0.3550268 0.018885521 0.017003352 0.13365173 -0.07708515 0.1159319
0.030468147 0.13972844 -0.0028714885 0.13321745 -0.03001938 0.013805707 0.12711316 0.11903649
0.05867645 -0.17920227 -0.10804163 0.258168 -0.03183154 -0.1244393 -0.009185175 -0.10687695
-0.088645466 -0.030357067 -0.04920894 -0.010146032 -0.07083377 0.19815014 -0.0014721813 -0.028063387
-0.07887849 0.2313131 -0.027028337 -0.15742363 -0.03230511 -0.00013620868 -0.09950646 -0.045736328
-0.06215023 0.038243905 0.12934834 -0.07177098 -0.0993237 -0.14930868 0.291152 0.12921412
0.096692845 0.0020048134 -0.047525298 0.10961159 -0.030525483 0.16635317 0.08111439 0.016000062
0.053489316 0.024775011 0.13602975 -0.10383634 0.11026713 -0.11948643 0.010048996 0.06984971
0.07304613 0.10847888 0.027868284 0.22475716 0.19803415 -0.19077867 -0.102626175 0.07055926
-0.13411143 0.019221516 -0.007890387 0.01736164 -0.01566363 0.061661724 0.19655997 -0.097755834
0.15751342 -0.07150814 -0.2109432 0.072604045 0.017317783 -0.033770062 0.10003556 0.016452622
0.15635978 -0.0008606319 -0.0450839 -0.099755205 0.12846291 0.0065756617 -0.05277223 0.24478902
-0.25449184 0.14791204 0.06794516 0.11807296 0.034740455 0.06261599 0.12277769 -0.32929972
-0.13483982 0.09146366 0.1557401 -0.13659658 -0.048359603 -0.15223412 -0.2420938 -0.15595792
0.23080245 0.10227813 -0.112991795 0.13261373 0.22606775 -0.025250694 -0.051541667 -0.05598614
0.13737811 0.39490604 0.09156853 0.19462633 0.1293654 -0.05387044 0.06932689 -0.18459861
-0.21203823 0.03522916 0.14769825 0.24240868 0.10193253 -0.05791744 -0.06041583 0.21265098
0.030606335 0.07669726 -0.14944772 -0.083583705 -0.051079735 -0.10217339 -0.021171618 0.10112358
0.12325274 -0.06086207 0.13674706 0.15684985 0.007851886 -0.038268607 -0.06379377 -0.19069088

network_body._body_endoder.seq_layers.2.bias f4 [64]
00000000: cfc8 573d 4b8a 0e3d de31 aa3c c3da af3c
00000010: c4ad 3b3d 422c 973d 4d54 57bc bbbd f43c
00000020: f783 07bd 1c9c 263b 364b de3c bfaa eebc
00000030: 2939 563b 0520 093d e314 1cbc de8e d63c
00000040: c43b a1bc f36b a73c 731d df3c 5d77 493c
00000050: d076 ce3c a27b c23a 677f 7cbc 9d34 133c
00000060: c569 fbbb f5b5 773b cec6 fa3c 1122 cdbc
00000070: a5e0 573d 6bfd 303d 0ac3 263a 1394 013b
00000080: e6ff 17bb c10b 183d 33a5 343d efbd 6d3c
00000090: 5864 b8bc c75f 323c c5e1 843d ddbd 8b3c
000000a0: ebcb 2d3d faef 3a3c 89c9 303d a469 723c
000000b0: 8bcd 01bc 3c2c 5c3d bc29 bb3c c339 193c
000000c0: 3f01 973d 2ba4 2b3d f620 833b a310 843c
000000d0: a3b6 523d c46b a43c bcc0 5a3d a0e7 4e3d
000000e0: 9259 f73c 7888 083c 0d05 ebbb ede1 8bb7
000000f0: 3261 893c bef8 453d f5ec b03c 7e4f 94bc
0.05268174 0.034799855 0.020775732 0.021466618 0.045820013 0.073814884 -0.0131426575 0.029875627
-0.033084836 0.0025422638 0.027135473 -0.029134152 0.0032687879 0.0334778 -0.009526464 0.026191171
-0.019681819 0.020437216 0.027235722 0.012296525 0.025203139 0.0014837871 -0.015411234 0.008984712
-0.007672521 0.0037797664 0.030612376 -0.025040658 0.052704472 0.04321043 0.00063614605 0.0019772097
-0.00231933 0.037120584 0.04410286 0.014510616 -0.022508785 0.010887093 0.064883746 0.017058307
0.0424308 0.011409754 0.04316095 0.0147956945 -0.00792254 0.053753123 0.022847049 0.00935215
0.073732845 0.04190461 0.004001732 0.016121214 0.051443707 0.020070918 0.053406462 0.050513864
0.030194078 0.008333318 -0.007172233 -1.6675296e-05 0.01676998 0.048332922 0.021597365 -0.018104311

action_model._continuous_distribution.log_sigma f4 [1, 2]
00000000: 76aa 0b3e 3eb8 623e
0.13639244 0.22140595

action_model._continuous_distribution.mu.weight f4 [2, 64]
00000000: 5da2 fabd 26bf 3f3d 321a 863d c87c be3d
00000010: 5372 f23d d4ce 98bc b90d 9339 7d90 1ebd
00000020: 7a14 8fbd a035 02bc d29d 4dbd bf41 5cbc
00000030: 3b55 003d 2978 043d 9372 f83c 5beb c0bd
00000040: ac52 303d c572 ff3c 785c 163d 1023 0d3d
00000050: 8272 8d3d fbb3 86bd 8af4 c838 1052 10bc
00000060: d87c b33d 09a6 e93d 959b 363c 44f1 bbbd
00000070: 9765 cfbd 5c51 fdbd 36a2 45bd 45fb 90bd
00000080: e24f 86bd 83d2 e63d 26fd 323d 2468 073e
00000090: d4d1 403d d646 10be 459b fcbd 6c10 493d
000000a0: 954e 2fbd 1dbc 3ebc 7767 df3c af5e 8bbd
000000b0: ee8a 02bd f3d7 b7bc 9cbe babd c951 c9bc
000000c0: c512 abbd 51e6 18bd 8ed2 c3bc d56d 663d
000000d0: 6bdd e23d 37ef cb3d 869b 623d f8f6 a03a
000000e0: 2a14 293d 90fa 4dbd 6121 f1bd 4607 613d
000000f0: 18c3 cf3c 3233 1fbe 3fba 8bbd 16d1 eebc
00000100: 830d f33c 21ae 923d 272a a93d fd5c 553d
00000110: b777 43bd 87ba dc3c a8e3 4bbd 45e3 a8bd
00000120: 6b08 5fbd d561 633d a642 be3d c174 373d
00000130: 7083 1a38 bf16 b63d e5f4 7d3d da86 983d
00000140: 2914 1c3e 2065 64bb e424 813c 2314 033e
00000150: 0a1a ffbd 3672 053d ae28 633d fe51 a0bd
00000160: 30f2 ddbc 7cf1 ca3d e4bd e6bd 3f70 acbc
00000170: 76d6 aebd af0d 3dbd b7c3 e9bd d130 84bb
00000180: 9638 093d 0df3 c43c 2ebb fb3c 1ee8 273d
00000190: f425 c93d 17dd b7bd 3658 e83d f859 9a3d
000001a0: f6c2 793d 82e8 3abd 95c8 d13c 1764 103e
000001b0: 1753 803c a23a d1bd 73eb b9bc 2879 7cbd
000001c0: 9a8a e53d 7518 323d 70c8 14bc 4ed8 1abd
000001d0: 8dc8 00be b628 acbb c916 3cbd 80aa 3d3d
000001e0: 8b23 a8bd 09f6 9f3c 0a34 1ebd 1489 1bbd
000001f0: 6943 8a3d 5fbb 24ba fa5c 4abd 7e20 123d
-0.122379996 0.046813153 0.06547965 0.09301144 0.11838212 -0.01865331 0.0002804825 -0.038712014
-0.069863275 -0.0079473555 -0.050199337 -0.013443409 0.031331282 0.032341156 0.03032807 -0.094198905
0.043047592 0.031182656 0.03670928 0.034457266 0.06906606 -0.06577297 9.582292e-05 -0.008808628
0.087640464 0.11408622 0.011145492 -0.09176877 -0.101267986 -0.12369034 -0.0482504 -0.07079176
-0.06558205 0.11270621 0.043698452 0.1322332 0.047075108 -0.14089522 -0.12334303 0.049087927
-0.04279955 -0.011641529 0.027271016 -0.06805169 -0.031870775 -0.02244184 -0.09118387 -0.024575131
-0.083531894 -0.03732902 -0.023904111 0.056257088 0.110773884 0.09957736 0.0553241 0.0012280634
0.041278996 -0.050287783 -0.11773945 0.054938577 0.025361583 -0.15546873 -0.06822633 -0.029152434
0.029669529 0.07162119 0.08259993 0.052090634 -0.04772159 0.026944412 -0.049777657 -0.08246473
-0.054451387 0.05551322 0.09290056 0.04478908 3.6838872e-05 0.08891057 0.062001128 0.07447596
0.15242065 -0.0034850314 0.015764661 0.1280065 -0.124561384 0.032579623 0.055458717 -0.07828139
-0.027093023 0.09909341 -0.112666875 -0.021049617 -0.08536999 -0.046155628 -0.11414283 -0.0040341397
0.03350123 0.024041677 0.030728903 0.04099285 0.09821692 -0.089777164 0.1134495 0.075366914
0.060976945 -0.045631893 0.02560834 0.14100681 0.01566462 -0.102162614 -0.022695279 -0.06163898
0.11208077 0.043480355 -0.009080991 -0.03780394 -0.12576504 -0.0052538766 -0.045920167 0.04630518
-0.08209904 0.019526498 -0.038623847 -0.037972525 0.06751139 -0.0006284024 -0.049405076 0.03567552

action_model._continuous_distribution.mu.bias f4 [2]
00000000: ca09 d5bc 1010 1abc
-0.026005644 -0.009403244

action_model._discrete_distribution.branches.0.weight f4 [3, 64]
00000000: 445b 083d 3d37 00bd 2e89 02bd 863a eb3c
00000010: 25cf a33d bdfe c93c f945 98bc b037 a8bc
00000020: 3335 23bd e993 0fbd 8abb b93c aab3 553b
00000030: 51ac 473d c012 2b3d 9c03 83bd 0fe8 88bc
00000040: 0970 30bd e566 07bd d7fa 823c e1ce 98bc
00000050: ac01 453d 596e 2d3c d00b 003b 1c1b 36bd
00000060: 7888 41bd 460a 35bd 79f2 efbd 8cd3 303b
00000070: 90b5 5f3c a2f8 b5bd b88c 423d b602 073d
00000080: d82c d13d bd57 233d 5ded 89bb ce1a 4c3d
00000090: a5c3 6abb b132 ad3c cce9 64bc e7b5 2fbd
000000a0: 7f21 f2bc 9fb5 35bd 2593 1f3d e501 a63d
000000b0: 9205 583c fd42 36bd 0227 0c3c db54 dfbd
000000c0: bdd6 843c 3753 143d 4dec 68bd 9316 ff3d
000000d0: cd0f 52bd e911 50bd b904 e43d b46a 383b
000000e0: 0d5e 3d3b 66e5 0c3e bceb a63c 4e7b 743d
000000f0: eb16 a13d 03f8 b93c e66b 203d 817e 6bbd
00000100: 0cec b13c dc20 20be 8f81 3e3d d835 3bbd
00000110: 1285 27bb 8ed2 18be 2688 e53c c7de b8bd
00000120: a217 8e3c 5b92 1abd 32d5 4f3e a572 4b3c
00000130: e8e0 f03c 64d6 8b3c 4a94 503b 5781 b93d
00000140: 16a2 db3d c19c a5bd 02fc 823d 8d57 473d
00000150: d9ac 00bc 1e1e 41bc 4236 d2bc b327 83ba
00000160: 68e9 723d a124 d2bc 3741 683d 7de2 8ebd
00000170: 8fd4 e3bd 3a9e ad3d d4d0 39bc e215 3ebc
00000180: 2113 01be 1cf4 34bc f03a febd 051d d13a
00000190: e0d5 36bc a876 313d 0456 a93d 8760 943c
000001a0: 9bc9 1d3e 7994 b03d f412 afbd cfe9 c1bc
000001b0: ad33 e13c 9be4 65bc 166e a83d 886b 1bbe
000001c0: fc4c d03d 50f0 f13c c9a2 9c3d d438 a2bd
000001d0: ad82 103d 8111 373d a0c0 96be 7716 99bd
000001e0: 1e99 ce3c b6d2 95bd db40 2fbd 5b49 8ebb
000001f0: a98e 98bd 4bbb 0abd 24d8 9d3d 133a 993c
00000200: 6411 5abd 2a52 2c3e e7d2 953c 5bc8 113d
00000210: 41ed c7bd dc5c 8e3d f1b5 13bc 08f4 a73d
00000220: d8d7 013c 5ffe 8a3d 515a 8dbe b052 56bd
00000230: 7a68 58bd d23a 93bd 3c9b 603d 243d 59bc
00000240: 9cc6 fbbd f173 093e 521b f0bd 8877 9fbd
00000250: 7f61 a5bc 9dba a63c 5a5d dc3c 980e d23c
00000260: fc19 e03c ab84 e63d e9a6 883d 57ff 503d
00000270: 886f db3d ed40 5a3d 3046 6ebd 3540 a3bc
00000280: d6ca 7dbd 8358 51bc c37f d23d ea63 65bd
00000290: 623d 8f3c 8bba 97bc 4bee 89bd bf8d 2d3d
000002a0: b679 2bbe 6a57 6ebd b069 0d3d 7787 083c
000002b0: 2f21 81bc 2bf5 d23d e2a1 adbd 2619 583e
000002c0: 71c7 46be ecec 20be 8371 073c 1db4 57bd
000002d0: c598 6d3d 5911 a23a c2f3 0d3e 8002 cb3d
000002e0: 5360 0ebd ee27 d1bd 5679 873c a148 09bd
000002f0: d787 80bd 9eb3 6a3d 6d6a 1ebe 698d 173d
0.033290163 -0.03130268 -0.031869106 0.02871443 0.07998494 0.024657601 -0.018588053 -0.020534366
-0.039845657 -0.035053167 0.022672433 0.0032608309 0.048748318 0.04176593 -0.06397173 -0.016712217
-0.043075595 -0.033057112 0.01598875 -0.018653335 0.048097298 0.010585391 0.001953829 -0.044459447
-0.047249287 -0.04419925 -0.1171617 0.002698156 0.013654128 -0.088853136 0.04749748 0.03296157
0.102136314 0.039878596 -0.004209204 0.04983025 -0.003582218 0.021142336 -0.013971757 -0.042898085
-0.029556988 -0.04436266 0.038958687 0.0810583 0.013184922 -0.04449748 0.008554222 -0.10904857
0.016215676 0.036212172 -0.05686598 0.124554776 -0.0512846 -0.05079833 0.11133713 0.0028139772
0.002889517 0.13759384 0.020376079 0.059687905 0.078656994 0.022701269 0.0391654 -0.05749369
0.021719001 -0.15637535 0.046510275 -0.045705646 -0.0025561494 -0.1492407 0.028019022 -0.090268664
0.017345253 -0.03773723 0.20296171 0.01241747 0.029404119 0.017070003 0.0031826668 0.09057873
0.10724275 -0.08086539 0.06395723 0.04866748 -0.00785371 -0.011786966 -0.025660638 -0.0010006338
0.059304625 -0.025652232 0.05670282 -0.06976793 -0.11124527 0.08477445 -0.011341292 -0.011601897
-0.12604953 -0.011044528 -0.12413585 0.0015954083 -0.01115939 0.04332605 0.08268359 0.018112434
0.15408938 0.08622069 -0.08548537 -0.023671059 0.027490461 -0.014031555 0.08224122 -0.15177739
0.101709336 0.029533535 0.07648236 -0.07920995 0.035280872 0.044694427 -0.29443836 -0.07474988
0.025219496 -0.073155805 -0.04278646 -0.0043422407 -0.07449085 -0.033870023 0.07707241 0.01870445
-0.05323924 0.16828218 0.018289043 0.035591464 -0.097620495 0.06951305 -0.009015546 0.08200842
0.007924996 0.06786799 -0.27607968 -0.05232495 -0.05283401 -0.071889535 0.054835543 -0.013259206
-0.12293741 0.13423134 -0.11723961 -0.07786471 -0.020188091 0.020352656 0.026899982 0.025641724
0.02735614 0.11255773 0.066724606 0.05102476 0.10714632 0.053284574 -0.058172405 -0.019928077
-0.061961018 -0.0127774505 0.10278275 -0.05600349 0.017485324 -0.018521568 -0.06734904 0.042371508
-0.16745648 -0.058188833 0.03452462 0.008333079 -0.015762893 0.10300668 -0.08478142 0.21103343
-0.19412018 -0.15715379 0.008266809 -0.052662004 0.05800702 0.0012364789 0.13862517 0.09912586
-0.03475983 -0.10212694 0.01653735 -0.03351653 -0.062759094 0.057300203 -0.15470286 0.037000094

action_model._discrete_distribution.branches.0.bias f4 [3]
00000000: ae09 f23c 470d b1bc f0a8 86bc
0.029545631 -0.021612776 -0.016437978

action_model._discrete_distribution.branches.1.weight f4 [3, 64]
00000000: 7058 ba3b 9b7a bc3d e593 58bc 545b 88bd
00000010: f632 8cbb 4043 a6bd f04d 263d 7911 463c
00000020: 74b0 c23c 15f2 f33c d662 4e3c b4a0 d03c
00000030: 4e9a bdbc 29c8 ec3b 71a3 31bd 890f c2bd
00000040: 82ca 713d 5025 503d a6d6 f63c 6ec7 fa3c
00000050: d797 acbc 0269 273c 5c67 90bd 6baa d03c
00000060: dfb7 23bc 1124 953c 75b2 253d b579 8cbd
00000070: 20be 19bd 9bf4 a63d a6af 763c 3283 9bbc
00000080: 5081 28bc 05cf de3d 637a 41bc 5e7c da3c
00000090: d474 6b3d b033 86bd 67a6 413d dfed a7bc
000000a0: 0fc3 c7bc ac06 923a d61c 413c b9cf c0bc
000000b0: b3c5 2fbd 5e57 803d 3cdc b03c 8415 bc3d
000000c0: 6bca bcbb 02ed 0e3d feba 3a3d cf43 71bd
000000d0: 457e 8338 31c5 96bd 6268 3b3c 07d3 afbc
000000e0: 3cf8 71bc cae8 b7bd 7cf1 10bd 68de 42bc
000000f0: 87d8 09bd f52b c43a f19b e4bc 4a78 7b3b
00000100: ac81 1bbd e576 b33c a409 d83d 00f2 163e
00000110: 03c8 8ebd 7402 6d3e 1e37 4cbd f2ca 3fbe
00000120: ae49 2bbb 31ad acbc 8f63 a9bd b973 9d3c
00000130: 6dd3 183d c8d7 133e 8fd5 5a3d 43f1 e93c
00000140: 5a71 14bd edc9 bfbb 1bbf 28bd 3258 073d
00000150: cc6e b7bd 925f 483d 4964 be3c 15b1 65bc
00000160: aa2f 68bb 8130 4e3d ce8d ebbd a2a9 233d
00000170: d9f1 d33d dde6 29bd bc18 cbbd 5da1 0d3c
00000180: f691 f9bc 6e76 a6bd 4785 033e c249 a73c
00000190: 5fce b7bd 91d8 983d 5702 f9bd ded8 7a3a
000001a0: 6bfc 1a3e e797 a1bd c809 9b3d 0893 cf3c
000001b0: 7561 933c eb51 60bc bec8 b6bd 820f a1bd
000001c0: b13a 393e 6aa8 3fbe ac5a dc3d eb58 443d
000001d0: f33f abb9 0b6c cbbc 536c 67bd 5e3a 183e
000001e0: 7542 c3bd cb9b b5bb bd97 923d 9f72 aebd
000001f0: 6ee8 9f3d 0c38 31be 2f55 a7bd 3b38 51bc
00000200: 74ef 913c 91f2 1dbe 46ab 07be e84e cbbd
00000210: 3f14 a33d 7108 14be 6d0a fd3b 7d2b 013e
00000220: 7eb4 3dbc ea56 64bb a98a 573c 7174 40bd
00000230: 736e 1b3d 74d0 0bbe b3db 1cbc 765b 8a3d
00000240: 6ddb 9dbd 23d6 dfbd a072 383b 80f9 cebd
00000250: ccb3 9a3d d9c2 aabd f9c5 8b3d 9cc3 5ebc
00000260: ae00 b83c 7e7a 26bd 7e60 643d 0a94 1a3d
00000270: 3e4a 18bd 4aa2 dfbc 6fd8 c83d 48f0 513d
00000280: f556 923b 8d62 adbd dc0d 10be b7f7 02bd
00000290: 38c7 cf3c 414c 093c 4932 623d da37 de3c
000002a0: 4276 3ebe d0c9 923d 4961 abbd 0bd0 7fbc
000002b0: 96ec a33d 6d15 66bd e075 c23d fc9e 63bc
000002c0: d757 4cbe e8ac 203e c1f3 1dbe ccc5 11bc
000002d0: b9d1 df3c 3477 983d c1f0 783d 7282 19be
000002e0: 1736 003e 0fd0 d43d 61e3 5fbd 5528 6f3d
000002f0: 619e 91bd 34f0 1d3e baa1 b93d 3da0 29bc
0.005686812 0.09203073 -0.013218855 -0.066580445 -0.004278536 -0.08118296 0.04060167 0.012089127
0.02376578 0.02977852 0.0125968065 0.025467254 -0.023144867 0.0072260094 -0.04336876 -0.09475619
0.059031017 0.050816834 0.03013165 0.030612674 -0.021068497 0.010217907 -0.07050964 0.025471887
-0.009992569 0.018205674 0.040453393 -0.06859151 -0.037534833 0.081521235 0.015056526 -0.018983457
-0.010284737 0.108793296 -0.011808964 0.026670631 0.057484463 -0.06552827 0.047277834 -0.020499168
-0.024385003 0.0011140904 0.01178666 -0.02353655 -0.04291315 0.06266664 0.021589391 0.09183791
-0.005761435 0.034893997 0.045588486 -0.058902558 6.270086e-05 -0.0736183 0.011438461 -0.02146293
-0.014768656 -0.08979948 -0.035386547 -0.011893846 -0.033653762 0.0014966713 -0.02790639 0.0038371258
-0.03796546 0.02190728 0.10548714 0.14740753 -0.06971743 0.23145467 -0.04985725 -0.18729761
-0.0026136446 -0.021078678 -0.082709424 0.01922022 0.037311006 0.14437783 0.05342632 0.028557425
-0.036240913 -0.005852929 -0.041197877 0.033043094 -0.0895668 0.048919268 0.023241179 -0.01401927
-0.00354288 0.050339226 -0.115016565 0.039956696 0.10348863 -0.041479934 -0.09916827 0.008644429
-0.030465107 -0.081280574 0.1284381 0.020420913 -0.08974909 0.07463182 -0.121586494 0.0009569059
0.15135352 -0.07890301 0.07570225 0.025338665 0.017990807 -0.013691406 -0.08925007 -0.07864286
0.18088795 -0.18716589 0.10759482 0.04793636 -0.00032663308 -0.024831792 -0.05649979 0.14866015
-0.0953416 -0.0055422536 0.07157848 -0.08517956 0.07808004 -0.17306536 -0.08170544 -0.012769754
0.017814375 -0.15424563 -0.1324893 -0.099271595 0.07962846 -0.14456345 0.00772219 0.12614246
-0.011578677 -0.0034841844 0.013155618 -0.046986047 0.03794713 -0.13653737 -0.009573865 0.06755726
-0.07707868 -0.10929515 0.0028144494 -0.10106182 0.07553825 -0.083379455 0.0682487 -0.013596442
0.022461262 -0.04064416 0.055756085 0.037738837 -0.037180178 -0.027299065 0.098069064 0.05125454
0.0044659325 -0.08466063 -0.14067787 -0.03197452 0.02536355 0.008379997 0.055223737 0.027126241
-0.185998 0.07167399 -0.08368165 -0.015613566 0.080041096 -0.056172777 0.09495139 -0.013892885
-0.19955383 0.15690958 -0.15425016 -0.008897256 0.027321683 0.07444611 0.060776476 -0.14991167
0.12520634 0.103912465 -0.054660205 0.058388073 -0.071102865 0.15423661 0.0906405 -0.010353145

action_model._discrete_distribution.branches.1.bias f4 [3]
00000000: b2d0 da3c f9ac 20bc 0f55 edbc
0.026710842 -0.009806865 -0.028971223
